checkpoints/casp15_inhouse_top_v7_gcpnet_fold0.ckpt (torch, 236167 bytes, 288 tensors)

resnet_embedding.node_embedding.weight f4 [16, 19]
0	0xbd9d3a94	-0.076771885
1	0xbcfda659	-0.03096311
2	0x3da2dd9b	0.07952424
3	0xbde104ff	-0.10987281
4	0xbbb4e4d7	-0.005520444
5	0x3a740b40	0.00093095377
6	0xbd8620ab	-0.065492
7	0x3d74290a	0.05960945
8	0xbd2d22fa	-0.042269684
9	0xbd36c0c9	-0.044617448
10	0x3cc382a7	0.02386601
11	0x3dda8db2	0.106715575
12	0xbd2339f6	-0.039850198
13	0xbd5e2319	-0.05423269
14	0x3c98b513	0.01864103
15	0x3e1acd0f	0.15117286
16	0xbde49542	-0.11161281
17	0xbb3f9f0b	-0.0029239084
18	0xbd97a126	-0.074037835
19	0xbdda3b34	-0.10655823
20	0xbd993966	-0.07481651
21	0x3dd5e7c9	0.104446
22	0xbbcc0aa0	-0.0062268525
23	0xbde59743	-0.112104915
24	0xbd0ff5f8	-0.035146683
25	0xbda539a6	-0.08067636
26	0xbd82d08b	-0.06387433
27	0xbd988f21	-0.07449175
28	0x3da2e835	0.07954446
29	0xbdba786f	-0.09105002
30	0xbcb7dfdb	-0.02244561
31	0xbd93e223	-0.072208665
32	0x3de7df48	0.113218844
33	0xbd149d18	-0.03628263
34	0xbcbae964	-0.022816367
35	0x3d8d1da2	0.06890418
36	0xbdc7d181	-0.097567566
37	0xbdd85734	-0.10563508
38	0x3d9d2b98	0.076743305
39	0x3a7bcb65	0.0009605198
40	0xbd761152	-0.06007511
41	0xbd98fd63	-0.07470205
42	0x3dc1c05d	0.094605185
43	0x3ced0d5d	0.028937036
44	0xbd4f33fa	-0.050586678
45	0xbd4c824c	-0.04992895
46	0x3d97bd9c	0.07409212
47	0x3d3031a8	0.043016106
48	0x3d67b4ad	0.05656879
49	0x3d82f5a1	0.06394506
50	0xbd8dcb19	-0.069235034
51	0xbd77acf2	-0.060467668
52	0x3dd56973	0.104205035
53	0xbc4c9c30	-0.01248841
54	0xbbdcab12	-0.0067342604
55	0x3da3ef0f	0.08004581
56	0x3d601691	0.05470902
57	0x3dc56352	0.096380845
58	0x3de6589a	0.11247368
59	0x3d8f44ea	0.06995566
60	0x3e0075f0	0.1254499
61	0xbd07c1bf	-0.033143755
62	0xbbd40387	-0.006470147
63	0x3db0ef87	0.08639436
64	0x3d86d746	0.06584029
65	0x3dd4a4ce	0.103829965
66	0xbd802337	-0.06256717
67	0xbda315ac	-0.07963118
68	0x3cf4d5df	0.029887138
69	0xbd358cf7	-0.044323888
70	0x3dd0feb4	0.10204831
71	0xbdd05a29	-0.10173447
72	0xbaf1db54	-0.0018452206
73	0xbd250839	-0.040291045
74	0xbc3b5d34	-0.011435796
75	0xbd688af9	-0.05677316
76	0xbdc685cb	-0.09693488
77	0xbde73ddb	-0.11291095
78	0xbdff631f	-0.12470078
79	0xbe0705fd	-0.13185878
80	0xbd127200	-0.03575325
81	0x3dcac1ed	0.0990027
82	0xbcd4d660	-0.025981128
83	0xbca05e8b	-0.019576332
84	0x3da99d37	0.082819395
85	0xbc62ea34	-0.013849784
86	0xbe08db3e	-0.13364884
87	0x3d8177d7	0.06321686
88	0xbdbca8c2	-0.092118755
89	0xbd95c678	-0.073132455
90	0xbdac7185	-0.0842009
91	0xbe0eabf1	-0.13932778
92	0xbc84f76b	-0.01623126
93	0xbc772509	-0.015084513
94	0xbd2e5d65	-0.042569537
95	0xbc3a95c9	-0.011388251
96	0xbdb57c7e	-0.088616356
97	0x3e0cbf63	0.13744883
98	0xbce005ac	-0.027346455
99	0x3de02fb7	0.10946601
100	0xbdc394d1	-0.09549869
101	0xbc88c313	-0.016694581
102	0x3d90d022	0.07070948
103	0x3de68fbd	0.11257885
104	0x3c6e21f9	0.014534467
105	0x3dfcdd88	0.12346941
106	0xbe09ce74	-0.13457662
107	0x3da49701	0.08036614
108	0xbb297ddb	-0.002586237
109	0x3cc34783	0.02383781
110	0xbda4567e	-0.080243096
111	0xbccd44d8	-0.025057241
112	0xbd806916	-0.062700436
113	0xbd8f1941	-0.06987239
114	0x3c02561c	0.0079551
115	0xbd0bf01d	-0.034164537
116	0x3d59db43	0.05318762
117	0xbdd25859	-0.10270757
118	0xbd21713a	-0.039414622
119	0xbd958952	-0.073015824
120	0x3dded2ee	0.108800754
121	0xbd0d7aee	-0.034541063
122	0xbc9484f5	-0.018129805
123	0xbdf42893	-0.119218014
124	0xbda891a2	-0.08230902
125	0x3d76fef1	0.060301725
126	0xbd4ceed5	-0.050032455
127	0x3c0135bb	0.0078863455
128	0x3cb3e770	0.021960944
129	0x3cb255ec	0.021769486
130	0x3c308b11	0.0107753435
131	0xbd162f95	-0.03666647
132	0xbd6b53cc	-0.05745296
133	0x3dfbd39d	0.122962214
134	0x3df9b279	0.12192244
135	0xbbc724e8	-0.0060773976
136	0xbc36c64d	-0.011155677
137	0x3d01fba0	0.03173411
138	0xbd69eb72	-0.057109304
139	0xbdd37cce	-0.10326539
140	0x3daf8f45	0.08572248
141	0x3d33ea13	0.043924402
142	0xbd586043	-0.052826177
143	0x3da2b445	0.0794454
144	0x3d6e7b7c	0.058223233
145	0xbdb43d32	-0.088007346
146	0xbda216a3	-0.07914474
147	0xbde634b9	-0.11240525
148	0xbcbc1b14	-0.02296213
149	0x3df3b3d2	0.118995324
150	0x3ddb9d36	0.10723345
151	0xb8b6431a	-8.690935e-05
152	0xbdd7c7a4	-0.10536125
153	0x3d3d11e1	0.04615963
154	0xbdc7810f	-0.09741413
155	0x3c4c9f45	0.012489145
156	0x3d27b09d	0.040939916
157	0xbddddda3	-0.108332895
158	0x3d05ffa6	0.03271451
159	0xbdb9038a	-0.09033878
160	0xbd3a6426	-0.045505665
161	0x3b480a24	0.0030523622
162	0xbddceea6	-0.10787706
163	0x3cefb3e7	0.029260589
164	0x3db25eda	0.08709498
165	0x3d00144d	0.03126936
166	0xbcebc2ba	-0.028779376
167	0x3d92155b	0.071329795
168	0xbd07ab98	-0.03312263
169	0xbd51f70a	-0.051260985
170	0xbd9207b3	-0.07130375
171	0x3d136f8d	0.035995055
172	0x3d8822dc	0.06647274
173	0x3d97bbb3	0.07408848
174	0x3dfdac3e	0.12386368
175	0xbd318c3d	-0.043346632
176	0xbd07b102	-0.033127792
177	0x3d8f9bb0	0.07012117
178	0xbd23eb03	-0.040019047
179	0x3d932a93	0.07185855
180	0x3daaa4e2	0.0833223
181	0xbda40f10	-0.080106854
182	0x3dd5df52	0.104429856
183	0x3da585b3	0.08082142
184	0xbd5bfc27	-0.053707268
185	0x3cab5a4f	0.020917086
186	0x3d644e38	0.055738658
187	0xbd5c7ec8	-0.053831846
188	0x3ddf4ad0	0.10902941
189	0xbdd7b550	-0.105326295
190	0x3de80a0f	0.113300435
191	0x3d7972c3	0.06090046
192	0x3d9f7a8b	0.07787045
193	0x3e045f34	0.12926942
194	0x3d7a63f1	0.061130468
195	0xbd909bd9	-0.070609756
196	0xbced4d45	-0.028967509
197	0x3b696b0c	0.0035616783
198	0xbd92fbfc	-0.071769685
199	0xbb974273	-0.0046160757
200	0x3dd072c4	0.1017814
201	0xbd2e9fbf	-0.042632814
202	0x3d2aaa1e	0.041666143
203	0xbde0aaf5	-0.109701075
204	0x3d55970c	0.052146003
205	0xbdf7b38f	-0.12094795
206	0x3d84e25b	0.064884864
207	0xbc895dd7	-0.01676838
208	0x3c8ac70a	0.016940612
209	0xbde9a786	-0.11408906
210	0xbdabb1c1	-0.08383513
211	0xbddafab3	-0.10692348
212	0xbde90fa5	-0.11379937
213	0xbd350971	-0.044198457
214	0x3dd08bde	0.101829275
215	0xbd760497	-0.06006297
216	0x3d8c950c	0.06864366
217	0x3d93145c	0.071816176
218	0x3d9d3570	0.07676208
219	0x3de13978	0.109972894
220	0xbd7a2e18	-0.061079115
221	0x3c3cc7c7	0.01152224
222	0xbdd28074	-0.10278407
223	0x3dc3b463	0.095558904
224	0xbd802eda	-0.06258936
225	0x3da9c8f8	0.08290285
226	0x3dd74ab9	0.10512299
227	0x3e07da65	0.13266905
228	0xbba03eca	-0.0048902975
229	0x3d842bcd	0.06453667
230	0xbcfaefc4	-0.030631907
231	0x3dc3f612	0.095684186
232	0xbd1cb1cf	-0.03825551
233	0xbb007c51	-0.0019605348
234	0x3dc45f03	0.095884345
235	0xbd86092a	-0.06544717
236	0xbd959827	-0.073044114
237	0x3dc589e5	0.09645442
238	0x3d89aeb6	0.067227766
239	0xbca739a3	-0.020413226
240	0xbb85ca33	-0.004082942
241	0x3c50ab7e	0.012736199
242	0x3dbdfea7	0.09277087
243	0x3d817a8b	0.06322201
244	0xbd92e76a	-0.07173045
245	0x3b746eb7	0.0037297437
246	0x3db7a7f9	0.08967585
247	0x3d3f677a	0.046729542
248	0xbd7fc393	-0.062442373
249	0xbc62e737	-0.013849071
250	0xbe0cf460	-0.13765097
251	0xbda335ad	-0.07969222
252	0xbdabe012	-0.083923474
253	0x3db9263f	0.09040498
254	0x3c440ddd	0.011966196
255	0xbdc1acb6	-0.0945677

resnet_embedding.node_embedding.bias f4 [16]
0	0xbd839168	-0.064242184
1	0xbdcf4f80	-0.10122585
2	0xbd2d0e2a	-0.042249836
3	0xbd5e80f1	-0.054322187
4	0x3dbc3aff	0.0919094
5	0xbd126160	-0.035737395
6	0xbd718eb3	-0.05897398
7	0x3cc5ec68	0.024160579
8	0xbd8f8b92	-0.07009043
9	0x3d476b67	0.04868641
10	0xbdb6c4b4	-0.08924237
11	0x3d7466c4	0.059668317
12	0xbdb3a6c2	-0.08772041
13	0xbdb4c2d4	-0.08826223
14	0x3db2d0f6	0.087312624
15	0xbdfab5eb	-0.12241729

resnet_embedding.bn_node.weight f4 [16]
0	0x3f116f20	0.5681019
1	0x3f1359fe	0.5755919
2	0x3f11a1c5	0.56887466
3	0x3f11677c	0.5679853
4	0x3f11dc50	0.56976795
5	0x3f116066	0.5678772
6	0x3f124aa7	0.5714516
7	0x3f125328	0.57158136
8	0x3f110cda	0.56660235
9	0x3f124813	0.57141227
10	0x3f1282f1	0.5723105
11	0x3f117b63	0.568289
12	0x3f123e74	0.57126546
13	0x3f124ccb	0.57148427
14	0x3f11d489	0.5696493
15	0x3f112b32	0.56706536

resnet_embedding.bn_node.bias f4 [16]
0	0xb9f7dae7	-0.00047274606
1	0x3b95b3e6	0.0045685647
2	0xbb1e3e0c	-0.002414587
3	0xbb12c157	-0.0022393072
4	0xbc38541d	-0.011250523
5	0xbb0850f1	-0.0020800198
6	0x3b697fcd	0.0035629154
7	0x3b3d89c5	0.0028921228
8	0x3b091430	0.0020916574
9	0x3b65e5be	0.0035079564
10	0x3b6fc9b0	0.003658872
11	0xbb288e41	-0.0025719556
12	0xba0a7860	-0.00052822195
13	0x3b4190e3	0.0029535822
14	0xb9d9ccd7	-0.00041542083
15	0xb9e63af2	-0.00043912936

resnet_embedding.bn_node.running_mean f4 [16]
0	0xbe4d2a73	-0.20035724
1	0xbef9a316	-0.48757237
2	0x3e027362	0.12739328
3	0x3e23f751	0.16012312
4	0xbeaadc73	-0.33371314
5	0x3d101f07	0.03518584
6	0xbe9d2bc3	-0.3069745
7	0x3e09ad3b	0.13444988
8	0xbea63860	-0.32464886
9	0x3e88abc8	0.2669356
10	0x3afe2f26	0.0019392713
11	0x3e3f98bf	0.18710612
12	0x3e0afc32	0.13572767
13	0xbebb86bb	-0.3662623
14	0x3e99332b	0.2992185
15	0xbcdc349e	-0.026880559

resnet_embedding.bn_node.running_var f4 [16]
0	0x3c00d9b3	0.007864404
1	0x3cf7b47b	0.030237427
2	0x3c1c3148	0.009533234
3	0x3c5f3429	0.013623276
4	0x3d0223dc	0.03177248
5	0x3c207276	0.009792915
6	0x3c396afe	0.011317013
7	0x3c9b4271	0.01895258
8	0x3cb04962	0.021519367
9	0x3c4b6b5e	0.012415735
10	0x3cbf005b	0.0233156
11	0x3c78fd1c	0.015197065
12	0x3c0821e3	0.0083088605
13	0x3c9214ad	0.017832125
14	0x3c8aeb0a	0.016957778
15	0x3c6ca7e7	0.014444328

resnet_embedding.edge_embedding.weight f4 [16, 4]
0	0x3d8f10ca	0.06985624
1	0x3e56c697	0.20974194
2	0x3e3c535f	0.18391179
3	0xbe8c4402	-0.27395636
4	0x3e840ff4	0.2579342
5	0xbe27075a	-0.16311398
6	0x3e850b34	0.2598511
7	0x3e01bd87	0.12669955
8	0x3cff5124	0.03116662
9	0xbdb0deb3	-0.086362265
10	0xbe70109f	-0.2344384
11	0xbd2186f4	-0.039435342
12	0x3e0f0be5	0.13969381
13	0xbe74efaf	-0.23919557
14	0xbe5f11b1	-0.21784092
15	0x3dbba146	0.0916162
16	0xbe8a7314	-0.27040923
17	0xbe7304bc	-0.23732275
18	0xbe7bf45b	-0.24604933
19	0x3e1f45b2	0.1555393
20	0xbe85bb2f	-0.26119372
21	0x3e7f684f	0.24942134
22	0xbe8d66e3	-0.2761756
23	0x3d8868a5	0.06660584
24	0x3e0722f1	0.13196923
25	0xbd87ed97	-0.066371135
26	0xbe031bfb	-0.12803642
27	0x3e336e97	0.17522655
28	0xbe8f72c5	-0.2801725
29	0xbdba233c	-0.09088752
30	0xbe811baf	-0.25216433
31	0xbde426bb	-0.111402
32	0xbdbec12e	-0.0931419
33	0xbe694447	-0.22779952
34	0xbde03a24	-0.109485894
35	0xbd29de9c	-0.041472062
36	0xbdfacf42	-0.122465625
37	0x3e8acc84	0.27109158
38	0x3da1a12d	0.0789207
39	0x3dc7e161	0.097597845
40	0xbce95ee8	-0.028487638
41	0xbd417c22	-0.047237523
42	0x3e397e64	0.1811462
43	0x3d06ed6b	0.032941263
44	0x3d9f52b1	0.07779444
45	0xbdda6810	-0.106643796
46	0xbe29ba9f	-0.16575097
47	0x3d8b285b	0.067948066
48	0xbd726995	-0.059182722
49	0x3e0dd609	0.13851179
50	0xbd0b5cc9	-0.034024034
51	0x3e496b2d	0.1966979
52	0x3e37d6cb	0.17953031
53	0xbe56f407	-0.20991527
54	0xbdadf9a3	-0.0849488
55	0x3e1bb2c3	0.15204911
56	0xbdac3269	-0.084080525
57	0xbde5bfea	-0.11218245
58	0x3e50cf51	0.20391585
59	0xbda77eaa	-0.08178456
60	0xbda82f92	-0.08212198
61	0xbe5ad2d6	-0.2136949
62	0x3e78d01e	0.2429814
63	0xbd54c6e6	-0.051947497

resnet_embedding.edge_embedding.bias f4 [16]
0	0x3e2d0856	0.16897711
1	0xbdc9ccdb	-0.09853526
2	0xbc3c5e92	-0.011497157
3	0x3e166ca4	0.1468988
4	0x3db63f32	0.08898772
5	0x3e8b6b8a	0.27230483
6	0x3e5b93bb	0.21443073
7	0x3e6d357b	0.23164932
8	0x3d2f3164	0.042771712
9	0x3d598305	0.053103466
10	0x3e19ab3a	0.15006724
11	0x3e882ddd	0.2659749
12	0x3d933cbd	0.07189319
13	0xbe32942a	-0.17439333
14	0x3e36bdcc	0.1784584
15	0x3e903d1b	0.2817162

resnet_embedding.bn_edge.weight f4 [16]
0	0x3f11db5a	0.5697533
1	0x3f11daef	0.5697469
2	0x3f11dc35	0.56976634
3	0x3f11dca6	0.5697731
4	0x3f11dae6	0.5697464
5	0x3f11da17	0.56973404
6	0x3f11dbad	0.56975824
7	0x3f11da03	0.56973284
8	0x3f11dcd8	0.56977606
9	0x3f11db9c	0.5697572
10	0x3f11db0e	0.56974876
11	0x3f11db60	0.56975365
12	0x3f11d9f7	0.5697321
13	0x3f11dbc9	0.5697599
14	0x3f11dbb9	0.56975895
15	0x3f11dc1b	0.5697648

resnet_embedding.bn_edge.bias f4 [16]
0	0xb5b2dba6	-1.332596e-06
1	0xb72daafb	-1.0351413e-05
2	0x378ee605	1.703483e-05
3	0x37b181b0	2.1160435e-05
4	0xb75ec8d3	-1.3278989e-05
5	0xb6bcdb5c	-5.6283734e-06
6	0x36f88e13	7.4075156e-06
7	0xb7b33438	-2.1362779e-05
8	0x38057309	3.1816806e-05
9	0x367211f7	3.6071267e-06
10	0xb72c2689	-1.0260971e-05
11	0x36bb6072	5.584262e-06
12	0xb647d313	-2.9776172e-06
13	0x378bda4a	1.667174e-05
14	0x37eca21f	2.8208886e-05
15	0x37a8d3c9	2.012578e-05

resnet_embedding.bn_edge.running_mean f4 [16]
0	0x3ebd0c69	0.3692353
1	0x3dea92b5	0.114537634
2	0xbe2cc818	-0.16873205
3	0xba3a2cf5	-0.0007102036
4	0xbe940a02	-0.28913885
5	0x3e01d4a8	0.12678778
6	0x3e5bfddf	0.21483563
7	0xbdf975fd	-0.121807076
8	0xbe463462	-0.1935592
9	0x3e3eaf6c	0.18621606
10	0x3e562940	0.20914173
11	0x3e35c76a	0.17751852
12	0x3e027d80	0.12743187
13	0xbe520a88	-0.2051183
14	0x3e290efc	0.16509622
15	0x3e76c135	0.2409714

resnet_embedding.bn_edge.running_var f4 [16]
0	0x3d075e4a	0.033048905
1	0x3c912f46	0.017722737
2	0x3c2f680d	0.01070596
3	0x3c77d0ee	0.015125496
4	0x3d7c5dfb	0.061613064
5	0x3c274d1c	0.010211255
6	0x3bdc5095	0.0067234733
7	0x3d33c2c8	0.04388693
8	0x3ca6765a	0.020320106
9	0x3bf98c63	0.0076156124
10	0x3b1bcf62	0.0023774733
11	0x3bc79aeb	0.0060914657
12	0x3bae8b44	0.0053266603
13	0x3be98c8a	0.0071273493
14	0x3b49cc58	0.0030791964
15	0x3b71b8ad	0.0036883757

graph_transformer_layer.0.attention.Q.weight f4 [16, 16]
0	0x3e099f8f	0.13439773
1	0xbe002780	-0.12515068
2	0x3cfd7301	0.030938627
3	0x3d9d2a53	0.07674088
4	0xbd9f95c2	-0.07792236
5	0x3df5e723	0.120069765
6	0xbddfba1a	-0.10924168
7	0x3cac48f9	0.02103089
8	0xbdd03bc4	-0.101676494
9	0x3dd8347a	0.10556884
10	0xbd1d86e0	-0.038458705
11	0x3d42b581	0.047536377
12	0x3cb16c80	0.021658182
13	0xbd8012e6	-0.062536046
14	0x3c78e9f2	0.015192496
15	0xbde5c967	-0.11220055
16	0x3d359d76	0.04433962
17	0xbd2c5f48	-0.042083055
18	0x3de4528f	0.11148559
19	0x3c86d262	0.01645774
20	0xbd06fb3f	-0.03295445
21	0xbd6be46a	-0.05759088
22	0x3d023528	0.031788975
23	0x3db4e3c6	0.08832507
24	0xbda7e6bd	-0.08198307
25	0xbe09ff6f	-0.13476346
26	0xbe02b1af	-0.12763093
27	0x3df219b2	0.11821307
28	0xbc540c99	-0.012942457
29	0xbd48e808	-0.049049407
30	0xbd65eca4	-0.05613388
31	0x3dfadc52	0.12249054
32	0xbd1dee0a	-0.03855709
33	0x3dda1887	0.106492095
34	0xbd89b545	-0.067240275
35	0xbde4e26f	-0.11176001
36	0x3da60c8c	0.08107862
37	0x3db7722d	0.08957324
38	0xbd122d2e	-0.035687618
39	0xbd186bf7	-0.03721234
40	0x3d021267	0.03175583
41	0x3e0e8a8a	0.13920036
42	0xbd300753	-0.042975735
43	0xbd0827c0	-0.033241034
44	0xbc236453	-0.00997265
45	0xbdd2181a	-0.10258503
46	0xbc9a7ab1	-0.018857332
47	0xbe0e1a8b	-0.13877313
48	0xbbed513e	-0.007242351
49	0x3d98ed93	0.07467189
50	0x3d197ab4	0.037470534
51	0x3cf8a21f	0.030350743
52	0xbdedbeb8	-0.11608642
53	0x3d8aef51	0.06783927
54	0x3d98f0f6	0.07467835
55	0xbd460d61	-0.048352603
56	0xbdd2bc9c	-0.10289881
57	0xbd2028a0	-0.039101243
58	0x3d2ab6fe	0.04167842
59	0xbce06a3f	-0.027394412
60	0x3d498d7b	0.049207192
61	0xbdad9388	-0.08475405
62	0xbda45a85	-0.08025078
63	0x3dfb8309	0.12280852
64	0x3d458614	0.04822357
65	0x3da6faf9	0.08153338
66	0xbd8cb5a1	-0.068705805
67	0x3e0a1c33	0.1348732
68	0xbe0a7f6c	-0.1352517
69	0xbd99951b	-0.07499143
70	0xba266636	-0.0006347628
71	0x3d656221	0.056001786
72	0x3db8b7ec	0.09019455
73	0xbceb19bf	-0.0286988
74	0x3d4afc25	0.04955687
75	0x3dcc7bbc	0.09984538
76	0xbdf71865	-0.120652
77	0xbd8caf51	-0.068693765
78	0xbdc8489b	-0.097794734
79	0x3d8e2c98	0.06942099
80	0x3c92d4f2	0.017923806
81	0xbcf27bec	-0.029600106
82	0x3dc74577	0.09730046
83	0xbd46cf40	-0.048537493
84	0x3da68e8d	0.08132658
85	0xbd68dbe0	-0.056850314
86	0x3d91a682	0.07111837
87	0x3dfe8325	0.124273576
88	0x3d957295	0.072972454
89	0xbe02c461	-0.12770225
90	0x3e02b161	0.12762977
91	0x3d1de24e	0.0385459
92	0xbe01f765	-0.1269203
93	0xbde61e63	-0.112362646
94	0xbd8f2965	-0.06990317
95	0xbced656b	-0.028979024
96	0x3c9df897	0.019283576
97	0xbdbf9cac	-0.09356055
98	0xbb83a107	-0.0040169987
99	0xbc9e59cf	-0.019329933
100	0xbd8626ce	-0.0655037
101	0x3d3188bf	0.0433433
102	0x3b08a6e6	0.0020851432
103	0x3dc8a12f	0.09796368
104	0xbdd93dde	-0.10607503
105	0x3b057512	0.0020363969
106	0xbe1088a6	-0.14114627
107	0xbdc9a7ba	-0.098464444
108	0xbd6451eb	-0.055742186
109	0xbdac0795	-0.08399884
110	0x3da4f794	0.08055034
111	0xbde72ea5	-0.112881936
112	0x3dc62bfa	0.096763566
113	0x3d9f630c	0.077825636
114	0x3e0d1359	0.13776912
115	0xbd467f23	-0.04846109
116	0xbafda20d	-0.0019350663
117	0xbde30fe4	-0.11087015
118	0xbd1dba34	-0.038507655
119	0xbc9e0227	-0.019288136
120	0xbc6e90b8	-0.014560871
121	0x3de73005	0.11288456
122	0x3d8f3a1a	0.06993504
123	0xbdbd197d	-0.09233377
124	0x3de31a3c	0.11088988
125	0x3da44cf2	0.08022489
126	0xbd8b1e4e	-0.067928895
127	0xbd8964d1	-0.06708682
128	0x3c6e8e9b	0.014560367
129	0xbd25436e	-0.04034751
130	0x3d1d6d4b	0.038434308
131	0x3d98b442	0.074562564
132	0x3e0ac9a8	0.13553488
133	0xbd3b6c98	-0.04575786
134	0xbda52ca5	-0.08065156
135	0xbda40920	-0.08009553
136	0xbd125b8d	-0.03573184
137	0x3ce8bc33	0.028410053
138	0x3e07dd28	0.13267958
139	0xbc96af26	-0.018394064
140	0x3decb656	0.11558215
141	0xbddf4cf0	-0.109033465
142	0xbdcf2d10	-0.10116017
143	0xbd9f5f5e	-0.07781862
144	0xbd9c438a	-0.076300696
145	0xbddfa696	-0.109204456
146	0xbd6bab95	-0.05753668
147	0xbd9b3137	-0.07577746
148	0xbd5459c8	-0.051843435
149	0x3d5893c0	0.05287528
150	0x3dcdcdf3	0.10049047
151	0x3c42636a	0.0118645225
152	0x3dfe3ede	0.12414335
153	0x3de22636	0.110424444
154	0xbe0f99d5	-0.14023526
155	0x3db257b5	0.08708135
156	0xbd125a04	-0.035730377
157	0x3c6d8308	0.014496572
158	0xbdb6c97b	-0.08925148
159	0x3cfc96dc	0.030833654
160	0xbd5338e4	-0.051567927
161	0xbcb45683	-0.022013908
162	0xbd64f08d	-0.05589347
163	0xbe05ec69	-0.13078465
164	0xbc8d5ca8	-0.017256096
165	0xbd55a3f4	-0.05215831
166	0x3ddd6ba0	0.108115435
167	0xbc9b67e6	-0.018970441
168	0xbd9a056e	-0.07520567
169	0xbde0ca36	-0.10976069
170	0x3dbeaef3	0.09310713
171	0xbdc67819	-0.096908756
172	0x3dd16b95	0.10225598
173	0xbdcefbff	-0.10106658
174	0x3bd9620b	0.006634002
175	0xbd7d6824	-0.061866894
176	0xbdbddfb5	-0.09271184
177	0xbbb36d74	-0.0054756943
178	0x3d57d8ff	0.052697178
179	0xbd0ee88f	-0.034889754
180	0x3df60a86	0.12013726
181	0x3d017d42	0.031613596
182	0x3d3a58e6	0.045494936
183	0x3dfab996	0.12242429
184	0xbce2803e	-0.027649041
185	0xbdbf6978	-0.093462884
186	0xbd47f315	-0.048815805
187	0x3da8a9b3	0.082354926
188	0xbdbf2f9b	-0.09335252
189	0x3d126b1a	0.03574667
190	0x3d2706ac	0.040777847
191	0x3ccc59cb	0.02494516
192	0xbc5c4135	-0.013443281
193	0x3dfbf9f3	0.123035334
194	0xbe009322	-0.12556127
195	0xbdc95fc8	-0.09832722
196	0xbdf044b7	-0.11731856
197	0x3c4a34cc	0.012341689
198	0xbda04b3f	-0.07826852
199	0xbdfe68e9	-0.12422354
200	0xbd6dc7d3	-0.058051895
201	0xbd73ea1d	-0.05954944
202	0x3bc59ab0	0.006030403
203	0x3de25aa5	0.11052445
204	0xbc91d7ea	-0.017803151
205	0xbca8e22b	-0.020615658
206	0x3d9007d4	0.07032743
207	0x3dfa41e3	0.12219598
208	0x3dda5b6b	0.10661968
209	0x3d304490	0.043034136
210	0xbe0c88fb	-0.13724129
211	0x3e041961	0.12900306
212	0xbd050c26	-0.03248229
213	0xbe0b79da	-0.13620701
214	0x3db0dde6	0.08636074
215	0x3c7fd397	0.015614412
216	0x3e08689e	0.13321158
217	0x3e05e192	0.1307433
218	0xbda1f3db	-0.0790784
219	0x3dd9ab0c	0.10628328
220	0xbcfc39cb	-0.030789277
221	0xbd8060ed	-0.06268487
222	0xbdfc3d29	-0.12316353
223	0x3d83aae2	0.06429078
224	0x3d87f441	0.066383846
225	0x3dfca115	0.123354115
226	0x3d8a2e48	0.06747109
227	0xbe010a76	-0.12601647
228	0x3cb365ab	0.021899065
229	0x3dc9b369	0.09848673
230	0xbe05c804	-0.13064581
231	0x3e06684d	0.13125725
232	0xbe10423f	-0.14087771
233	0x3defa572	0.11701478
234	0xbc381d3b	-0.011237438
235	0x3ce783be	0.028261062
236	0xbd38be39	-0.045103285
237	0x3c88d701	0.016704084
238	0xba3d7be8	-0.00072282413
239	0xbd718f62	-0.05897463
240	0x3d3e82db	0.046511512
241	0x3c8e439f	0.017366229
242	0xbd145779	-0.036216233
243	0xbd500f43	-0.050795805
244	0xbe0dd92e	-0.13852379
245	0x3d579545	0.05263259
246	0x3dda6132	0.1066307
247	0xbd91fcf7	-0.07128327
248	0x3d853fb6	0.065062925
249	0x3d90b244	0.070652515
250	0xbc41a2ec	-0.011818629
251	0xbdb2db50	-0.08733237
252	0x3cb8f572	0.022577975
253	0xbb30736f	-0.0026924273
254	0xbd9858f2	-0.0743884
255	0x3b1d7530	0.0024026148

graph_transformer_layer.0.attention.Q.bias f4 [16]
0	0x3dbdcde5	0.09267787
1	0x3ccf3955	0.025295893
2	0xbdbdb197	-0.09262388
3	0xbce9b988	-0.028530851
4	0x3c1f208e	0.0097123515
5	0x3dddf72f	0.10838162
6	0x3ddb1541	0.10697413
7	0xbd587a95	-0.05285128
8	0x3dbd14ad	0.09232459
9	0xbda4647c	-0.080269784
10	0x3d9020f1	0.07037533
11	0x3cecb55a	0.028895069
12	0x3dd2fc21	0.10301996
13	0xbcbbf308	-0.022943035
14	0xbdb12f75	-0.0865163
15	0xbd9d364d	-0.07676373

graph_transformer_layer.0.attention.K.weight f4 [16, 16]
0	0xbdd6ef7b	-0.10494896
1	0xbcdf1edc	-0.027236395
2	0x3b75ca90	0.003750477
3	0xbdea1beb	-0.11431106
4	0x3c8bc6dd	0.017062599
5	0x3d9853de	0.074378714
6	0x3dd97457	0.10617893
7	0x3dd5b2ff	0.104345314
8	0xbdbcb620	-0.09214425
9	0xbccd19f6	-0.025036793
10	0xbd7d550c	-0.061848685
11	0x3d7d16ad	0.061789203
12	0x3e0a852d	0.13527365
13	0xbca7c624	-0.020480223
14	0xbdb5adc3	-0.08871033
15	0x3d2a09a0	0.041513085
16	0xbbe2bbaa	-0.006919344
17	0x3e03d94d	0.12875862
18	0x3daff6eb	0.08592018
19	0x3c999696	0.018748563
20	0x3adf761d	0.001704875
21	0x3b55539f	0.0032551063
22	0x3dc0bc19	0.09410877
23	0xbd660aa1	-0.05616248
24	0xbdc94f93	-0.09829631
25	0x3d3387e4	0.043830767
26	0x3e0ae11b	0.13562433
27	0xbd227ebf	-0.039671656
28	0x3d70213f	0.058625456
29	0xbe02cb0e	-0.12772772
30	0xbd406ef4	-0.046980813
31	0xbcf88466	-0.03033657
32	0xbdba153d	-0.09086082
33	0x3cae045f	0.021242319
34	0x3d4f7da7	0.05065694
35	0xbe0474f3	-0.12935238
36	0xbe0c672b	-0.1371123
37	0x3da393db	0.079871856
38	0x3df7f8b2	0.12107982
39	0xbdd98682	-0.106213585
40	0x3dd35b19	0.1032011
41	0xbcc87055	-0.024467627
42	0x3e0651ad	0.13117094
43	0xbded4fd1	-0.115874894
44	0x3c6e19d8	0.014532529
45	0xbada87e8	-0.0016672583
46	0xbdeff843	-0.11717274
47	0x3d8de592	0.06928553
48	0x3d0f9930	0.0350582
49	0xbd9b1378	-0.07572073
50	0xbd3d4082	-0.046204098
51	0x3e0204bb	0.12697117
52	0x3de7fcc1	0.11327506
53	0x3d057f2f	0.032591995
54	0xbd98d63a	-0.074627355
55	0x3e0390be	0.12848184
56	0x3de474cd	0.111550905
57	0xbcea782d	-0.028621757
58	0x3e0032ea	0.12519422
59	0x3c03d8c0	0.008047283
60	0xbd0b6719	-0.03403387
61	0x3de42005	0.1113892
62	0x3dc3d42b	0.09561952
63	0xbdd4dd62	-0.10393788
64	0x3de9fdfe	0.11425398
65	0x3e057b54	0.13035327
66	0xbdefcd67	-0.11709099
67	0xbcea8850	-0.028629452
68	0x3d087f68	0.03332463
69	0xbdf045a7	-0.11732035
70	0xbd6ab306	-0.057299636
71	0x3df7b9d7	0.12095993
72	0x3dbf0213	0.093265675
73	0xbdbec5ba	-0.09315057
74	0x3dc2319a	0.09482117
75	0x3ceb23f7	0.028703673
76	0x3d2df226	0.04246726
77	0x3df98925	0.12184361
78	0x3deefddb	0.11669513
79	0x3cbfb427	0.023401333
80	0x3c86ff15	0.016479054
81	0xbcb73a87	-0.022366775
82	0x3d443c4c	0.047909066
83	0xbdc838f7	-0.0977649
84	0xbc498485	-0.0122996615
85	0x3d81ffa4	0.06347588
86	0x3d12e7f0	0.035865724
87	0x3cf625c0	0.030047297
88	0x3dd5949e	0.10428737
89	0xbd2906af	-0.04126614
90	0xbdf2c771	-0.11854447
91	0xbd9a0caf	-0.075219505
92	0x3d1cccbc	0.038281187
93	0xbd955daa	-0.072932556
94	0xbc965ec8	-0.018355742
95	0xbc28f521	-0.01031235
96	0xbe0968e0	-0.13418913
97	0x3d31f72d	0.043448616
98	0xbde6dba3	-0.11272361
99	0x3de1dde6	0.11028652
100	0x3d4f2c2e	0.050579242
101	0x3d9a5b3f	0.07536935
102	0xbd64c51f	-0.05585205
103	0xbe0612d6	-0.13093123
104	0x3d767292	0.060167857
105	0xbdaa3b27	-0.08312064
106	0xbcc388ba	-0.023868907
107	0x3ce4d360	0.027932823
108	0xbdcb70c9	-0.099336214
109	0xbd683d17	-0.056698885
110	0x3d6e4dd2	0.058179684
111	0x3df8468c	0.12122831
112	0x3c6027ed	0.013681394
113	0xbe0838bf	-0.13302897
114	0xbd2f04b0	-0.04272908
115	0x3e030b13	0.12797193
116	0x3d681b2e	0.056666546
117	0xbd9ef3bd	-0.07761333
118	0xbddcd3d5	-0.10782591
119	0xbd66404c	-0.056213662
120	0xbd4c79a6	-0.0499207
121	0x3e0b6c6f	0.13615583
122	0xbba730f9	-0.0051022735
123	0x3c798b8a	0.015231023
124	0xbdb0346f	-0.08603751
125	0x3d96bda0	0.07360387
126	0x3d3efee4	0.0466298
127	0xbbc46eef	-0.0059946696
128	0xbcca3961	-0.024685564
129	0x3dc8a2b7	0.097966604
130	0xbcf1d8d9	-0.029522346
131	0xbd6b1f6d	-0.057403017
132	0xbd2f8c37	-0.04285833
133	0x3b68ca8a	0.0035521113
134	0x3e0a5e60	0.13512564
135	0xbd069673	-0.032858323
136	0x3ca7707d	0.02043938
137	0xbe0478d3	-0.12936716
138	0xbd53853a	-0.051640727
139	0xbdaa972e	-0.083296165
140	0xbdba662c	-0.09101519
141	0x3dfb0831	0.12257422
142	0xbe02d3b9	-0.12776078
143	0x3b42d6a7	0.0029729994
144	0xbcae3dba	-0.021269668
145	0xbe05b5be	-0.1305761
146	0x3dd5a2b2	0.10431422
147	0xbd7962d4	-0.060885265
148	0x3c3e5bdc	0.011618581
149	0xbdfa4f5e	-0.12222169
150	0xbe09a221	-0.13440754
151	0x3dae17e8	0.085006535
152	0x3ddaf613	0.10691466
153	0xbd8c1131	-0.068392165
154	0x3e0d4eff	0.13799666
155	0x3e007fd4	0.12548763
156	0x3d9ca366	0.07648353
157	0x3c9a584a	0.018840928
158	0xbd557046	-0.052109025
159	0xbe10e115	-0.14148362
160	0xbde55765	-0.1119831
161	0xbdc28d71	-0.09499634
162	0x3ca08422	0.019594256
163	0xbdb71a0b	-0.08940514
164	0x3d934cd7	0.071923904
165	0xbd5fab41	-0.05460668
166	0x3d14b8ca	0.03630904
167	0x3e02e3bb	0.12782185
168	0x3de2e937	0.110796385
169	0xbcd2f826	-0.025753092
170	0x3d8a5fdd	0.06756566
171	0x3d20ed96	0.03928908
172	0xbde00506	-0.10938458
173	0xbcd9c2de	-0.026582178
174	0xbde01278	-0.10941023
175	0xbd3a17be	-0.0454328
176	0xbd342fb5	-0.04399081
177	0xbdd740a5	-0.10510377
178	0x3df5a256	0.11993854
179	0x3ca16caf	0.019705145
180	0xbdc9304e	-0.098236665
181	0x3d3502ff	0.04419231
182	0xbdfd59a1	-0.12370611
183	0xbd881602	-0.06644823
184	0xbdd2010a	-0.102541044
185	0x3dadd7cc	0.084884256
186	0x3d4c5a7f	0.04989099
187	0xbdcacb04	-0.099020034
188	0xbdf0ca53	-0.1175734
189	0x3dbc059d	0.09180758
190	0x3df80043	0.12109425
191	0x3d9666c5	0.073438205
192	0xbd389661	-0.045065288
193	0x3df10192	0.11767878
194	0xbd4d9ff5	-0.050201375
195	0x3c879fdd	0.016555721
196	0x3de2251e	0.11042236
197	0xbde0541e	-0.10953544
198	0xbb95d4aa	-0.0045724707
199	0x3dbc62aa	0.09198506
200	0x3d26997b	0.040673714
201	0x3c0e7cc4	0.008696739
202	0xbd19fdd9	-0.037595604
203	0x3da9637e	0.0827093
204	0xbd558fc6	-0.052139066
205	0xbdbeda3d	-0.093189694
206	0x3cc3b847	0.023891581
207	0x3d661a23	0.05617727
208	0xbdeea90b	-0.11653336
209	0xbd54ff51	-0.0520013
210	0x3df6e0c6	0.12054591
211	0xbd1e3541	-0.038625006
212	0xbbd84817	-0.0066003907
213	0xbdf02660	-0.117260695
214	0xbc0d273f	-0.008615314
215	0x3d9c76f4	0.07639876
216	0x3e0a03a7	0.13477956
217	0xbdc2089a	-0.09474297
218	0x3d4160e2	0.047211535
219	0xbddd2814	-0.1079866
220	0xbe0a2e74	-0.13494283
221	0xbdb0d93f	-0.086351864
222	0x3dce2bb4	0.100669295
223	0x3df10bc0	0.11769819
224	0x3e0c013f	0.1367235
225	0x3daf6ece	0.08566056
226	0xbbd690a1	-0.006548003
227	0xbd39ef05	-0.045393962
228	0x3d59c447	0.0531657
229	0x3dd085db	0.10181781
230	0x3df79430	0.120888114
231	0x3dac4138	0.08410877
232	0xbdfd227f	-0.12360095
233	0x3de45b2a	0.11150201
234	0x3d871220	0.06595254
235	0xbc05670d	-0.008142245
236	0xbdf8da2c	-0.12150988
237	0xbc96752b	-0.018366417
238	0x3c64f1cb	0.013973664
239	0x3d97471b	0.07386609
240	0xbdd22e01	-0.10262681
241	0xbdf36526	-0.11884527
242	0x3d21ed8b	0.03953318
243	0x3dc9cd60	0.09853625
244	0xbced8233	-0.028992748
245	0x3e05556c	0.13020867
246	0x3d7e7c8f	0.062130507
247	0xbe09a138	-0.13440406
248	0x3da9d8df	0.08293318
249	0xbd4e0f80	-0.05030775
250	0x3e0a8f29	0.13531174
251	0x3ddcb480	0.10776615
252	0x3d380c0c	0.044933364
253	0xbd648c7d	-0.055798043
254	0x3def3016	0.116790935
255	0xbcb997c9	-0.022655385

graph_transformer_layer.0.attention.K.bias f4 [16]
0	0xbc6949cc	-0.014238786
1	0xbc23a10a	-0.009987125
2	0xbe081ae5	-0.1329151
3	0xbdd86b0d	-0.10567293
4	0xbe0c7a4c	-0.13718528
5	0x3c8a2405	0.016862879
6	0x3d29b9c8	0.04143694
7	0x3da9c775	0.082899965
8	0x3dae9b98	0.08525771
9	0x3d8dd627	0.06925612
10	0x3c3baf05	0.011455302
11	0xbcf9feaf	-0.03051695
12	0xbd8d51c1	-0.06900359
13	0x3d0b9aa1	0.034083012
14	0xbcd6041b	-0.026125005
15	0x3dfbadea	0.12289031

graph_transformer_layer.0.attention.V.weight f4 [16, 16]
0	0xbdfac8a7	-0.12245303
1	0xbde01f4b	-0.10943469
2	0xbe01876d	-0.12649317
3	0x3dbb9b35	0.09160463
4	0x3e028a74	0.12748128
5	0x3ce20de4	0.027594514
6	0x3c6ec6f7	0.014573804
7	0xbc9ac2fc	-0.018891804
8	0xbcfef8db	-0.031124523
9	0xbdfed93d	-0.12443779
10	0xbda53644	-0.08066991
11	0x3d11f047	0.035629537
12	0x3d629355	0.055316288
13	0xbd87e132	-0.066347495
14	0x3d2739c9	0.040826593
15	0x3ddda44f	0.10822355
16	0xbe0a001f	-0.13476609
17	0xbd8b612c	-0.068056434
18	0x3c2dcde5	0.010608171
19	0x3df6c551	0.12049354
20	0x3dc931ce	0.098239526
21	0x3dfdcd1d	0.12392638
22	0xbd8dd776	-0.069258615
23	0x3de34de5	0.110988416
24	0x3ddddcbc	0.10833117
25	0x3dab7440	0.08371782
26	0xbc2c1ec9	-0.010505387
27	0x3de0b572	0.10972108
28	0xbd1a0501	-0.03760243
29	0x3da20846	0.07911734
30	0x3e0a2e12	0.13494137
31	0xbd0b370c	-0.033988044
32	0x3e030e7f	0.12798499
33	0xbdc8399e	-0.097766146
34	0x3d047c88	0.032345325
35	0x3da4c464	0.08045271
36	0xbde3484e	-0.110977754
37	0x3c8bbcb8	0.017057762
38	0xbd486236	-0.048921786
39	0x3b34dc31	0.0027597065
40	0xbc64dbc2	-0.01396841
41	0xbe04976f	-0.12948392
42	0xbdba7fa9	-0.091063805
43	0xbd3d9ea2	-0.046293862
44	0x3d5f7f64	0.05456485
45	0xbbb104c3	-0.005402179
46	0xbcf76947	-0.030201567
47	0x3d587920	0.05284989
48	0xbdff3cfd	-0.124628045
49	0x3da320eb	0.07965263
50	0x3d96528b	0.073399626
51	0xbcc05a3e	-0.02348053
52	0x3cbb7b3d	0.022885913
53	0x3bbd40ac	0.0057755318
54	0x3cf2f934	0.029659845
55	0x3d8a88e0	0.06764388
56	0x3d9f7ce4	0.07787493
57	0xbdba16f8	-0.09086412
58	0x3c8d97c5	0.017284283
59	0x3d9f5748	0.077803195
60	0xbdc6a85c	-0.09700081
61	0x3d7ea857	0.06217226
62	0xbd380c4f	-0.044933613
63	0x3c4f02c2	0.012634935
64	0x3cd823b4	0.026384212
65	0x3d98f0b5	0.07467786
66	0x3cf6a653	0.030108606
67	0x3b44f0d2	0.0030050767
68	0xbe036030	-0.12829661
69	0xbd149d43	-0.03628279
70	0xbda7bdec	-0.081905216
71	0x3d9af7ff	0.07566833
72	0x3cf9ba00	0.0304842
73	0xbd3607f3	-0.044441175
74	0x3d48b3ff	0.048999783
75	0x3de807ec	0.11329636
76	0xbdedc694	-0.116101414
77	0xbdc419a7	-0.09575205
78	0x3d5bcc3c	0.05366157
79	0x3dcccb9f	0.09999775
80	0x3db450b8	0.088044584
81	0xbcb9b893	-0.02267102
82	0xbe029ec7	-0.12755881
83	0xbd95fbb7	-0.073234014
84	0x3cc9f284	0.024651773
85	0x3d637f03	0.05554105
86	0x3bec0591	0.007202812
87	0x3d9894e2	0.07450272
88	0xbcfcdd03	-0.030867105
89	0x3dd2e44d	0.10297451
90	0x3d92c522	0.07166506
91	0x3cdc0a7e	0.026860472
92	0x3da753e1	0.081702955
93	0xbe06b595	-0.13155206
94	0xbccf08f0	-0.025272816
95	0xbdd39867	-0.10331803
96	0xbde07a6d	-0.10960851
97	0x3d4340ad	0.0476691
98	0xbdd3f1de	-0.10348867
99	0x3ddbfb3d	0.10741279
100	0x3d8b6751	0.068068154
101	0x3d093022	0.03349317
102	0x3d25821c	0.040407285
103	0x3c6d817b	0.014496203
104	0xbe060b00	-0.13090134
105	0xbd85c1b2	-0.06531085
106	0xbda4ce0f	-0.08047115
107	0x3d85b563	0.065287374
108	0x3dbeaf2b	0.093107544
109	0xbdc40da2	-0.09572913
110	0x3cd8d6d2	0.026469622
111	0xbd9ff957	-0.0781123
112	0xbd36fdad	-0.044675518
113	0xbded0508	-0.11573225
114	0xbdffc70f	-0.12489139
115	0xbdccdcb3	-0.100030325
116	0xbd6da369	-0.05801717
117	0xbe0790bd	-0.13238807
118	0xbe1170da	-0.14203206
119	0x3dbbf940	0.091784
120	0x3b36c333	0.0027887344
121	0x3e0ec51d	0.1394238
122	0x3ddd0582	0.10792066
123	0x3d93be3a	0.07214017
124	0xbd36bd43	-0.044614088
125	0xbc1b0637	-0.009461931
126	0x3d0e94bd	0.034809817
127	0xbd66b51b	-0.05632506
128	0x3d8fec79	0.070275255
129	0xbcc1d784	-0.023662336
130	0xbd3214b3	-0.04347677
131	0x3d8986fd	0.067152
132	0xbd3a81de	-0.045534007
133	0x3c6b28fc	0.014353033
134	0xbd6dfdff	-0.058103558
135	0x3d65c075	0.056091744
136	0xbdbc036e	-0.09180342
137	0xbd633a1d	-0.055475343
138	0x3d836935	0.06416551
139	0xbb437343	-0.002982334
140	0xbd7746b8	-0.060370177
141	0xbe011924	-0.12607247
142	0x3c5e0e3d	0.013553199
143	0x3bff9896	0.007800172
144	0xbb551e79	-0.0032519384
145	0x3de6b0b9	0.11264176
146	0x3d2c5387	0.042071845
147	0x3dc497b3	0.09599247
148	0xbddd8742	-0.10816814
149	0xbe02f34c	-0.12788123
150	0x3dd9e916	0.10640161
151	0xbc9a31f8	-0.018822655
152	0xbc0d4b8f	-0.008623972
153	0xbdbba6a7	-0.09162646
154	0xbcb8cc3e	-0.022558328
155	0x3e043b57	0.12913261
156	0xbda447b3	-0.08021488
157	0xbdb5f341	-0.088842876
158	0x3dbf0080	0.09326267
159	0x3c75bbb3	0.014998364
160	0x3caaa807	0.020832075
161	0xbdfbceeb	-0.12295326
162	0xbc94b3e0	-0.018152177
163	0x3c79c6d5	0.015245159
164	0xbca49773	-0.020091748
165	0xbd964edd	-0.07339261
166	0x3cc66136	0.024216276
167	0x3dc62375	0.09674732
168	0xbe02a404	-0.1275788
169	0xbc8f8f44	-0.017524369
170	0x3d4ebc5b	0.0504726
171	0xbc0e7981	-0.008695961
172	0x3da45b2b	0.080252014
173	0x3d1633c8	0.036670476
174	0x3d7da1a0	0.061921716
175	0x3ade8f99	0.0016980051
176	0xbcbf31c4	-0.02333916
177	0x3bd1b75f	0.0064000334
178	0x3d3a0ba2	0.04542125
179	0xbd7a30a2	-0.061081536
180	0xbd0eaa20	-0.034830213
181	0xbdc18756	-0.094496414
182	0xbd67435f	-0.056460734
183	0xbbf7d88c	-0.007563656
184	0xbdc34418	-0.09534472
185	0x3d95eee1	0.07320953
186	0x3dbe8dab	0.09304365
187	0xbe099fc1	-0.13439848
188	0x3d9c5b42	0.076345935
189	0xbe0d4808	-0.13797009
190	0x3dbcea74	0.09224406
191	0x3cbdc2cc	0.023164175
192	0x3cf8c156	0.030365627
193	0xbd166b1b	-0.036723237
194	0x3e0a8e33	0.13530807
195	0xbe04a976	-0.12955269
196	0x3e0be652	0.13662079
197	0x3d903e7e	0.070431694
198	0xbdcf6306	-0.10126309
199	0xbd893ae4	-0.067006856
200	0x3d88ae22	0.06673838
201	0xbc7aa5a7	-0.015298284
202	0xbd6b1da8	-0.05740133
203	0x3e0a9388	0.13532841
204	0x3c2d510d	0.010578406
205	0x3de5d546	0.11222319
206	0xbd64c864	-0.05585517
207	0xbe0a8b1f	-0.13529633
208	0xbd684687	-0.056707885
209	0xbcf62f03	-0.030051714
210	0x3c108976	0.008821836
211	0x3d8f2554	0.06989542
212	0x3da7e1b5	0.08197347
213	0x3d36bfb4	0.044616416
214	0x3df335a3	0.11875465
215	0xbdef8016	-0.11694352
216	0xbde1e789	-0.1103049
217	0xbde0a49c	-0.10968897
218	0xbae7795d	-0.001766007
219	0xbd3335f1	-0.043752614
220	0xbd03a2fe	-0.032137863
221	0x3d99c57f	0.075083725
222	0x3ca8cf61	0.020606698
223	0x3cdd67cc	0.027027033
224	0x3d1faeda	0.03898511
225	0x3d42f3b2	0.047595687
226	0xbcfbbc09	-0.03072931
227	0x3d6baa7d	0.057535637
228	0xbe057316	-0.13032183
229	0x3c1e5efd	0.009666202
230	0x3d1530a7	0.03642335
231	0xbda34322	-0.07971789
232	0xbd93c7e1	-0.07215858
233	0x3df19663	0.11796262
234	0x3e0ef734	0.13961488
235	0xbe0ccf1c	-0.13750881
236	0xbd288667	-0.0411438
237	0xbe079baf	-0.13242982
238	0x3d87791e	0.06614898
239	0xbde339fa	-0.110950425
240	0xbcaccc54	-0.021093525
241	0xbc96e01e	-0.018417414
242	0xbdf5462a	-0.11976273
243	0x3d0f5289	0.03499082
244	0x3d95ff95	0.07324139
245	0xbe03426e	-0.1281831
246	0xbdeeb148	-0.116549075
247	0xbe09c1fd	-0.13452907
248	0xbd4b16e5	-0.04958238
249	0x3d110987	0.035409477
250	0x3df174a1	0.11789823
251	0xbdfe9b65	-0.12431983
252	0xbe066c6c	-0.13127297
253	0x3e0d8fc4	0.13824373
254	0xbcaf646d	-0.021410191
255	0xbdc0bd0f	-0.0941106

graph_transformer_layer.0.attention.V.bias f4 [16]
0	0x3d773128	0.060349613
1	0xbd2b406c	-0.041809484
2	0x3d724141	0.059144262
3	0x3daa47ca	0.08314474
4	0x3dd49f3c	0.10381934
5	0xbd906af5	-0.070516504
6	0xbe04db5d	-0.12974305
7	0xbd51c59a	-0.05121384
8	0xbd413ea4	-0.04717888
9	0x3e01994d	0.12656136
10	0xbd18d550	-0.037312806
11	0x3dde476d	0.10853467
12	0x3dec54f0	0.11539638
13	0xbdb9e697	-0.09077185
14	0x3cb2866b	0.021792611
15	0xbe0ff9a9	-0.14060082

graph_transformer_layer.0.attention.proj_e.weight f4 [16, 16]
0	0x3d9f45a1	0.077769525
1	0x3da4480f	0.080215566
2	0xbe037f9a	-0.12841645
3	0xbd2f4fd3	-0.042800736
4	0x3dc35d4f	0.095392816
5	0x3dc035fd	0.093852974
6	0xbbbbd760	-0.005732462
7	0xbce63bcb	-0.028104683
8	0xbd148bee	-0.03626626
9	0xbdc30480	-0.09522343
10	0xbd830e83	-0.06399252
11	0xbd474242	-0.048647173
12	0x3de32e89	0.1109286
13	0xbdc13640	-0.094341755
14	0xba10d28c	-0.0005524538
15	0xbbd7fe5c	-0.0065916013
16	0x3c32781e	0.010892896
17	0x3e0b394e	0.13596079
18	0xbe09d631	-0.13460614
19	0xbdd3eefe	-0.103483185
20	0xbd2ce7b0	-0.042213142
21	0xbd36926a	-0.044573225
22	0xbd2f8fb1	-0.042861644
23	0xbbf76797	-0.0075501907
24	0xbde60ad5	-0.11232535
25	0xbcc37873	-0.023861146
26	0x3d6e4996	0.058175646
27	0x3ba9ea1c	0.0051853787
28	0x3d0ab550	0.03386432
29	0xbcc8df12	-0.02452043
30	0xbdba9fa7	-0.091124825
31	0x3d8cdb2c	0.06877741
32	0x3dc635d8	0.09678239
33	0x3e0e425f	0.13892506
34	0x3db62134	0.08893052
35	0x3d9796f7	0.07401841
36	0x3daaca43	0.083393596
37	0xbe00eb2d	-0.12589712
38	0x3d3a8a91	0.045542303
39	0xbda0e112	-0.07855429
40	0xbe0024ef	-0.12514089
41	0x3df3154e	0.11869298
42	0x3ddfcd1d	0.10927794
43	0xbdd4ba58	-0.10387105
44	0x3de04f9b	0.109526835
45	0x3e10228f	0.14075683
46	0xbdf7bdca	-0.12096746
47	0x3d460c3a	0.048351504
48	0x3d140834	0.036140636
49	0xba6289cf	-0.0008641751
50	0xbdba6067	-0.091004185
51	0xbd966b84	-0.07344726
52	0x3ce55b5e	0.027997669
53	0x3c96e7fa	0.018421162
54	0xbdcb1801	-0.09916688
55	0x3db6bdea	0.08922942
56	0xbdf1b687	-0.118023925
57	0xbdd2cd30	-0.10293043
58	0xbd94c8f4	-0.07264891
59	0x3de19d1a	0.11016293
60	0xbd6ce892	-0.057838984
61	0x3e08bfb3	0.13354377
62	0x3d9bf872	0.076157466
63	0x3d48c26c	0.04901354
64	0xbe032c44	-0.12809855
65	0xbda08774	-0.07838336
66	0x3c778f32	0.015109824
67	0xbd846c57	-0.06465977
68	0x3ddf1065	0.10891799
69	0x3d80c1af	0.06286942
70	0x3d020e04	0.031751648
71	0xbd94f47b	-0.072731934
72	0xbdbe52eb	-0.09293159
73	0xbd508be8	-0.050914675
74	0x3da731b2	0.081637755
75	0x3d8a784f	0.06761228
76	0x3948ea17	0.00019160692
77	0x3d349a63	0.044092547
78	0x3da528a8	0.08064395
79	0x3dad669e	0.08466838
80	0xbd20f668	-0.03929749
81	0xbcae4737	-0.021274192
82	0xbdd2b77c	-0.10288903
83	0x3ca9f073	0.020744538
84	0xbce55a1d	-0.02799707
85	0x3d022b59	0.03177962
86	0x3b010f29	0.0019692874
87	0x3de84ce6	0.11342792
88	0xbe07c40f	-0.13258384
89	0xbb2e3262	-0.0026580323
90	0xbe026cc8	-0.12736809
91	0x3df64133	0.120241545
92	0x3dea98a5	0.11454896
93	0x3e0a0e60	0.13482046
94	0x3def7f47	0.11694198
95	0xbe06d19e	-0.131659
96	0x3da1862a	0.07886918
97	0x3d953ad7	0.072866134
98	0x3d2235c6	0.039602064
99	0xbdbadd59	-0.0912425
100	0xbd1cef54	-0.03831418
101	0x3d9bee5b	0.07613822
102	0xbd806298	-0.06268805
103	0x3ded0c09	0.11574561
104	0xbc969cc0	-0.018385291
105	0xbe02e095	-0.12780984
106	0xbc9dfd68	-0.019285873
107	0x3ddcbeb1	0.10778559
108	0xbd05fab8	-0.032709807
109	0xbe0271c2	-0.12738708
110	0xbdb74b5d	-0.08949921
111	0xbdf6ca56	-0.12050311
112	0xbd114f1c	-0.035475835
113	0xbdb62385	-0.088934936
114	0xbcc43138	-0.02394925
115	0x3d502751	0.050818745
116	0x3d423132	0.047410198
117	0x3d20f221	0.039293412
118	0xbcc3fa5a	-0.023923088
119	0xbdcf10a5	-0.101105966
120	0x3c6e2f9f	0.014537721
121	0xbde8c6d5	-0.11366049
122	0xbe10e6f4	-0.14150602
123	0x3db21f7d	0.08697412
124	0xbcd9b559	-0.026575731
125	0x3dc54350	0.096319795
126	0xbd66577c	-0.056235775
127	0x3b24f5fa	0.0025171028
128	0xbdb8c8e5	-0.090226926
129	0x3e0ea008	0.13928235
130	0xbd1ac338	-0.03778383
131	0xbdab37db	-0.08360263
132	0x3e11acdf	0.14226101
133	0x3d7fbce4	0.062436
134	0x3d478cd0	0.048718274
135	0x3d1c5cfe	0.03817462
136	0x3d9271d6	0.07150619
137	0x3e0d7cb2	0.13817099
138	0xbd08cc08	-0.033397704
139	0xbd5f537c	-0.054522976
140	0xbd3c5682	-0.045980938
141	0x3dda514c	0.106600374
142	0x3cdb1d72	0.026747439
143	0xbdc4bc29	-0.09606201
144	0x3cad7445	0.021173606
145	0xbdb9664d	-0.090527155
146	0xbcf39671	-0.029734822
147	0xbd55489d	-0.052071203
148	0xbd7d4797	-0.06183585
149	0x3de35315	0.11099831
150	0xbe0562e6	-0.13026008
151	0xbdd3fe72	-0.10351266
152	0x3d9498b7	0.072556905
153	0xbd527d14	-0.051388815
154	0xbd4d17fe	-0.05007171
155	0xbd8f533e	-0.06998299
156	0x3d75d88c	0.06002097
157	0x3d462bdc	0.04838167
158	0x3def355f	0.116801016
159	0x3d84f41d	0.064918734
160	0x3de19a13	0.110157155
161	0x3e0dd289	0.13849844
162	0x3d8985a8	0.06714946
163	0xbd7c760f	-0.061636027
164	0x3de7529e	0.11295055
165	0x3d17712c	0.036973163
166	0xbd23d0d8	-0.03999409
167	0x3e0b7534	0.13618928
168	0x3e02672a	0.12734666
169	0xbddaa6fd	-0.10676382
170	0x3d8fbffd	0.07019041
171	0x3dcc9f76	0.09991352
172	0xbcbf3df8	-0.023344979
173	0xbbce1cd6	-0.0062900586
174	0x3dc289c6	0.094989344
175	0xbb2c7d69	-0.0026319867
176	0x3d450fc7	0.04811075
177	0x3c86ebbc	0.016469829
178	0xbdede781	-0.116164215
179	0x3b8a8758	0.00422756
180	0xbc7891f3	-0.015171516
181	0x3d1e6e65	0.0386795
182	0xbe00a315	-0.12562211
183	0x3dc92b0b	0.09822663
184	0x3d1dc1a4	0.03851475
185	0x3acbdfd7	0.001555438
186	0xbdab2953	-0.08357491
187	0xbdb3bc62	-0.087761655
188	0xbdf34921	-0.118791826
189	0x3d09bc4e	0.033626847
190	0x3cf44210	0.029816657
191	0xbdefa8db	-0.117021285
192	0x3dab0384	0.0835028
193	0x3cb173b4	0.021661617
194	0x3d681aad	0.056666065
195	0xbda71ba3	-0.08159568
196	0xbd1ddccf	-0.038540658
197	0xbd2a5e22	-0.04159368
198	0xbd8f44bf	-0.06995534
199	0x3d97b80a	0.074081495
200	0x3cf8da21	0.03037745
201	0xbcd906ac	-0.02649244
202	0xbd3d8b52	-0.046275444
203	0xbdb9e2ec	-0.09076485
204	0x3c32f107	0.010921723
205	0x3cf6d61c	0.030131392
206	0x3e01da35	0.12680896
207	0x3e0048b6	0.12527737
208	0x3df7a168	0.12091333
209	0x3de079d1	0.10960735
210	0x3cbaf54e	0.022822049
211	0xbd2c69cb	-0.04209308
212	0xbd08f88d	-0.03344016
213	0x3d3a4614	0.045476988
214	0x3d9e7636	0.07737391
215	0x3dbec33d	0.093145825
216	0xbd28eda2	-0.04124225
217	0x3d2d437b	0.042300683
218	0x3c4a192c	0.012335103
219	0xbc242c34	-0.0100203045
220	0x3bf55cc8	0.007487867
221	0x3c455ef3	0.012046563
222	0xbe1127b8	-0.14175308
223	0xbcd73ebf	-0.026275037
224	0x3e0ebfd5	0.13940366
225	0x3e05e1ff	0.13074492
226	0xbcf06e7c	-0.029349558
227	0xbd81ef23	-0.0634444
228	0x3d81bb68	0.06334573
229	0x3dcb7d0b	0.099359594
230	0x3c1e400e	0.0096588265
231	0x3d8c807e	0.068604454
232	0xbd858ee8	-0.06521398
233	0xbdd6b04d	-0.104828455
234	0xbbfe84a6	-0.007767278
235	0x3de49e2a	0.1116298
236	0xbdc5e0a2	-0.09661986
237	0x3ab50eac	0.0013813577
238	0xbd2e97ec	-0.042625353
239	0xbe044fc5	-0.12921055
240	0xbddf14c6	-0.10892634
241	0xbde964a9	-0.113961525
242	0x3e08fa72	0.13376787
243	0x3e06852d	0.1313674
244	0xbce8e05f	-0.028427301
245	0x3e0b31c8	0.13593209
246	0x3dd31c1a	0.10308094
247	0xbd42df84	-0.047576442
248	0x3dc0b3bb	0.09409281
249	0x3db93cbd	0.09044788
250	0x3c539dd0	0.012916043
251	0xbd1a8b96	-0.037730776
252	0xbdf0df7e	-0.11761378
253	0xbd4d9d64	-0.050198928
254	0x3d26327c	0.04057549
255	0x3dafa6ee	0.08576761

graph_transformer_layer.0.attention.proj_e.bias f4 [16]
0	0xbc5bd4ee	-0.013417466
1	0x3d44b914	0.048028067
2	0xbdd622a3	-0.10455825
3	0xbd1431d6	-0.03618034
4	0xbdea7da1	-0.11449743
5	0xbd8dd3a4	-0.06925133
6	0x3df74953	0.12074532
7	0x3d052461	0.032505397
8	0xbdcc7e1e	-0.099849924
9	0xbdd2008b	-0.1025401
10	0x3d2a9c84	0.04165317
11	0x38913625	6.924224e-05
12	0x3d865cec	0.06560692
13	0x3de86fe0	0.113494635
14	0xbc73d5ed	-0.014882547
15	0xbdb65c7e	-0.0890436

graph_transformer_layer.0.O_h.weight f4 [16, 16]
0	0x3c0bce55	0.00853308
1	0x3dc3827d	0.09546373
2	0x3d430f22	0.047621854
3	0x3da0b48e	0.07846938
4	0xbd9bc561	-0.076060064
5	0xbd7a5533	-0.06111641
6	0x3c6c2c8a	0.014414916
7	0x3da453a0	0.08023763
8	0xbd780b97	-0.060557928
9	0xbda5ff93	-0.081053875
10	0x3cd7f5ca	0.026362319
11	0xbd6d7fff	-0.057983395
12	0x3df62fa3	0.12020805
13	0x3dab7fd2	0.08373989
14	0xbd8b2719	-0.06794567
15	0x3e099f26	0.13439617
16	0x3ceb1d43	0.028700477
17	0x3e102200	0.1407547
18	0xbd5cc5dd	-0.053899635
19	0xbcbf0dfa	-0.023322094
20	0x3dd5a6c5	0.104321994
21	0x3cd0413b	0.02542173
22	0xbd751c06	-0.05984118
23	0x3de121d5	0.10992781
24	0x3d4b6d21	0.04966462
25	0x3e00e1f1	0.1258619
26	0x3c5ea309	0.013588675
27	0x3dbef01d	0.09323142
28	0x3d3171fe	0.043321602
29	0xbdc985a1	-0.09839941
30	0x3cfdc415	0.030977288
31	0xbdc1e8e1	-0.09468246
32	0x3d6f537f	0.058429237
33	0x3db9287e	0.090409264
34	0x3e017003	0.12640385
35	0x3e04200b	0.12902848
36	0x3d21ae11	0.039472643
37	0xbc9b1c8c	-0.01893451
38	0x3d8cde30	0.068783164
39	0x3d9a73de	0.07541631
40	0x3de4bdc7	0.1116901
41	0xbdf6a79e	-0.12043689
42	0xbe0564c3	-0.13026719
43	0xbc9cbfbc	-0.019134395
44	0x3d581e23	0.052763116
45	0x3db42c31	0.08797491
46	0x3d685f94	0.056731775
47	0xbe0f0707	-0.13967524
48	0xbdd5e27a	-0.104435876
49	0x3dede6a7	0.11616259
50	0xbcdfc6aa	-0.02731641
51	0x3d6ab777	0.057303872
52	0xbc558ecd	-0.013034535
53	0xbdd17afc	-0.102285355
54	0x3df0b1ce	0.117526636
55	0xbde6ee31	-0.112759
56	0x3da1dd98	0.07903594
57	0xbdd99f52	-0.10626091
58	0x3df6f5c7	0.12058597
59	0xbd225b3b	-0.039637785
60	0xbd2af493	-0.04173715
61	0xbe06e2a0	-0.13172388
62	0x3bd2b2aa	0.00642999
63	0xbd9a7ce1	-0.0754335
64	0x3dfdaef8	0.12386888
65	0xbdcb4651	-0.09925521
66	0xbdc748bb	-0.09730669
67	0x3c6c0b50	0.014406994
68	0x3dacac3e	0.0843129
69	0xbded404e	-0.11584531
70	0x3dd786de	0.10523771
71	0x3e02c030	0.12768626
72	0xbd9f5b51	-0.07781089
73	0xbd815a53	-0.06316056
74	0xbcbce829	-0.023059921
75	0x3db55a8e	0.088551626
76	0x3bcfee1d	0.006345524
77	0x3d8b38a3	0.06797912
78	0x3e10362f	0.1408317
79	0xbc57374c	-0.013135742
80	0xbd55fff1	-0.052246038
81	0xbc62741a	-0.013821626
82	0x3ce25e66	0.027632903
83	0xbd9854d2	-0.07438053
84	0x3deb877f	0.11500453
85	0x3d71a292	0.05899293
86	0x3b62f3ef	0.003463026
87	0xbcadddd4	-0.02122394
88	0x3d936e07	0.071987204
89	0xbd71a505	-0.058995266
90	0xbd6dfddb	-0.058103424
91	0x3da388da	0.07985087
92	0xbe15e444	-0.14637858
93	0xbc87fbaa	-0.016599495
94	0xbe0d53ca	-0.13801494
95	0xbd484524	-0.048894063
96	0x3d9426d8	0.07233971
97	0xbd340b87	-0.043956306
98	0x3d9f805f	0.07788157
99	0x3dadfe10	0.08495724
100	0x3e0403ea	0.12892118
101	0xbd008439	-0.031376097
102	0x3dd877c6	0.1056972
103	0xbd425547	-0.047444608
104	0x3e0b3dcc	0.13597792
105	0x3d69ac9b	0.057049375
106	0x3b8003e4	0.003906714
107	0x3b8d41a2	0.0043108026
108	0xbc0c1b4e	-0.008551432
109	0xbd57c1a9	-0.052674923
110	0x3d054a24	0.03254141
111	0x3d8dbb73	0.06920519
112	0x3d6c159e	0.057637803
113	0xbdcc1bc7	-0.099662356
114	0xbe08d103	-0.13360982
115	0x3dceeedb	0.10104152
116	0x3d0b9db7	0.034085955
117	0x3c1dad7c	0.009623881
118	0x3ddc5ba2	0.10759665
119	0x3db613aa	0.08890469
120	0xbe01e184	-0.12683684
121	0xbd674e3d	-0.0564711
122	0xbb6c52cc	-0.0036060093
123	0x3d488512	0.04895503
124	0x3e0ddc03	0.13853459
125	0x3c64f4e9	0.013974407
126	0x3b3187e7	0.002708906
127	0xbdef8337	-0.11694949
128	0xbdac205d	-0.0840461
129	0x3dbc7667	0.09202271
130	0x3d45bb69	0.04827443
131	0xbc9d0514	-0.01916746
132	0xbca37e92	-0.019957814
133	0xbd6503ea	-0.055911936
134	0x3c4f62d9	0.012657844
135	0xbe0ec6a5	-0.13942964
136	0x3df44f52	0.11929192
137	0x3d6ff869	0.05858651
138	0xbcf06423	-0.029344624
139	0xbe11f6aa	-0.14254251
140	0x3e113bf2	0.14183024
141	0xbda4ca0a	-0.080463484
142	0xbc02e6db	-0.007989611
143	0x3d67c76d	0.05658667
144	0xbdd6c526	-0.10486822
145	0xbdec4197	-0.11535948
146	0x3e1360ea	0.14392439
147	0xbd9a3d25	-0.07531194
148	0xbdd9fd42	-0.10644008
149	0x3e0457b2	0.12924078
150	0xbde7af84	-0.11312774
151	0x3e0ca7d3	0.13735895
152	0x3d8e5540	0.06949854
153	0xbd5d7b88	-0.054072887
154	0x3d348881	0.044075493
155	0x3a017f92	0.0004939969
156	0xbe083e6d	-0.13305064
157	0xbdad1856	-0.08451907
158	0x3d68946f	0.056782182
159	0xbdf6162f	-0.1201595
160	0xbdff00f4	-0.12451354
161	0x3e0e2e44	0.13884836
162	0xbd2949be	-0.04133009
163	0x3cd19de8	0.02558799
164	0xbd323305	-0.043505687
165	0xbdcb1b78	-0.099173486
166	0xbd32b63f	-0.043630835
167	0xbd8049a0	-0.06264043
168	0x3e109624	0.14119774
169	0xbd91d460	-0.071205854
170	0x3c76b97c	0.015058871
171	0xbd460295	-0.048342306
172	0x3d1bcc83	0.038036834
173	0xbc8adcca	-0.016950984
174	0x3d85de43	0.06536534
175	0xbe0d1e02	-0.13780978
176	0xbdd2cd1c	-0.10293028
177	0x3ce9a4aa	0.0285209
178	0x3dd73480	0.105080605
179	0xbdb853d5	-0.09000365
180	0xbe055896	-0.13022074
181	0x3def2287	0.116765074
182	0xbcb43560	-0.021998107
183	0x3c9390c0	0.018013358
184	0xbdda5762	-0.10661198
185	0x3db09c10	0.086235166
186	0x3e03708a	0.12835899
187	0xbe100fb6	-0.14068493
188	0x3dc330b7	0.09530776
189	0xbdd0fd4f	-0.10204565
190	0xbdfbb5db	-0.122905456
191	0x3c1a906b	0.009433846
192	0xbd5e9c63	-0.05434836
193	0x3d945e36	0.07244532
194	0x3df7a93d	0.120928265
195	0x3d8d7676	0.0690736
196	0x3e068d86	0.13139924
197	0x3cf9e558	0.030504867
198	0x3b9416bd	0.004519312
199	0x3e0ee2cc	0.13953704
200	0xbdaae980	-0.08345318
201	0xbdc9da9c	-0.098561496
202	0x3d2c8eea	0.04212848
203	0xbca4ba4e	-0.020108368
204	0x3d985d78	0.07439703
205	0xbda42693	-0.0801517
206	0x3cdfd732	0.027324293
207	0x3dae66b7	0.08515685
208	0xbca97b70	-0.020688742
209	0xbe0373f7	-0.12837206
210	0x3da9ca5e	0.082905516
211	0x3d8a8165	0.06762961
212	0x3ddfb527	0.10923224
213	0x3dcb8579	0.09937567
214	0xbc3baf36	-0.011455348
215	0x3d8e6b7a	0.06954093
216	0x3d8371be	0.06418179
217	0x3d77ebd8	0.060527653
218	0xbe141561	-0.1446128
219	0xbb73e8b6	-0.0037217564
220	0xbddf9030	-0.109161735
221	0xbdc5ae50	-0.09652388
222	0xbd0aa7d4	-0.03385146
223	0x3e030435	0.12794574
224	0xbd45cdc9	-0.048291955
225	0xbe09dd21	-0.1346326
226	0x3de62e61	0.11239315
227	0xbda7d6cc	-0.08195266
228	0xbd92b0a5	-0.071625985
229	0x3db8cc25	0.090233125
230	0x3d691e8c	0.056913897
231	0x3d253056	0.0403293
232	0xbdd1c31f	-0.102422945
233	0x3c7cbad0	0.015425399
234	0x3a196be8	0.0005852566
235	0xbcb35648	-0.021891728
236	0xbdf56532	-0.11982192
237	0xbdbb794d	-0.09153996
238	0xbe0157c9	-0.12631144
239	0x3dc6c4cd	0.097055055
240	0x3d7069df	0.058694717
241	0xbdb62b00	-0.0889492
242	0xbe009b63	-0.12559275
243	0x3c3dd0fe	0.011585472
244	0x3e011581	0.1260586
245	0x3da72e5f	0.081631415
246	0xbd6c5cd8	-0.05770573
247	0x3e02b09e	0.12762687
248	0x3e03c57e	0.12868306
249	0x3c9da0db	0.01924174
250	0x3da3915b	0.07986709
251	0xbd90f488	-0.07077891
252	0xbb10d5dc	-0.0022100126
253	0xbdb8e4ae	-0.09027992
254	0x3e0b434c	0.1359989
255	0x3db8d281	0.090245254

graph_transformer_layer.0.O_h.bias f4 [16]
0	0x3da13e66	0.0787323
1	0x3c1db734	0.009626199
2	0x3c81f2f0	0.015862912
3	0xbdbe2fff	-0.09286498
4	0xbd3a60f8	-0.045502633
5	0xbca79539	-0.020456897
6	0xbd79e653	-0.06101067
7	0xbd9c11fb	-0.07620617
8	0xbd7e04f1	-0.06201643
9	0xbc56c140	-0.013107598
10	0xbd36ac22	-0.044597752
11	0x3dbfe2c0	0.09369421
12	0x3da0f1c0	0.0785861
13	0xbd70b424	-0.058765545
14	0x3e06eb19	0.1317562
15	0x3c8c3b45	0.017118106
