checkpoints/casp15_inhouse_full_v8_fold9.ckpt (torch, 705335 bytes, 312 tensors)

resnet_embedding.node_embedding.weight f4 [32, 25]
-0.04983971 0.067695044 -0.08131507 0.0011986196 0.06714738 0.094256654 -0.052063096 -0.081719846
-0.032237507 0.06401661 -0.014361602 0.044139706 -0.06756681 -0.014741241 -0.027224427 0.07001298
0.09278673 0.085714206 0.061945472 0.1033646 -0.07914092 0.06303604 0.06632017 0.052086733
0.08645194 0.06656696 0.107326165 0.09369438 -0.010651959 0.021978073 0.09890024 0.041015085
0.11293415 0.018484116 0.024563614 -0.014429795 -0.10988926 0.06658437 -0.09180022 0.066449925
-0.013948402 0.06248544 -0.081026345 0.10598952 -0.07402572 -0.05797276 0.09207108 -0.0050336933
0.0122886095 -0.040806502 0.04527324 0.06644337 -0.061840203 0.03924185 0.050243925 0.022610227
0.09442013 0.031635005 0.013479155 -0.10004949 -0.07584799 0.028515944 0.023733309 -0.08870284
0.026121529 -0.10451905 0.017502336 -0.07148543 0.033463165 -0.09968301 0.11809017 -0.07478574
-0.020728305 0.10180039 -0.0742912 -0.116827466 0.005081148 -0.018439373 0.05651025 0.0369923
-0.10094012 0.079821035 0.002144108 -0.080602795 0.10717959 -0.015720332 -0.019753387 -0.03106803
-0.05031057 -0.11911513 0.067353584 0.08329862 -0.07394347 -0.048044957 -0.064189725 0.052736342
-0.07354358 0.02995177 -0.08376202 0.09471071 0.09987296 -0.11216495 0.07398965 -0.011664175
0.07418501 0.06104334 -0.11492964 -0.09594557 -0.08115405 0.05586501 -0.058524497 -0.0408602
-0.04363013 -0.038342174 -0.09482292 0.10162672 -0.03512509 -0.012314961 0.027881814 0.07908652
-0.011119104 0.03535813 -0.05374373 -0.057965558 0.06504847 -0.019835245 -0.08025707 -0.09355696
-0.012524172 -0.059616238 0.1118631 -0.06893406 -0.08820642 0.06341969 -0.003363176 0.020091733
-0.033173878 0.03782489 0.095821545 0.091414 -0.013251334 -0.07342865 0.07113429 0.10865471
-0.07957708 -0.112012096 -0.077461645 0.00014739712 -0.08151272 0.07439618 0.09458638 -0.11239791
-0.052047715 -0.013848704 -0.024368418 -0.086564995 0.10863441 0.055630464 0.07069365 0.11342396
0.09953342 0.03324499 -0.03612346 0.09934242 0.08114229 -0.05967393 -0.09810698 0.040983003
0.07905367 -0.057436142 0.08602405 -0.06541822 -0.03466187 -0.09153331 0.05115288 0.056948118
-0.10402069 0.06368868 0.07696953 -0.077986635 0.10665381 -0.046954107 -0.093505345 -0.11039552
0.040329013 0.090623684 -0.116830036 0.07710565 -0.08822447 -0.013480549 -0.062258594 -0.056605358
-0.09953572 -0.0130629325 -0.014593148 -0.011790752 0.08919303 0.09577502 -0.076313525 -0.10550041
0.07338194 0.08774607 0.037725903 0.11137878 -0.0323048 -0.10741951 0.08922294 -0.07230106
0.09493858 0.021925298 0.06291875 0.105101 -0.050860446 -0.077324614 -0.067151405 0.092712596
0.03911605 0.006076488 -0.07381059 0.06693219 -0.098616384 0.110999554 0.074673295 -0.019349396
-0.00040733637 -0.02306094 0.07656249 -0.033659793 0.08761287 -0.014775875 -0.07646634 -0.035985712
0.06286756 0.073881455 0.115990736 -0.016906211 -0.113736 0.011291149 0.10907665 -0.08562669
0.10203118 0.02634541 0.0025598141 -0.042976566 -0.08378498 0.026113994 0.0031292774 0.050948504
0.09924675 -0.029846152 -0.116908416 -0.009199719 -0.10599044 -0.046639822 -0.021410301 0.058657136
00000000: b924 4cbd b3a3 8a3d 8488 a6bd 001b 9d3a
00000010: 9184 893d a209 c13d 1d40 55bd bc5c a7bd
00000020: 7a0b 04bd 241b 833d ed4c 6bbc d6cb 343d
00000030: 7860 8abd 3f85 71bc c305 dfbc f762 8f3d
00000040: f806 be3d ee8a af3d 89ba 7d3d d2b0 d33d
00000050: a214 a2bd 0a19 813d dfd2 873d e658 553d
00000060: b70d b13d 4254 883d d2cd db3d d7e2 bf3d
00000070: 8e85 2ebc 5c0b b43c 368c ca3d 6fff 273d
00000080: 054a e73d 006c 973c a239 c93c f26a 6cbc
00000090: 9f0d e1bd 635d 883d c101 bcbd e616 883d
000000a0: d787 64bc bcf0 7f3d 24f1 a5bd 0911 d93d
000000b0: cc9a 97bd d874 6dbd c38f bc3d aef1 a4bb
000000c0: 2a56 493c b824 27bd 6f70 393d 7613 883d
000000d0: 274c 7dbd 10bc 203d 93cc 4d3d 1539 b93c
000000e0: 575f c13d b593 013d acd7 5c3c bfe6 ccbd
000000f0: 3156 9bbd 459a e93c 5b6c c23c d6a9 b5bd
00000100: d1fc d53c 150e d6bd 0f61 8f3c f466 92bd
00000110: ac10 093d 9b26 ccbd 42d9 f13d 4429 99bd
00000120: 68ce a9bc b97c d03d fc25 98bd 3d43 efbd
00000130: c27f a63b 2b0e 97bc 4b77 673d 3d85 173d
00000140: b2b9 cebd 3679 a33d 2a84 0c3b 1413 a5bd
00000150: f980 db3d edc7 80bc dbd1 a1bc 6282 febc
00000160: 7512 4ebd a2f2 f3bd adf0 893d 7898 aa3d
00000170: ad6f 97bd caca 44bd e775 83bd 1002 583d
00000180: 049e 96bd 6a5d f53c 6c8b abbd b0f7 c13d
00000190: 328a cc3d bdb6 e5bd e387 973d 191b 3fbc
000001a0: 4fee 973d 9508 7a3d 3b60 ebbd 1c7f c4bd
000001b0: 1834 a6bd b5d2 643d 62b7 6fbd 065d 27bd
000001c0: 82b5 32bd af0c 1dbd 8532 c2bd ab21 d03d
000001d0: 54df 0fbd b1c4 49bc 6768 e43c 1df8 a13d
000001e0: e72c 36bc b0d3 103d 6322 5cbd 4b6d 6dbd
000001f0: 2238 853d 867d a2bc d25d a4bd cb9a bfbd
00000200: 2f32 4dbc 2830 74bd 7b18 e53d 4d2d 8dbd
00000210: 91a5 b4bd 2fe2 813d bb68 5cbb 6b97 a43c
00000220: 55e1 07bd 46ee 1a3d 163e c43d 4337 bb3d
00000230: 201c 59bc c361 96bd dbae 913d 5c86 de3d
00000240: 4ff9 a2bd 9966 e5bd 36a4 9ebd 9d8e 1a39
00000250: 24f0 a6bd 065d 983d 81b6 c13d e030 e6bd
00000260: fc2f 55bd ade5 62bc 47a0 c7bc fd48 b1bd
00000270: b87b de3d c5dc 633d d5c7 903d d24a e83d
00000280: 2dd8 cb3d e62b 083d 31f6 13bd 0a74 cb3d
00000290: ee2d a63d a76c 74bd 50ec c8bd cbdd 273d
000002a0: e4e6 a13d 2942 6bbd 612d b03d fdf9 85bd
000002b0: 9bf9 0dbd d175 bbbd af85 513d 6e42 693d
000002c0: cd08 d5bd 366f 823d 33a2 9d3d 75b7 9fbd
000002d0: 506d da3d f352 40bd bb7f bfbd 0c17 e2bd
000002e0: 0930 253d e998 b93d 9644 efbd 91e9 9d3d
000002f0: 08af b4bd 85dd 5cbc de02 7fbd 05db 67bd
00000300: 62d9 cbbd e905 56bc 1918 6fbc 002e 41bc
00000310: d6aa b63d b225 c43d 444a 9cbd 9910 d8bd
00000320: 4549 963d 36b4 b33d 7a86 1a3d 8f1a e43d
00000330: 0a52 04bd c3fe dbbd 84ba b63d 9412 94bd
00000340: 296f c23d af9c b33c 8cdb 803d 313f d73d
00000350: 0b53 50bd 5e5c 9ebd ad86 89bd 1ae0 bd3d
00000360: 2738 203d 471d c73b 022a 97bd be13 893d
00000370: 63f7 c9bd bc53 e33d 50ee 983d a082 9ebc
00000380: c38f d5b9 4cea bcbc cbcc 9c3d dade 09bd
00000390: 606e b33d 8316 72bc 629a 9cbd c165 13bd
000003a0: b5c0 803d 294f 973d 8d8c ed3d e57e 8abc
000003b0: 6cee e8bd 83fe 383c 9463 df3d 0c5d afbd
000003c0: b9f5 d03d 54d2 d73c 8ec2 273b 3208 30bd
000003d0: 7697 abbd 04ed d53c 9014 4d3b 61af 503d
000003e0: e141 cb3d eb7f f4bc ae6d efbd 6bba 16bc
000003f0: 8411 d9bd 6609 3fbd a864 afbc 7742 703d

resnet_embedding.node_embedding.bias f4 [32]
0.06288411 -0.017488362 0.10040833 -0.095318206 -0.024432963 0.056188818 -0.10067294 0.02511168
0.09256737 0.003976118 0.0030911313 0.02030318 -0.050764114 -0.11360286 0.057228748 0.021329394
-0.02356099 -0.017103283 -0.033978846 -0.096113905 -0.00834183 0.090778485 0.053518966 -0.046700444
0.006060685 -0.042865153 0.07826512 0.0086961165 0.052010275 0.03584446 0.114948735 0.03460295
00000000: 62c9 803d c143 8fbc e2a2 cd3d 3136 c3bd
00000010: a327 c8bc 3f26 663d 9d2d cebd 03b7 cd3c
00000020: f693 bd3d 184a 823b 9494 4a3b db52 a63c
00000030: 08ee 4fbd 9ea8 e8bd b168 6a3d fbba ae3c
00000040: fa02 c1bc 2f1c 8cbc 672d 0bbd 5ed7 c4bd
00000050: 2cac 08bc 12ea b93d b436 5b3d f748 3fbd
00000060: b698 c63b 5f93 2fbd 7749 a03d 287a 0e3c
00000070: ba08 553d a4d1 123d 3e6a eb3d d3bb 0d3d

resnet_embedding.bn_node.weight f4 [32]
0.5833046 0.5875359 0.5851238 0.5839799 0.58110774 0.5832908 0.5850648 0.58435404
0.5857561 0.58729976 0.5852926 0.5840798 0.5848241 0.5876304 0.5895757 0.58593965
0.58283323 0.5867204 0.5839454 0.5843884 0.5884905 0.58265394 0.5877958 0.58477116
0.5855545 0.584826 0.5831523 0.58672905 0.5886119 0.5835305 0.5880145 0.5822915
00000000: 7353 153f c168 163f acca 153f b57f 153f
00000010: 7ac3 143f 8c52 153f cfc6 153f 3a98 153f
00000020: 1df4 153f 4759 163f bcd5 153f 4186 153f
00000030: 08b7 153f f26e 163f 6fee 163f 2400 163f
00000040: 8f34 153f 4f33 163f 727d 153f 7a9a 153f
00000050: 50a7 163f cf28 153f c979 163f 90b3 153f
00000060: e6e6 153f 28b7 153f 7849 153f e033 163f
00000070: 45af 163f 4162 153f 1e88 163f 0e11 153f

resnet_embedding.bn_node.bias f4 [32]
-0.0015939319 0.0034761403 -0.00036782844 -0.00095985446 -0.0038733569 -0.0016910945 0.0011466661 -0.00012982004
0.0009971086 0.0027069002 -0.00011761659 -0.002363076 6.2449726e-05 0.0033551566 0.0033472814 -3.6213845e-05
-0.002480694 0.0012592701 -0.0015220838 -0.0016048464 0.002631931 -0.0021566576 0.0009255279 -0.0003611954
0.0012263581 0.0006896023 -0.0019220337 0.00081736734 0.0056423657 -0.002212111 0.00037248287 -0.0012909361
00000000: 7beb d0ba f5cf 633b 19d9 c0b9 be9e 7bba
00000010: 25d8 7dbb b7a7 ddba bb4b 963a 4d20 08b9
00000020: 6ab1 823a 4066 313b eda8 f6b8 d6dd 1abb
00000030: 71f7 8238 30e2 5b3b 105e 5b3b 52e4 17b8
00000040: 2493 22bb 180e a53a a880 c7ba b659 d2ba
00000050: 7a7c 2c3b b656 0dbb 209f 723a d35e bdb9
00000060: c0bd a03a 6dc6 343a c0ec fbba 9844 563a
00000070: 98e3 b83b 10f9 10bb ce49 c339 a134 a9ba

resnet_embedding.bn_node.running_mean f4 [32]
0.32238582 0.27643028 0.05730512 -0.20797624 -0.18250307 -0.037520334 0.098054536 -0.24011762
0.35882965 0.1919453 -0.09652406 -0.26388243 0.052001305 -0.0032491304 -0.1478837 0.26857698
0.026466737 0.041908734 0.16993915 0.07411877 -0.39388043 0.073376484 0.14229465 0.29076943
0.06395441 0.098994516 0.06665068 0.07429619 -0.33443964 0.08518968 -0.14937305 -0.23775214
00000000: c10f a53e 4588 8d3e c6b8 6a3d b9f7 54be
00000010: 16e2 3abe ecae 19bd d1d0 c83d 65e1 75be
00000020: 85b8 b73e 4f8d 443e 68ae c5bd 991b 87be
00000030: 52ff 543d 5def 54bb d36e 17be ec82 893e
00000040: c5d0 d83c 7ea8 2b3d 8704 2e3e 95cb 973d
00000050: b2aa c9be 6946 963d b0b5 113e bbdf 943e
00000060: 88fa 823d a3bd ca3d 2780 883d 9a28 983d
00000070: ac3b abbe ed77 ae3d 40f5 18be 4c75 73be

resnet_embedding.bn_node.running_var f4 [32]
0.010669682 0.020563167 0.009235084 0.008003791 0.020086765 0.008401675 0.016539935 0.012648329
0.01311015 0.012206566 0.01314333 0.020227328 0.011503743 0.008791977 0.01384605 0.00886163
0.002419603 0.005537665 0.0068267314 0.012810152 0.020771911 0.0076816464 0.0069750347 0.01886829
0.009034335 0.009290755 0.004577711 0.005407747 0.0200797 0.0075193364 0.019530155 0.014397496
00000000: e4cf 2e3c 1674 a83c c04e 173c 5522 033c
00000010: 008d a43c 2ea7 093c c27e 873c f03a 4f3c
00000020: f4cb 563c 0cfe 473c 1f57 573c c8b3 a53c
00000030: 327a 3c3c 390c 103c 8bda 623c 5f30 113c
00000040: 3492 1e3b 4d75 b53b c6b2 df3b ace1 513c
00000050: db29 aa3c 52b6 fb3b d58e e43b ac91 9a3c
00000060: bf04 143c 4038 183c a000 963b 7833 b13b
00000070: 2f7e a43c c464 f63b b4fd 9f3c 7ae3 6b3c

resnet_embedding.edge_embedding.weight f4 [32, 7]
0.12006663 -0.12555301 -0.09572092 0.0390724 -0.19004242 0.061868835 0.091856726 -0.14931487
-0.070793256 -0.031321652 -0.056088116 0.067703865 0.21143624 -0.14674589 -0.010462863 0.026948744
0.15434162 0.13230361 0.007915979 -0.007351845 -0.022850227 -0.17633227 0.15491661 0.033802245
0.074013524 0.15302189 -0.13958059 0.06750556 0.10345785 0.1653851 0.13021477 0.09666321
-0.18902464 0.16012874 -0.011075531 -0.061472535 0.120210655 -0.03377158 -0.20100898 -0.10368172
-0.06369959 0.08284819 -0.08939193 -0.19042827 0.029566964 -0.09133354 -0.21604387 -0.022005664
0.0925412 -0.033451885 0.034633424 -0.03734204 0.11424299 0.19007316 0.10064117 -0.13649745
0.017030548 -0.20460631 -0.04116613 0.15685873 -0.14782494 0.1688348 0.15521109 0.05579456
-0.13006313 -0.03880712 -0.07840857 -0.21515812 -0.09340977 -0.18866315 0.08085397 0.05013279
-0.11149761 0.02787146 0.009312084 -0.12160207 0.09061069 0.21175782 -0.15712571 0.014815564
-0.20033783 -0.027495066 -0.19449583 -0.036840074 0.16171332 0.023251629 0.004339128 -0.17644809
0.12220982 -0.19300158 -0.108832866 -0.05935305 0.059750892 0.20257063 -0.061992306 -0.064970456
-0.037422877 0.018850898 0.07830621 0.0032844068 -0.13503388 -0.11252497 -0.09457267 0.06093586
0.11366811 -0.20110351 -0.042595524 0.005220277 -0.05923389 -0.06385396 0.002083264 -0.057152864
-0.07626393 -0.14168327 -0.19582789 -0.043349348 0.11959082 0.024692703 0.16182572 0.10438474
-0.14873809 0.03625213 -0.08125224 -0.14172374 0.14627299 0.16831677 -0.20352459 -0.055387255
0.15630041 0.16917889 0.08967931 0.09987513 0.006234366 -0.0828213 -0.08295068 -0.10429166
0.09020905 0.016562933 0.10345546 0.07037218 0.20776632 0.06057041 0.19999647 0.022827294
0.13055687 -0.1325731 -0.172726 -0.07716432 -0.098588854 0.19130108 -0.09869317 0.051811375
0.11632584 -0.14433488 0.18332371 0.013762834 0.17913902 -0.20751455 -0.07024938 0.18463568
-0.09534915 -0.14744218 0.20657542 0.11212325 0.12919575 0.04600474 0.08140306 0.15878877
-0.07412237 -0.029811889 -0.0832039 0.12000944 0.0837362 0.017629893 0.15822878 -0.030694583
-0.09312777 0.17267601 0.100223996 -0.097614296 -0.017938511 -0.037409898 -0.0135029815 -0.001719487
0.005636558 0.1690613 -0.08358594 0.08547416 -0.029954076 -0.08797553 -0.22112267 -0.08802847
-0.043292176 0.19568832 0.0002890258 -0.016598033 -0.088673316 -0.029210841 0.06405557 0.15055658
0.21973805 0.18460324 -0.015316733 -0.06332817 -0.017218798 0.08434149 -0.09691505 0.048349798
0.033627287 -0.15917084 -0.10674567 0.031934284 0.097649515 0.16159996 0.10323225 -0.095571764
-0.1248735 -0.18996598 0.16550979 0.0771882 -0.19623075 0.2016404 0.22041546 -0.1781307
00000000: 7ee5 f53d f890 00be 5409 c4bd 620a 203d
00000010: 7b9a 42be 2d6a 7d3d 611f bc3d ffe5 18be
00000020: 0efc 90bd 224b 00bd a7bc 65bd 53a8 8a3d
00000030: be82 583e 8e44 16be 6e6c 2bbc 9dc3 dc3c
00000040: bb0b 1e3e 997a 073e 06b2 013c bfe7 f0bb
00000050: 6630 bbbc 7290 34be 76a2 1e3e 3974 0a3d
00000060: 6794 973d c5b1 1c3e 37ee 0ebe 5b40 8a3d
00000070: b6e1 d33d b65a 293e 0557 053e 5cf7 c53d
00000080: ad8f 41be caf8 233e 2576 35bc a0ca 7bbd
00000090: 0131 f63d 1154 0abd 4cd5 4dbe 1557 d4bd
000000a0: ee74 82bd 50ac a93d 1e13 b7bd a1ff 42be
000000b0: 6b36 f23c 140d bbbd 9b3a 5dbe 3945 b4bc
000000c0: 3e86 bd3d d804 09bd c7db 0d3d f8f3 18bd
000000d0: 3bf8 e93d 8aa2 423e f51c ce3d fdc5 0bbe
000000e0: a683 8b3c 5184 51be d19d 28bd 939f 203e
000000f0: 6c5f 17be 08e3 2c3e a8ef 1e3e d688 643d
00000100: 452f 05be 37f4 1ebd ac94 a0bd 6952 5cbe
00000110: 9f4d bfbd ea30 41be c496 a53d 0a58 4d3d
00000120: dc58 e4bd b052 e43c b691 183c 820a f9bd
00000130: 1992 b93d 0bd7 583e 90e5 20be fbbc 723c
00000140: 5c25 4dbe 553d e1bc ea29 47be 9ee5 16bd
00000150: 2d98 253e 337a be3c 3e2f 8e3b cfae 34be
00000160: 2449 fa3d 35a2 45be c4e3 debd 2f1c 73bd
00000170: 5abd 743d ad6e 4f3e a5eb 7dbd 3b0f 85bd
00000180: bb48 19bd 336d 9a3c 025f a03d 343f 573b
00000190: 5246 0abe 7e73 e6bd 51af c1bd e197 793d
000001a0: d3ca e83d 14ee 4dbe a578 2ebd db0e ab3b
000001b0: 3c9f 72bd ddc5 82bd 5f87 083b 1f19 6abd
000001c0: 4330 9cbd 6b15 11be 1b87 48be 168f 31bd
000001d0: 08ec f43d 5a48 ca3c a4b5 253e abc7 d53d
000001e0: cc4e 18be 1d7d 143d 9367 a6bd 0720 11be
000001f0: 96c8 153e 3b5b 2c3e c068 50be bfdd 62bd
00000200: 370d 203e 3b3d 2d3e c9a9 b73d 558b cc3d
00000210: a749 cc3b 379e a9bd 0ce2 a9bd de96 d5bd
00000220: 86bf b83d fdae 873c 75e0 d33d 4a1f 903d
00000230: b2c0 543e ae18 783d e0cb 4c3e 4e00 bb3c
00000240: b3b0 053e 3ec1 07be 16df 30be 5408 9ebd
00000250: f4e8 c9bd 6ee4 433e a51f cabd 2a38 543d
00000260: 3e3c ee3d 86cc 13be 36b9 3b3e 827d 613c
00000270: 3870 373e b27e 54be e8de 8fbd 2311 3d3e
00000280: 6a46 c3bd 15fb 16be 8288 533e e0a0 e53d
00000290: e44b 043e 776f 3c3d a6b6 a63d 8699 223e
000002a0: 78cd 97bd 1038 f4bc ce66 aabd 82c7 f53d
000002b0: e37d ab3d 916c 903c ba06 223e 3573 fbbc
000002c0: c6b9 bebd fbd1 303e 3d42 cd3d 01ea c7bd
000002d0: c9f3 92bc 1f3b 19bd 9c3b 5dbc 6960 e1ba
000002e0: e0b2 b83b 681e 2d3e 1b2f abbd 140d af3d
000002f0: 4062 f5bc 842c b4bd fb6d 62be 4548 b4bd
00000300: 2353 31bd 8562 483e 6388 9739 99f8 87bc
00000310: 5b9a b5bd 934b efbc 912f 833d 812b 1a3e
00000320: 0303 613e a208 3d3e 09f3 7abc 33b2 81bd
00000330: 700e 8dbc 3bbb ac3d 667b c6bd 700a 463d
00000340: c4bc 093d aefd 22be 799d dabd 86cd 023d
00000350: 78fc c73d 767a 253e 6e6b d33d 21bb c3bd
00000360: adbd ffbd 7186 42be 667b 293e d914 9e3d
00000370: b7f0 48be d27a 4e3e 97b4 613e e567 36be

resnet_embedding.edge_embedding.bias f4 [32]
0.10300333 -0.16102384 -0.11935988 -0.1448286 -0.17571427 0.15447679 0.21128425 0.18602526
-0.07973124 0.060677845 -0.029178862 0.07503796 -0.114646144 -0.16314971 0.06600326 -0.0405782
0.1250118 -0.11054086 0.21231885 0.16437049 -0.006414533 0.18327385 -0.020412985 -0.17540534
0.13193482 -0.14681958 0.17251872 0.21235001 0.10442074 0.14588842 -0.22046109 0.07322905
00000000: 69f3 d23d 6fe3 24be f472 f4bd f34d 14be
00000010: 71ee 33be 2a2f 1e3e e65a 583e 687d 3e3e
00000020: 224a a3bd 5589 783d 8208 efbc 81ad 993d
00000030: 99cb eabd b810 27be b82c 873d 5435 26bd
00000040: 1803 003e 3f63 e2bd 1d6a 593e bd50 283e
00000050: 0131 d2bb 24ac 3b3e 2239 a7bc 759d 33be
00000060: ec19 073e df57 16be bfa8 303e 4872 593e
00000070: 8ada d53d c663 153e 8dc0 61be 1df9 953d

resnet_embedding.bn_edge.weight f4 [32]
0.5853146 0.5853047 0.5853194 0.5852938 0.5853331 0.5853156 0.58531445 0.5853137
0.58532387 0.58532053 0.58530325 0.5853114 0.58534116 0.5852975 0.5853217 0.58531433
0.5853266 0.58530056 0.5853181 0.5853036 0.5853074 0.58532053 0.5853269 0.58533424
0.5853202 0.58534044 0.5853152 0.5853006 0.5853037 0.5853162 0.58531326 0.58530134
00000000: 2dd7 153f 87d6 153f 7ed7 153f d1d5 153f
00000010: 64d8 153f 3ed7 153f 2bd7 153f 1ed7 153f
00000020: c9d7 153f 91d7 153f 6fd6 153f f8d6 153f
00000030: ebd8 153f 0fd6 153f a5d7 153f 29d7 153f
00000040: f7d7 153f 42d6 153f 68d7 153f 75d6 153f
00000050: b5d6 153f 91d7 153f fcd7 153f 77d8 153f
00000060: 8bd7 153f dfd8 153f 38d7 153f 43d6 153f
00000070: 77d6 153f 48d7 153f 17d7 153f 4fd6 153f

resnet_embedding.bn_edge.bias f4 [32]
-6.000248e-06 -1.2050765e-05 3.3052838e-06 -2.0565592e-05 1.7515851e-05 -5.405563e-06 -1.14956465e-05 -5.4814495e-06
6.784508e-06 5.4690154e-06 -1.6450149e-05 -1.4537551e-05 3.1755346e-05 -1.5251305e-05 -1.155676e-06 -5.2654373e-06
1.6884278e-05 -8.471392e-06 3.5230973e-06 -1.21800895e-05 -2.0662142e-06 1.5521758e-06 1.471592e-05 1.3601915e-05
3.142371e-06 3.207239e-05 -1.0414596e-05 -1.3899185e-05 -1.432514e-05 -1.2378661e-06 -5.912083e-06 -2.2677978e-05
00000000: bd55 c9b6 a42d 4ab7 58d0 5d36 4684 acb7
00000010: 01ef 9237 6f61 b5b6 6ddd 40b7 4bed b7b6
00000020: 7ba6 e336 7c82 b736 6dfe 89b7 4ee6 73b7
00000030: 0b31 0538 dbdf 7fb7 ba1c 9bb5 c3ad b0b6
00000040: b6a2 8d37 5a20 0eb7 5a6e 6c36 1659 4cb7
00000050: 4aa9 0ab6 5b54 d035 65e4 7637 c833 6437
00000060: 86e1 5236 7785 0638 59ba 2eb7 8c30 69b7
00000070: 0256 70b7 c124 a6b5 6860 c6b6 963c beb7

resnet_embedding.bn_edge.running_mean f4 [32]
0.039716486 -0.2305366 0.023813229 -0.10163027 0.074381925 0.022874208 -0.043532234 0.3103799
-0.08418912 -0.20151456 -0.037779544 -0.070980795 -0.14261517 -0.12327751 0.0039896523 -0.23874438
-0.022561627 -0.100276135 0.30746043 0.1244128 0.22050665 0.19351229 0.136182 0.053127315
0.15589313 -0.13378403 0.2372427 0.05815692 0.31001425 0.10709914 -0.17035912 0.15635854
00000000: c1ad 223d c911 6cbe f613 c33c 8823 d0bd
00000010: 8d55 983d b162 bb3c db4e 32bd 1dea 9e3e
00000020: 586b acbd d559 4ebe b9be 1abd 615e 91bd
00000030: b609 12be eb78 fcbd a1bb 823b 6879 74be
00000040: 29d3 b8bc 935d cdbd 746b 9d3e 23cc fe3d
00000050: 7fcc 613e 1628 463e 4b73 0b3e 079c 593d
00000060: 73a2 1f3e aefe 08be c0ef 723e f335 6e3d
00000070: 30ba 9e3e cb56 db3d 9f72 2ebe 741c 203e

resnet_embedding.bn_edge.running_var f4 [32]
0.009130294 0.0076070316 0.0099761775 0.0060738847 0.013648056 0.010611329 0.030758632 0.013792962
0.008536552 0.022044847 0.0029146466 0.008078765 0.0037209904 0.0018868068 0.010551918 0.011353542
0.016649434 0.010439273 0.008510765 0.003277146 0.0363413 0.006672486 0.0071817464 0.017522223
0.0045772456 0.0018887627 0.0016212692 0.007107652 0.01717134 0.0050941478 0.012213912 0.012001113
00000000: 3b97 153c 6844 f93b 1f73 233c 7007 c73b
00000010: 199c 5f3c 24db 2d3c 87f9 fb3c e0fb 613c
00000020: e5dc 0b3c 6597 b43c a803 3f3b cc5c 043c
00000030: dcdb 733b bb4e f73a f4e1 2c3c 3504 3a3c
00000040: 6564 883c 7c09 2b3c bc70 0b3c 63c5 563b
00000050: 9dda 143d dfa4 da3b db54 eb3b c48a 8f3c
00000060: b8fc 953b 5c90 f73a c480 d43a 4ee7 e83b
00000070: e9aa 8c3c cfec a63b dc1c 483c 51a0 443c

graph_transformer_layer.0.attention.Q.weight f4 [32, 32]
-0.048912905 -0.009394339 0.08386946 0.03378284 0.029231463 0.051956 0.07538258 0.06822581
0.05634497 0.07895229 0.02007054 -0.02779951 0.008849001 -0.008877196 -0.035797022 -0.031661168
0.09553579 0.08575234 0.06479122 -0.0836028 0.01764348 0.015470284 0.09107967 -0.097119436
-0.029220331 -0.04745378 0.062632374 -0.09867054 -0.003346903 -0.060303245 0.0002216156 0.044514064
-0.07563537 -0.02463672 -0.017568728 0.05801311 -0.07500518 0.026608704 0.071686156 0.0697607
-0.004850451 0.05411859 0.10289968 0.052267075 0.095068045 0.060225062 0.059351318 -0.021365318
-0.07398919 0.021062875 0.0907599 -0.028363967 -0.006040742 0.07320957 0.020173369 0.00682953
0.026339617 -0.055955306 0.065877 0.033697378 -0.06661142 -0.08438431 0.038755853 -0.01599721
-0.04294297 0.01573262 -0.011698416 -0.05665302 -0.027451709 0.018203296 -0.009815068 -0.07690563
0.08011219 -0.02558606 0.098434485 0.07806275 -0.08165589 0.03402276 0.008492984 0.06684446
0.020089824 0.01603769 0.067225404 0.06239968 0.06750401 0.016582394 -0.07662638 0.069205895
0.08036778 0.10094092 -0.10173777 0.0054773293 -0.018597508 0.06755744 -0.020250445 -0.01423683
0.05254205 0.027246976 0.080796756 0.032456413 -0.086268224 -0.011179555 -0.07793746 0.007473453
0.0021570302 0.08166917 -0.024909776 -0.08986762 -0.09985128 -0.020973973 0.0052090534 0.0680828
0.014543217 -0.069059975 -0.0961764 0.060456693 -0.04488297 -0.0870894 -0.0132940905 0.06625683
0.10133656 0.058560316 -0.012102122 0.092853755 -0.026861869 -0.0065390924 0.051603027 0.0718611
-0.06258876 0.058593243 0.03635999 -0.06212804 0.07287711 -0.07307623 0.04521737 0.04773732
0.08342226 0.035262764 -0.076386526 -0.100607574 -0.03111875 -0.070085905 0.025515495 0.013522692
-0.008692368 0.02336834 -0.0077445544 -0.07499828 0.03608401 0.034250528 0.04671908 0.0028547603
0.062141377 0.07974369 -0.07356482 0.1032497 -0.076245174 -0.07799685 -0.032010667 -0.002185946
-0.015196021 -0.0150510995 0.018827189 -0.03389824 0.0004731957 0.09126523 -0.06801701 0.05229037
-0.050364655 -0.05817574 -0.010332813 -0.030952126 -0.09087358 -0.033097435 -0.102448784 -0.049005594
-0.10167889 -0.07493557 -0.04551845 -0.060857978 -0.0031886897 -0.008105427 -0.07986767 0.07884628
0.066278614 -0.08876055 0.02216138 0.0016212142 0.043627504 -0.05265755 -0.06581073 0.012996012
0.09477077 -0.039320707 0.08816406 -0.06932059 -0.017593604 -0.04494877 0.025516795 0.074186385
-0.09796566 -0.078034975 -0.088179186 -0.009206298 0.022628618 -0.06894498 -0.049617905 0.021044232
0.052418426 -0.04550287 -0.054639786 0.058518346 0.0452484 0.09179256 0.100335725 -0.07371531
0.045365803 0.08229487 0.093730785 0.058094434 -0.054833714 -0.073963605 -0.054620426 0.008717344
0.09864446 0.09644717 0.0046048095 0.013926483 -0.0010710777 -0.057066686 0.07126799 0.01167886
0.065664545 -0.090327986 0.07645821 -0.08590855 0.06864936 -0.07422146 -0.057714693 0.040320694
0.09466727 0.057638794 0.032656703 -0.019960834 0.066689365 -0.007450162 0.039282534 -0.044531908
-0.034286246 0.03910838 -0.037680175 -0.017423607 0.057827633 0.04371565 0.026122384 -0.045449972
00000000: e658 48bd b7ea 19bc c0c3 ab3d e05f 0a3d
00000010: d276 ef3c d1cf 543d 2f62 9a3d f9b9 8b3d
00000020: fcc9 663d bdb1 a13d f96a a43c ccbb e3bc
00000030: 66fb 103c a971 11bc e69f 12bd 24af 01bd
00000040: 45a8 c33d ec9e af3d 42b1 843d f237 abbd
00000050: 0f89 903c 1377 7d3c fa87 ba3d 8ee6 c6bd
00000060: 7a5f efbc e55e 42bd 6745 803d c813 cabd
00000070: b757 5bbb 8900 77bd 7c61 6839 6154 363d
00000080: b8e6 9abd f2d2 c9bc 4bec 8fbc 289f 6d3d
00000090: 519c 99bd 7ffa d93c 31d0 923d b3de 8e3d
000000a0: 88f0 9ebb 74ab 5d3d 11bd d23d 0016 563d
000000b0: 09b3 c23d 8eae 763d 5e1a 733d 5206 afbc
000000c0: a587 97bd 0d8c ac3c 54e0 b93d 8d5b e8bc
000000d0: 6bf1 c5bb e6ee 953d 9f42 a53c 40ca df3b
000000e0: 2ec6 d73c 6431 65bd 85ea 863d 4306 0a3d
000000f0: 916b 88bd aed1 acbd 75be 1e3d 950c 83bc
00000100: f8e4 2fbd b2e1 803c b7aa 3fbc ff0c 68bd
00000110: 68e2 e0bc 141f 953c 61cf 20bc b380 9dbd
00000120: dc11 a43d db99 d1bc 0598 c93d 5ddf 9f3d
00000130: 343b a7bd 735b 0b3d 2826 0b3c c0e5 883d
00000140: 6a93 a43c 7961 833c 79ad 893d cf96 7f3d
00000150: 8b3f 8a3d cdd7 873c 4bee 9cbd d2bb 8d3d
00000160: dd97 a43d 1dba ce3d e45b d0bd 2b7b b33b
00000170: cd59 98bc 8e5b 8a3d 43e4 a5bc 9841 69bc
00000180: 5536 573d 0d35 df3c c578 a53d 04f1 043d
00000190: 65ad b0bd 742a 37bc ad9d 9fbd dee3 f43b
000001a0: f65c 0d3b 2a42 a73d 960f ccbc 840c b8bd
000001b0: d47e ccbd 9cd1 abbc b5b0 aa3b ff6e 8b3d
000001c0: ac46 6e3c 516f 8dbd 22f8 c4bd 70a1 773d
000001d0: 35d7 37bd ed5b b2bd 75cf 59bc a9b1 873d
000001e0: 8b89 cf3d f1dc 6f3d fb47 46bc 1c2a be3d
000001f0: 6c0d dcbc e245 d6bb b25d 533d ea2b 933d
00000200: 892e 80bd 78ff 6f3d 36ee 143d f979 7ebd
00000210: 9840 953d fea8 95bd d935 393d 3588 433d
00000220: 4ad9 aa3d b06f 103d 8a70 9cbd 580b cebd
00000230: c0ec febc 3389 8fbd df05 d13c 488e 5d3c
00000240: 6f6a 0ebc f66e bf3c 08c6 fdbb b398 99bd
00000250: d4cc 133d 484a 0c3d 825c 3f3d ee16 3b3b
00000260: f587 7e3d a950 a33d 27a9 96bd 9474 d33d
00000270: 6e26 9cbd d0bc 9fbd 9e1d 03bd 1742 0fbb
00000280: bbf8 78bc e398 76bc 7a3b 9a3c e2d8 0abd
00000290: 4017 f839 44e9 ba3d 814c 8bbd 6d2e 563d
000002a0: 2b4b 4ebd af49 6ebd f54a 29bc 508f fdbc
000002b0: ed1b babd 2d91 07bd abd0 d1bd 17ba 48bd
000002c0: 063d d0bd d277 99bd 8e71 3abd 3746 79bd
000002d0: 56f9 50bb a0cc 04bc a991 a3bd 297a a13d
000002e0: 15bd 873d 17c8 b5bd c88b b53c ec7e d43a
000002f0: c1b2 323d 71af 57bd c7c7 86bd 3aed 543c
00000300: 2d17 c23d c00e 21bd 5c8f b43d f4f7 8dbd
00000310: 7620 90bc 341c 38bd 9908 d13c 08ef 973d
00000320: 38a2 c8bd cdd0 9fbd 4a97 b4bd 03d6 16bc
00000330: a75f b93c 0733 8dbd 253c 4bbd f464 ac3c
00000340: b4b4 563d 3861 3abd f8cd 5fbd efb0 6f3d
00000350: 6356 393d bdfd bb3d d17c cd3d 0df8 96bd
00000360: 7ed1 393d 368a a83d edf5 bf3d 6ef4 6d3d
00000370: 5199 60bd 3b7a 97bd abb9 5fbd 31d3 0e3c
00000380: 1b06 ca3d 1886 c53d f1e3 963b e72b 643c
00000390: 6763 8cba c2be 69bd f4f4 913d b058 3f3c
000003a0: 227b 863d e1fd b8bd 1f96 9c3d d2f0 afbd
000003b0: 0998 8c3d 6c01 98bd 3e66 6cbd 5027 253d
000003c0: eae0 c13d a816 6c3d 09c3 053d e784 a3bc
000003d0: 6f94 883d 7d20 f4bb b9e6 203d 1767 36bd
000003e0: bc6f 0cbd 1c30 203d 8756 1abd f4bb 8ebc
000003f0: abdc 6c3d 2e0f 333d 9cfe d53c c029 3abd

graph_transformer_layer.0.attention.Q.bias f4 [32]
0.067514956 -0.01205714 -0.053720348 -0.094069034 0.082681224 0.02950717 -0.024335222 -0.09754631
-0.07708168 -0.07761709 0.040762547 0.030290132 0.010350525 -0.10007269 -0.0901484 0.073382765
-0.009074991 0.10051207 -0.016168721 0.068281494 0.09501336 0.084745765 -0.07164058 -0.053646278
-0.022382885 -0.016870758 -0.08229806 -0.011238291 -0.065956846 -0.0028646863 -0.058007434 0.030892255
00000000: 4845 8a3d 4f8b 45bc de09 5cbd 44a7 c0bd
00000010: c654 a93d 05b9 f13c a95a c7bc 5cc6 c7bd
00000020: 00dd 9dbd b5f5 9ebd a1f6 263d 0323 f83c
00000030: 4095 293c e9f2 ccbd b99f b8bd b449 963d
00000040: 45af 14bc 46d9 cd3d 4474 84bc 2bd7 8b3d
00000050: 5d96 c23d 308f ad3d 4cb8 92bd 33bc 5bbd
00000060: 505c b7bc 8b34 8abc e38b a8bd cf20 38bc
00000070: 6214 87bd 76bd 3bbb 3499 6dbd c111 fd3c

graph_transformer_layer.0.attention.K.weight f4 [32, 32]
-0.043466367 0.050735377 0.09692643 -0.012462898 0.09172967 -0.0953993 0.07237133 0.049898718
0.046731804 0.097092874 0.06627542 0.10258384 -0.0922011 -0.03504009 0.06317208 -0.060931582
-0.005642168 -0.10211125 -0.01802227 0.077415444 0.070493855 -0.024487006 -0.08713034 0.017892139
-0.05296339 -0.09450087 -0.06163239 0.072310545 0.07199045 -0.08748236 0.101466276 0.04605072
-0.07076557 -0.042331208 -0.0558589 -0.044070873 -0.029510094 -0.033116855 0.007204235 0.07314189
-0.01914152 0.04526003 -0.07004496 0.0647554 -0.047775097 -0.017125223 0.031269886 0.010844426
-0.0044184057 -0.06486192 -0.04421105 -0.10307464 -0.088328615 0.02332174 0.019630695 -0.09970367
-0.040372834 0.039290722 0.048023246 0.09521736 -0.036474537 -0.058590613 -0.07461477 -0.043910038
0.093181565 -0.06996702 0.049399294 -0.0782367 -0.07508754 -0.03954126 -0.08492887 0.05362339
0.069554396 0.0037960717 -0.09210786 -0.048053462 0.10004115 -0.09252433 -0.09337734 0.05642027
0.048803903 0.026790392 0.03437282 0.058067888 0.06315646 -0.08719106 0.0977477 0.035046145
-0.09610249 0.04300011 -0.069131576 -0.080358155 -0.07150177 0.015963094 -0.09522392 0.04325612
-0.056695152 -0.027198859 0.042460114 0.08953437 0.064900406 0.05565265 0.044013087 -0.011561146
0.07061299 0.08644955 -0.041315872 0.07144919 0.057949092 0.0701194 -0.05013867 0.047107104
-0.051767904 -0.034740504 0.058720946 0.094557256 0.026413452 -0.022055479 0.039511338 0.06537418
0.055171862 0.00738928 0.03677354 0.05851195 0.0480114 -0.08726699 0.0817242 -0.0057101566
0.08209206 0.026134107 -0.051582333 0.040560454 0.059558004 -0.025722899 0.0066908286 0.019264415
0.09999076 0.071646206 -0.024427444 -0.094113246 -0.007345247 0.037862975 0.03383638 0.059485793
0.04734393 0.05396566 -0.09245054 0.018499274 -0.04270705 -0.068499476 0.075780936 0.017129509
0.0012879842 0.08414015 0.088800885 0.06865706 -0.06292001 -0.0070044133 -0.02198334 -0.059869166
0.026786998 -0.04627482 0.0001260027 0.08548095 0.059555247 0.048301123 -0.0208331 -0.0286705
-0.07134919 0.05605198 0.006593132 0.01508625 0.08897346 -0.031093715 -0.010598503 -0.091918506
0.032736577 -0.05666816 0.0946348 -0.01951658 0.07744184 0.08298182 0.06616779 0.080456555
0.102033846 0.0037572454 0.0034511255 0.0017798012 0.03373382 -0.09002889 0.08414937 -0.08212175
0.023068033 -0.09001266 0.098954335 -0.04024674 0.06777605 -0.1018167 0.04865731 -0.0878116
0.04829159 -0.020974357 -0.00964241 0.08993799 -0.076923415 0.03392217 0.056848004 0.06449641
-0.006979965 0.09276123 -0.09699707 -0.0053586373 0.051509116 -0.09498191 -0.08560744 -0.09510404
-0.05601721 0.035188302 0.01533269 -0.05437271 0.04884481 0.02484166 -0.054299936 0.08047962
0.09877192 0.051388424 0.07147249 -0.027946861 -0.024299745 0.067053765 0.0569263 0.02599392
0.096976854 -0.09556923 0.014618294 0.032654125 0.0047796736 -0.03222186 0.06332546 -0.027122548
-0.08379838 -0.037809893 -0.0020888299 0.09031092 -0.09212849 -0.03452684 0.09713813 -0.049491733
0.018492803 -0.051781707 0.056326568 -0.06914302 0.0921071 0.030389309 0.07034065 0.023283293
00000000: ca09 32bd e6cf 4f3d 5d81 c63d 2f31 4cbc
00000010: c4dc bb3d b560 c3bd 6b37 943d 9962 4c3d
00000020: d969 3f3d a1d8 c63d 68bb 873d 7a17 d23d
00000030: eed3 bcbd 3386 0fbd 5d60 813d 6593 79bd
00000040: f0e1 b8bb b41f d1bd 71a3 93bc fd8b 9e3d
00000050: 155f 903d f998 c8bc 6471 b2bd 8992 923c
00000060: 24f0 58bd ac89 c1bd 3f72 7cbd 8d17 943d
00000070: bb6f 933d f429 b3bd 8dcd cf3d ae9f 3c3d
00000080: 8aed 90bd 7d63 2dbd 4dcc 64bd a983 34bd
00000090: 27bf f1bc 8aa5 07bd 8111 ec3b 6acb 953d
000000a0: adce 9cbc 9562 393d bb73 8fbd 7b9e 843d
000000b0: d2af 43bd 324a 8cbc da14 003d d2ac 313c
000000c0: 46c8 90bb 54d6 84bd a516 35bd cc18 d3bd
000000d0: a2e5 b4bd 3c0d bf3c 8dd0 a03c 7031 ccbd
000000e0: fc5d 25bd 4fef 203d 06b4 443d 5201 c33d
000000f0: 5366 15bd b6fc 6fbd a1cf 98bd 03db 33bd
00000100: fad5 be3d de4a 8fbd ea56 4a3d 903a a0bd
00000110: 7fc7 99bd 04f6 21bd 30ef adbd 33a4 5b3d
00000120: 8972 8e3d 84c7 783b 0ca3 bcbd b5d3 44bd
00000130: 60e2 cc3d 657d bdbd 9e3c bfbd f118 673d
00000140: 9ae6 473d 8677 db3c 84ca 0c3d 98d8 6d3d
00000150: 2d58 813d 3a91 b2bd f22f c83d 8c8c 0f3d
00000160: 62d1 c4bd e220 303d db94 8dbd d192 a4bd
00000170: 856f 92bd 09c5 823c c204 c3bd 542d 313d
00000180: 2d39 68bd 24d0 debc a8ea 2d3d cc5d b73d
00000190: 81ea 843d 08f4 633d 1147 343d f66a 3dbc
000001a0: 8b9d 903d 760c b13d d53a 29bd f453 923d
000001b0: 075c 6d3d c39a 8f3d 355e 4dbd 61f3 403d
000001c0: 950a 54bd 0f4c 0ebd 6085 703d 3ca7 c13d
000001d0: 0661 d83c b1ad b4bc a4d6 213d e6e2 853d
000001e0: e4fb 613d c621 f23b da9f 163d 3aaa 6f3d
000001f0: 9aa7 443d 09b9 b2bd 045f a73d 441c bbbb
00000200: e21f a83d 3217 d63c ff47 53bd b822 263d
00000210: 18f3 733d d4b8 d2bc bd3e db3b 68d0 9d3c
00000220: f5c7 cc3d 3fbb 923d 101c c8bc 72be c0bd
00000230: 66b0 f0bb 3516 1b3d 0498 0a3d 60a7 733d
00000240: b5eb 413d 190b 5d3d b556 bdbd ca8b 973c
00000250: 96ed 2ebd 7449 8cbd 0933 9b3d 2f53 8c3c
00000260: 94d1 a83a ac51 ac3d 3ddd b53d 139c 8c3d
00000270: 35dc 80bd 4785 e5bb 6816 b4bc 5f39 75bd
00000280: 6870 db3c aa8a 3dbd 981f 0439 a310 af3d
00000290: 34f0 733d 66d7 453d 2daa aabc 65de eabc
000002a0: 861f 92bd c396 653d 330b d83b 522c 773c
000002b0: b837 b63d 3fb8 febc 58a5 2dbc c53f bcbd
000002c0: ca16 063d df1c 68bd e4cf c13d 3ce1 9fbc
000002d0: d499 9e3d 5ff2 a93d fa82 873d 68c6 a43d
000002e0: 1ff7 d03d 1e3c 763b 472c 623b 3848 e93a
000002f0: 792c 0a3d 1161 b8bd 8156 ac3d 732f a8bd
00000300: 2cf9 bc3c 8f58 b8bd 92a8 ca3d c4d9 24bd
00000310: 2bce 8a3d 4685 d0bd e34c 473d 91d6 b3bd
00000320: 67cd 453d 6ad2 abbc 33fb 1dbc 6931 b83d
00000330: 068a 9dbd f9f1 0a3d 74d9 683d b216 843d
00000340: 31b8 e4bb 9af9 bd3d 66a6 c6bd 8297 afbb
00000350: 39fb 523d e085 c2bd f452 afbd e8c5 c2bd
00000360: 4d72 65bd 9c21 103d f735 7b3c ebb5 5ebd
00000370: 7f11 483d bd80 cb3c 9c69 5ebd 80d2 a43d
00000380: ef48 ca3d ab7c 523d 2b60 923d d1f0 e4bc
00000390: 4210 c7bc 7c53 893d 8d2b 693d 34f1 d43c
000003a0: cd9b c63d cdb9 c3bd 9281 6f3c 55c0 053d
000003b0: cf9e 9c3b 12fb 03bd c7b0 813d 1b30 debc
000003c0: 7c9e abbd 8cde 1abd c0e4 08bb eef4 b83d
000003d0: ddad bcbd 046c 0dbd 5bf0 c63d d8b7 4abd
000003e0: 387e 973c 0e19 54bd b0b6 663d db9a 8dbd
000003f0: a6a2 bc3d 00f3 f83c c20e 903d 9bbc be3c

graph_transformer_layer.0.attention.K.bias f4 [32]
0.01002219 0.09700114 0.029243814 0.07291701 -0.079740204 0.043966662 0.091688044 0.08859286
0.06768615 -0.022554692 -0.023261014 -0.0090972595 6.893887e-05 0.08800655 0.0033358317 0.06912449
-0.013492421 0.09394628 -0.044662252 -0.059337046 -0.07970435 -0.095321596 0.023068173 -0.06694278
0.085777335 -0.033720776 -0.045716852 0.0342245 0.04368287 -0.081704356 -0.012587186 0.0394041
00000000: 1d34 243c 89a8 c63d b990 ef3c 8355 953d
00000010: d54e a3bd 6316 343d f1c6 bb3d 2c70 b53d
00000020: 099f 8a3d 9ec4 b8bc e28d bebc ac0c 15bc
00000030: 4693 9038 c73c b43d f89d 5a3b 2491 8d3d
00000040: 510f 5dbc e866 c03d c4ef 36bd 670b 73bd
00000050: 093c a3bd f837 c3bd 77f9 bc3c 4c19 89bd
00000060: 07ac af3d cc1e 0abd 9841 3bbd fd2e 0c3d
00000070: cfec 323d 9d54 a7bd 7c3a 4ebc 3266 213d

graph_transformer_layer.0.attention.V.weight f4 [32, 32]
0.03945695 0.047893915 0.0633088 0.08259063 -0.048393425 -0.042993534 0.03182454 -0.06129306
0.09539788 -0.09899176 0.02677101 0.061400764 0.07875557 -0.10146583 -0.0083783455 -0.06704339
-0.056740936 0.0146910995 0.053436443 -0.06628914 0.0344727 0.08454646 0.0460853 0.08239036
0.07037236 -0.010981833 0.02582928 0.019664777 0.05720778 -0.051769104 0.09109443 -0.08027937
0.0052566025 0.064752854 0.05225925 -0.034896366 0.07370482 0.059313744 0.060719006 0.08663252
-0.016303647 -0.09821238 0.09374074 -0.03288181 0.0049218135 0.007111747 0.07560923 -0.0559198
-0.018220453 0.06843864 -0.010611341 0.014295609 0.030259816 0.06460916 -0.0020353429 0.031252082
0.051172063 0.057166114 -0.04976589 -0.021059591 0.056481976 0.07211955 0.061451524 -0.07195641
0.054904077 0.057467997 0.0045660264 0.05587327 0.0811277 -0.09982624 0.075055726 0.06197857
0.040263105 -0.06873536 0.043743487 -0.014022371 0.053336456 0.008265358 -0.043609615 0.07401654
0.07991778 -0.066002 -0.07408712 0.007365809 -0.09247073 -0.025600504 -0.05428163 0.098772086
0.038023826 0.042060472 -0.012568539 0.03319798 -0.009612096 0.075731784 0.048201233 0.028700044
0.04396211 0.040262505 0.05934195 0.024196466 0.07785656 -0.029860845 0.03629868 -0.033788312
-0.08344088 -0.061311807 0.037166145 0.004095362 0.0070201023 -0.07705178 0.045676526 -0.01708191
-0.0891454 0.09554819 0.08184786 -0.031710166 -0.088907205 -0.07561007 -0.08778046 -0.054274954
0.011486672 0.005525106 0.061017834 0.027151685 -0.013884479 -0.0909067 0.016363066 0.048878253
0.10314338 -0.0865026 0.026746131 -0.061412353 -0.023731252 -0.012491711 0.091741696 0.0072293445
-0.027196545 -0.0584042 0.04423101 0.0924536 0.053563073 0.09062363 0.07631334 -0.015375532
-0.03779555 0.07554595 -0.09855834 0.0032080687 0.04120686 -0.0688136 -0.10302502 0.053684775
0.101262964 -0.035624668 0.022295246 0.008662379 -0.06464458 -0.010017164 -0.098965555 -0.016832743
-0.055379264 -0.045998637 0.018145826 -0.0785648 0.02205848 -0.06297603 0.023877425 -0.06825876
-0.074309304 0.062155444 -0.07730636 -0.026529638 0.09504525 -0.010019808 0.0999389 0.016162625
0.0934938 0.025150405 -0.05961167 0.023837639 0.02864256 0.047824766 0.065760165 -0.033983752
-0.0008935796 -0.058011074 -0.034710445 -0.09651693 -0.013232579 -0.0778931 -0.06710266 -0.09186985
0.09794203 -0.029876372 -0.05006318 0.06746638 0.07222955 0.0046763937 -0.021251945 -0.10066763
-0.06026993 -0.022831457 -0.014226515 -0.00908669 0.032217406 0.10112663 0.037030622 -0.06894234
0.10121847 0.007678297 0.097243644 0.0866793 0.045577396 -0.012862709 -0.024618618 0.059604798
-0.058790527 -0.009479183 -0.022201333 -0.086773865 0.004497604 -0.044210263 -0.086717814 -0.011843822
0.03818103 -0.077272326 -0.009354992 -0.09108464 -0.009323927 -0.08434421 0.031851076 -0.08531696
0.03765051 0.06417839 0.048201032 0.052650288 -0.042888496 0.07226787 -0.09734743 -0.0143426275
0.00022235114 0.041771542 -0.056228295 0.08395758 0.103539005 -0.04583125 -0.0850897 0.052112546
0.08632683 0.07274826 -0.10088155 0.09071679 -0.040779304 0.08624319 0.00784351 -0.035501137
00000000: 9c9d 213d 692c 443d 0ba8 813d 4725 a93d
00000010: 2f38 46bd fd19 30bd 735a 023d 6f0e 7bbd
00000020: f75f c33d 31bc cabd e14e db3c 5e7f 7b3d
00000030: 9a4a a13d 51cd cfbd 5445 09bc 0b4e 89bd
00000040: 2f69 68bd f0b2 703c 2ce0 5a3d 9ac2 87bd
00000050: 3f33 0d3d b226 ad3d f1c3 3c3d 47bc a83d
00000060: 621f 903d 25ed 33bc ed97 d33c 0718 a13c
00000070: b552 6a3d d70b 54bd b78f ba3d 8369 a4bd
00000080: 943f ac3b 259d 843d cc0d 563d 7eef 0ebd
00000090: 8df2 963d f8f2 723d 7eb4 783d 646c b13d
000000a0: 3a8f 85bc 9323 c9bd 25fb bf3d 14af 06bd
000000b0: 2a47 a13b a809 e93b 03d9 9a3d 290c 65bd
000000c0: 0f43 95bc 8f29 8c3d 31db 2dbc 2138 6a3c
000000d0: 6fe3 f73c cf51 843d 6363 05bb 2f02 003d
000000e0: cc99 513d 0427 6a3d 51d7 4bbd 2a85 acbc
000000f0: a559 673d 6ab3 933d 98b4 7b3d e25d 93bd
00000100: 19e3 603d 9063 6b3d 9b9e 953b 5fdb 643d
00000110: 4826 a63d b371 ccbd d1b6 993d 3edd 7d3d
00000120: edea 243d 20c5 8cbd 5f2c 333d 16be 65bc
00000130: 5477 5a3d 6d6b 073c ff9f 32bd fc95 973d
00000140: efab a33d 0e2c 87bd fdba 97bd e25c f13b
00000150: 4b61 bdbd 26b8 d1bc 6a56 5ebd 0549 ca3d
00000160: dfbe 1b3d 9a47 2c3d 46ec 4dbc 9bfa 073d
00000170: 0d7c 1dbc 4419 9b3d a86e 453d 5b1c eb3c
00000180: 9d11 343d 4cea 243d 8b10 733d ab37 c63c
00000190: 4373 9f3d bb9e f4bc edad 143d 9d65 0abd
000001a0: 0de3 aabd 1722 7bbd 873b 183d 6332 863b
000001b0: e308 e63b 53cd 9dbd 4f17 3b3d 5def 8bbc
000001c0: dd91 b6bd c5ae c33d da9f a73d 85e2 01bd
000001d0: fb14 b6bd 74d9 9abd 3ec6 b3bd 6a4f 5ebd
000001e0: 9832 3c3c f30b b53b d6ed 793d 366d de3c
000001f0: ba7b 63bc 4b2d babd d60b 863c 9034 483d
00000200: d63c d33d 4628 b1bd b41a db3c 858b 7bbd
00000210: 0b68 c2bc 09aa 4cbc 12e3 bb3d 23e4 ec3b
00000220: 4acb debc 3e39 6fbd 932b 353d 5058 bd3d
00000230: f464 5b3d e298 b93d 2b4a 9c3d a8e9 7bbc
00000240: 82cf 1abd d6b7 9a3d f4d8 c9bd 763e 523b
00000250: 86c8 283d 25ee 8cbd c8fe d2bd 91e4 5b3d
00000260: f562 cf3d 2ceb 11bd 85a4 b63c a7ec 0d3c
00000270: 6164 84bd 081f 24bc 74ae cabd d2e4 89bc
00000280: 5ed5 62bd 1169 3cbd 8ea6 943c 95e6 a0bd
00000290: fcb3 b43c 94f9 80bd 979a c33c 40cb 8bbd
000002a0: 7a2f 98bd b596 7e3d cc52 9ebd af54 d9bc
000002b0: 16a7 c23d 1f2a 24bc c4ac cc3d 7b67 843c
000002c0: ad79 bf3d 3908 ce3c 5e2b 74bd 2747 c33c
000002d0: cda3 ea3c e7e3 433d 44ad 863d 8c32 0bbd
000002e0: 1d3f 6aba 059d 6dbd 8a2c 0ebd abaa c5bd
000002f0: 76cd 58bc 6b86 9fbd 1f6d 89bd 4326 bcbd
00000300: d595 c83d 4bbf f4bc 0d0f 4dbd d02b 8a3d
00000310: 16ed 933d 6f3c 993b 8f18 aebc d52a cebd
00000320: 9add 76bd 0909 bbbc 5416 69bc 57e0 14bc
00000330: 66f6 033d 7b1b cf3d 6cad 173d a431 8dbd
00000340: a14b cf3d 399a fb3b ad27 c73d eb84 b13d
00000350: 5daf 3a3d 1dbe 52bc fcac c9bc 2924 743d
00000360: 56ce 70bd 934e 1bbc 92df b5bc 7fb6 b1bd
00000370: a360 933b d215 35bd 1c99 b1bd 970c 42bc
00000380: b663 1c3d f440 9ebd ae45 19bc 958a babd
00000390: 62c3 18bc a8bc acbd 4676 023d a9ba aebd
000003a0: 6c37 1a3d f66f 833d 726e 453d d4a7 573d
000003b0: d9ab 2fbd 2d01 943d 175e c7bd 57fd 6abc
000003c0: ee26 6939 a318 2b3d a44f 66bd f4f1 ab3d
000003d0: 420c d43d 8cb9 3bbd 8243 aebd f773 553d
000003e0: 1fcc b03d 0afd 943d fc9a cebd b9c9 b93d
000003f0: 3308 27bd 45a0 b03d 1182 003c a469 11bd

graph_transformer_layer.0.attention.V.bias f4 [32]
0.040264804 -0.00079621695 0.047285773 0.07104282 -0.05361741 -0.05669473 -0.08439821 -0.05318591
0.014725083 -0.048721403 0.052522466 -0.07453565 0.08151063 -0.089956045 -0.059608452 -0.07631031
0.09983724 0.08662921 0.047521606 0.09394584 -0.0003729051 -0.0626672 -0.031408675 -0.08887435
0.06748889 0.06293651 0.08088594 -0.039753802 0.0843047 0.10086201 -0.102747515 0.100553334
00000000: b5ec 243d 37b9 50ba baae 413d e67e 913d
00000010: ee9d 5bbd bc38 68bd f8d8 acbd 78d9 59bd
00000020: 7941 713c 1890 47bd cc21 573d 26a6 98bd
00000030: 0cef a63d e03a b8bd fe27 74bd 9448 9cbd
00000040: 7877 cc3d a86a b13d 04a6 423d ad66 c03d
00000050: 7a82 c3b9 a957 80bd 62a6 00bd c103 b6bd
00000060: 9d37 8a3d dbe4 803d 87a7 a53d e2d4 22bd
00000070: f1a7 ac3d be90 ce3d 4a6d d2bd e8ee cd3d

graph_transformer_layer.0.attention.proj_e.weight f4 [32, 32]
-0.05657268 -0.016495239 -0.09058691 0.07023899 -0.001272377 0.015955653 0.04645172 0.01755918
-0.09625282 -0.07851976 0.053358562 0.053231314 0.09665688 -0.056873646 0.053901304 -0.10090659
-0.019117253 -0.05206246 -0.034069795 0.054065462 0.09254657 0.018239297 -0.034055162 0.08036353
-0.008708526 -0.081345856 0.08009135 -0.0049304026 0.004955346 0.095848784 0.053666502 0.057468902
0.09878868 0.08241715 0.075646184 0.045651108 0.08602839 -0.047506522 0.069599405 -0.039935723
0.004342737 -0.095480464 0.07545408 -0.08697539 0.010545775 0.07967269 -0.09575365 0.04497387
-0.04752967 0.05683124 -0.09888327 0.059517533 0.054115385 -0.018039687 -0.03233362 -0.0069912737
0.09760491 0.09865355 -0.0937317 0.0986991 -0.024974491 0.08660133 -0.046070416 -0.060748003
0.036165547 -0.09732864 0.044122342 0.0540586 0.08330477 -0.028267171 -0.026768051 0.008422675
0.100476325 0.025379969 0.07445904 -0.039379135 0.07126342 -0.07935098 0.090790935 0.037071403
-0.082113184 -0.055933725 -0.08513602 0.07833516 0.00027815485 -0.097809434 -0.020835638 -0.043780807
-0.083888076 -0.043347552 -0.1024088 -0.086374335 0.06316634 0.041687153 -0.01967127 -0.046381414
0.005557072 -0.07823789 0.039616734 0.04259717 -0.09788626 0.09545445 0.015107099 0.002357456
-0.06475692 0.031983584 0.039679624 0.005958528 -0.047682557 -0.03749795 0.10048281 0.031733308
-0.03701704 -0.042544402 0.029760143 0.08846683 0.004176407 -0.028378168 0.02396254 -0.0068882657
-0.07061216 0.09403427 0.08153465 -0.066448525 0.025088305 0.0055940663 -0.05029433 0.01917985
-0.024825731 0.07124397 0.09086372 -0.0395849 0.10286147 -0.09777665 0.026365442 0.088999644
-0.08449726 -0.08642001 -0.036298882 0.08956995 0.023369243 -0.06625075 0.018576048 0.013293795
0.06857652 -0.092329085 -0.013891291 -0.10025983 -0.09140278 -0.055085953 0.044860814 -0.030340632
0.031622548 -0.008941813 0.009770103 -0.09887702 -0.07866051 -0.03188662 -0.0073366896 -0.08336805
-0.06376166 -0.086051986 0.07956582 0.0982993 -0.054044183 -0.033334665 0.08952193 0.07320689
-0.029946573 0.02112818 -0.07310488 0.024009077 -0.07085826 -0.06263718 0.098641224 0.09136253
-0.09595094 0.024878796 0.07450116 -0.019708883 0.08596188 0.081614144 0.03483045 -0.07861211
0.10189349 0.010524269 -0.042118385 -0.07275803 0.075129025 0.06648256 -0.08552287 -0.06782619
-0.01892101 -0.050128076 0.08769114 -0.041090835 -0.08607808 -0.07069007 -0.07532072 0.013912891
0.07654373 0.0448272 -0.01548732 -0.09758218 -0.0017455497 0.025509398 -0.011981827 -0.0741177
-0.061316326 -0.03757345 0.03853905 0.004485409 0.08568848 -0.045501366 0.041598402 0.018329393
0.0020029633 -0.09320282 -0.017998636 -0.09846766 -0.018544825 -0.003444033 -0.016814254 -0.020010049
0.023106622 0.019041354 -0.008703516 0.00264845 0.0765542 0.008318234 -0.056101996 -0.03398651
-0.056919616 -0.08289765 -0.012938742 -0.0810849 0.0070135235 0.026093468 0.0147783775 0.006770141
-0.033108227 -0.097165845 0.046465203 -0.081594445 -0.04087967 -0.08813614 -0.04077856 0.013602856
0.09626443 0.059330363 -0.033629056 0.048499584 0.007262582 0.08182009 0.07417232 0.021470327
00000000: c1b8 67bd 0621 87bc a185 b9bd 76d9 8f3d
00000010: e3c5 a6ba 6eb5 823c 2944 3e3d 45d8 8f3c
00000020: 3320 c5bd f8ce a0bd 828e 5a3d 1409 5a3d
00000030: 0bf4 c53d 57f4 68bd 9dc7 5c3d 1da8 cebd
00000040: c99b 9cbc 723f 55bd c58c 0bbd bf73 5d3d
00000050: 0e89 bd3d 946a 953c 6d7d 0bbd a295 a43d
00000060: 35ae 0ebc a898 a6bd ef06 a43d 378f a1bb
00000070: 7560 a23b 5e4c c43d 68d1 5b3d 8364 6b3d
00000080: b851 ca3d 53ca a83d 63ec 9a3d a8fc 3a3d
00000090: a72f b03d 3396 42bd 228a 8e3d a493 23bd
000000a0: 854d 8e3b 438b c3bd ab87 9a3d 2720 b2bd
000000b0: 30c8 2c3c 6f2b a33d 7d1a c4bd 8536 383d
000000c0: 79ae 42bd e0c7 683d 5083 cabd a8c8 733d
000000d0: 18a8 5d3d f7c7 93bc 4270 04bd 0e17 e5bb
000000e0: 15e5 c73d df0a ca3d 68f6 bfbd c122 ca3d
000000f0: 4e97 ccbc 0a5c b13d 55b4 3cbd e6d2 78bd
00000100: 5322 143d 3d54 c7bd a1b9 343d 8d6c 5d3d
00000110: b19b aa3d 8e90 e7bc ac48 dbbc 42ff 093c
00000120: 88c6 cd3d a7e9 cf3c fb7d 983d 044c 21bd
00000130: 8ef2 913d c482 a2bd 99f0 b93d 2fd8 173d
00000140: f52a a8bd c31a 65bd cb5b aebd 2f6e a03d
00000150: 50d5 9139 5050 c8bd 80af aabc 8153 33bd
00000160: 83cd abbd 348d 31bd b4bb d1bd 07e5 b0bd
00000170: 5b5d 813d 26c0 2a3d a525 a1bc 70fa 3dbd
00000180: 1918 b63b 303b a0bd 2845 223d 5f7a 2e3d
00000190: 9778 c8bd 9f7d c33d c483 773c 8c7f 1a3b
000001a0: 479f 84bd 3801 033d 1a87 223d c13f c33b
000001b0: c94e 43bd 7397 19bd eec9 cd3d c9fa 013d
000001c0: 2e9f 17bd 0a43 2ebd 8bcb f33c 192e b53d
000001d0: 3eda 883b 5579 e8bc 174d c43c f6b6 e1bb
000001e0: 1c9d 90bd 0a95 c03d a3fb a63d 2a16 88bd
000001f0: fd85 cd3c 6e4e b73b 6d01 4ebd 101f 9d3c
00000200: 555f cbbc 5ce8 913d c216 ba3d c723 22bd
00000210: 09a9 d23d 203f c8bd 57fc d73c 7245 b63d
00000220: e60c adbd f9fc b0bd 23ae 14bd 7370 b73d
00000230: db70 bf3c 79ae 87bd cc2c 983c 38ce 593c
00000240: d971 8c3d 0817 bdbd 4c98 63bc 0755 cdbd
00000250: 6131 bbbd cfa1 61bd f9bf 373d eb8c f8bc
00000260: a586 013d af80 12bc c812 203c 0980 cabd
00000270: c318 a1bd 8b9b 02bd 9d68 f0bb debc aabd
00000280: 7995 82bd 063c b0bd 68f3 a23d 2551 c93d
00000290: 6f5d 5dbd ee89 08bd 4657 b73d 7eed 953d
000002a0: 8452 f5bc 0115 ad3c 03b8 95bd afae c43c
000002b0: 231e 91bd ec47 80bd 6904 ca3d 471c bb3d
000002c0: ed81 c4bd 9ece cb3c 1094 983d 8674 a1bc
000002d0: c80c b03d 5125 a73d 60aa 0e3d 63ff a0bd
000002e0: 89ad d03d fc6d 2c3c 5484 2cbd 2902 95bd
000002f0: 3fdd 993d 0228 883d 9d26 afbd 75e8 8abd
00000300: 3c00 9bbc 1953 4dbd 6a97 b33d dd4e 28bd
00000310: b449 b0bd f5c5 90bd c041 9abd e5f2 633c
00000320: f6c2 9c3d ba9c 373d 87be 7dbc 2ad9 c7bd
00000330: eeca e4ba 16f9 d03c 6d4f 44bc 05cb 97bd
00000340: d426 7bbd 9ee6 19bd 1fdb 1d3d 56fa 923b
00000350: 717d af3d a45f 3abd 1663 2a3d 8627 963c
00000360: 2644 033b 1fe1 bebd e071 93bc 6aa9 c9bd
00000370: 51eb 97bc 49b5 61bb 0cbe 89bc 1dec a3bc
00000380: 194a bd3c 9dfc 9b3c 3199 0ebc 9e91 2d3b
00000390: 73c8 9c3d 3449 083c 35cb 65bd 7035 0bbd
000003a0: 8b24 69bd 3ec6 a9bd 04fd 53bc d70f a6bd
000003b0: b3d1 e53b f8c1 d53c 0221 723c 0fd8 dd3b
000003c0: 7e9c 07bd e3fe c6bd 4c52 3e3d fd1a a7bd
000003d0: 7171 27bd b880 b4bd 6b07 27bd 83de 5e3c
000003e0: 4926 c53d 6504 733d 9fbe 09bd 80a7 463d
000003f0: f4fa ed3b 4b91 a73d a8e7 973d 8ae2 af3c

graph_transformer_layer.0.attention.proj_e.bias f4 [32]
-0.06184537 -0.0060218857 -0.014157712 0.06459187 0.10219588 -0.04566741 -0.08903482 -0.006059828
-0.08431155 0.047881924 0.082762 -0.027517036 -0.045393553 0.04673233 0.0065260082 -0.10025348
0.0039421944 0.030151835 -0.04895192 0.07327538 -0.05705629 0.031884108 -0.05530698 0.023936328
-0.0300395 -0.0907293 0.020744624 -0.050899312 -0.10127839 -0.05803642 0.06174011 -0.047031466
00000000: 9251 7dbd 3d53 c5bb c0f5 67bc be48 843d
00000010: 134c d13d c00d 3bbd e357 b6bd 8691 c6bb
00000020: 89ab acbd d61f 443d 207f a93d 686b e1bc
00000030: 97ee 39bd 666a 3f3d 20d8 d53b b251 cdbd
00000040: 862d 813b fb00 f73c cf81 48bd 6711 963d
00000050: dbb3 69bd e998 023d 9289 62bd 1e16 c43c
00000060: 6615 f6bc 49d0 b9bd a1f0 a93c cc7b 50bd
00000070: 0b6b cfbd 99b7 6dbd 33e3 7c3d 11a4 40bd
