checkpoints/casp15_inhouse_full_v8_fold5.ckpt (torch, 857735 bytes, 375 tensors)

resnet_embedding.node_embedding.weight f4 [32, 25]
0	0xbe1b2805	-0.15151985
1	0xbbd06e20	-0.006360784
2	0xbd949764	-0.07255438
3	0xbc844917	-0.016148133
4	0xbdcff327	-0.101537995
5	0x3cf74dc3	0.030188447
6	0xbe253669	-0.16134037
7	0xbe405037	-0.187806
8	0x3de0cb6e	0.10976301
9	0x3ce763eb	0.028245887
10	0x3e27f8bf	0.16403483
11	0xbde2ebf9	-0.110801645
12	0xbc913be4	-0.017728753
13	0xbdb58e4b	-0.08865031
14	0x3dd39e27	0.103328995
15	0xbe39bb1f	-0.18137787
16	0x3e35e348	0.17762482
17	0xbe0cc598	-0.13747251
18	0x3d8fa4c6	0.0701385
19	0xbe75703e	-0.23968598
20	0xbe06c195	-0.13159783
21	0x3c8d1ace	0.017224696
22	0x3e5dea9b	0.21671526
23	0x3bcd7d65	0.0062710517
24	0x3e082a4e	0.13297388
25	0xbcc27f49	-0.023742335
26	0x3cb22857	0.021747751
27	0x3de1ee8a	0.11031826
28	0xbda7fee2	-0.08202912
29	0x3cc9ea73	0.024647927
30	0x3df09907	0.11747938
31	0xbdca83fe	-0.09888457
32	0x3d8d46bc	0.06898257
33	0x3e18aa48	0.14908707
34	0xbe2f0388	-0.17091191
35	0x3d94e9f3	0.07271185
36	0xbd2decc5	-0.04246213
37	0x3d4d9a4b	0.050195973
38	0x3c913f1e	0.017730292
39	0xbe45a6f6	-0.19301972
40	0x3e222ed8	0.15838182
41	0xbe3d54f4	-0.18489438
42	0xbe1daf74	-0.15398961
43	0xbe0b760d	-0.13619252
44	0x3d8ec285	0.069706954
45	0xbcf9d28a	-0.0304959
46	0xbd05394a	-0.03252534
47	0xbdfab65b	-0.12241813
48	0x3d0cf01c	0.034408674
49	0x3e687047	0.2269908
50	0x3e0a0daf	0.13481782
51	0xbd901c14	-0.070366055
52	0xbc7ffe7d	-0.01562464
53	0xbe095fcd	-0.13415451
54	0xb9d5817f	-0.00040723008
55	0xbe034c7e	-0.12822148
56	0x3d9133dc	0.070899695
57	0xbe638230	-0.22217631
58	0x3cb5cc53	0.022192156
59	0xbd803c45	-0.062614955
60	0x3df6b717	0.1204664
61	0xbdd6471c	-0.10462782
62	0xbdb70f5d	-0.08938477
63	0x3e195add	0.14976068
64	0x3dfb5e5c	0.12273857
65	0x39de4f3e	0.0004240218
66	0xbd436199	-0.0477005
67	0x3e319ef4	0.17345792
68	0xbe0fea52	-0.1405423
69	0x3ded681d	0.11592124
70	0x3d6474f3	0.055775594
71	0xbddfd965	-0.109301366
72	0xbdf35495	-0.11881367
73	0x3dbf878f	0.093520276
74	0xbe4602a8	-0.19336951
75	0x3e16ed6d	0.14739008
76	0xbcdc1816	-0.026866954
77	0xbd718d18	-0.058972448
78	0xbe3a0775	-0.18166907
79	0xbe13bbac	-0.1442706
80	0xbe1ee9bd	-0.15518852
81	0x3dce63aa	0.10077603
82	0x3e26760b	0.16255967
83	0xbdab6f4b	-0.08370837
84	0x3e5cbd95	0.21556695
85	0x3e4c4875	0.19949515
86	0xbdb48af0	-0.08815563
87	0x3e218848	0.15774643
88	0x3e1553a4	0.14582688
89	0x3e1227a6	0.14272937
90	0xbd76597a	-0.060143925
91	0xbd1bffa7	-0.038085606
92	0xbb82d04b	-0.0039921156
93	0x3caaad5a	0.020834614
94	0x3ca5536b	0.020181378
95	0x3de11458	0.109902084
96	0xbd966a0d	-0.07344446
97	0xbdee35c4	-0.11631349
98	0x3dd51eee	0.1040629
99	0x3d9c5205	0.076328315
100	0xbdf84cf8	-0.121240556
101	0x3db2178c	0.086958975
102	0xbd3478ce	-0.04406052
103	0xbde62dbb	-0.11239191
104	0xbe088b4c	-0.13334388
105	0xbe305a22	-0.17221883
106	0xbc2152e6	-0.009846425
107	0xbe00b4b2	-0.1256893
108	0x3e0154ab	0.12629955
109	0xbd547701	-0.051871303
110	0xbe56247d	-0.20912357
111	0xbdd3856c	-0.103281826
112	0x3e03ea07	0.12882243
113	0xbc2e626f	-0.010643586
114	0xbde2ee2e	-0.110805854
115	0xbd857c34	-0.065178305
116	0xbc8c26bc	-0.017108314
117	0xbcc78e95	-0.02435998
118	0xbdec9a05	-0.115528144
119	0xbdbe2eb4	-0.09286252
120	0x3e3bce22	0.18340352
121	0xbdaa7fbc	-0.08325145
122	0xbbdd17dd	-0.0067472295
123	0x3ce95302	0.028481964
124	0xbd9488e4	-0.07252672
125	0x3ce25271	0.027627202
126	0x3c8b49a4	0.017002888
127	0xbe1316a8	-0.14364111
128	0xbe05ed73	-0.13078861
129	0x3e304ff0	0.17217994
130	0x3e235e70	0.15953994
131	0xbc0a31b5	-0.008434703
132	0x3da8cb0c	0.08241853
133	0x3dbee6da	0.09321375
134	0xbe348d3b	-0.17632
135	0xbe5d2853	-0.21597414
136	0x3dc699ca	0.09697302
137	0xbe26f3e3	-0.16303973
138	0x3dc129d0	0.09431803
139	0xbe237911	-0.15964152
140	0xbe03cf8e	-0.12872145
141	0x3e3dc708	0.18532956
142	0xbe57459d	-0.21022649
143	0x3e30ed3a	0.17277995
144	0xbce0a633	-0.027423
145	0xbd6dc3f8	-0.05804822
146	0x3d7bc6c4	0.061468855
147	0xbd119cfd	-0.035550106
148	0x3da792cc	0.08182296
149	0x3df455c8	0.11930424
150	0xbd7d5544	-0.061848894
151	0x3de01067	0.109406285
152	0xbe021259	-0.12702312
153	0x3e05ae4f	0.13054775
154	0x3dcc63ef	0.09979998
155	0xbe032c9d	-0.12809987
156	0xbd012581	-0.031529907
157	0xbe53cb93	-0.20683126
158	0xbe48f02e	-0.19622871
159	0x3da16883	0.07881262
160	0x3dbc22e6	0.09186344
161	0xbca72aa9	-0.020406084
162	0x3e41daa9	0.18931068
163	0x3ca317dc	0.019908838
164	0x3c1a4f26	0.0094182845
165	0xbcb44260	-0.022004306
166	0xbe250044	-0.16113383
167	0xbdd35925	-0.10319737
168	0x3e3ca917	0.18423878
169	0xbbcc7038	-0.0062389635
170	0x3deeabf8	0.11653894
171	0xbde6b009	-0.11264045
172	0x3e759265	0.23981626
173	0x3d46e1ac	0.04855506
174	0x3d8f7c76	0.07006161
175	0x3bc8c62f	0.006127141
176	0xbd94dc18	-0.07268542
177	0xbd0ee030	-0.03488177
178	0xbd7af36c	-0.0612673
179	0x3d450a62	0.048105605
180	0xbdee5136	-0.116365835
181	0xbe684db8	-0.22685897
182	0x3bd4ea2d	0.0064976425
183	0x3c673a5c	0.014113035
184	0xbd26d541	-0.04073072
185	0xbde8cf9d	-0.11367724
186	0x3e3cad00	0.1842537
187	0x3c784641	0.015153469
188	0x3e5c46c0	0.21511364
189	0xbde28b65	-0.11061744
190	0xbe2076b8	-0.15670288
191	0x3e420ec0	0.18950939
192	0xbd571fb0	-0.052520454
193	0x3d9a3bad	0.075309135
194	0xbd0b0159	-0.033936832
195	0xbe81546a	-0.25259715
196	0xbd41ff4f	-0.047362622
197	0x3e051e64	0.12999874
198	0x3d61a305	0.05508711
199	0xbbd8ebed	-0.0066199214
200	0xbe4afead	-0.19823714
201	0xbd6ead83	-0.058270942
202	0x3dfb8ffd	0.12283323
203	0xbe4df026	-0.2011114
204	0xbdaf5da4	-0.085627824
205	0x3c759ec3	0.014991465
206	0x3e279bc3	0.16368012
207	0x3e18513d	0.1487474
208	0x3e26ff08	0.16308224
209	0xbdf17369	-0.11789591
210	0x3db71db7	0.089412145
211	0x3df2e39f	0.118598215
212	0xbe180317	-0.14844929
213	0x3e362583	0.17787747
214	0x3e00e1f2	0.12586191
215	0xbcb4f92e	-0.022091474
216	0xbe3e8a24	-0.18607384
217	0x3df3add1	0.11898387
218	0xbc01390a	-0.007887134
219	0x3d863194	0.06552425
220	0x3dc6bf8d	0.09704504
221	0x3e18f2f5	0.14936431
222	0x3de27e61	0.11059261
223	0xbdec1c1e	-0.115288004
224	0xbe52e0c4	-0.20593554
225	0xbe165d28	-0.14683974
226	0x3e15e97b	0.14639847
227	0xbe6a9804	-0.22909552
228	0xbdf0b996	-0.11754148
229	0x3d9c6f02	0.076383606
230	0xbcb69d1a	-0.022291709
231	0xbe163b39	-0.14671029
232	0xbd974196	-0.073855564
233	0xbcd6c042	-0.026214723
234	0xbe079d07	-0.13243495
235	0xbd274adb	-0.040842872
236	0xbe40024e	-0.18750879
237	0x3e390527	0.18068372
238	0xbdd6fb54	-0.10497156
239	0xbc3698d5	-0.011144836
240	0x3c776d93	0.015101808
241	0xbc9afc05	-0.018919
242	0x3b3970ad	0.002829592
243	0x3dac4268	0.084111035
244	0x3e05bb94	0.13059837
245	0x3e31c296	0.17359385
246	0x3d5e9454	0.054340675
247	0xbe254f5c	-0.16143554
248	0x3e16c8ce	0.14725038
249	0x3d0e721c	0.034776792
250	0xbdd463ab	-0.10370573
251	0xbd3a0fc3	-0.045425188
252	0xbe625819	-0.22103919
253	0xbcfbe6f9	-0.030749785
254	0x3e4996e3	0.19686465
255	0xbe316118	-0.17322195

resnet_embedding.node_embedding.bias f4 [32]
0	0xbe23c228	-0.15992033
1	0x3dac3bc0	0.08409834
2	0xbb1ebcfb	-0.0024221528
3	0x3dbbc8fc	0.09169194
4	0xbb5acdd1	-0.0033386836
5	0xbcf3f5bc	-0.029780261
6	0xbe444ddb	-0.19170325
7	0xbdb235b9	-0.08701653
8	0x3ad001eb	0.0015869712
9	0x3d431b94	0.047633722
10	0xbd6c2f3b	-0.05766223
11	0x3cf31417	0.029672666
12	0xbd149eea	-0.036284365
13	0xbd17d0b7	-0.03706428
14	0xbe181b94	-0.1485427
15	0xbcda7e6b	-0.026671609
16	0xbd092423	-0.03348173
17	0xbdb77d67	-0.089594655
18	0x3e43cd65	0.1912132
19	0xbd24c992	-0.040231295
20	0xbb1c95ad	-0.0023892925
21	0xbc538cc9	-0.012911984
22	0x3d31a488	0.0433698
23	0xbdff659c	-0.12470552
24	0xbdce97ba	-0.10087533
25	0x3d19acac	0.03751819
26	0x3e34ef7b	0.1766948
27	0x3d34ee5e	0.044172637
28	0xbd66fdb8	-0.05639431
29	0x3c000504	0.007813696
30	0xbd103e2b	-0.035215538
31	0x3c20b332	0.0098083485

resnet_embedding.bn_node.weight f4 [32]
0	0x3f7e76b4	0.99399877
1	0x3f79937f	0.97490686
2	0x3f82fad1	1.0232793
3	0x3f80cba4	1.0062146
4	0x3f6a52dc	0.91532683
5	0x3f7e0229	0.99222046
6	0x3f7d9a49	0.99063545
7	0x3f787504	0.9705355
8	0x3f79571a	0.9739853
9	0x3f844742	1.0334246
10	0x3f80fc66	1.0077026
11	0x3f813712	1.0094931
12	0x3f81d7b5	1.0143954
13	0x3f80dd3c	1.0067515
14	0x3f8d68fc	1.1047664
15	0x3f814fa4	1.0102429
16	0x3f701082	0.9377519
17	0x3f8cff02	1.1015322
18	0x3f815c62	1.0106318
19	0x3f8080ef	1.0039347
20	0x3f8ab0f7	1.0835255
21	0x3f840a17	1.0315579
22	0x3f8259fe	1.0183713
23	0x3f80a2bf	1.0049666
24	0x3f878588	1.0587626
25	0x3f8009ee	1.000303
26	0x3f71d8f5	0.94471675
27	0x3f81d2ff	1.0142516
28	0x3f82b125	1.021031
29	0x3f80b2de	1.0054586
30	0x3f7a75b2	0.9783584
31	0x3f711e15	0.94186527

resnet_embedding.bn_node.bias f4 [32]
0	0x3b60a36e	0.00342771
1	0xbd6d7ab4	-0.057978347
2	0xbd0e2f4a	-0.034713067
3	0x3c885ee3	0.016646808
4	0xbdad693f	-0.0846734
5	0xbd3e4d6f	-0.046460565
6	0xbd083340	-0.033252
7	0xbdc1f109	-0.09469802
8	0xbd74df60	-0.05978334
9	0x3c4a0748	0.012330838
10	0x3d482853	0.04886658
11	0xbd27de45	-0.040983457
12	0xbd2cae9f	-0.04215872
13	0x3a36fbb4	0.0006980256
14	0x3c6e4f89	0.01454533
15	0xbcb5907f	-0.022163628
16	0xbc9f20b4	-0.019424774
17	0x3d38ba8e	0.045099787
18	0xbca69125	-0.020332882
19	0xbce703b3	-0.028200006
20	0x3cc39770	0.023875922
21	0xbc849128	-0.016182497
22	0xbcbf0a68	-0.023320392
23	0xbcc5b3cd	-0.024133587
24	0xbccf162f	-0.025279133
25	0x3baf3fbd	0.0053481744
26	0xbd7d5edc	-0.061858043
27	0xbc838f5f	-0.016059576
28	0xbd213093	-0.039352965
29	0xbbe5f0bf	-0.0070172246
30	0xbd8a710a	-0.06759842
31	0xbd060b05	-0.032725353

resnet_embedding.bn_node.running_mean f4 [32]
0	0xbeea5ae0	-0.45772457
1	0x3d969b7e	0.073538765
2	0xbe72992e	-0.23691246
3	0x3f0529b6	0.5201677
4	0xbf30e715	-0.69102603
5	0xbd5d59bd	-0.05404066
6	0xbe5f3dce	-0.2180092
7	0xbea49c31	-0.32150415
8	0x3e34ad4b	0.17644231
9	0xbe746544	-0.23866755
10	0xbefbdd45	-0.49192253
11	0x3e55f2b8	0.20893371
12	0xbe244330	-0.16041255
13	0xbebffff4	-0.37499964
14	0x3ee5e88d	0.44903985
15	0x3e855036	0.2603776
16	0x3f178d59	0.59200054
17	0x3f584a94	0.844888
18	0x3e67badd	0.22629876
19	0xbe985bb0	-0.29757452
20	0x3f084e14	0.5324414
21	0xbdee2693	-0.11628451
22	0xbec88ae0	-0.39168453
23	0xbecebb36	-0.40377206
24	0xbea253b7	-0.31704494
25	0x3e9b4282	0.3032418
26	0x3e2c78a2	0.16842893
27	0x3f43b99d	0.764551
28	0x3e8a4d87	0.27012274
29	0x3efb13fe	0.4903869
30	0xbe9e7ab4	-0.3095299
31	0x3e0e15be	0.13875481

resnet_embedding.bn_node.running_var f4 [32]
0	0x3cbd27da	0.023090292
1	0x3c584ea7	0.013202346
2	0x3cc01ae5	0.023450324
3	0x3d3ff1d6	0.046861492
4	0x3d3df0bc	0.04637216
5	0x3c7b8c4c	0.015353274
6	0x3cf304d5	0.02966539
7	0x3c7e640e	0.015526785
8	0x3d45abf4	0.04825969
9	0x3d776122	0.060395367
10	0x3d647d7f	0.055783745
11	0x3cba46cc	0.022738837
12	0x3c949b1c	0.018140368
13	0x3ce624f1	0.028093787
14	0x3d92591e	0.07145904
15	0x3d05fac7	0.032709863
16	0x3d2348d7	0.039864387
17	0x3e27fb29	0.16404404
18	0x3cca0df9	0.024664866
19	0x3d2d3bf3	0.0422935
20	0x3cfd485e	0.030918296
21	0x3ce0ff4a	0.027465481
22	0x3d166dd7	0.036725845
23	0x3d603f11	0.054747645
24	0x3c894b53	0.01675955
25	0x3d39d897	0.04537257
26	0x3ced90f2	0.02899978
27	0x3dd612f5	0.104528345
28	0x3cf9fea0	0.030516922
29	0x3d04e744	0.032447115
30	0x3cddb6ce	0.027064707
31	0x3c8ea8c0	0.01741445

resnet_embedding.edge_embedding.weight f4 [32, 7]
0	0xbd785216	-0.06062516
1	0xbe9fbff4	-0.31201136
2	0xbe3c1c76	-0.18370232
3	0xbcea06bc	-0.028567664
4	0xbd0970e6	-0.033554934
5	0xbc9ab8ad	-0.018886888
6	0xbce43d41	-0.02786124
7	0x3d4457dc	0.04793535
8	0x3e82101b	0.25402912
9	0xbe2149a7	-0.15750752
10	0x3cb2b7fc	0.021816246
11	0xbe3d0cab	-0.18461864
12	0x3e86fe5d	0.2636594
13	0xbe18e4a4	-0.1493097
14	0x3e3b53b7	0.18293653
15	0xbe7f2daa	-0.24919763
16	0xbe9d5934	-0.3073212
17	0xbe9969a4	-0.2996341
18	0x3d462562	0.048375495
19	0x3e46f964	0.19431072
20	0x3d9754ac	0.07389197
21	0xbdbb38a2	-0.09141661
22	0xbd91b55f	-0.07114672
23	0x3dbd5d41	0.092463024
24	0x3e14c880	0.1452961
25	0x3cfe1bee	0.031019177
26	0xbe24d5b1	-0.16097142
27	0xbe3bc7a7	-0.1833788
28	0xbdcd568f	-0.10026275
29	0x3e7e19b4	0.24814492
30	0x3e9f712d	0.31141034
31	0xbe5e50c3	-0.21710496
32	0xbe845a1e	-0.25850004
33	0x3e34fc85	0.17674454
34	0xbd16dcd2	-0.036831684
35	0x3ea41dbc	0.32053936
36	0x3dd0f11a	0.102022365
37	0x3e2dbdb1	0.16966893
38	0x3db9970a	0.090620115
39	0xbe8bf5d1	-0.2733598
40	0x3cb9718c	0.022637151
41	0x3e0e2503	0.13881306
42	0xbe81d372	-0.25356632
43	0x3eab248c	0.3342632
44	0x3df7c251	0.1209761
45	0x3d2dddc8	0.042447835
46	0x3e6a2b70	0.22868133
47	0x3c94642b	0.01811417
48	0x3eac3309	0.33632687
49	0x3e92d908	0.28681207
50	0x3d4b9d0d	0.049710322
51	0x3e8f5171	0.27991822
52	0x3de4e1a1	0.11175848
53	0xbeaf0492	-0.34183174
54	0x3e8609f0	0.26179457
55	0xbe432edc	-0.19060844
56	0x3e9db44a	0.30801612
57	0x3e2014f4	0.15632993
58	0x3e51eea6	0.20501193
59	0x3d06647f	0.032810684
60	0x3e6774cd	0.2260315
61	0xbeb88c28	-0.3604443
62	0x3e35b8dd	0.17746301
63	0x3e4d9377	0.20075785
64	0xbe6b9339	-0.2300538
65	0xbec8ea0d	-0.39241067
66	0x3e8d6481	0.2761574
67	0x3ddfec74	0.10933772
68	0x3e64463d	0.22292419
69	0x3d9b3a85	0.07579521
70	0xbe3ad5d8	-0.18245637
71	0xbe5ab129	-0.21356644
72	0xbe4fe5fc	-0.20302576
73	0x3e9bd7f9	0.30438212
74	0x3eb97710	0.3622365
75	0x3c0e6e84	0.008693341
76	0xbe69b728	-0.22823775
77	0x3da82ebd	0.082120396
78	0x3dda8c81	0.1067133
79	0xbe18826d	-0.14893503
80	0x3e0b0e26	0.13579616
81	0xbe8f5a54	-0.27998602
82	0xbe8e378c	-0.27776754
83	0xbd3abba1	-0.045589093
84	0x3d986442	0.07440998
85	0xbeb06b37	-0.34456798
86	0x3e308634	0.17238694
87	0xbda20e66	-0.079129025
88	0xbd06aea4	-0.032881394
89	0x3e8aaccd	0.27084962
90	0xbdc4b88c	-0.09605512
91	0xbea86a45	-0.32893577
92	0xbe311453	-0.1729291
93	0x3e8cf795	0.2753264
94	0xbe6b8a48	-0.23001969
95	0xbe7e7aa7	-0.24851476
96	0xbeb185ed	-0.3467249
97	0x3e8bf1ac	0.27332819
98	0xbe38e20f	-0.18054985
99	0x3d9e55d2	0.07731213
100	0xbd14256a	-0.036168493
101	0x3dd0645c	0.10175392
102	0xbe0e9c1f	-0.13926743
103	0xbe9ee85f	-0.3103666
104	0x3ea98a9f	0.33113572
105	0xbe8bd864	-0.2731353
106	0x3e406a61	0.1879058
107	0xbec5c002	-0.38623053
108	0xbe568946	-0.20950803
109	0x3da0c45c	0.078499526
110	0x3e0dbcb2	0.13841513
111	0x3d364f39	0.044509146
112	0xbe54c06b	-0.20776527
113	0x3ead5900	0.33856964
114	0x3d10fa4d	0.035394955
115	0xbec43d95	-0.38328233
116	0x3e99037e	0.29885477
117	0xbe79ff3c	-0.2441377
118	0x3c959fac	0.018264614
119	0xbda2f46c	-0.07956776
120	0x3e9e5128	0.30921292
121	0xbcba5023	-0.02274329
122	0x3ec7388d	0.38910332
123	0xbe10b189	-0.14130224
124	0x3da5555c	0.08072922
125	0x3e6125d7	0.21987091
126	0xbcacab78	-0.021077856
127	0x3e71201f	0.2354741
128	0xbd91df7b	-0.07122704
129	0x3d2105ce	0.039312176
130	0xbee0242f	-0.43777606
131	0xbe381989	-0.17978491
132	0x3e733be0	0.23753309
133	0xbe81da4f	-0.2536187
134	0x3e33cba1	0.17558147
135	0xbd0c2dfb	-0.034223538
136	0xbd7ac3f8	-0.061222047
137	0x3e201016	0.15631136
138	0x3e30aac8	0.17252648
139	0xbe9892c9	-0.29799488
140	0x3d8a1baa	0.06743558
141	0x3e62c3a0	0.22144938
142	0xbbfb2f3a	-0.007665542
143	0x3df6a569	0.12043268
144	0xbea4fba9	-0.3222325
145	0xbe1fdde0	-0.15611982
146	0xbe730d2f	-0.23735498
147	0xbea8a8a4	-0.32941163
148	0x3dda8be7	0.106712155
149	0xbd5d1158	-0.05397162
150	0x3eab2579	0.33427027
151	0xbb991ac4	-0.00467238
152	0x3dc51b71	0.09624375
153	0x3ec1237a	0.3772238
154	0xbe156af1	-0.14591576
155	0xbdb8fc14	-0.09032455
156	0x3e62a564	0.22133404
157	0x3d59a346	0.053134225
158	0xbe7c56d1	-0.24642493
159	0x3d83e4c9	0.06440122
160	0x3e2bf85b	0.16793959
161	0x3e5761b5	0.21033366
162	0xbeb39e8e	-0.35081905
163	0xbe52ccae	-0.20585892
164	0x3ea7288d	0.32648125
165	0xbdd00949	-0.10158021
166	0xbea4ff89	-0.32226208
167	0x3e31a440	0.17347813
168	0x3ce2cad6	0.02768461
169	0xbe4a5a0f	-0.19760917
170	0x3e8caa73	0.27473792
171	0xbeacdce2	-0.3376227
172	0x3d3d3ac4	0.04619862
173	0xbe99b425	-0.30020252
174	0xbed6cf39	-0.41954973
175	0x3e61d1ef	0.2205274
176	0xbeb0ce41	-0.3453236
177	0xbe9e1a0c	-0.30879247
178	0x3e5642ef	0.2092397
179	0x3e5b13e7	0.21394311
180	0xbeadb595	-0.339276
181	0xbeafcfa7	-0.34338114
182	0xbec3c614	-0.3823706
183	0xbe27ca1c	-0.16385692
184	0xbe946ef8	-0.28990912
185	0x3df3e73a	0.11909337
186	0xbe8e4617	-0.2778785
187	0xbe13b12f	-0.14423059
188	0xbe24e3f2	-0.16102579
189	0xbe99ca7f	-0.30037305
190	0x3e24b4e0	0.16084623
191	0xbd26d406	-0.040729545
192	0x3eaddfb4	0.33959734
193	0xbeb1872a	-0.34673434
194	0x3e286f07	0.16448604
195	0x3e6bbc30	0.23021007
196	0xbebd5ff6	-0.36987275
197	0x3e2fb982	0.1716061
198	0xbe597049	-0.2123424
199	0xbe907368	-0.28213048
200	0x3ebc899e	0.36823744
201	0x3e95d65a	0.292651
202	0x3e26dfec	0.16296357
203	0x3c0685ea	0.008210639
204	0xbecec14f	-0.40381858
205	0x3e2fc2f5	0.17164214
206	0xbd991cd3	-0.07476201
207	0x3e843f83	0.25829706
208	0xbeb3f683	-0.3514901
209	0x3de5851a	0.11207028
210	0xbda6a0af	-0.08136117
211	0x3e691654	0.22762424
212	0x3ea79ec8	0.32738328
213	0xbbc5e4e6	-0.0060392497
214	0xbc7f770d	-0.015592349
215	0xbe2cc22a	-0.16870943
216	0xbec2a946	-0.3801977
217	0xbebaa4b8	-0.36453795
218	0x3dfe4a2b	0.1241649
219	0x3e716627	0.23574124
220	0x3ea7675d	0.32696047
221	0x3ea15611	0.31510976
222	0xbe711f8d	-0.23547192
223	0xbe6ce478	-0.23134029

resnet_embedding.edge_embedding.bias f4 [32]
0	0x3e897e18	0.26854014
1	0xbe9db4ab	-0.308019
2	0x3e859a35	0.26094213
3	0x3def9257	0.11697834
4	0x3e79d4b4	0.24397546
5	0x3e92aeb4	0.28648913
6	0xbe51fa7d	-0.2050571
7	0x3e9bde67	0.30443117
8	0x3e9d90f8	0.30774665
9	0xbe35ab23	-0.17741065
10	0x3b3346c1	0.0027355405
11	0x3e5290be	0.20563027
12	0x3d99692b	0.07490762
13	0x3e853f32	0.26024777
14	0xbe9facd0	-0.31186533
15	0x3dfacc4a	0.12245996
16	0xbec49b94	-0.38399947
17	0xbbfec29b	-0.0077746636
18	0x3d9c623b	0.076359235
19	0x3dc46461	0.09589458
20	0x3e190c87	0.14946185
21	0x3e176ba7	0.1478716
22	0xbe8a2f42	-0.2698918
23	0xbea141f5	-0.31495634
24	0x3ea7fff0	0.32812452
25	0x3de9d89d	0.11418269
26	0x3e4b4843	0.19851784
27	0xbc41abb2	-0.0118207205
28	0x3ea608dc	0.32428634
29	0xbe08c412	-0.13356045
30	0xbe2dbff5	-0.16967757
31	0xbce56de9	-0.02800651

resnet_embedding.bn_edge.weight f4 [32]
0	0x3f847665	1.0348631
1	0x3f7df69e	0.9920443
2	0x3f7f900d	0.9982918
3	0x3f804f9d	1.0024296
4	0x3f863170	1.0483837
5	0x3f86115c	1.0474048
6	0x3f84ea5a	1.0384018
7	0x3f81a17f	1.012741
8	0x3f8866ea	1.0656407
9	0x3f830219	1.0235015
10	0x3f7d9403	0.9905397
11	0x3f80df2b	1.0068105
12	0x3f866fd6	1.050288
13	0x3f831a9f	1.0242499
14	0x3f7ab2e5	0.9792922
15	0x3f80ef18	1.0072966
16	0x3f857f3a	1.0429451
17	0x3f8847d4	1.064692
18	0x3f78a0de	0.97120464
19	0x3f7471eb	0.95486325
20	0x3f830c3e	1.0238111
21	0x3f7a5db5	0.97799236
22	0x3f879a9a	1.0594056
23	0x3f84b641	1.036812
24	0x3f800352	1.0001013
25	0x3f81e6fd	1.0148617
26	0x3f7dbdbc	0.99117637
27	0x3f80ab8c	1.0052352
28	0x3f8441ee	1.033262
29	0x3f827b80	1.0193939
30	0x3f7f6457	0.9976248
31	0x3f80beee	1.0058267

resnet_embedding.bn_edge.bias f4 [32]
0	0x3a194fc4	0.0005848373
1	0xbca663cd	-0.02031126
2	0xbd8df05d	-0.06930611
3	0x3c76ebe6	0.015070891
4	0x3bc237a9	0.0059270454
5	0x3d30f50a	0.043202437
6	0x3c57dbe5	0.013174986
7	0x3d10049d	0.03516065
8	0x3cabe82b	0.02098473
9	0x3ca01a94	0.019543923
10	0x3bf8d3b0	0.0075935945
11	0x3c9d5d5b	0.019209554
12	0x3d5ead27	0.05436435
13	0x3d3a23e9	0.045444403
14	0x3c35ae46	0.011088913
15	0x3bd26fb7	0.006422009
16	0x3d35d9b5	0.044397075
17	0x3d03078f	0.03198963
18	0xbc7ac8cf	-0.015306666
19	0xbd30cf31	-0.043166343
20	0x3c2cefd2	0.0105552245
21	0xbca38bd9	-0.019964145
22	0x3d137b62	0.03600634
23	0x3d36d1a6	0.04463353
24	0x3ce0d69c	0.027446084
25	0x3c696e66	0.014247512
26	0x3c4fc9f9	0.012682431
27	0xb96f0e65	-0.00022798179
28	0x3b938399	0.0045017716
29	0x3d3eb93d	0.046563376
30	0x3bd2d327	0.0064338627
31	0xbd0319a2	-0.032006867

resnet_embedding.bn_edge.running_mean f4 [32]
0	0xbd929792	-0.07157816
1	0xbe53c3f0	-0.20680213
2	0x3d8bd83a	0.06828351
3	0x3d1b74d6	0.03795322
4	0x3eb57040	0.35437202
5	0x3f159893	0.58435935
6	0x3da473d3	0.08029904
7	0x3f22dbee	0.63616836
8	0x3f28f245	0.65994674
9	0xbdd85cf5	-0.10564605
10	0xbdaf60f9	-0.08563418
11	0x3d060668	0.032720953
12	0x3db2977c	0.087202996
13	0xbe3e482b	-0.18582217
14	0xbef91fbb	-0.4865702
15	0xbe04d44f	-0.12971614
16	0xbeeadc4e	-0.45871204
17	0x3e948833	0.29010162
18	0xbd4fb5a5	-0.05071034
19	0x3d9fdbe4	0.07805613
20	0x3dc60b6c	0.09670147
21	0x3e7d879b	0.2475876
22	0xbe99b0fe	-0.30017847
23	0xbf00754f	-0.50179
24	0x3d06f9b3	0.032952975
25	0xbe1cb6ce	-0.1530411
26	0xbede63e5	-0.43435588
27	0x3a121ccd	0.00055737497
28	0x3e92c232	0.28663784
29	0xbea0fb3f	-0.31441686
30	0xbdb7027f	-0.08936023
31	0x3d86ef29	0.06588585

resnet_embedding.bn_edge.running_var f4 [32]
0	0x3d21572d	0.039389778
1	0x3beca295	0.0072215297
2	0x3d304dcc	0.043042943
3	0x3c22f29f	0.009945541
4	0x3bd4ad1b	0.0064903623
5	0x3cabc227	0.020966602
6	0x3d20cd87	0.039258506
7	0x3d07245f	0.03299367
8	0x3d808b1b	0.06276532
9	0x3c22ea59	0.009943568
10	0x3ca5e03e	0.020248529
11	0x3c0c9391	0.008580104
12	0x3bf19390	0.007372327
13	0x3dad4189	0.084597655
14	0x3cf20863	0.029545015
15	0x3cfdba58	0.030972645
16	0x3b8d7aa0	0.0043175966
17	0x3cf747ae	0.030185547
18	0x3cda7261	0.026665868
19	0x3c9fd5f4	0.0195112
20	0x3c30963c	0.010778006
21	0x3cc4bc50	0.024015576
22	0x3c1f780c	0.009733211
23	0x3ca42bcd	0.020040417
24	0x3d2b580d	0.04183202
25	0x3ce2c6d0	0.027682692
26	0x3dd56296	0.104191944
27	0x3c44fdf7	0.012023441
28	0x3c432c79	0.011912459
29	0x3c33ff53	0.010986167
30	0x3d57cc13	0.052684855
31	0x3d8b6198	0.06805724

graph_transformer_layer.0.attention.Q.weight f4 [32, 32]
0	0x3dd9bb3f	0.106314175
1	0xbd8f08ec	-0.069841236
2	0xbe043bd9	-0.12913455
3	0x3da23b4f	0.079214685
4	0x3d13ca16	0.036081396
5	0xbd60b3ce	-0.054858975
6	0x3d815b75	0.06316272
7	0x3c700732	0.014650153
8	0xbd989dba	-0.07451959
9	0x3d497c94	0.049191073
10	0x3dfdcdbd	0.12392757
11	0xbd1ec510	-0.038762152
12	0x3daa2ba3	0.08309104
13	0xbe0622c0	-0.13099194
14	0xbe375980	-0.17905235
15	0x3d05c195	0.032655317
16	0xbe194182	-0.14966395
17	0x3c44c7f9	0.012010568
18	0x3e3910ca	0.18072811
19	0x3b213a14	0.0024601268
20	0xbe2f090e	-0.17093298
21	0xbdef0274	-0.1167039
22	0x3deabf23	0.11462238
23	0x3d7cdac5	0.061732072
24	0xbe403ab2	-0.1877239
25	0x3d2aaef6	0.041670762
26	0x3e044925	0.12918527
27	0xbe1df11c	-0.15424007
28	0xbd7adb8f	-0.061244544
29	0xbe4cc8b8	-0.19998443
30	0x3e454b82	0.19267085
31	0xbd65bdf7	-0.056089368
32	0x3e1a2be0	0.150558
33	0xbc8dd9f7	-0.017315848
34	0x3e1ef5f0	0.15523505
35	0x3e1d6867	0.15371858
36	0x3c9e3f20	0.01931721
37	0x3e1532f6	0.14570221
38	0x3d45a75c	0.04825531
39	0xbd96b37a	-0.07358451
40	0x3e8c1520	0.27359867
41	0x3c18ff1d	0.0093381675
42	0xbddffecc	-0.109372705
43	0xbddcb36a	-0.10776408
44	0x3d2fa956	0.0428861
45	0x3dfb6d61	0.12276722
46	0xbd4f6219	-0.050630663
47	0x3e08eb6a	0.13371053
48	0xbd1e87fd	-0.038703907
49	0x3d978dbd	0.07400081
50	0xbdaca942	-0.08430721
51	0xbddbc0a2	-0.10730101
52	0x3e363ea7	0.17797337
53	0x3dfd4b9d	0.12367938
54	0xbd8bdf49	-0.06829698
55	0x3cdf9146	0.027290951
56	0x3e4ef72e	0.20211479
57	0x3e101823	0.14071707
58	0xbc1d85b1	-0.009614394
59	0x3e51106e	0.20416424
60	0x3e7e0c55	0.24809392
61	0x3d27c07b	0.040955048
62	0x3cb4c57a	0.02206682
63	0x3e29f3fc	0.16596979
64	0xbcb7ff06	-0.022460472
65	0x3d29681f	0.041359063
66	0x3db9d442	0.09073688
67	0xbcd8f997	-0.026486201
68	0xbd41cb14	-0.04731281
69	0xbc6827f6	-0.014169684
70	0xbde93271	-0.11386574
71	0x3df387ff	0.118911736
72	0xbdbd1c44	-0.09233907
73	0xbde3ef43	-0.1112962
74	0xbcd39de7	-0.02583213
75	0xbce455ed	-0.027873004
76	0x3da62b18	0.08113688
77	0xbcd4dee3	-0.025985187
78	0x3d9f7e9d	0.077878214
79	0x3cda63c5	0.026658902
80	0x3e2a9555	0.16658528
81	0x3de47433	0.11154976
82	0x3d05f7b5	0.032706935
83	0xbd80cf51	-0.062895425
84	0x3e28bf0f	0.16479133
85	0x3e615eb3	0.22008781
86	0xbb799d9c	-0.0038088327
87	0x3e031660	0.12801504
88	0xbd34248d	-0.04398017
89	0x3e0e96a8	0.13924658
90	0x3e3e3813	0.18576078
91	0x3e1c90c1	0.15289594
92	0x3dec0e90	0.11526215
93	0xbe0542ce	-0.13013765
94	0x3d17e3f2	0.03708262
95	0xbd9a11f7	-0.07522958
96	0x3def82b5	0.11694852
97	0x3ca0ac49	0.019613402
98	0xbcb5e3a5	-0.022203276
99	0x3d881ac1	0.06645728
100	0x3d6f581d	0.05843364
101	0xbd1dd624	-0.0385343
102	0xbe7090d8	-0.23492754
103	0x3e32dd98	0.17467344
104	0x3d9e62d2	0.07733692
105	0x3e0576d8	0.13033617
106	0xbd63c688	-0.055609256
107	0xbdb0a330	-0.086248755
108	0xbd5463e0	-0.05185306
109	0x3dad9918	0.08476466
110	0x3cca16a0	0.024668992
111	0xbe29ff48	-0.16601288
112	0xbdb6468a	-0.08900173
113	0xbbf6d14a	-0.0075322734
114	0xbd48849b	-0.048954587
115	0x3cde6128	0.027145937
116	0xbde9de10	-0.11419308
117	0x3dab4149	0.083620615
118	0xbcf9547c	-0.030435793
119	0xbc11a654	-0.008889753
120	0xbdcffe40	-0.10155916
121	0x3ddc0df4	0.10744849
122	0x3d5fadd7	0.054609146
123	0xbb709cd8	-0.003671458
124	0xbe6346a4	-0.22194916
125	0xbde2602a	-0.11053498
126	0x3d604132	0.054749675
127	0xbe49fd23	-0.1972547
128	0xbdc28ecf	-0.09499895
129	0x3d1b071b	0.037848573
130	0xbde87c0c	-0.11351785
131	0xbe1842c7	-0.14869224
132	0x3c3f8eb2	0.011691736
133	0x3d9c91bd	0.07644985
134	0xbd511718	-0.051047415
135	0x3e2b7c39	0.16746606
136	0x3b755dd0	0.003743995
137	0x3df49cf5	0.11944
138	0xbe15fb37	-0.14646612
139	0x3d40702f	0.046981987
140	0xbdbcdea6	-0.09222154
141	0xbb1b6636	-0.0023712046
142	0xbe4e0655	-0.20119603
143	0xbd9f5a73	-0.07780924
144	0x3b91614d	0.004436648
145	0x3ced6985	0.02898098
146	0xbe09de22	-0.13463643
147	0x3ced4544	0.028963692
148	0xbcc06e99	-0.023490237
149	0xbdb3ab94	-0.0877296
150	0x3d83933c	0.06424567
151	0x3d849975	0.06474582
152	0x3d824349	0.0636049
153	0xbe363dc6	-0.17797002
154	0x3e03b026	0.12860164
155	0xbda32d40	-0.07967615
156	0xbe02e4ce	-0.12782595
157	0x3c285f45	0.01027662
158	0x3df8b42c	0.1214374
159	0xbe21d62c	-0.15804356
160	0x3d4f3842	0.05059076
161	0x3de6f247	0.112766795
162	0x3e25cb88	0.16190922
163	0x3e5a19fe	0.21298978
164	0xbd2d82bd	-0.04236101
165	0x3e406d3e	0.18791673
166	0xbe1be7d5	-0.15225156
167	0x3def1401	0.11673737
168	0xbd24aace	-0.040201955
169	0xbd83e4e4	-0.06440142
170	0x3d03a511	0.03213984
171	0x3e42d6e7	0.19027291
172	0xbdc94c3e	-0.09828995
173	0xbdb68c8c	-0.08913526
174	0xbd567abe	-0.05236315
175	0x3d8bd1ec	0.06827149
176	0xbdb908c8	-0.09034878
177	0x3def6877	0.11689847
178	0x3b8d21fd	0.0043070302
179	0x3d54135c	0.051776275
180	0x3ca99356	0.020700138
181	0x3e8456ed	0.2584757
182	0x3d21fd96	0.03954848
183	0x3dc3caee	0.0956019
184	0x3ddff4bc	0.10935351
185	0x3dfe9425	0.124306
186	0x3d27270e	0.04080873
187	0x3dab63f0	0.08368671
188	0xbd8983df	-0.067146055
189	0x3e5f0b15	0.21781571
190	0x3da10e7d	0.078640915
191	0x3d656e84	0.0560136
192	0x3d18e739	0.037329886
193	0xbe32ae36	-0.17449269
194	0xbd80b6a8	-0.06284839
195	0xbd48627f	-0.04892206
196	0x3e348d0c	0.1763193
197	0xbe1f0073	-0.15527515
198	0x3c41d965	0.011831616
199	0x3e59b739	0.212613
200	0xbcf57a4c	-0.029965542
201	0x3e31d3c3	0.17365937
202	0x3e172f90	0.14764237
203	0xbd997156	-0.0749232
204	0x3a0b50b8	0.0005314457
205	0x3d2906ff	0.041266438
206	0xbdaf9ea7	-0.085751824
207	0xbe330ccc	-0.1748535
208	0x3cbd74a1	0.023126902
209	0xbe199e9b	-0.1500191
210	0xbdbef8d8	-0.09324807
211	0x3e33f81b	0.17575113
212	0xbe08e4c1	-0.13368513
213	0xbdfe87d7	-0.12428253
214	0x3dc2a7c4	0.09504655
215	0xbcaa4868	-0.02078648
216	0xbdf8bc7c	-0.121453255
217	0x3cc60417	0.024171872
218	0xbdf224ee	-0.1182345
219	0xbc426357	-0.011864505
220	0xbe4fc9e4	-0.20291859
221	0xbdb28e17	-0.08718508
222	0x3dc73caf	0.09728371
223	0xbe18ebe7	-0.1493374
224	0xbd8a0a08	-0.067401946
225	0x3d7faa2d	0.06241815
226	0xbca95187	-0.020668758
227	0xbe36ac93	-0.1783927
228	0xbe7be07d	-0.24597354
229	0x3d7350b5	0.05940314
230	0xbd981e2a	-0.07427628
231	0x3bbf8cba	0.0058456333
232	0x3c61b2b4	0.013775516
233	0xbdfce28d	-0.12347899
234	0x3d58e054	0.05294831
235	0xbdcdec99	-0.10054893
236	0xbdfea530	-0.12433851
237	0x3c9658d6	0.018352907
238	0xbe4d295b	-0.20035307
239	0x3c79badf	0.015242307
240	0x3de3f702	0.111310974
241	0xbe498608	-0.19680035
242	0xbe50f555	-0.20406087
243	0x3c76af0b	0.015056382
244	0xbba53c40	-0.0050425828
245	0xbe851893	-0.2599531
246	0xbd6fa4ff	-0.058506962
247	0xbe14b0a9	-0.14520516
248	0xbdafa5c2	-0.08576538
249	0xbdef8b84	-0.11696532
250	0x3d02004f	0.031738576
251	0xbd858004	-0.06518558
252	0xbc316bdc	-0.010828938
253	0x3d6876b0	0.056753814
254	0x3d130fcf	0.035903748
255	0xbd7957c1	-0.060874704

graph_transformer_layer.0.attention.Q.bias f4 [32]
0	0x3d866cfe	0.06563757
1	0x3e78ee61	0.24309684
2	0x3e61cf6a	0.22051778
3	0x3dbe7384	0.092993766
4	0x3d4722ce	0.048617177
5	0x3e1f62ae	0.15564987
6	0xbe333008	-0.17498791
7	0xbe1d37e5	-0.15353353
8	0xbae1d73c	-0.0017230283
9	0xbe74ea4e	-0.23917505
10	0x3e43f0d9	0.19134845
11	0x3c3e6d67	0.011622763
12	0xbe5af6c4	-0.21383196
13	0x3d60d112	0.054886885
14	0x3e293f92	0.16528156
15	0x3d8d59e9	0.069019146
16	0x3d7318ff	0.05935001
17	0xbdaaf433	-0.083473586
18	0x3bf6beac	0.007530054
19	0x3c237541	0.009976686
20	0xbd1a95e8	-0.037740618
21	0x3d914a95	0.070943035
22	0x3daf85a9	0.085704155
23	0x3e1423d6	0.14466795
24	0x3db76cd5	0.08956305
25	0x3e5fc110	0.21850991
26	0x3e3a3930	0.18185878
27	0xbe1b0ae2	-0.1514087
28	0xbded0ae6	-0.11574344
29	0x3dfc6f25	0.12325887
30	0x3e42fbc3	0.19041352
31	0xbe5cb515	-0.21553452

graph_transformer_layer.0.attention.K.weight f4 [32, 32]
0	0x3db29880	0.08720493
1	0xbe292cdc	-0.16521019
2	0xbd241374	-0.040057614
3	0xbde9f1d9	-0.11423082
4	0xbc8f768a	-0.017512579
5	0xbe093ee4	-0.13402897
6	0xbdc92019	-0.09820575
7	0xbdc48778	-0.09596151
8	0x3d87b811	0.06626905
9	0x3e32b900	0.17453384
10	0xbd67f13f	-0.056626555
11	0xbe3cf864	-0.18454129
12	0xbd94a63c	-0.07258269
13	0x3daf6ea3	0.08566024
14	0x3ddeae64	0.10873106
15	0x3d2e04ab	0.04248492
16	0x3d506d5f	0.050885554
17	0xbe179d3c	-0.14806074
18	0xbe604922	-0.21902898
19	0xbdefb2c2	-0.11704017
20	0xbd928316	-0.07153909
21	0xbda0d46a	-0.07853015
22	0xbd8a63b4	-0.06757298
23	0x3e06e01d	0.1317143
24	0xbe153dfc	-0.14574426
25	0xbda0d0a0	-0.07852292
26	0x3e28e7ce	0.16494676
27	0xbe431d3d	-0.19054122
28	0x3e0bb762	0.13644174
29	0x3bf33b39	0.0074228314
30	0x3e51bc93	0.20482092
31	0xbd3d5f96	-0.046233736
32	0x3c4f6d59	0.012660348
33	0xbde5327d	-0.111912705
34	0x3e286c2e	0.16447517
35	0x3e20ac3f	0.15690707
36	0xbdac37fa	-0.08409114
37	0x3e4c1d82	0.19933131
38	0x3cd33b0e	0.025784995
39	0x3e729ec8	0.23693383
40	0x3d9b1554	0.075724274
41	0xbd6518d6	-0.05593189
42	0x3dbb66c5	0.09150461
43	0xbe49a3ef	-0.19691442
44	0xbd7604d4	-0.0600632
45	0x3e317149	0.17328371
46	0xbc324750	-0.01088126
47	0xbdfaeb26	-0.12251882
48	0x3e1757c3	0.14779572
49	0xbda70747	-0.08155685
50	0x3e0bae77	0.13640772
51	0xbd169f06	-0.03677275
52	0x3df03c42	0.11730243
53	0xbcb1fa38	-0.021725759
54	0x3df4ef36	0.11959688
55	0xbddef5ff	-0.10886764
56	0xbe6f84bd	-0.2339048
57	0x3da93ea2	0.082638994
58	0xbd4d06f9	-0.050055478
59	0xbdef72bf	-0.11691808
60	0xbc532f11	-0.0128896395
61	0x3e07d0d9	0.13263263
62	0xbe0b59fc	-0.13608545
63	0xbd005e28	-0.031339794
64	0x3ded8b53	0.115988396
65	0xbc480190	-0.012207404
66	0x3e65f97d	0.22458453
67	0xbe482b2a	-0.19547716
68	0x3d22d581	0.039754394
69	0x3d9b81d6	0.075931236
70	0xbd0134c8	-0.031544477
71	0x3d425fdf	0.04745471
72	0x3d80072e	0.062513694
73	0xbd900ec9	-0.0703407
74	0x3e08c0de	0.13354823
75	0xbd8636b1	-0.065534
76	0x3cf990e7	0.030464603
77	0xbe0b2aa9	-0.13590492
78	0x3dbd2c9a	0.09237023
79	0xbe17fa61	-0.14841606
80	0xbe2a578c	-0.16634959
81	0x3e1e9b3e	0.15488908
82	0x3e41ed6e	0.18938228
83	0x3e382d6e	0.1798608
84	0x3df6f089	0.12057597
85	0xbe3f8992	-0.18704823
86	0xbd919a4d	-0.07109509
87	0x3e460e0e	0.19341299
88	0xbe500ad4	-0.2031663
89	0xbd83fce0	-0.064447165
90	0xbe1eb896	-0.15500101
91	0x3cf39990	0.02973631
92	0x3d6deec0	0.058089018
93	0xbdfbe03b	-0.12298628
94	0x3ccba5ed	0.024859393
95	0xbd4b51d6	-0.04963859
96	0xbd97feb6	-0.07421629
97	0xbe0d956d	-0.13826533
98	0xbe470062	-0.1943374
99	0x3dc201fa	0.09473033
100	0x3dfa78f5	0.12230102
101	0xbcccc9c5	-0.024998555
102	0x3e6e3c90	0.2326529
103	0x3e08e6a8	0.13369238
104	0xbdb9becd	-0.090695955
105	0x3ccb39ac	0.024807774
106	0xbdfdcf30	-0.123930335
107	0x3dc32982	0.09529401
108	0x3dece2f1	0.11566723
109	0xbddd01c9	-0.10791356
110	0x3c9d36ca	0.019191165
111	0x3e576839	0.21035852
112	0x3c6867cc	0.014184903
113	0x3e15a531	0.14613797
114	0xbe43ffa2	-0.19140485
115	0xbe3e574d	-0.1858799
116	0xbe0bba76	-0.13645348
117	0x3e244138	0.16040504
118	0x3dfec4f8	0.124399126
119	0xbd825e8c	-0.0636569
120	0xbe37531e	-0.179028
121	0xbd3d195f	-0.046166774
122	0xbd3508bf	-0.044197794
123	0xbd64874e	-0.0557931
124	0xbcd77579	-0.026301133
125	0x3dd5fd17	0.10448664
126	0x3da3ac82	0.07991888
127	0x3d3d8400	0.046268463
128	0x3c6093ef	0.013707145
129	0x3e0a6f28	0.13518965
130	0x3e247b8f	0.16062759
131	0x3d5bba09	0.053644214
132	0xbe1ea288	-0.15491688
133	0x3d8e1ba3	0.06938865
134	0x3e027568	0.127401
135	0x3dedd89f	0.11613583
136	0x3db3d62c	0.087810844
137	0x3dd8875b	0.10572692
138	0xbda04b9d	-0.07826922
139	0x3e620056	0.2207044
140	0xbd8a2a0c	-0.06746301
141	0x3db92328	0.09039909
142	0x3e1be4b2	0.15223959
143	0x3d0df8d3	0.034661125
144	0xbd9f8c3d	-0.0779042
145	0x3dd05807	0.1017304
146	0x3cc1b26e	0.023644652
147	0xbce71594	-0.028208531
148	0xbccf86b6	-0.02533279
149	0xbe13e429	-0.14442505
150	0x3d89da89	0.067311354
151	0x3d247dd6	0.04015907
152	0x3dc6faca	0.09715803
153	0x3dc9220a	0.098209456
154	0x3dfe0935	0.124041
155	0x3c87674f	0.016528754
156	0xbd6f0c00	-0.058361053
157	0xbdadad39	-0.08480305
158	0x3e0c649b	0.13710253
159	0x3d65ead3	0.05613215
160	0xbe32789f	-0.17428826
161	0xbbbcccf7	-0.0057617384
162	0x3d2b065c	0.04175411
163	0x3dda10c2	0.106477275
164	0x3ddc9346	0.10770278
165	0xbdba0956	-0.09083812
166	0xbde66588	-0.11249834
167	0xbe4a979e	-0.197844
168	0xbcb508aa	-0.022098858
169	0x3e2840c8	0.16430962
170	0x3e0ba87c	0.1363849
171	0xbd75ba84	-0.05999233
172	0x3d9692c3	0.07352211
173	0x3e029945	0.1275378
174	0xbd3dff8d	-0.04638629
175	0xbd636a17	-0.055521097
176	0xbd0dba84	-0.034601703
177	0x3e4c613a	0.19958964
178	0xbd8eff5e	-0.06982301
179	0xbd2f4b03	-0.042796146
180	0x3dbab1de	0.09115957
181	0x3bb4d8b7	0.0055189985
182	0xbbf730e3	-0.0075436695
183	0x3d052a22	0.032510884
184	0x3e5a0785	0.21291931
185	0x3d4de72f	0.050269302
186	0x3dbe9c64	0.09307173
187	0x3dc96dd5	0.09835402
188	0xbe216a42	-0.1576319
189	0xbe52ff61	-0.20605232
190	0x3e00ec96	0.1259025
191	0xbe22e5c2	-0.15907958
192	0xbd777df2	-0.060422845
193	0x3c5cdc82	0.0134803075
194	0xbe078432	-0.13234022
195	0x3d7d19ec	0.0617923
196	0xbe5d6a09	-0.2162248
197	0xbc363548	-0.011121102
198	0xbe25485c	-0.16140884
199	0x3ce10f5b	0.027473142
200	0xbe0ee873	-0.1395586
201	0xbe354268	-0.17701113
202	0xbce1cd7c	-0.027563803
203	0x3d5dc4c6	0.054142736
204	0xbe44a697	-0.19204174
205	0xbe52ba03	-0.2057877
206	0xbbfc19bc	-0.0076934975
207	0x3defa6b2	0.117017165
208	0xbe0173e8	-0.12641871
209	0x3dd18d2f	0.10232007
210	0xbe348da8	-0.17632163
211	0x3b9848e8	0.004647363
212	0x3e4080a4	0.18799073
213	0x3d832623	0.064037584
214	0xbdca5a90	-0.09880555
215	0x3dbbfc70	0.09179008
216	0xbd67540b	-0.056476634
217	0xbcd44494	-0.025911607
218	0x3d9000cd	0.07031403
219	0x3e2f0f8c	0.17095774
220	0x3e430aa8	0.19047034
221	0xbe204769	-0.15652241
222	0x3d5bea6b	0.053690355
223	0xbcda1580	-0.02662158
224	0x3cb0f208	0.021599784
225	0x3e192f3b	0.14959423
226	0x3dec7f25	0.115476884
227	0xbdcfd375	-0.10147754
228	0xbd9d9849	-0.07695062
229	0x3d9bfc05	0.07616428
230	0x3cc41869	0.02393742
231	0x3db6dd26	0.089288995
232	0xbe482884	-0.19546705
233	0xbd204755	-0.039130528
234	0x3d438df5	0.047742803
235	0x3e476f3e	0.1947603
236	0xbd3ae735	-0.045630652
237	0x3e09a364	0.13441235
238	0xbcc7df17	-0.02439837
239	0x3df2a17b	0.11847206
240	0x3e0e55df	0.13899945
241	0x3c476596	0.012170216
242	0xbcc49479	-0.023996579
243	0xbd8052b7	-0.062657766
244	0xbdc5704c	-0.096405596
245	0xbccc988c	-0.024975084
246	0x3c2ea3c2	0.01065916
247	0x3d84946b	0.06473621
248	0x3e7b81a8	0.24561179
249	0xbd0dd2f1	-0.034624998
250	0x3a11ceb4	0.0005562112
251	0x3dd8d776	0.10587971
252	0x3e13d526	0.14436778
253	0x3dbf5dbd	0.09344051
254	0xbb5c7212	-0.0033637327
255	0x3d9a4152	0.0753199

graph_transformer_layer.0.attention.K.bias f4 [32]
0	0x3e015528	0.12630141
1	0xbc995e2d	-0.018721664
2	0xbe5c6ae4	-0.2152515
3	0xbe045d36	-0.12926182
4	0x3e0e4360	0.13892889
5	0xbdbb8ee7	-0.09158116
6	0xbd0bd26d	-0.034136225
7	0x3e0be183	0.13660245
8	0xbcaa184d	-0.02076354
9	0xbdb42f82	-0.08798124
10	0x3e0c3226	0.13691005
11	0xbe27fb63	-0.1640449
12	0xbe354a46	-0.17704114
13	0x3e1fa658	0.15590799
14	0xbe369000	-0.17828369
15	0xbd03fc43	-0.032222997
16	0x3e0c9244	0.13727671
17	0x38f17904	0.000115143164
18	0xbe554db9	-0.2083043
19	0xbdba8cf2	-0.091089144
20	0x3dbe9566	0.09305839
21	0x3cd72683	0.026263481
22	0x3e1a6f1d	0.15081449
23	0xbd52d166	-0.05146923
24	0x3def099e	0.11671756
25	0x3dcf0e66	0.10110168
26	0x3d192ad9	0.03739438
27	0xbda5318f	-0.08066093
28	0xbd81f73c	-0.06345984
29	0xbe42ad57	-0.19011436
30	0x3c111cbe	0.00885695
31	0x3e1e49c5	0.15457828

graph_transformer_layer.0.attention.V.weight f4 [32, 32]
0	0xbdf3bac3	-0.11900856
1	0x3e3e0f73	0.18560581
2	0xbbbbe979	-0.005734619
3	0xbda93ef6	-0.08263962
4	0x3d004ab3	0.03132124
5	0xbdeca071	-0.11554039
6	0xbdf5abfa	-0.119956926
7	0xbdd6d179	-0.104891725
8	0x3b365bdf	0.0027825756
9	0xbd9d4800	-0.076797485
10	0x3cdbfdee	0.026854482
11	0x3e132b1c	0.14371914
12	0xbe11beda	-0.1423296
13	0x3d3ef72e	0.046622448
14	0xbdc9651e	-0.0983374
15	0x3e2ab135	0.16669162
16	0xbdd14523	-0.10218265
17	0xbdf2ebc1	-0.11861373
18	0x3d9580de	0.0729997
19	0xbd6c05e2	-0.057622798
20	0x3dcc3eaf	0.099728934
21	0x3d45847b	0.048222046
22	0xbd07fd56	-0.033200584
23	0xbd97b264	-0.07407072
24	0x3e51ea7f	0.2049961
25	0xbcfec980	-0.031101942
26	0xbe134929	-0.14383377
27	0xbc46962c	-0.012120765
28	0xbd99fe90	-0.07519257
29	0x3daec476	0.08533566
30	0xbe3e8b04	-0.18607718
31	0xbe0d0268	-0.13770449
32	0x3cef2750	0.02919355
33	0x3df9e3bd	0.12201641
34	0xbd7d7bad	-0.061885525
35	0xbd65ab30	-0.05607146
36	0xbd80e3bd	-0.06293438
37	0xbd2f7346	-0.042834543
38	0xbe35fd1e	-0.17772338
39	0x3cd81fdf	0.026382385
40	0x3adf0660	0.001701545
41	0x3e25ca55	0.16190465
42	0xbb835c75	-0.0040088245
43	0xbe061deb	-0.1309735
44	0x3df1b65a	0.11802359
45	0xbe15437a	-0.14576522
46	0x3df52daf	0.11971604
47	0xbcc327c6	-0.023822676
48	0x3d3f56c3	0.0467136
49	0xbd535388	-0.051593333
50	0x3e2835de	0.16426799
51	0xbdc002cb	-0.09375533
52	0x3e1f27d7	0.15542541
53	0xbd96c93e	-0.07362603
54	0x3e1fb423	0.1559606
55	0xbc90ffa9	-0.017700033
56	0xbdb4ab94	-0.088217884
57	0x3df4ad9d	0.119471766
58	0x3df5509c	0.11978266
59	0x3db359e8	0.08757383
60	0xbc0a4cda	-0.008441174
61	0x3db8f6ae	0.090314254
62	0x3cea6042	0.028610352
63	0x3dfd89c5	0.12379793
64	0xbd3fccbe	-0.046826117
65	0xbd61b364	-0.05510272
66	0x3e1d494a	0.15359989
67	0x3d9ca3a4	0.076483995
68	0x3e211dce	0.15734026
69	0xbd5e0258	-0.054201454
70	0x3d442339	0.047885153
71	0xbd77757a	-0.06041477
72	0x3df30065	0.118653096
73	0x3e24af82	0.16082576
74	0x3da01c3a	0.07817884
75	0x3df04dbf	0.11733579
76	0x3dcce90b	0.10005387
77	0xbb49aaba	-0.0030771927
78	0x3d252469	0.040317927
79	0xbb5d8578	-0.0033801477
80	0x3acaf532	0.0015484451
81	0x3b477a9f	0.0030438078
82	0x3e07e4e9	0.13270916
83	0xbd49877d	-0.049201477
84	0xbdd3f1af	-0.10348832
85	0x3d62486b	0.055244844
86	0xb94ffd84	-0.000198355
87	0x3e3ff88f	0.18747161
88	0x3e685a19	0.2269062
89	0xbdc0f853	-0.09422364
90	0xbcd2d919	-0.025738286
91	0xbe14b7a6	-0.14523181
92	0xbd5d9424	-0.054096356
93	0x3e27745c	0.16352981
94	0x3d0e0ee4	0.03468217
95	0x3de25d4f	0.110529535
96	0xbcd60dfa	-0.026129711
97	0xbd4e3aee	-0.05034917
98	0xbe32e350	-0.17469525
99	0xbdacdf17	-0.084409885
100	0xbcc38a57	-0.023869677
101	0xbd3585f6	-0.04431721
102	0xbdc5613b	-0.09637686
103	0xbd01ff9e	-0.031737916
104	0x3c886c06	0.016653072
105	0x3d347190	0.044053614
106	0x3dd9ba67	0.106312566
107	0xbd7a4bbe	-0.06110739
108	0x3dac3e71	0.08410347
109	0x3e17bc92	0.14818028
110	0x3e2f5355	0.17121632
111	0x3d858703	0.06519892
112	0xbe0dc279	-0.13843717
113	0xbc6a1d09	-0.014289149
114	0x3d44de1a	0.048063375
115	0x3df0e8e3	0.117631696
116	0xbd04aa48	-0.032388955
117	0xbc192d30	-0.009349152
118	0x3df46a58	0.11934346
119	0x3de476ac	0.11155447
120	0xbe5df56f	-0.21675657
121	0x3da44b5e	0.08022188
122	0xbe25bc3c	-0.16185087
123	0xbe1aee45	-0.15129955
124	0x3e45bb62	0.19309762
125	0xbde2614f	-0.110537164
126	0xbe0dbf40	-0.13842487
127	0x3e14abf8	0.14518726
128	0xbd2c01a5	-0.041993756
129	0x3ddea146	0.10870604
130	0x3dbcd0f5	0.09219543
131	0x3e0066ab	0.12539165
132	0xbe27debb	-0.16393559
133	0x3d1cac3d	0.038250197
134	0xbdfe0372	-0.12403001
135	0x3db7bdda	0.08971758
136	0x3dfef3ca	0.12448843
137	0x3da3ac21	0.07991815
138	0x3d089313	0.033343386
139	0xbd85c17c	-0.06531045
140	0x3d3a80bd	0.04553293
141	0xbe237a92	-0.15964726
142	0x3e1538e6	0.14572486
143	0xbd033587	-0.03203347
144	0x3e1ceb28	0.1532408
145	0x3df1982f	0.11796605
146	0x3dd9001c	0.10595724
147	0xbe487d5b	-0.1957907
148	0xbd31dfb0	-0.043426216
149	0xbe35faa3	-0.17771392
150	0xbcfa8d39	-0.030584918
151	0xbd9a3861	-0.07530285
152	0xbe00bb7b	-0.12571518
153	0xbe124fcf	-0.14288257
154	0x3d6609b3	0.056161594
155	0xbe2435f6	-0.1603621
156	0x3d80db2d	0.062918045
157	0x3d81a2fc	0.06329915
158	0x3e0e3912	0.13888958
159	0x3db0bb51	0.08629478
160	0x3d819202	0.06326677
161	0x3c8c68f5	0.017139891
162	0x3c29ddbd	0.010367808
163	0x3c4adf21	0.0123823
164	0xbcd1b819	-0.02560048
165	0x3dd99e62	0.10625912
166	0x3d83fb19	0.064443775
167	0xbdab6217	-0.083683185
168	0xbdefc714	-0.11707893
169	0x3d1c5676	0.038168393
170	0x3defdc44	0.11711934
171	0xbdfa0abe	-0.1220908
172	0x3d0334c4	0.032032743
173	0x3d94f11a	0.07272549
174	0x3e17bafe	0.14817426
175	0x3d57f647	0.052725103
176	0x3cb07c6a	0.0215437
177	0x3d105aae	0.03524273
178	0xbdb5dcda	-0.08880015
179	0xbde4b673	-0.11167612
180	0xbdda4294	-0.1065723
181	0xbd8e6fc4	-0.06954911
182	0xbe1a2936	-0.15054783
183	0x3b544bf8	0.0032393914
184	0xbe0d9119	-0.13824882
185	0xbe024cce	-0.12724611
186	0xbda289ed	-0.079364635
187	0xbc63403f	-0.013870298
188	0xbe2905a6	-0.16506061
189	0x3d1ea3f4	0.038730577
190	0xbdf39aab	-0.11894735
191	0xbdfcd7ad	-0.123458244
192	0xbe3c71b7	-0.18402754
193	0x3c5958b3	0.013265776
194	0xbdcf4246	-0.101200625
195	0x3e214067	0.15747224
196	0xbe07c1c8	-0.13257515
197	0xbd0231c1	-0.03178573
198	0xbd97ce73	-0.07412424
199	0x3cffa659	0.03120725
200	0xbd7888f2	-0.060677476
201	0x3cccd577	0.025004132
202	0x3c14e8f0	0.00908874
203	0x3db58cda	0.08864756
204	0x3d620f2c	0.05519025
205	0xbc53c35c	-0.012924995
206	0x3e2379c6	0.15964422
207	0x3cc14caa	0.023596127
208	0xbce293f3	-0.027658438
209	0x3d35b93b	0.044366103
210	0xbcca517a	-0.024697054
211	0x3dbef53f	0.09324121
212	0xbd48ced9	-0.04902539
213	0xbb2f0bd4	-0.002670993
214	0xbc72394d	-0.014784169
215	0xbe05b20a	-0.13056198
216	0x3e4cfd59	0.2001852
217	0x3e155839	0.14584436
218	0xbe0fad68	-0.14030993
219	0xbe184b7c	-0.14872545
220	0xbc161ae7	-0.009161687
221	0xbd6ef16a	-0.0583357
222	0xbdcd49a7	-0.10023814
223	0xbdf8b1ac	-0.12143263
224	0xbe0796d4	-0.1324113
225	0xbd63a2a3	-0.055575024
226	0x3c5d5921	0.0135100195
227	0xbdad8236	-0.084721014
228	0xbd6c09dd	-0.057626594
229	0x3cfad0bb	0.030617109
230	0x3d8aeb37	0.06783145
231	0xbd7ba181	-0.06143332
232	0xbd6cc565	-0.057805438
233	0xbe2f51f3	-0.17121105
234	0x3d319a01	0.04335976
235	0x3db01385	0.08597473
236	0x3d46923b	0.0484793
237	0xbd51faff	-0.05126476
238	0x3ddb3658	0.107037246
239	0x3e2ed464	0.17073208
240	0xbd9efc28	-0.07762939
241	0x3e34a3f5	0.1764067
242	0x3d692b89	0.056926284
243	0x3de4da77	0.11174481
244	0xbe0bccf7	-0.13652407
245	0x3bfe791f	0.0077659036
246	0x3d9f4d9c	0.07778475
247	0x3e04ebc9	0.1298057
248	0x3e085897	0.13315044
249	0xbdee285f	-0.11628794
250	0x3dacde19	0.08440799
251	0xbe405883	-0.18783765
252	0xbe409907	-0.18808375
253	0xbde3a363	-0.11115148
254	0xbe59b25f	-0.2125945
255	0xbe15e7f4	-0.14639264

graph_transformer_layer.0.attention.V.bias f4 [32]
0	0xbd07888a	-0.0330892
1	0x3e134658	0.14382303
2	0xbdc9a011	-0.09844983
3	0x3d1ac274	0.0377831
4	0x3dcf3d29	0.10119087
5	0xbe134f45	-0.14385708
6	0xbe2de472	-0.16981676
7	0xbd1fc075	-0.0390019
8	0xbd27c610	-0.04096037
9	0xbdbc6d28	-0.092005074
10	0x3e02f1e2	0.12787583
11	0x3d77f063	0.060531985
12	0x3d3c9e80	0.046049595
13	0xbdff8979	-0.12477393
14	0xbe25c4cc	-0.16188353
15	0xbe043a22	-0.12912801
16	0x3da51ed6	0.08062522
17	0xbd5b3a85	-0.053522605
18	0x3d191afa	0.037379242
19	0x3de42ff4	0.11141959
20	0xbcd4d570	-0.025980681
21	0xbdc6771a	-0.096906856
22	0x3dbd1169	0.09231836
23	0x3d8f609b	0.07000848
24	0xbe1c5a9e	-0.15268943
25	0x3e1af61e	0.15132949
26	0xbcbb71eb	-0.022881469
27	0x3dd71a36	0.10503046
28	0xbd0d2672	-0.034460492
29	0xbe08a18d	-0.13342877
30	0x3d4ef6ba	0.050528266
31	0xbdedf19d	-0.1161835
