checkpoints/casp15_inhouse_full_v7_gcpnet_fold8.ckpt (torch, 656095 bytes, 315 tensors)

resnet_embedding.node_embedding.weight f4 [32, 19]
00000000: 4ddf ec3d 77c4 cfbc 72e0 47be fd07 2abd
00000010: d577 04be d81c 9a3d 5678 343d 4504 86bd
00000020: 5980 6f3e 7bcd c6bc 82f7 793c 85dc 5f3e
00000030: c832 66be 6d37 2abe bd45 803c 00c4 973d
00000040: 1445 00be c405 d9bc 6fd3 d1bd 586c 30be
00000050: ad71 88bd 28cc 7e3e 2fe9 3b3e 0c97 033d
00000060: 812a 2cbe cac1 163c db7e ffbd fb10 12bd
00000070: 650a 223e a9bc ab3d a54d 253e 8f6a 123c
00000080: 270f 7f3e c1c6 6f3e c4f1 48bd dcca b73d
00000090: 4698 2a3e d400 ffbc 7a20 be3d 680a 153e
000000a0: d3db 683e 5327 f53d 2518 353e 6cad 38be
000000b0: f90b ab3d d508 7f3c d0c0 fcbd d637 efbd
000000c0: 0517 4ebe 8fb9 e4bd 12e8 6abd 4de9 21bd
000000d0: 7313 153e 8e73 c9bd 6553 223e 6038 213e
000000e0: 35ac 173d a611 26be 8fd4 1dbc 2c3a 33be
000000f0: 2b6f 5e3d 566c d3bd 6733 51be 0354 59be
00000100: ba64 8cbc 5bd4 ed3d 0ce7 5e3c d667 5d3e
00000110: 4970 aabd 2067 b83c ee86 d63d 02bd 313c
00000120: 8872 a9bd f53f e2bd 3c35 883e 2b52 6dbe
00000130: 079b 793e 48c3 003e a4ef 32be bf56 423d
00000140: 2431 d03d 8def 61bd e56a 94bd c773 24be
00000150: fa11 86bc 03b3 263e f795 d73d c722 70be
00000160: 838c dbbd dc0a f1bd 3d25 71bd 54e5 63be
00000170: a788 823e 1581 713e 3f7d 6d3d 4cbd e23d
00000180: 11a7 0abe 8c0d 2a3e 3739 c33d 0196 1d3e
00000190: 51a2 783d 2584 a1bd 9746 603d 1c63 bc3d
000001a0: 7193 8cbd 8f2c 083c b28e 4b3c b007 2fbe
000001b0: b2f6 c43c f894 3c3d 6a22 8ebe 171d a2bd
000001c0: 7adb 2e3d 1b1b 4fbe cacd 8cba ed57 413e
000001d0: a688 353d e7cb 9a3d 11f0 0c3e f6e1 17be
000001e0: 0e78 80be 9644 f13d f687 783e 56fc f23c
000001f0: 6e62 2f3d 378e b7bd 25de d93d a768 893d
00000200: db92 54be 395d d53d 0de9 21be a023 57be
00000210: fd24 4fbe 8583 65bd ad0f d03d cd22 d73d
00000220: 871e 15be aea6 2e3d 48ac 90bc 4e36 9a3d
00000230: b024 98be c973 783d 69d6 393e 84ab 373e
00000240: ca3e b1bd 967d 813d 96e8 1ebe 99b3 0bbe
00000250: 0609 8ebd 3ae9 63be 3397 06be b065 d83d
00000260: 280d 1fbe 51e6 44bd e57b 34be cb77 41bd
00000270: e859 373d 8496 153d e47e 7d3e 0c77 91be
00000280: d129 e23c d3bb 913e b1c1 23bd 6bf6 99bd
00000290: 7f68 91bc cb1a ec3b 477c d13d 3c6a d0bd
000002a0: e06f d2bd ad3a d1bb da97 ff3b e66a 2bbe
000002b0: 78d6 173e 0eb2 89be 08d9 923e e5d9 953d
000002c0: 4a92 89bc 72f5 e2bd f995 24be 75b2 603e
000002d0: 4da5 1f3e 7f58 a33d 83a4 e6bd 737c 2c3e
000002e0: 17b2 e6bd 8734 2d3e deb3 49ba 9231 0a3e
000002f0: a427 b83d 1fc1 ab3c 8f4f a5bc c135 23be
00000300: 87b2 5a3d f12d 333d 9115 223d 280e 923c
00000310: d5fa 153d d05e 63bc 8193 26be 7ed2 233e
00000320: f83d 6fbe a74e bf3d 3142 2dbd b138 40bd
00000330: 34de f4bc b9b8 ad3d c336 ffbd 818a 8b3e
00000340: 697d 48ba 9859 303d d791 aebb e799 173d
00000350: 58d3 a53c 6b3c 7b3c 8ca4 76be 5c23 ba3d
00000360: ae87 8e3c 1582 d33d 7b8f 273e a9bf 543e
00000370: 01ae 33bc 8190 49be 0d6c 37be 11f5 eabd
00000380: 8e7c 16be 2f67 9ebe 449e ecbd c2e4 6a3d
00000390: 090d febd 172c 5dbe 0e61 25bd 1f34 eb3c
000003a0: fc7b 863c 7521 22be 3ac1 693e df7b 8fbe
000003b0: 3e18 d1bd 830d 4abd 108e 5ebd 30ac 603c
000003c0: b645 a53d cd5a 253e c011 a8bd 4420 c8bd
000003d0: 8e12 223c c4c2 a43e f5ea 0c3e 7a4b b0bb
000003e0: d813 7f3e 7e5a 1c3d 624d bdbc 6651 f6b8
000003f0: 43d4 34be 03db 00be 7fe1 8a3d 7e16 2b3e
0.11566029 -0.025362236 -0.19519213 -0.041511524 -0.12936337 0.07525033 0.044060074 -0.06543783
0.23388804 -0.024267903 0.015256764 0.21861465 -0.22480309 -0.16622706 0.015658254 0.07410431
-0.12526351 -0.026492007 -0.10245406 -0.1722883 -0.06662307 0.24882567 0.18350671 0.03212647
-0.16813089 0.009201476 -0.12475368 -0.035660725 0.15824278 0.083855934 0.161429 0.008936538
0.24908124 0.23415662 -0.04905869 0.08974239 0.1665965 -0.031128325 0.09283538 0.14554751
0.22740106 0.11970391 0.17684992 -0.18034905 0.08351893 0.015566071 -0.123414636 -0.11680572
-0.20125969 -0.11168205 -0.057350226 -0.039529134 0.145582 -0.098364934 0.15852125 0.15744162
0.037029464 -0.1621767 -0.009633197 -0.1750266 0.054305237 -0.10323398 -0.20429765 -0.21223454
-0.017137874 0.11612769 0.013604891 0.21621642 -0.08322198 0.022510111 0.104749545 0.010848286
-0.08273798 -0.11047355 0.26603115 -0.23175876 0.24375544 0.12574494 -0.17474228 0.04744601
0.10165623 -0.055160094 -0.07246951 -0.1605979 -0.016365994 0.16279225 0.105266504 -0.23450767
-0.1072016 -0.117696494 -0.058873404 -0.2225545 0.25494882 0.23584397 0.057980772 0.11071262
-0.13540293 0.1660673 0.09532397 0.15389253 0.060701672 -0.07886533 0.05475482 0.09198591
-0.0686406 0.008311405 0.012424158 -0.17092776 0.024043415 0.046040505 -0.2776063 -0.07915705
0.042689778 -0.20225184 -0.0010742482 0.18881197 0.04431977 0.075584225 0.13763453 -0.14832291
-0.25091594 0.1178066 0.24270615 0.029661339 0.04281848 -0.08962672 0.10638074 0.06709414
-0.20759146 0.104181714 -0.15811558 -0.21009684 -0.20228954 -0.05603363 0.1015924 0.105046846
-0.14562427 0.042639427 -0.017660275 0.07529889 -0.2971549 0.060657296 0.18148197 0.17936522
-0.08654554 0.06322782 -0.15518412 -0.1364273 -0.06935315 -0.22256938 -0.13143615 0.1056627
-0.15532362 -0.04807121 -0.17625387 -0.047233384 0.044763476 0.036520496 0.24755436 -0.28411138
0.02760783 0.2846361 -0.03997964 -0.075177036 -0.017750023 0.0072053424 0.10228782 -0.101765126
-0.10275245 -0.0063851685 0.0078000845 -0.16739997 0.14827907 -0.26893657 0.28681207 0.07316951
-0.016793389 -0.11081971 -0.16072835 0.21943076 0.15590401 0.07975864 -0.11261847 0.16844349
-0.11264437 0.16914569 -0.0007694344 0.13495472 0.08991936 0.02096611 -0.020179538 -0.15938474
0.053392913 0.043744985 0.03957135 0.017829016 0.036616165 -0.0138775855 -0.16267206 0.15998265
-0.23363483 0.093411736 -0.042299453 -0.046929065 -0.029891111 0.08482499 -0.12461617 0.27254108
-0.0007648082 0.043054193 -0.005327444 0.037012007 0.020242378 0.015334229 -0.24086207 0.090887755
0.017398681 0.103275456 0.16363327 0.20776238 -0.010966779 -0.1968403 -0.17912312 -0.11472524
-0.14695951 -0.30938098 -0.11553624 0.057347067 -0.1240483 -0.2159885 -0.04037576 0.028711377
0.016416542 -0.15833075 0.22827616 -0.28024194 -0.10209702 -0.049329292 -0.0543347 0.013712928
0.08069937 0.16147919 -0.082065105 -0.09771779 0.009892119 0.32179844 0.13761504 -0.0053800913
0.24909914 0.038172238 -0.023108188 -0.00011745356 -0.17659096 -0.12583546 0.06781291 0.16707799

resnet_embedding.node_embedding.bias f4 [32]
00000000: 617d 2d3e a2d9 4c3e f13f 44be 78d3 683e
00000010: 0c88 28be 4b46 3d3e 77e2 f3bd 9341 0cbe
00000020: d520 f03d bf65 c8bd 7f32 0abd f924 97bd
00000030: fe21 0cbd 3c19 ac3d 3761 083e 4645 82bd
00000040: cfab 86bd f153 3b3e 208b 0bbe 81ee 333e
00000050: bae5 94bd 4f03 043e cd25 113e c2a9 0bbc
00000060: 4dbb d5bd 1559 3b3d bcd6 113d ec90 31be
00000070: 28f2 2e3e c4a5 13be 7b10 343e fd3e b93c
0.1694236 0.20004895 -0.19165017 0.22736919 -0.16458148 0.18483846 -0.11908429 -0.1369689
0.11725012 -0.097850315 -0.033739563 -0.07380099 -0.034212105 0.084032506 0.13318335 -0.06360869
-0.06575739 0.1829374 -0.1362729 0.17571451 -0.07270379 0.12891887 0.14174576 -0.00852436
-0.104361154 0.045739252 0.035605177 -0.1734044 0.17084563 -0.14418703 0.17584412 0.022613043

resnet_embedding.bn_node.weight f4 [32]
00000000: 1e83 803f 26f1 6b3f 7d02 813f e773 883f
00000010: d38f 843f 5302 913f 0f3e 7a3f b30d 783f
00000020: f031 883f e0cd 723f c626 8c3f abdc 843f
00000030: 8ac6 733f 236f 833f e563 843f dee7 863f
00000040: 5210 873f fa05 803f dd33 833f 0ef1 873f
00000050: b23e 833f 952f 763f 3481 823f 3a0c 873f
00000060: e917 893f d16a 923f bcce 873f 5dbd 703f
00000070: ea4e 873f 1296 893f bfd1 813f fc93 843f
1.0040014 0.9216484 1.0078884 1.066037 1.0356392 1.1328834 0.97750944 0.96895903
1.064024 0.9484539 1.0949333 1.0379843 0.9522482 1.0268291 1.0342985 1.053951
1.0551856 1.0001824 1.0250202 1.0620439 1.0253508 0.96166354 1.019568 1.0550606
1.0710422 1.1438848 1.0609965 0.94038945 1.0570958 1.0748923 1.0142134 1.0357661

resnet_embedding.bn_node.bias f4 [32]
00000000: c71d a0bd 4f13 d9bd df6f 7fbb 2b00 a6bd
00000010: eda8 f5bb 8ae2 bbbc a8be dfbd 7d34 94be
00000020: 9548 43bd 8489 20be 5dd6 48be 80bb bfbd
00000030: c66c 1ebe 89cc 41be 996b cfbd a851 95bd
00000040: e3b4 29be bcbe b0bc a1e0 0cbd fece fcbd
00000050: 9435 acbd 7afa 3fbe 01f8 aebd 21b0 60be
00000060: 4376 1ebe e17d f6bc a229 f23c b308 9abd
00000070: 15c9 57bd b2d8 c6bc 67f3 01bd 9a44 c5bd
-0.078181796 -0.10599386 -0.0038976592 -0.08105501 -0.007496944 -0.02293517 -0.10925037 -0.28946295
-0.04767664 -0.15677458 -0.19613023 -0.09361935 -0.15471181 -0.1892568 -0.101279445 -0.07290965
-0.16572909 -0.021575324 -0.03439391 -0.12344168 -0.08408657 -0.18747893 -0.08543397 -0.21942188
-0.15474801 -0.03008932 0.029560868 -0.075211905 -0.052682 -0.02427325 -0.031726267 -0.09632225

resnet_embedding.bn_node.running_mean f4 [32]
00000000: c9ed e63d 7a10 093f ba16 00be 83dc 58bd
00000010: c4cb 26bd 1b9f 1f3e b150 d1bd f1da 62be
00000020: 7db6 953d 6690 6b3e 2d12 b9bd e5c8 08be
00000030: 28bb 85be d3b8 903e f7a7 66be 1349 8abe
00000040: 6280 44be be4a 013f a229 663e 4a26 de3e
00000050: a802 bf3e 16ec 763e b428 143f f9aa 87be
00000060: 7ccb c13e 02fc 653e 5add 9fbe bdd3 79be
00000070: fd45 bbbe 3b05 2d3f 9c3f 513f 15b2 c5be
0.11275823 0.53540766 -0.1250867 -0.05294467 -0.04072167 0.15588038 -0.10220469 -0.22153832
0.073101975 0.23004302 -0.0903667 -0.13357885 -0.2611935 0.2826601 -0.22525011 -0.27008876
-0.19189599 0.5050467 0.22476819 0.43388587 0.37306714 0.24113497 0.5787461 -0.2649763
0.3785056 0.22459415 -0.31223565 -0.24397178 -0.36576834 0.67586106 0.81737685 -0.38612428

resnet_embedding.bn_node.running_var f4 [32]
00000000: fe42 993c 9ecf fa3c 0be1 8c3d d825 e33c
00000010: 3c7f 903d 6bee 943c 233e dd3c a972 b63c
00000020: fe40 883c 939f 0a3d a6e2 103c 235e 4d3d
00000030: 25d1 2a3d 2b3f 443c a2c6 103d 49a3 163d
00000040: 5059 873c 491f 113d 40a0 f03c 37f4 3f3d
00000050: 0891 9c3c e027 ac3c 3c79 f73c 23d3 8f3c
00000060: d38d 163d dba2 233d 49c1 d63c a8d4 3f3c
00000070: 4c6a de3c f594 d03d dba9 453d 1e69 f23c
0.018708702 0.030616578 0.06878861 0.027728006 0.07055518 0.018180093 0.027007168 0.022271471
0.016632553 0.033843588 0.0088431 0.050138604 0.041703362 0.011977951 0.03534568 0.036776815
0.01652208 0.035430226 0.029373288 0.04686376 0.019112125 0.021015108 0.030209176 0.017556733
0.036756348 0.039950233 0.026215212 0.011708416 0.027150296 0.10184661 0.04825769 0.02959114

resnet_embedding.edge_embedding.weight f4 [32, 4]
00000000: 92f6 f0bd 137d 55be b378 61be fc59 2d3d
00000010: 1476 213e 809b 82be b502 b6be bc51 dc3e
00000020: d700 46be 5094 9ebe a3e4 0fbc 2616 b4be
00000030: c6ae 5cbe 9f1c cfbe 1824 3e3e a6ae 8b3d
00000040: c1c8 183f 9341 1cbd 5af6 6a3e 98fe d1bc
00000050: 6058 6fbe 32d0 fdbe c644 e23e 230b 3c3e
00000060: fdae 9d3e 1900 ab3b 7020 dbbc ff40 95be
00000070: a75d c6bd 877e 37be 638b 49be 6f28 fabd
00000080: 61ed af3e c186 d8bd d642 83bd bee7 713e
00000090: 8804 ba3e 3a05 5d3b 1dd0 c2be c5fa 7dbe
000000a0: 2ec9 30bd 43f3 10bd cd5b 863e 171f 203e
000000b0: f822 88be 5139 073e 32da b73e 2cad 523e
000000c0: f6b3 4d3e 9cfc d33d 4205 01bf f7ec bcbd
000000d0: 088d 7dbe ec59 643e e084 783d e960 26b8
000000e0: cfec 703e 8010 833e a009 cebe 62a4 63be
000000f0: 8508 3ebd e63b d33e ef06 b9be e58b 003e
00000100: 7fb0 373d 6312 28be fd5a eabd 37f2 f1be
00000110: 1068 ed3d 1002 dabe ef09 943e 39f2 a5be
00000120: 620b d03e 45e3 1abe cc89 9bbd 9f48 42bc
00000130: 8ebf 953d e9db 8c3e e3fd 0abc 8dee d43e
00000140: 4e1a a03e 1c03 abbe 4e42 253f 2608 bbbd
00000150: e210 afbe 9455 e13e 428e 36be 4979 bfbd
00000160: b429 5d3e 7bb4 703e 008c 32be 65a4 ddbe
00000170: 728c 5cbe 655f c63d ec9c c2be f9ae 54be
00000180: 72d5 3ebe 6f65 b7be 5217 02bf d37b 9fbd
00000190: 73e7 c63e 9699 d43e 6e55 4dbe 013b fb3d
000001a0: 8b1b 673e 697e 83bc 58aa 06bf 842c 2bbe
000001b0: 8260 c7be f480 423e 484f cabe 2232 193e
000001c0: 58f9 d63c f377 013f 6473 813d d074 0b3e
000001d0: 0990 a0be e3fe 7e3e 56c3 2dbb fb30 82bd
000001e0: 5a24 fd3d 7b8e 113d 805a 273e 6425 bf3e
000001f0: ebfa 8e3e 181a 803e b9a2 ab3e c0fe e53d
-0.117657796 -0.20848493 -0.220187 0.042322144 0.157677 -0.25509262 -0.3554894 0.43031108
-0.19336258 -0.30972528 -0.008782539 -0.35173148 -0.21551046 -0.40451524 0.18568456 0.06820421
0.59681326 -0.038148474 0.22945538 -0.025634095 -0.23373556 -0.49572903 0.44193095 0.18363623
0.30797568 0.0052185175 -0.026748866 -0.2915115 -0.096858315 -0.1791936 -0.19682078 -0.12214743
0.34360793 -0.10572577 -0.06409232 0.23623559 0.36331582 0.003372504 -0.38049403 -0.24802692
-0.04316061 -0.035388242 0.26241913 0.1563686 -0.2658918 0.13205458 0.35908657 0.20573872
0.20088181 0.10350916 -0.5039865 -0.09224885 -0.2476083 0.22299927 0.060673594 -3.966774e-05
0.23527835 0.25598526 -0.40241718 -0.22230676 -0.046394844 0.41256636 -0.36138102 0.12553366
0.044846054 -0.16413264 -0.11443136 -0.47255108 0.11592114 -0.425797 0.2891383 -0.32411364
0.40633684 -0.15125759 -0.07594642 -0.0118581345 0.07311927 0.27511528 -0.008483383 0.4158825
0.3127007 -0.3340081 0.645543 -0.091324136 -0.34192568 0.44010603 -0.17827705 -0.09349305
0.2159794 0.23506348 -0.17436218 -0.43289486 -0.2153795 0.09686164 -0.38010347 -0.20769872
-0.1863611 -0.35819575 -0.50816834 -0.077872895 0.38848457 0.41523427 -0.2005212 0.122671135
0.225691 -0.016051488 -0.52603674 -0.167162 -0.38940817 0.18994504 -0.39513612 0.1496053
0.026241943 0.50573653 0.06320837 0.13618779 -0.3135989 0.24901919 -0.0026514134 -0.063569985
0.12360449 0.03553627 0.16343117 0.37333214 0.2792581 0.25019908 0.33522585 0.1123023

resnet_embedding.edge_embedding.bias f4 [32]
00000000: b406 ec3e ce87 b63e 57c0 91be dae6 8fbe
00000010: 98df 46be 8865 9a3e f923 42be fb5f f13e
00000020: 7b8e a6be 457c c63e 0272 9f3e 33ef b8be
00000030: 2cde b33e 068b a33e 7857 b13e 94c2 423d
00000040: 2a15 ea3e 3a7b 76bd 181d 713d bbbb eebe
00000050: 0b56 d0be c3cd d8be 14bb b33e 5db6 ebbc
00000060: ffd8 42bd 5a0d e43e 60c7 8fbe 792f 523d
00000070: be22 c7be fb19 2c3e 08e2 e6be 5b05 28be
0.46098864 0.35650486 -0.28467056 -0.28105813 -0.19421232 0.30155587 -0.18959035 0.4714354
-0.3253058 0.38766685 0.3114167 -0.36119995 0.3513044 0.31942004 0.34637046 0.047548845
0.45719272 -0.06017611 0.058865637 -0.46627602 -0.40690646 -0.42344484 0.35103667 -0.028773481
-0.047570225 0.44541436 -0.280818 0.051314805 -0.38893694 0.16806786 -0.45094323 -0.16408293

resnet_embedding.bn_edge.weight f4 [32]
00000000: b764 8d3f 3ae3 753f bbc3 873f 22cd 903f
00000010: 61e8 883f 7517 8b3f df10 903f 33a5 853f
00000020: 90c7 863f afc5 8c3f 86ed 843f 10fc 7a3f
00000030: 5423 903f 7e2c 813f 23d9 953f 721e 863f
00000040: 8c08 813f 5ab9 8e3f fce5 8a3f 6ace 863f
00000050: d4d1 843f 5006 8e3f aebc 893f 4946 8b3f
00000060: 511a 893f 875f 923f 0deb 8c3f 9969 8a3f
00000070: dbd3 8c3f 7536 873f 21e5 833f bbd0 8b3f
1.1046361 0.96049845 1.0606607 1.1312602 1.0695916 1.0866534 1.1255149 1.044104
1.0529652 1.0997828 1.0384986 0.98040867 1.1260781 1.0091703 1.170689 1.0478041
1.0080733 1.1150315 1.0851436 1.0531743 1.0376534 1.1095676 1.0760705 1.0880824
1.0711156 1.1435403 1.1009232 1.0813476 1.1002153 1.0563494 1.03043 1.0923074

resnet_embedding.bn_edge.bias f4 [32]
00000000: f5b8 6d3d c05f 493b 995b e23c 9f20 073e
00000010: 7ef6 aebb dafe 3ebd 9301 043e 368e dd3d
00000020: 0949 953d af41 7abc a1b2 803d ca73 c5bb
00000030: 20d3 94bc 848e 873c 2778 063d be05 bb3d
00000040: 0b30 943d d070 573d 83ee 3cbd 3047 693d
00000050: 56f8 c1bd 27ba 773d 5cd2 d03c d28d 793d
00000060: 32bd cb3c 4fcd ae3d bf42 1a3d 17dd 713c
00000070: 97ad 4f3d 918c 343c d730 393d f257 b53d
0.058037717 0.0030727237 0.027631568 0.13196038 -0.0053394428 -0.046629764 0.12891226 0.1081814
0.07289321 -0.015274449 0.06284071 -0.006025766 -0.018167078 0.016547449 0.03282943 0.091319546
0.07235726 0.05259782 -0.0461259 0.056952655 -0.094711944 0.060480263 0.025490932 0.060926266
0.024870489 0.08535253 0.03766131 0.014762185 0.050702658 0.011019842 0.045212593 0.08854665

resnet_embedding.bn_edge.running_mean f4 [32]
00000000: 1dbb 253e d716 3a3e 1614 21bf 7818 02bf
00000010: 4472 853e f0ab 373e 6c3f 91bd e93d 3e3e
00000020: d906 36be 2706 b03e 9f73 e23e 961d 54be
00000030: 9b7b 643e 5865 a83e 4e3e b63e 3271 6e3d
00000040: 1f21 803e b8ac e5bd 353f 2e3e ce2a 57be
00000050: ea5c 56bd 78fc 00bf f922 dd3e 5e0b b5be
00000060: 6cc5 26bf 05af 4d3f 8af0 f7be 9f0a 8cbe
00000070: 004b 2dbd 0470 da3d c0be 50be a4ec af3e
0.1618466 0.18172775 -0.62921274 -0.50818586 0.2606374 0.17936683 -0.07092175 0.18578304
-0.1777605 0.34379694 0.44228837 -0.20714411 0.22312777 0.3288982 0.3559441 0.05821342
0.2502527 -0.11214584 0.17016299 -0.21012422 -0.052334704 -0.50385237 0.43190745 -0.35360235
-0.6514499 0.80345184 -0.48425704 -0.27351853 -0.042307854 0.106658965 -0.20385265 0.3436023

resnet_embedding.bn_edge.running_var f4 [32]
00000000: 7d5b ed3c a185 7d3d 0e3e 223d 9b2c bf3c
00000010: c9a6 613d 16a3 cf3c cfdf a23c 4033 af3c
00000020: 61f6 603c 406c 6b3c f85e eb3b 1dae 693c
00000030: b5f8 753c e0cd 013b b975 733c fc0e 263c
00000040: 8b39 053d 05f9 ac3c fd0a b53b 7dde 073d
00000050: 236f 433d 5657 a73b 4f8c 113d 149f dd3c
00000060: 172d d53d 7ef6 2e3d 1ed4 b23c 7498 1d3d
00000070: 4911 153d bff5 453b 4eba d13c 3d79 8a3d
0.02897429 0.061895017 0.03960996 0.0233367 0.0550907 0.02534632 0.01988211 0.021386743
0.013730616 0.0143690705 0.007182952 0.014262703 0.01501291 0.001980655 0.01485961 0.0101354085
0.03252558 0.021114836 0.0055249915 0.033171166 0.04771341 0.005106847 0.0355342 0.027053393
0.10408991 0.042715542 0.021829661 0.03847547 0.036393438 0.003020629 0.025601532 0.067614056

graph_transformer_layer.0.attention.Q.weight f4 [32, 32]
00000000: 87de a2bd 39cd 3ebd 5e43 34bd c52b de3d
00000010: 06c4 913c 9ae2 723e d809 5a3e 454a 8b3e
00000020: 5575 733e c0e6 153d f180 173e 591d 383e
00000030: 844b 663e ab1a adbd 31fc 203e 0ccb 443e
00000040: 4655 cb3c 6ec5 793d 07ed 4c3e 9bda 91bd
00000050: 9fa4 323d bd27 1dbd 0205 59be 3c5c b6bd
00000060: 0ccd 4c3d 3a64 2d3d 606c 5d3e 09dc cd3d
00000070: 14e1 693e accd 41b9 ab0a 013e 9003 d73c
00000080: 19e9 91bd 3f55 88bd b470 50be 4d1e 183e
00000090: ab1b 3dbe d746 873d 47d4 c93c 42c5 753e
000000a0: 2b89 c33d ec51 b5bd cb5a e9bd fa8d 833d
000000b0: 5938 053d 9875 5e3d f6c7 dbbd baa1 d2bd
000000c0: 3fc4 8abd 955c 633c 86a6 6e3d b122 33be
000000d0: 20cd 53be d923 413b d0cd e0bd 79e2 12be
000000e0: 6493 c0bd 3174 54bd 7749 2cbc 7cc8 393b
000000f0: d70b dd3d b2e0 1c3e 9111 65be 9643 283e
00000100: 8f6b 28be c532 13be 6613 faba 607a 1abd
00000110: 3197 4bbe 0aa6 d6bd 8420 d0bd 499b 0fbe
00000120: 726a aebe a892 5bbe 6104 b9bc 9efc 64be
00000130: 77ea c6bd c427 a2bd 1f3a b6bd dd40 06be
00000140: 67d3 89be 82fe 7ebc aec8 8dbe d7a3 f03c
00000150: 5f4e acbd 0249 30be bedf d33d f271 ba3d
00000160: fd03 2cbe f19e f7bd b699 9bbd d586 4abe
00000170: 7dba a5bd acb6 3dbe f686 c3bd 2abb 8ebc
00000180: f8b6 7cbe 59f5 473c 4a42 853d b829 3dbe
00000190: 6b78 753e b087 a43e c4f8 ff3d feaa 2e3e
000001a0: 87b8 65bb 1589 973e 6e69 7fbd a34e 7b3e
000001b0: 9fb3 0f3c f92b 4b3e 0e79 2ebe 5724 333e
000001c0: 5341 adbc 656c 2e3d fc3f d6bd ae96 2ebe
000001d0: 736c 803d 36a9 cebc 69c5 253e b650 0abe
000001e0: eff4 f93d 1092 c2bd e7eb 11be c6f3 87bd
000001f0: f6b0 26bd 5c49 d73c 712f 503e 94b6 cd3d
00000200: dfda 03ba 1dcc 99bc 5ce2 ca3c d13e aa3d
00000210: 86ac 583e 265c c73d 40d0 503d 9565 a23d
00000220: ae5f d6bd f8c9 e3bd 077b 613c 4f04 c73b
00000230: e05c 94bb 0cd7 4e3c 479b 6fbd 4342 ef3d
00000240: 10c5 02bd 0fa6 293e b53b 4cbd 8eba 89bd
00000250: aa76 3b3e 8e2e cf3d 485b 953e bd72 d03d
00000260: d9e3 41bd 7645 6e3c 4de9 0dbe 1905 9d3c
00000270: d8dc fabd 0a7d 2d3e 265c 3d3e f04b 5dbc
00000280: 3fc8 ddbd 2ec2 c0bd 2be3 f53d 2929 bfbd
00000290: f670 13be ed82 993d c776 c9bd b77c 2ebe
000002a0: b6e1 9ebc 76d4 10be fdb7 fb3d d4df 84bb
000002b0: 357c 22bc df88 203e 6dc2 b83d 9be8 8d3d
000002c0: 01d4 c9bd bce1 90be 527a fabd 1a5e a4bd
000002d0: d706 1c3e 9bb3 23be 311a b33d 8020 0fbd
000002e0: 8828 9ebd 8a54 42bc e650 203c c414 26bd
000002f0: 9fae 563d 18dd 143e e2b4 b0bc a65b 3abe
00000300: 869e 11bd ff89 103e b1db 363e ec83 abbd
00000310: c239 7f3e 7212 01be 5384 9a3d e539 27bd
00000320: 32c3 843d fd40 0d3d 59f9 0f3c c2f1 17be
00000330: ff2b 95bd 8248 133e db2a 12bc 7329 913e
00000340: a804 363d 5c29 79bd 73c9 aebd d405 1ebe
00000350: 4046 a93d 1758 0d3e ffe9 933c 7c4b 4b3d
00000360: 81b6 af3d a675 383e 0a03 583e a337 643e
00000370: 8864 123e 570f cbbc 8cc4 e53d 04a7 9f3e
00000380: 2f04 dbbb e739 88bc 0bc5 06be e813 69be
00000390: 0bab 023e 97f9 04be 7e4e 213e 8aa1 2e3e
000003a0: cf87 0fbe f667 073e d8ed 973e 5c4e 833d
000003b0: a40f 8ebc 7af7 e63d d352 46bd ff2e f2bc
000003c0: 4248 c6bd 8c26 b13c 4434 f13d 43f1 18bd
000003d0: 0cb6 97bd c24f 47bd 0488 a5bd a3d8 3a3e
000003e0: 381c d53d 2f5b 373d 6be1 3c3e c9cc b73d
000003f0: cee3 bc3d 62a9 e53b f559 693e ee0f 1b3e
-0.079526 -0.046582434 -0.04400956 0.10848192 0.017793667 0.23719254 0.21292818 0.272051
0.23775227 0.036597013 0.14795281 0.17979945 0.22489744 -0.08452352 0.15721203 0.19218081
0.024820935 0.0609793 0.20012294 -0.07121774 0.043614026 -0.038367976 -0.21193317 -0.08904311
0.050000235 0.04233191 0.21623373 0.10051734 0.22839767 -0.00018482533 0.12601726 0.026246816
-0.07124538 -0.066568844 -0.20355493 0.14855309 -0.18467586 0.066053085 0.024637355 0.24001029
0.09547647 -0.08853516 -0.113942705 0.06423564 0.03252444 0.054311365 -0.10731499 -0.10284753
-0.06775712 0.013877054 0.058264278 -0.17493702 -0.20683718 0.002947083 -0.109767556 -0.14344205
-0.094031125 -0.05186862 -0.010515562 0.0028348258 0.10793274 0.1532009 -0.22369982 0.16432032
-0.1644728 -0.14374836 -0.0019079268 -0.037714362 -0.19881894 -0.10480888 -0.10162452 -0.1402408
-0.34065586 -0.21442664 -0.022585096 -0.22361991 -0.09712689 -0.07917741 -0.088978045 -0.13110681
-0.269191 -0.015563609 -0.2769217 0.029375 -0.084133856 -0.1721535 0.1034541 0.091037646
-0.16798396 -0.120908625 -0.075976774 -0.19777997 -0.080922104 -0.18526715 -0.09547226 -0.017423231
-0.24679172 0.0122044915 0.06506784 -0.18472946 0.23971717 0.3213477 0.1249862 0.17057416
-0.0035052614 0.29596773 -0.062356405 0.24541716 0.008770852 0.19840993 -0.17038366 0.17494331
-0.021149313 0.04258384 -0.10461423 -0.17049667 0.06270685 -0.02522717 0.16188587 -0.13507351
0.122049205 -0.095005155 -0.14250146 -0.06638293 -0.040696107 0.026280098 0.20330597 0.1004459
-0.0005029868 -0.018774087 0.02476614 0.083127625 0.21159562 0.09734373 0.050979853 0.079295315
-0.10467468 -0.11122507 0.013762242 0.0060735117 -0.004527673 0.012624513 -0.058497693 0.1168256
-0.031926215 0.16567253 -0.04986163 -0.067250356 0.18306985 0.101163015 0.29171205 0.101781346
-0.047336433 0.014542928 -0.13858528 0.01916747 -0.12249154 0.1694223 0.18492183 -0.013506874
-0.108292095 -0.09412037 0.120062195 -0.093340226 -0.1439856 0.07495675 -0.09837108 -0.17039762
-0.019394737 -0.14143547 0.12290952 -0.0040550027 -0.009917309 0.15677212 0.09021459 0.069291316
-0.0985489 -0.28297222 -0.12230362 -0.08025761 0.15236984 -0.15986483 0.0874523 -0.034943104
-0.077225745 -0.011860976 0.009784913 -0.040547147 0.052412625 0.14537466 -0.021570627 -0.18199024
-0.03555157 0.14115141 0.17857243 -0.083747715 0.24924377 -0.12604693 0.0754477 -0.040826697
0.06482543 0.034485806 0.008787476 -0.14838317 -0.07283782 0.14383128 -0.00892135 0.28351936
0.044438034 -0.06083046 -0.08534517 -0.15431911 0.08265352 0.13803135 0.018055914 0.049632534
0.08579732 0.1801363 0.2109491 0.22286849 0.14296162 -0.024787588 0.11219129 0.3118211
-0.0066838483 -0.016629172 -0.13161103 -0.227615 0.1276056 -0.12985836 0.15752599 0.1705381
-0.1401665 0.13223252 0.29673648 0.0641143 -0.017341442 0.11277671 -0.04841883 -0.029563425
-0.09681751 0.021624826 0.11777547 -0.03733946 -0.074077696 -0.048660047 -0.080825835 0.18246703
0.10405773 0.044764694 0.18445365 0.089746065 0.09223138 0.0070087174 0.22788222 0.15142795

graph_transformer_layer.0.attention.Q.bias f4 [32]
00000000: 04b9 193e 7068 b4bd 5064 38bd 3100 bfbd
00000010: 54d2 533e 67a8 a2bc 0b2f cebd 5cd9 573e
00000020: 0e3b 5c3e 5f73 b53d 8c9a 033e 9cb7 d93c
00000030: 4687 a13c 6292 ef3d cde0 f2bd 0d12 6d3e
00000040: bc5a 6b3c 31c0 3e3e 896e 85bd 13db 563e
00000050: cc9b 3e3e 87df 03be 7f12 3a3e bc93 16bd
00000060: fa11 063d 8d74 b4bc b38b 393e ef7d b6bd
00000070: 0c38 fa3d 736c 2cbc f85b 1d3e 56c5 d33d
0.15011984 -0.08808982 -0.04501754 -0.093262084 0.20685703 -0.019855691 -0.100675665 0.2107901
0.21506903 0.08859896 0.12851924 0.02657681 0.019717824 0.11697842 -0.118592836 0.23151417
0.0143648945 0.18628003 -0.065152235 0.20982008 0.1861412 -0.12878238 0.18171118 -0.036761984
0.032731988 -0.022028232 0.18119697 -0.08910739 0.12217721 -0.010523903 0.15367115 0.10340373

graph_transformer_layer.0.attention.K.weight f4 [32, 32]
00000000: 5db2 503e fd36 253e 0dc4 8a3d 88f7 4a3d
00000010: 39f1 ce3c ab58 2cbe 6886 3f3e eb7e cbbd
00000020: 35e2 13bd ef07 a83d df8c 9f3d 8976 92bd
00000030: f453 4d3d 71b3 62bb 5a46 1c3e 9d51 8fbd
00000040: 2dc8 fabd 2853 86bd eb60 78be 41cc 853d
00000050: 97f7 163e d94c 1b3e 91f4 02bd 2413 11bb
00000060: 13a6 1a3e 0f65 dabd 6446 e63d c88f 283e
00000070: cbec 053e 9545 4e3d 6f7b 05bd 5573 22be
00000080: 6a39 abbc d3e5 3e3e 1c53 083e 3e90 48bd
00000090: 20cd 4c3e febf ff3d f651 143e 172d 223e
000000a0: 4ebc 3abe 22d3 563e b6a3 793c 7b5d 91bd
000000b0: e391 ea3d ece0 523c 4ffb bcbc c631 e2bb
000000c0: 0f3a 0ebe 2a5b 503e 1313 9b3d c59b 21bd
000000d0: bbf8 d43d 9174 58bd 7d53 ca3d 5d72 13be
000000e0: ae6c a53d 65a4 87bd e9c4 363e 3d31 0ebe
000000f0: 47e0 be3a 714a 993c b461 103c 87e3 223e
00000100: f650 183e e199 1cbe d37e e93d a624 3ebd
00000110: 3cc7 04bd af59 9e3d 528a 8d3d 403a 2fbc
00000120: 8642 093e 3b2c 50bc a08b 09be 4e27 9f3c
00000130: 192f 41be fae9 463d 202e d03d 7570 843d
00000140: dbd7 4b3d ed6f babd dfe0 403e fdf5 30be
00000150: 997e 0abe 12fa 86bd 9301 95be 18e5 4dbe
00000160: e53c c3bd 4718 ebbd 6081 e5bd 6c99 32be
00000170: 0faa d2bd 3fb9 68be d8d8 953e ed94 bbbd
00000180: 22c1 46be d2c5 243e 6c82 6c3e b8ef 2fbd
00000190: 4830 343c d052 023e 7365 3b3e ff2d e13d
000001a0: 9c4c 193d b15a 09be 22fe 91bd 661e e8bc
000001b0: c1a5 a3bd 1d5c 1f3d 53e3 5b3a 59ca fabc
000001c0: 32cb c0bc e52b 99bd 785e f53d 89fd 933c
000001d0: 5ba9 5c3d 087a 14be 75ac b53d cba2 b03d
000001e0: e321 4c3e e13b 43be d8a9 cdbd de28 8a3d
000001f0: 6b34 42bd 5374 f13d 3e81 f5bd dba5 2ebe
00000200: ca14 c83c 4a38 83bc af63 9f3d e849 f03c
00000210: c011 cf3d 12d1 153d 0322 a4bc e312 d5bd
00000220: 75ec 233d 2b1e f0bc f6a2 2c3e f2b6 103e
00000230: 4b6e a33d 6687 3dbe bd0a 4ebe 4918 463e
00000240: 0829 9dbd 6915 bf3d 4862 83be 48c5 fb3c
00000250: 7006 163c 963a 03be c507 f13d bc4b e2bc
00000260: 5546 24bd cdfa a13b df82 18be cb0c e8bd
00000270: 41ca 413d 80ac 14be 6272 513d 67b8 b2bd
00000280: 46be 9bbd 1524 e03b 094d 7e3d d0ad ef3d
00000290: 73be 403e e8c0 2b3d b450 14be fd38 f23d
000002a0: ae37 2b3e 5255 133e 8661 dabd 0dcc df3c
000002b0: aec0 c53d 5c67 1a3e e29d e3bc c4c1 27bb
000002c0: b235 3f3d fe3e db3d 6564 83bb 6602 3e3e
000002d0: aa1a db3d 38e2 8f3d 5b89 383d 6008 2fbe
000002e0: d2b2 653d c3e2 0d3d 1b04 33be 0967 08be
000002f0: be77 583d bd31 033e 8f4a 003c 40ef 0abe
00000300: cb29 893d 6a0d a9bc b0e6 c63d 06f8 973c
00000310: dff1 ab3d cbb5 08be 4467 e3bd e132 3ebe
00000320: 562f 57be 3ca4 e4bd 4db5 96bd d97f b2bd
00000330: f407 263e 7569 e53c bd24 a23c e20a 303e
00000340: 3b39 0dbe c31d 0abe 9198 01be 1f32 9b3c
00000350: 7121 0fbe e9e2 1c3d b566 383e ce3c eebd
00000360: f798 603e 7ae6 973d cbfa 1f3e d11e c53d
00000370: 4cb6 1dbe b41f 12bd 1cbf af3c efe4 073e
00000380: 7902 33be 9509 d33d 82b5 15bb e08d 013e
00000390: 1147 49be ff66 69be d533 3dbd 0ee3 96be
000003a0: b8a6 c1bd 3ad1 0ebe 11b6 163e 9736 453d
000003b0: 8ec5 1b3e 5f1f ffbd f89a 8f3d 85a6 bc3d
000003c0: df75 d9bc 884f 96bc 7463 0a3c ef6b 563e
000003d0: 36d3 93bd 8067 683d 42a8 103e 25da 183e
000003e0: 0a4d d13d 773f 3dbe 9cf1 1f3e e6c1 ea3d
000003f0: 78b0 823d 2cb1 96bd d0eb ba3b 08d3 03be
0.2038054 0.16134258 0.06775675 0.04955247 0.025261508 -0.16830699 0.18703616 -0.09936317
-0.0361044 0.08204638 0.07790541 -0.07151515 0.050128892 -0.0034591819 0.15261212 -0.069979884
-0.12245212 -0.065588295 -0.24255721 0.06533099 0.14742886 0.15166034 -0.031971518 -0.0022136653
0.15102415 -0.10663807 0.11243895 0.16461098 0.1307861 0.050359327 -0.03258842 -0.15864308
-0.0209014 0.18642358 0.13312954 -0.048965685 0.20000124 0.124877915 0.1448439 0.15837513
-0.18235895 0.20978978 0.015236786 -0.07097908 0.11453607 0.012871008 -0.023069052 -0.006902906
-0.13889335 0.20347276 0.075719975 -0.039455194 0.10399004 -0.05284554 0.098792054 -0.14399095
0.0807737 -0.06623153 0.17848553 -0.1388597 0.001456269 0.018712254 0.008812357 0.15907107
0.14874634 -0.15293075 0.11401143 -0.04642167 -0.032416567 0.077319495 0.06911148 -0.01069504
0.13404283 -0.012705858 -0.13432169 0.019427922 -0.18865623 0.04856298 0.10165048 0.06466762
0.049766403 -0.091033794 0.18835782 -0.17281337 -0.13524856 -0.06590666 -0.29102764 -0.20106924
-0.09533099 -0.1147924 -0.11206317 -0.17441338 -0.10286342 -0.22726916 0.29267 -0.09159265
-0.19409612 0.16091087 0.23096627 -0.042953223 0.010997839 0.12726903 0.18300419 0.10995101
0.037426576 -0.13413502 -0.0712855 -0.028334808 -0.079905994 0.038906205 0.0008388061 -0.030614065
-0.023534391 -0.07479075 0.11980909 0.01806523 0.053872447 -0.14499676 0.08870784 0.086248
0.19934802 -0.1906581 -0.10042161 0.06746076 -0.04741327 0.11789765 -0.119875416 -0.17055456
0.024423975 -0.016018052 0.07782685 0.029332116 0.101108074 0.036576338 -0.02003575 -0.10403993
0.040020425 -0.02931126 0.1685904 0.14132288 0.07980021 -0.18508682 -0.20121284 0.19345202
-0.07673842 0.093302555 -0.2566092 0.03073372 0.009156808 -0.12815318 0.1176906 -0.027624004
-0.040106136 0.004943228 -0.14893673 -0.11330565 0.047312025 -0.14518929 0.051134475 -0.08726578
-0.07604651 0.006840239 0.062085185 0.11703074 0.1882265 0.041932017 -0.14483911 0.11827276
0.16720459 0.14388016 -0.10663132 0.027318979 0.09655891 0.15078491 -0.027785245 -0.002559767
0.046682067 0.10705374 -0.0040097707 0.18555602 0.10698445 0.0702557 0.045052867 -0.17093039
0.05607874 0.034640085 -0.17482035 -0.13320555 0.05284857 0.12811942 0.007830276 -0.13567829
0.066974245 -0.02063628 0.09711969 0.018550884 0.083957426 -0.13350599 -0.11103681 -0.18574096
-0.21014151 -0.11164138 -0.07358799 -0.08715791 0.16213971 0.028004387 0.019792909 0.17191651
-0.13791363 -0.13487916 -0.12655856 0.018944798 -0.139776 0.038302336 0.1800793 -0.11632691
0.21933351 0.07417007 0.15623014 0.096250184 -0.15401572 -0.035674766 0.021453433 0.13270925
-0.17481412 0.10304562 -0.0022843783 0.12651777 -0.19656016 -0.22793196 -0.04619201 -0.29470104
-0.09455627 -0.13947001 0.1471789 0.048147764 0.1521208 -0.124571554 0.0701198 0.092114486
-0.026545463 -0.01834847 0.008446563 0.20939611 -0.0721802 0.05673933 0.14126685 0.14926966
0.10219772 -0.18481241 0.1561951 0.114627644 0.06381315 -0.073580116 0.0057043806 -0.12873471

graph_transformer_layer.0.attention.K.bias f4 [32]
00000000: 1791 4c3e 5227 6fbd dde2 ffbb adfd 043d
00000010: 6e7d af3c 7d91 14be 364b 493d 3f00 0d3d
00000020: 9918 0fbd abaa 103e 1aff 193e 12c3 ccbd
00000030: 74a7 1abd 8226 873e 50cb 00be fa4a 74be
00000040: da8c 9abd 2455 f03b 07db 40bd 2961 8fbd
00000050: 2d00 26be 5543 a9bd 828e 9ebc d0d4 613e
00000060: 6836 22be fb2c 9abd 34a5 45bd 11ac 3ebd
00000070: 3280 d8bd 38f7 41be 89d6 a1bd b96e 6d3c
0.19977222 -0.05838711 -0.0078090266 0.032468487 0.021422114 -0.14508624 0.049143992 0.034424063
-0.034935568 0.14127605 0.1503872 -0.09998144 -0.037757352 0.26396567 -0.12577558 -0.23856726
-0.075463966 0.0073343683 -0.04708388 -0.07000954 -0.16211005 -0.08264796 -0.019355062 0.22053838
-0.15841067 -0.075281106 -0.048253253 -0.046550814 -0.10571326 -0.18941963 -0.079022475 0.01449173

graph_transformer_layer.0.attention.V.weight f4 [32, 32]
00000000: 7e5b 1bbe 49f8 ecbd b86c fcbd a480 313e
00000010: 9513 a53d db7c 95bd f4f9 a3bd 6868 263e
00000020: 5691 c43d 8179 1d3e 2219 efbb 6b42 49bd
00000030: 16a6 a13d 5eb0 53be 8c70 203e e00b 503d
00000040: 0f55 8fbd b427 b1bd 0d4d 583d 2d7b 863c
00000050: 6336 2dbe 0cfe 843d 885e f6bc 9f50 a2bd
00000060: 4b22 6f3b 55cc ba3c d47e 593d 15ed b4bd
00000070: efd4 99bd 3a16 24be 2b56 eb3d 677b 7abc
00000080: 1fd5 90bd 958e 0e3d 4d29 bcbc 6a25 e4bd
00000090: ab2e 0cbe 625f bfbd ffd2 57bc ee72 ab3d
000000a0: 45e9 e93d 4a44 3d3d f7c5 5bbe 2362 96bd
000000b0: 4955 27be 1eb7 4d3e 9159 78bd 243a df3c
000000c0: 9f66 6c3d ce8b 183e 1133 303d d29b 84bd
000000d0: d946 783e fc06 3d3e 299f c2bd 2822 81bc
000000e0: 5c7a 573d 6948 ba3b 323e cbbd e949 f7bd
000000f0: 7165 c0bd 2722 513e 83fd b93d dca2 1fbe
00000100: 9e45 123e fea0 9bbd f1d4 24bd 3c2e bc3d
00000110: ca62 4b3d 46c6 23be 8258 043e 7e96 2bbe
00000120: e727 b3bd 63e7 d43c f952 1c3c 612a fb3d
00000130: d9c9 273d e73d c93b 7f22 bf3d b520 903d
00000140: 2d0d adbc 6843 bb3d 4c1c 40bd 3fc8 93bd
00000150: 3956 a4bd 25f6 ed3c f041 4cbd 2801 0abd
00000160: 7795 ec3c 63b6 21be fb33 84bc 8a8b 9ebd
00000170: f709 4bbd e326 9dbd 86e1 923d 9bc7 f63b
00000180: db30 d5bd 7a32 213e 2cc4 4e3e 0b2b 483d
00000190: b970 623e 69de 873e 0c28 f3bd c274 2bbe
000001a0: 74f4 ffbd 54bd aebc 289c 65be a69d e53d
000001b0: 2c09 2c3c 9e8c eb3d 5e97 e03d 3e01 783c
000001c0: 8981 f7bd cf18 9d3d 053b 97bd 5ba5 ba3d
000001d0: 13d1 74bb cb4b 12be f494 4d3e 8ec2 aa3d
000001e0: fc90 343d afbd ae3d 7bd1 ea3d f7e3 12be
000001f0: b72c f9bc 536f 00be cef5 4cbd f203 f33d
00000200: bde7 863c da8e 23be 65a9 ccbd 522a 8a3d
00000210: 2baf f2bc 312e a33d f64f ddbc 9e21 f1bd
00000220: 0c6c 8f3d 1bf7 1fbe 0be6 223e db43 f2bd
00000230: 4ba0 36bd d68d aa3d 869a 873d bf64 2bbe
00000240: ef65 053d 6314 703e 797f b73d d48c e6bd
00000250: 9d13 eebc 576d 8dbd b5d7 8b3d 2c30 133d
00000260: 172a c5bd c422 333e a6a4 fbbd e66c 313e
00000270: 19fb 8ebd 92d6 4e3e 6eb7 833d b525 a0bd
00000280: 18dc 49bd 1e9f 01be 6843 23bd e377 e53c
00000290: 4f26 223d f3f2 6a3c 8462 2e3e 94cf 3fbe
000002a0: b84e 163d 8f63 eb3c 0fa9 823c 455e b7bd
000002b0: 32ef 43bd 16ff 6abd ae57 2a3a 6077 c63d
000002c0: c792 12be 5dd9 7cbd 1f0e 41be 0762 893e
000002d0: 5bc4 48bd 4a03 c73d ed6e 713e 8201 643d
000002e0: 6238 9cbd a08b 86be f663 363e c1e8 0dbe
000002f0: 5d42 293e 6f47 313e a09d 16be 8640 203d
00000300: 72a7 193e c997 b2bd e0f5 61be aee0 c6bd
00000310: f309 9ebd 7cd8 3fbe 4d47 9b3d 3aab 01be
00000320: 8a68 a03d c258 1c3e 3eaa dc3c e241 14be
00000330: c345 1a3d 5eae ad3d 546c 35be fefd 8f3d
00000340: da2f 4bbe 3cac 353c b9ba b63d ffdd bfbb
00000350: a43b 253e 215b 21bd 2599 e43d 0f50 1e3e
00000360: 1d4a 093e be92 2abe 13ed 4f3e 2a3f e03d
00000370: dfd8 0dbe 1a78 683d 743c 93bd 55d0 69bd
00000380: 640a cf3d 9831 b2bd b2e9 b03d 01f7 7abe
00000390: 65d6 023e 3a46 4b3e 93a1 93bd 29cb c23d
000003a0: 58b1 21be 2c42 9cbd 1e56 07be 2977 3c3d
000003b0: 5c26 0abe 729e 1f3e 3854 353e 6caf 37be
000003c0: 84c1 ee3d 8ad6 e93c 0bc4 693d b6c1 53bb
000003d0: 0e47 043e 1e6e 993d a82e e73d db15 bfbd
000003e0: cf17 b83d 920c 1dbc fdf6 d2bd 98c4 b63d
000003f0: 078b 5ebd efb3 1b3e 27d4 203e 3490 c93d
-0.1517162 -0.11570794 -0.12325424 0.17334229 0.080603756 -0.07299205 -0.08006659 0.16250765
0.09598033 0.15378381 -0.0072966972 -0.049135607 0.078930065 -0.20672747 0.15667933 0.050792575
-0.069986455 -0.08650151 0.052807856 0.016416157 -0.16915278 0.06493768 -0.030074373 -0.079255335
0.0036488946 0.022802511 0.05309947 -0.08834282 -0.07511317 -0.16024104 0.114910446 -0.0152882105
-0.070718996 0.034803946 -0.022968912 -0.11139949 -0.13689677 -0.09344365 -0.013172864 0.083715305
0.11421446 0.046207704 -0.21462236 -0.07342937 -0.16341127 0.20089385 -0.060632292 0.027249403
0.057715055 0.14897081 0.04301745 -0.06475033 0.24245776 0.18459696 -0.09503014 -0.015763357
0.052606925 0.0056849015 -0.09923972 -0.12074644 -0.093943484 0.20423184 0.09081557 -0.1558947
0.1428437 -0.07599066 -0.04024214 0.09188506 0.04965476 -0.15993604 0.12924388 -0.16756627
-0.08747845 0.02598924 0.009541267 0.122639425 0.04096398 0.0061414125 0.093327515 0.07037488
-0.021124447 0.09143716 -0.046901986 -0.07215928 -0.08024258 0.029048035 -0.04986757 -0.03369251
0.028879864 -0.15792231 -0.016138067 -0.07741459 -0.04957005 -0.07673433 0.071719214 0.007531119
-0.10409709 0.15741912 0.20192021 0.048869174 0.22113313 0.26536873 -0.11872873 -0.16743758
-0.124977976 -0.021330513 -0.2242285 0.1121171 0.010500234 0.1150143 0.10966371 0.015137015
-0.12085254 0.076707475 -0.07384304 0.0911357 -0.0037356063 -0.14286725 0.20076352 0.083378896
0.04408358 0.08532273 0.114657365 -0.14344774 -0.03041683 -0.12542467 -0.050039105 0.11865987
0.016467923 -0.15972462 -0.09993247 0.06746353 -0.029624542 0.07967795 -0.027015667 -0.1177399
0.0700303 -0.15621607 0.15908067 -0.11829349 -0.04458646 0.08327834 0.0662127 -0.1673765
0.032567915 0.23445277 0.0895986 -0.112573296 -0.029062087 -0.069056205 0.06828252 0.035934612
-0.096271686 0.17493731 -0.122872636 0.17326698 -0.06981487 0.2019904 0.06431471 -0.07819692
-0.049282163 -0.12658355 -0.039859205 0.028011268 0.039587315 0.01434015 0.17029768 -0.18731529
0.036696166 0.028733997 0.015949754 -0.08953527 -0.047835536 -0.057372175 0.00064980506 0.09690738
-0.14313804 -0.06173073 -0.18853043 0.268326 -0.049015384 0.09717424 0.23577471 0.0556655
-0.07627942 -0.262784 0.1781157 -0.1385832 0.16529222 0.17312406 -0.14708567 0.039124034
0.15005282 -0.08720357 -0.2206645 -0.09710823 -0.077167414 -0.18734926 0.07581959 -0.12662974
0.07832439 0.15268233 0.026936647 -0.14478257 0.037664186 0.084805235 -0.17717105 0.07030867
-0.19842473 0.011088427 0.08922333 -0.0058553214 0.16136032 -0.039393548 0.111620225 0.15460227
0.13407178 -0.1665754 0.2030528 0.109495476 -0.13852261 0.056755163 -0.07189265 -0.057083447
0.10109404 -0.087008655 0.08638324 -0.24508287 0.12777098 0.19851008 -0.07208552 0.09511406
-0.15790308 -0.07629809 -0.13216445 0.046012077 -0.13491195 0.15587786 0.17707908 -0.17938012
0.11658004 0.028544683 0.057071727 -0.0032311506 0.1291773 0.07491706 0.11288196 -0.093303405
0.08988916 -0.0095855165 -0.103010155 0.08924216 -0.054331806 0.15205358 0.1570593 0.09841958

graph_transformer_layer.0.attention.V.bias f4 [32]
00000000: 15ec 39bd 5d56 eebc ee31 abbd 2b69 a3bd
00000010: 0b4a 37bd dd60 21be 2f96 af3d 627c 98bd
00000020: a538 2e3e d96e c83d 2dae 34be 68aa 873d
00000030: d4bd 31bd fd81 843d 1bad b33d 01c4 ce3d
00000040: 11ae d83c dc70 183e eee6 9cbc 0838 d93d
00000050: f885 933c d86d 80bd 7108 c23d 1c53 a63d
00000060: bb09 29be 261e 20bd b828 123e 7b71 09be
00000070: fb50 44bc 20af 2e3d c200 5a3c 8a6c 303e
-0.04539116 -0.029093916 -0.08359133 -0.079790436 -0.044748347 -0.15759607 0.08573567 -0.07445599
0.17013796 0.097867675 -0.17644568 0.06624299 -0.043393925 0.06470106 0.087732516 0.100959785
0.026450189 0.14886802 -0.019153085 0.1060639 0.018008217 -0.06270951 0.09474266 0.081213206
-0.16507618 -0.03909125 0.14273345 -0.13422196 -0.011982198 0.04264748 0.013305845 0.17228904

graph_transformer_layer.0.attention.proj_e.weight f4 [32, 32]
00000000: 5deb bdbb 51e0 e23d 8445 8bbc 0674 8ebe
00000010: 97cc 1cbe fe2b 10be 8213 48bc cbd0 b43d
00000020: 548e 553e 82ee 1a3e ee2c 23be 3040 29be
00000030: 0e2d c63d bbff debd bca9 5dbd fe7c 433e
00000040: 9b1b 8ebc a34f 1bbe 29da 853e 1b19 143d
00000050: 42ba 09be 8a8e 05be 0010 aabd 222c 8a3d
00000060: df9f f33d f2f2 143c a135 e23d e961 dd3c
00000070: 59d5 c6bc 1349 06bd 404d 303e 6c1d e03d
00000080: 7cc5 213e 0a8a d83c f3b5 323e 371d 353e
00000090: eed0 13be 3d3e 3c3e 16f0 2fbd 72c7 3e3e
000000a0: 6cbe 9f3d ca5e 09bd 91c7 14be faf0 ef3d
000000b0: bc0b 713e 759d 93bd c8a2 8dbd 9f4b f7bd
000000c0: 4e34 7ebd c1aa 683e 1f1a 87bd be92 8ebb
000000d0: 5467 493e faba 023e a06e 2ebd b53b 46bd
000000e0: 8104 103e 1d06 523d 2c5c 983d dc26 2d3e
000000f0: 458d 1fbe 0295 6d3d 32ca 37bd cc23 df3c
00000100: a997 7f3c 530c 95bd 25d7 8cbd 86f5 4fbe
00000110: 1150 1cbe 770d bfbd e9a0 12bd bd83 9cbd
00000120: f143 02bd ee65 5d3e 70cd 0c3e 20bb 12be
00000130: a104 27bd d56a abbd 6ec6 3e3e 20c7 50bd
00000140: c683 32bd 5e4f 1cbe 8cfd 01bc 9756 773d
00000150: 2cfa c6bc 779b cfbd 7835 a6bd d946 b33c
00000160: d7b7 033d e262 73bb a946 073a 9277 303d
00000170: 9620 12be a613 783c 3f7f 233e 891a 85be
00000180: e40e 15be f3ab f4bd 06d0 87bd 592e 29be
00000190: 0a39 95bc f30b e73d a046 a8bd 6d36 4bbe
000001a0: ea23 8cbe 32d3 bf3c cbf1 c1bc bd1e 4fbe
000001b0: dbe4 a23d bd7f ee3a cddf 263e 8df4 6bbd
000001c0: 879e 6abb 34e7 ba3d 7f5b 3dbe 219c debd
000001d0: cdce 383c df9f b3bd a5b9 7b3d 9702 a2bd
000001e0: b90d bbbd 03e0 10be 3ba4 ee3d 3a36 71be
000001f0: 1e64 1bbe 81dd 1dbe bb28 12be 6ad9 d93c
00000200: 1d6c 2b3e 7a36 123d c895 2dbd e088 873d
00000210: b7e0 66bd 5984 ffbd 23c8 893d 3313 f03c
00000220: e37a 4e3c b097 1bbd 7419 86bc c405 9cbd
00000230: bc28 423e 2c61 463d ed01 9fbd 17b1 ba3d
00000240: 0c11 2a3c d140 62be 20aa 5cbd beb9 6c3d
00000250: f124 7dbe 359a 7b3e 7a18 a93d 7c3a 633e
00000260: e964 0b3e 46ba 29be 81ce 093e ba2a 3f3e
00000270: e709 0dbe 36a6 b53c 23a1 53bd dfef fc3d
00000280: cd47 3b3e f1b8 ca3d 4ba2 3cbd d38a 023e
00000290: bfb0 ab3d f52c 883e fbb1 20bd 4556 223e
000002a0: c0b9 dd3c 79c8 813a cff2 45bd 2bbf 333e
000002b0: 1e28 503e a5ed cebd 61e9 de3d bd29 aebd
000002c0: ff76 1e3c 3bfe 673e cbf2 39be 391a 7c3e
000002d0: 3170 b23c 459f cdbd f9e9 b33d 5ea0 7f3c
000002e0: cc85 15bd 6495 cbbd 72c2 793d b278 443e
000002f0: 598e eb3d 3871 1f3e 6be2 2c3e 4558 893d
00000300: a82b 36bd ff7d ec3d d45d 62be 46f4 ad3d
00000310: ebc9 b5bd 1c02 a4bd ccde 5d3d 67dc 2a3c
00000320: 5407 333e 3112 413d e17d 27bd 6d14 253d
00000330: 56c8 24be c8ae 24be a82a 5cbd 9c70 ca3d
00000340: f295 21bd ac4b 30be e429 f23c 3648 ea3d
00000350: e98d 6d3c 8c67 09be 849f 123d ee81 65be
00000360: 98ea 19be c57d 013d afe7 a0bd 691e 24be
00000370: 4d7d 12be 134a 0dbe bdd5 12bd 7dfc 3cbe
00000380: d6b1 7cbe 1bcb a33b 8185 81be caa6 06bd
00000390: 566e 183e 6c74 8cbe fb3d 3d3e 6941 313d
000003a0: aecf 95bc 16c9 0b3e bbe7 36be 3a89 8f3d
000003b0: cfaa d3bd 612d 3cbe 7ae7 763d eca1 063d
000003c0: 7fa4 10be 8d9a ac3d 5673 0ebd dd35 193e
000003d0: ae84 53be 9158 eabd 4d67 1e3e 807e 943d
000003e0: ba34 59be 02e7 573e 3f5a 463d 0733 28be
000003f0: fd92 143d b4b2 0a3d ba18 4d3e 632b 923d
-0.0057958798 0.11077941 -0.017000921 -0.27822894 -0.1531242 -0.14079282 -0.012211682 0.088288866
0.20855075 0.15130046 -0.15935108 -0.16528392 0.09676562 -0.108886205 -0.05411695 0.1909065
-0.017347148 -0.15167098 0.26143005 0.036156755 -0.13449958 -0.13042656 -0.08303833 0.06746699
0.11895727 0.009091126 0.11045385 0.027024226 -0.024271654 -0.032784533 0.17216969 0.10943112
0.1579799 0.02643301 0.1745222 0.17686926 -0.14435169 0.18383117 -0.042953573 0.1863077
0.07799992 -0.033537664 -0.14529254 0.117158845 0.23539633 -0.07207767 -0.06915814 -0.120749705
-0.0620616 0.22721387 -0.06596779 -0.004350989 0.19668323 0.12766638 -0.04258597 -0.048396785
0.14064218 0.05127536 0.074394554 0.16909355 -0.15581234 0.058003433 -0.044870563 0.027238749
0.015600123 -0.07277741 -0.06876973 -0.20308504 -0.15264918 -0.0932874 -0.035797987 -0.076423146
-0.031803075 0.21620914 0.13750243 -0.14329195 -0.0407759 -0.08369986 0.18630382 -0.05097115
-0.0435827 -0.15264651 -0.007933985 0.060385313 -0.024289213 -0.101370744 -0.08115667 0.021884369
0.032157745 -0.0037137796 0.00051603705 0.04308278 -0.14270243 0.015141403 0.1596651 -0.25996807
-0.14556462 -0.11946859 -0.06631474 -0.16521586 -0.018215675 0.11281576 -0.08216596 -0.1984498
-0.2737115 0.023416135 -0.023674866 -0.2022657 0.07953807 0.0018196028 0.1629631 -0.05760627
-0.0035800056 0.0912613 -0.18491934 -0.10869623 0.011279774 -0.08770727 0.06145634 -0.0791065
-0.09133477 -0.14147954 0.11652418 -0.23555842 -0.1517491 -0.15416528 -0.1427335 0.026592929
0.1674046 0.035696484 -0.04237917 0.06617904 -0.05636665 -0.12476415 0.06727626 0.02930603
0.012602541 -0.037986457 -0.016369559 -0.07618287 0.18960851 0.048432514 -0.07764039 0.091158085
0.010380041 -0.22095038 -0.05387318 0.057794325 -0.24721123 0.24570544 0.08256622 0.22190279
0.13612713 -0.16574964 0.13457681 0.18668643 -0.13773309 0.022173982 -0.051667344 0.12350439
0.18289109 0.09898556 -0.046053212 0.1274827 0.08383321 0.265968 -0.039232235 0.15853222
0.027066112 0.0009901664 -0.048327263 0.17553394 0.20327803 -0.10103921 0.10884357 -0.08504055
0.009671926 0.22655575 -0.18159024 0.24619378 0.021782013 -0.10040144 0.08784861 0.015602199
-0.03650455 -0.099406034 0.060976453 0.19186667 0.1150176 0.15570533 0.16883247 0.06706289
-0.044475228 0.11547469 -0.22106105 0.08493857 -0.088764034 -0.08008215 0.054167554 0.010428525
0.17483264 0.04713649 -0.04089153 0.040302683 -0.16092047 -0.16082299 -0.053751618 0.0988476
-0.03944964 -0.17216367 0.02956099 0.114395544 0.014499166 -0.13418406 0.035796657 -0.22412845
-0.15030897 0.031614084 -0.0785669 -0.16027226 -0.14305611 -0.13797788 -0.035848368 -0.18455692
-0.24677214 0.0049985773 -0.25297168 -0.032873906 0.1488584 -0.27432573 0.18480675 0.04327527
-0.018287506 0.13650927 -0.17861836 0.07008596 -0.103353135 -0.18376686 0.060279347 0.032869264
-0.1412525 0.08427916 -0.03477796 0.14961953 -0.20656082 -0.11442674 0.15469094 0.072506905
-0.2121152 0.21084216 0.04842591 -0.16425715 0.03627299 0.03386183 0.20028964 0.071371816

graph_transformer_layer.0.attention.proj_e.bias f4 [32]
00000000: f721 a9bd db9d ae3c 33fd 5bbd 24d2 74be
00000010: a0de 8fba 4e25 64bd b72f 39be 16b6 e43d
00000020: 4fe5 d13d 2821 fabd 1a8a 6b3e 827a fd3d
00000030: 2be6 42be 7d7b d8bd f4c7 fdbd 60fa 41be
00000040: 8f0e 0bbe bb19 823d d7f8 54bc a8df b3bd
00000050: aac5 53be 59cd 7ebc 2a05 09be 835d 23be
00000060: d180 ce3d 7448 82bd ccfa 33be 65ea 1dbe
00000070: 305e 133e 6912 453e d57d 113e 9e83 6fbc
-0.082584314 0.021315506 -0.053708266 -0.23908287 -0.0010976382 -0.05569964 -0.18084608 0.11167543
0.10248815 -0.12213355 0.230019 0.12376882 -0.19033115 -0.105704285 -0.12391654 -0.18943167
-0.13579772 0.06352564 -0.012998781 -0.087828934 -0.20680872 -0.015551888 -0.13380876 -0.1595364
0.100831635 -0.063614756 -0.1757614 -0.15421446 0.14391398 0.19245304 0.14208157 -0.014618782
