checkpoints/casp15_official_v7_nogcpnet_fold9.ckpt (torch, 957975 bytes, 160 tensors)

resnet_embedding.node_embedding.weight f4 [64, 14]
00000000: 6665 143e 150b 323d 8209 223d 6271 3b3d
00000010: 2b1c b13d f316 3b3d 07c5 3c3e 846d d03d
00000020: ee80 173e ebb1 f93c 68c7 b83c 3a68 fdbd
00000030: e1f6 20be 0f2a 213e f277 ae3c a849 2abe
00000040: cc16 e03c da42 843d 1307 66bc 63b0 02be
00000050: 9fb6 d5bd 1bdf 023c 5ae1 ed3d bc0c 48be
00000060: d047 13be 11b0 dabd ed28 243e 2b84 0cbe
00000070: fb0b 1c3e 6280 c0bc 87ae ce3d 4694 fe3d
00000080: f143 e4bd 961a cf3d 822f f73d 3bba 94bd
00000090: 7a4e 1e3e e858 dd3d 944a 913d 6f47 803d
000000a0: 8c91 783d 5ecc 86bd 4f3d 223e f811 aa3c
000000b0: 013c 293e 5f94 133e a00e 7f3c a765 413e
000000c0: 25a3 693d d68a 0abe ab83 08bd 01a6 a63d
000000d0: 8626 f23d 22f2 883d 360e 07be 74b1 1e3d
000000e0: 5ef7 ab3d 52e5 7dbd 13f5 f53c 15e6 04be
000000f0: 5752 b83d bb80 9e3d 8701 17be 8834 e53d
00000100: 55d0 c03d 1a31 8cbc 16ad f7bc 15d4 223e
00000110: bf32 9c3c 6add 063e 4161 b73d ed31 d13d
00000120: 340e a33d 0cca a6bc af39 f23c 60a3 98bc
00000130: 9676 c03d 8275 393e 8a4c 06be d36c 883c
00000140: 9b6b 87bc ce6c a73d e172 96bd e8fc 853d
00000150: e9c1 1c3e 654b a53b 07b8 2fbd 8202 23be
00000160: 00d9 4dbd 0e4b 2fbb d16a afbd 12d8 f03d
00000170: ace6 833d a5be 52bc d8fe 7b3d 15ae 8d3d
00000180: 5600 2c3e 6da8 1e3e 56ec dabd ef0c c4bd
00000190: de17 d4bd 6ae4 463e 9ba3 463e 23cf cebd
000001a0: e697 933d 0fdf e53d b132 953c b692 c03d
000001b0: 51e9 05bd bd4e 9ebd 9333 d43c fee9 9f3b
000001c0: cf7e 11be e538 143e 6281 c33d 9497 26be
000001d0: 8a4a ffbc e92a 083e dbff cb3d 0b73 cbbc
000001e0: e850 b9bd d4e6 98bd 54bd b33d 0bc7 e8bb
000001f0: 1e89 8dbd b2a5 26be 4a33 b33d 1738 a63b
00000200: 922b 3e3e d24f 3bbe 1c6c 6a3c 2776 82bd
00000210: 380a ffbd 2703 3fbd abc8 34be df21 19be
00000220: 2321 b63d a59a b33d da79 b13d 1868 033e
00000230: 7369 45be 38b9 50bd 0bf6 c13c 2727 4ebe
00000240: 547d 5fbd e3f8 f23d 11a1 5a3c eb29 213d
00000250: a305 2d3d 8fec 153e 88fb ebbd ec67 673d
00000260: 9b0a 3c3e 7488 ecbc 4132 fd3d e4c4 c33d
00000270: fbe3 02be 79f9 933d dd9d b53c 0393 0cbd
00000280: 28e8 29bd 0fa9 213e 92d9 3c3e 461a d9bc
00000290: ed5c 9c3d efff 7abd 8829 2c3d 8106 a3bc
000002a0: adbc ebbd 763e 933c 469b d03c 5a6e b93d
000002b0: 9746 04be 1974 1bbe d7f7 9a3d 1bb0 38be
000002c0: 8288 7fbc 8649 6f3d 3f17 6bbc 4176 0abe
000002d0: c6fc f9bd 9167 a4bc 0564 cdbb c357 253e
000002e0: 3a76 2b3e b324 963d e5f9 3f3e 9ad4 d13d
000002f0: d16e fc3d 5b7e d33d 3c64 d7bd dd76 d03d
00000300: 3545 a53c 7575 0bbd a49c ccbd dc75 6ebd
00000310: 1df0 1e3d 5b80 31bd e591 cf3d faf8 ee3d
00000320: c026 46bd 2dd4 3b3e 492a 353e e7ed 2cbe
00000330: 44da 31be 6130 95bc 9e8c f0bd cd62 5c3d
00000340: 84d6 023d 3c10 c83b 3629 0fbe 8ee0 a73d
00000350: a235 8a3d 0aef ef3d 377b 143d b28e 2cbd
00000360: b971 46bd daff f93d 48de b43d 43fc dd3d
00000370: 08b7 243d 4591 b6bd 3d0d 5fbc bf79 c73d
00000380: 12ce 28be 12b5 3e3d e297 4d3e 3a07 1b3d
00000390: 345c 32bd 7cef 1abe 4aea 36bd 17dc 10be
000003a0: 2ea5 28be 707c 99bd 5a28 f33d d1dc 8c3d
000003b0: 84c4 4e3d 37b2 2dbe 9335 44be 73cb 5ebe
000003c0: e62a 55be 1732 7c3d 702f b33d 91ef 113e
000003d0: 1397 f83d 7dc2 143d a677 8b3d 930b 2fbe
000003e0: b4a1 b63d ecc4 39bc a35c fcbd 9c2a 87bc
000003f0: ecb3 21bc c5c4 853d d170 eb3d 3c9b 023e
0.14491805 0.0434676 0.03955985 0.045762427 0.08647951 0.045676183 0.18434535 0.101771384
0.14795277 0.030480346 0.022556022 -0.12373395 -0.15719177 0.157387 0.021297429 -0.1662966
0.02735462 0.064580634 -0.014039773 -0.12762599 -0.10435223 0.007987763 0.11615248 -0.19536108
-0.14382863 -0.10678113 0.16031237 -0.13722293 0.15238945 -0.023498718 0.10091882 0.12430625
-0.11145771 0.10112493 0.12069608 -0.07262083 0.15459624 0.10807973 0.07094303 0.06263625
0.06068568 -0.06581949 0.158437 0.020760521 0.16526796 0.14412068 0.015567452 0.18886434
0.057040352 -0.13529524 -0.033328693 0.081371315 0.11823754 0.06686808 -0.13189015 0.03874345
0.08396791 -0.061986275 0.030024087 -0.12978394 0.0900008 0.07739397 -0.14746676 0.1119166
0.09414736 -0.017113257 -0.030233901 0.15901215 0.019067166 0.131704 0.089540966 0.10214601
0.079616934 -0.020360015 0.029568521 -0.01863259 0.093976185 0.18111232 -0.13115135 0.016653454
-0.016530802 0.0817505 -0.0734613 0.06542379 0.15308346 0.005044388 -0.04290011 -0.15918925
-0.050255775 -0.0026747617 -0.085652955 0.11759962 0.064404815 -0.012862836 0.061522335 0.06917969
0.16797003 0.15493937 -0.10689609 -0.095727794 -0.10356115 0.1942307 0.19398348 -0.10098102
0.07206707 0.11224186 0.018212648 0.09402983 -0.03269321 -0.07729862 0.025903499 0.004880189
-0.1420853 0.14474829 0.09546162 -0.1626876 -0.031163473 0.13297619 0.0996091 -0.02483513
-0.09048635 -0.07465902 0.08776346 -0.007103806 -0.06910919 -0.16274145 0.08750017 0.0050726044
0.18571308 -0.18292168 0.014308002 -0.06370192 -0.12453121 -0.046633866 -0.17654674 -0.14954327
0.08893039 0.087697305 0.086658195 0.12832677 -0.19278507 -0.05095789 0.023676893 -0.20132123
-0.05456288 0.118638776 0.013344065 0.039346617 0.042241704 0.14641021 -0.11522585 0.056495592
0.1836342 -0.02887366 0.12363101 0.09559038 -0.1278228 0.072253175 0.022170002 -0.03431989
-0.041481167 0.15787147 0.18442371 -0.026501786 0.07634912 -0.061279234 0.042031795 -0.019900562
-0.115105964 0.01797412 0.025464665 0.09054251 -0.12917553 -0.15181006 0.07566803 -0.18035929
-0.015596511 0.058419727 -0.014348804 -0.13521673 -0.12206416 -0.020068916 -0.006268027 0.1614676
0.16744319 0.073312186 0.18747671 0.10245629 0.12325824 0.10326835 -0.10517165 0.10178921
0.020174602 -0.034047563 -0.09990814 -0.05821787 0.03880321 -0.0433353 0.10135249 0.11668582
-0.0483768 0.18342657 0.17691912 -0.16887628 -0.17368418 -0.018211545 -0.117455706 0.05380516
0.03194286 0.006105451 -0.13980564 0.08197127 0.06748511 0.11715515 0.03625032 -0.042128272
-0.048448298 0.12207003 0.08831459 0.10839131 0.040213615 -0.08914427 -0.013613996 0.09740018
-0.1648486 0.0465594 0.2007747 0.03784869 -0.043544963 -0.15130419 -0.04465703 -0.14146458
-0.16469261 -0.07494438 0.11872931 0.06878055 0.05048038 -0.16962515 -0.19161062 -0.21757297
-0.20817146 0.061571207 0.08749282 0.14251544 0.1213819 0.03631829 0.068099305 -0.17094259
0.08917561 -0.011338454 -0.123223566 -0.01649981 -0.009869557 0.065316714 0.114961274 0.1275453

resnet_embedding.node_embedding.bias f4 [64]
00000000: d9b9 d53a 3df1 4b3c e5f1 fd3c 9ff5 fcbd
00000010: 2d9a 6ebd b629 e93c 6ec5 483a 8077 43bd
00000020: d518 eebd 402c 3bbe 7fcd 113e 1265 3e3e
00000030: 5835 3fbe f994 89bd 8bb4 073e e379 203e
00000040: 501c fe3b 4931 06be 4a16 50bd 5d25 fa3d
00000050: e9db d0bd 9d9d ce3d 672f 21be 13f9 33be
00000060: e8ff 183e 2d39 303e 6746 8f3d 5c51 f9bd
00000070: 9692 533d 4263 2bbe 8fd5 fc3d 06dc bb3c
00000080: 8622 013e 6963 fcbd 6e1d a3bd b555 2fbe
00000090: 4e7d 353e 13ed 8ebb 0543 153e eec1 10be
000000a0: 1f7c fdbd ec46 3fbe 2c93 1a3d 435c 5f3d
000000b0: 5a18 0c3e 377e d0bd 7a56 eb3d ca53 e0bd
000000c0: 2d02 ad3d b4d3 293e 4323 063d b640 2dbd
000000d0: ad61 98bd 2192 113e f5b5 e8bb ab05 fb3d
000000e0: 5540 aa3b bf6e 02bc df9c 923d e512 0bbe
000000f0: e959 263c c29f b7bc 0214 f8bb c551 303e
0.0016305997 0.012447652 0.030999133 -0.12351536 -0.058252502 0.028462272 0.0007658814 -0.047721386
-0.1162583 -0.18278599 0.14238547 0.18593243 -0.18672693 -0.067178674 0.13252465 0.15671496
0.00775484 -0.13104738 -0.050802507 0.12214158 -0.101981945 0.10088656 -0.15740739 -0.17575483
0.1494137 0.17209311 0.0699585 -0.12173721 0.051653467 -0.16737083 0.123454206 0.022932064
0.12610826 -0.123236485 -0.07964598 -0.17122538 0.17723581 -0.0043617575 0.14576347 -0.14136478
-0.1237719 -0.18679398 0.03773801 0.054531347 0.13681164 -0.101803236 0.114911035 -0.109534815
0.084476806 0.16584665 0.032748472 -0.04229804 -0.07440505 0.142159 -0.007101769 0.122569405
0.0051956573 -0.007960974 0.07158827 -0.13581426 0.010153272 -0.022415046 -0.0075707445 0.17218693

resnet_embedding.bn_node.weight f4 [64]
00000000: 1633 373f 3fd1 383f 9327 373f c81e 373f
00000010: 6181 373f e015 383f 7856 373f 878d 373f
00000020: 9463 373f 6b26 373f f6fa 373f bb67 383f
00000030: b68f 373f 296d 373f cd39 373f 0d29 383f
00000040: 6b8f 373f e268 373f 26cd 373f 2195 373f
00000050: 3165 373f a25e 373f d2ce 363f dc33 373f
00000060: 33a4 373f c186 373f 6d8c 373f 19d3 373f
00000070: 599d 373f 9821 383f 38c8 373f c734 373f
00000080: 78ff 373f a37f 373f 8365 373f 5e5e 373f
00000090: d986 363f 4b69 383f e3e0 363f cf80 373f
000000a0: 6605 383f e956 373f a017 373f f08e 373f
000000b0: 03bf 363f 7d51 373f ea56 363f acc9 373f
000000c0: a821 373f 4dca 363f 347e 373f e55c 373f
000000d0: 3a4e 373f 4921 373f 68e3 363f a982 373f
000000e0: d56c 373f ab02 373f ab21 373f f95f 373f
000000f0: 4b56 373f 646d 373f 2295 373f d6c2 373f
0.71562326 0.72194284 0.7154476 0.71531343 0.7168179 0.7190838 0.71616316 0.7170033
0.7163632 0.71542996 0.7186731 0.7203328 0.7170366 0.7165094 0.7157257 0.7193764
0.71703213 0.71644413 0.71797407 0.7171193 0.7163878 0.71628773 0.7140933 0.71563506
0.71734923 0.71689993 0.7169865 0.71806484 0.7172447 0.7192626 0.71789885 0.71564907
0.7187419 0.71679133 0.7163927 0.7162837 0.7129951 0.72035664 0.714369 0.7168092
0.7188324 0.7161699 0.71520424 0.7170248 0.7138521 0.71608716 0.7122637 0.717921
0.7153573 0.71402436 0.71676946 0.7162612 0.7160374 0.71535164 0.71440744 0.71683747
0.7165044 0.71488446 0.7153575 0.7163082 0.7161605 0.7165129 0.71711934 0.7178167

resnet_embedding.bn_node.bias f4 [64]
00000000: 1244 103a 98ba 113b 56f4 903b 815d 453a
00000010: e4bb ee39 1254 ba3b c0fb 943a 1a30 0439
00000020: 8985 8e3a 8ee0 4bba d7cb 033b 6528 483b
00000030: 669f 2bba 2c58 46bb 8b71 adba a8ff 1a3b
00000040: 77df 89ba ffee 9cbb 0a81 873b f8af 463b
00000050: 4710 09bb b767 c53a a844 3039 e8fc 94ba
00000060: 10a8 c339 f9aa c038 56d4 b3b9 dd0c 89ba
00000070: 74e3 143b 8a4d 2ebb db88 0cbb d196 afba
00000080: 2ca8 d33a 9466 e939 bb81 8dba 4dae c43a
00000090: c50b c83a 8a23 923b 4530 9dbb 5240 f4ba
000000a0: c5cd e239 393d a3bb 186a 6dbb 3770 1ab9
000000b0: 6540 83bb 4824 0b3b a811 65bb 6a7e 3e3b
000000c0: 0484 30ba 2201 c6ba c816 ab3a 9170 82ba
000000d0: ce11 0ebb ac4f ebba 3a0c a9b9 7259 a23a
000000e0: b6ab cab9 8163 6e3a 5af8 9bba 2f05 643a
000000f0: 30ec 06ba 1994 1ebb 9693 35bb bb64 733a
0.00055033073 0.0022236463 0.0044236584 0.0007528887 0.00045534887 0.0056862915 0.0011366531 0.0001260642
0.0010873537 -0.00077772967 0.0020110512 0.0030541655 -0.00065468845 -0.0030264957 -0.0013232691 0.0023650918
-0.0010518868 -0.0047892327 0.0041352557 0.0030317288 -0.0020914243 0.0015060817 0.00016810244 -0.0011366876
0.00037318515 9.1871196e-05 -0.00034299743 -0.0010456104 0.002271858 -0.002659651 -0.0021443877 -0.0013396387
0.0016148142 0.0004451765 -0.0010796109 0.0015005559 0.0015262297 0.004459803 -0.004797014 -0.0018634892
0.0004325939 -0.0049816635 -0.0036226567 -0.00014728388 -0.004005479 0.0021231342 -0.003495315 0.0029067048
-0.0006733539 -0.0015106539 0.0013053054 -0.000995176 -0.0021678093 -0.0017952821 -0.000322433 0.0012386276
-0.00038656377 0.0009093807 -0.0011899576 0.0008698282 -0.0005146889 -0.002419716 -0.0027706376 0.00092847244

resnet_embedding.bn_node.running_mean f4 [64]
00000000: e907 fd3e 9162 acbe 20b9 d73e 7e4c c33e
00000010: 19af df3d 6d26 b73e 7c74 e73d 44fd 803d
00000020: 995e 56be 5fbe 6ebe 18c8 433c e911 c63e
00000030: 267d eabe f1e0 ed3e 7518 9f3e 48ec bf3e
00000040: 6ecf 6ebe 48ee bcbe 8529 f13d fe4e 5ebd
00000050: abac 0abf 5679 70bd 03b8 963e 24df 66be
00000060: e749 e23e c0de f83e 56a2 b5bd 0a76 d4be
00000070: 6cd3 4cbe 1b01 3abf e33b 04be 12c0 e4bd
00000080: 1077 1c3f 2012 d4be e2f5 0bbe 9071 e6be
00000090: b668 0dbe 49c5 ba3e 0fe3 0e3e d91c 41be
000000a0: b32e 203e af39 e6be 6723 07be f9a5 653d
000000b0: 4fee 18be 4d73 a4be bdc0 4a3e a554 b43e
000000c0: 862e 2cbd b07e 0a3e 4ae0 0f3e 7558 a6be
000000d0: a58c 303e 84e6 3f3d e2cb d43d f11f bf3e
000000e0: 2f3b 193e afda fe3d e51b 60bd 149b 42be
000000f0: f168 773e e41f 343d a332 44be c15e a23e
0.49420097 -0.3366895 0.42133427 0.38144296 0.10922069 0.35771504 0.113015145 0.062983066
-0.20934524 -0.23314808 0.011949562 0.3868554 -0.45798606 0.4646068 0.31073347 0.37484956
-0.23321316 -0.36900544 0.11775497 -0.05427455 -0.5416972 -0.058709465 0.29437265 -0.22546059
0.44197008 0.48607445 -0.08868854 -0.41496307 -0.20002526 -0.72657937 -0.1291347 -0.11169447
0.61119175 -0.41420078 -0.13668016 -0.45008516 -0.13809475 0.36478642 0.13953803 -0.18858661
0.15642814 -0.44965884 -0.13197099 0.056066487 -0.14934658 -0.32119218 0.19800086 0.3522083
-0.042036556 0.1352489 0.14050403 -0.32489362 0.17241152 0.046850696 0.1039045 0.37329057
0.14963983 0.12444054 -0.054714102 -0.1900447 0.24161126 0.043975726 -0.19159941 0.31712916

resnet_embedding.bn_node.running_var f4 [64]
00000000: 2792 2f3d a6b7 bf3c 930a 083d 6a15 4c3d
00000010: 6fa8 133c e01f 6c3c df23 8c3c 4fd2 113c
00000020: b7fb 653c 0289 de3c 3de9 953c c1be 293c
00000030: ef9d 8f3c 438d 783d 1849 153d 9438 8f3c
00000040: 7a7b a43c 59be 7a3c d83e 3d3c 44ad 303c
00000050: 9095 203d bb30 573c 9d5c 733d 4ed4 3f3c
00000060: 8538 3b3d b7f9 243d 4333 063c ba4e 843c
00000070: 5022 403c 130e 803d 15f8 e03c 9551 2f3c
00000080: 90b3 a13d 679b f53c 0ada 6c3c 8ba3 763c
00000090: fda7 933c df28 0b3d cd23 3d3c 2778 973c
000000a0: 1413 f63c 4e30 c33c a8a1 a23c d456 9d3c
000000b0: 713f 993c f3fe ec3c fcbb 4d3c f82e 483d
000000c0: 2b1c a43c f123 063c bf57 023c ebba 2d3d
000000d0: d6a5 9b3c 0090 283c 9001 7a3c cda0 c13c
000000e0: 6a11 1b3d 803c 973c f8b0 ac3c d9ff 613c
000000f0: 1881 063c 5535 cc3c 182f a53b 8655 373d
0.04286399 0.023403 0.03321321 0.04982511 0.009012326 0.0144118965 0.017106948 0.008900239
0.014037064 0.02716494 0.018299693 0.010360421 0.017531363 0.060681593 0.03644666 0.017483033
0.02007841 0.0153041715 0.011550628 0.010783497 0.039205134 0.013134177 0.059414495 0.011708332
0.045708198 0.04027721 0.008190933 0.016150821 0.011726931 0.062526844 0.027462045 0.010700603
0.07895577 0.029981328 0.014456281 0.01505364 0.018024439 0.033974525 0.01154418 0.01848991
0.030038394 0.023826744 0.019852474 0.019206442 0.018707009 0.028930163 0.012557026 0.048872918
0.020032963 0.00818728 0.007955491 0.042414587 0.018999975 0.0102882385 0.015259162 0.023636246
0.037858404 0.018461466 0.021080479 0.013793909 0.008209489 0.024927774 0.0050410144 0.044759296

resnet_embedding.edge_embedding.weight f4 [64, 4]
00000000: 0794 93bd 91d2 863e 295c 9bbd 9981 98be
00000010: 82b8 b6be 4280 993e 18b8 ab3e fe7a e73d
00000020: a7d6 4cbe 8198 81be e8e8 813d f71d 423d
00000030: 3913 c3bc 2502 9a3e ba02 063e aa6b 5c3d
00000040: 33ac a3be f74f 1f3e db0d 903e 3ca9 15be
00000050: 8f67 f93d d0dd 84be 7a37 e1bd 242f 66be
00000060: 675c 923e 2e2a ac3e 7593 b2be 6fea ac3e
00000070: 9168 9f3d 2672 36bd 7acc 063d 3617 8f3e
00000080: 6ff0 7dbe b73e 1a3e 556f 24be c258 3f3e
00000090: 6514 34be 7d4a 32be 5eca cdbd 19c6 64be
000000a0: 5d30 c1bd 43be 913d c7a1 3cbe 5aff 82be
000000b0: 65bf e2bd 240b e13d 6b5e 27be 2d81 72bd
000000c0: e6da ec3d 9dde 4dbe d82d 913c c7d8 3b3e
000000d0: 87b1 a5be 4cc5 613e 9cf0 1c3d b517 803e
000000e0: 4636 abbe eae6 913e cb31 8ebe f85b af3e
000000f0: 7ef5 393e 763d 3bbe f272 21be 3474 123e
00000100: 5640 b5be 0f02 523e 93ec 103e 8488 a43e
00000110: 7c63 013e 9a6b 37be 3396 ecbd 1d74 ab3e
00000120: 4208 17be fb7f 153e c263 7d3e dce7 633e
00000130: 4067 53be 5693 8fbe 8603 223e 230b a5be
00000140: 3534 053e b757 a63e 73be 60be 55bb 93be
00000150: e24c 743e 25ed b43d a24c 77be cdec 1d3e
00000160: ddff 34bc b95e 9a3e 7c5f 83be 0a38 87be
00000170: 2b3e 2abe 6e13 b03e caa7 543e da17 a6be
00000180: 844b edbd 8174 f2bd 6f71 90be c022 793e
00000190: 2661 583e 5417 58be 3c9b 74be d0c5 3f3d
000001a0: bf3f 18be 3097 a33e 63b3 a2bb 0e4b 83be
000001b0: c945 97bd ec85 9f3e 810d 58be 8fbf 9d3e
000001c0: 273e 983e 726f 52bd 7508 9a3e 418c 8abd
000001d0: 60e7 acbe 33dd 4ebd cd2e 5abc d9f3 4cbe
000001e0: 2a04 11be c0be ff3d 2c66 923e ba7a b8bd
000001f0: 90fe a63e 390a 833e d3ef 633e 0cf7 88be
00000200: 1bdb 87be 5b6a 0e3e 0b10 af3e d90f 43bd
00000210: c234 0e3e 28d1 c9bd 6afd 93be e415 9bbd
00000220: 8e3e 9f3e 12a3 90be af3c 783e b6da 633e
00000230: 8a88 96be d6d3 a8bd 424b 27be ecba 6bbe
00000240: d7a4 a4be 33d4 9dbd 0aa4 30be 2a03 3dbe
00000250: 9b1d 763e de18 82be 01c5 113e 0f42 f4bd
00000260: 547c a7bc 8ce7 7a3c 7597 1cbe a0d5 953e
00000270: 9e76 b1bb 40ca a2bd fcb6 00be 7bdd 28bd
00000280: f979 4cbe 531f e13d b7d2 fb3d 3746 16be
00000290: e071 abbe eb02 b63d ba61 943e 7234 82be
000002a0: 7ca7 84be a377 0b3e 196f 5cbe aa33 9abe
000002b0: a8a1 123d d16d a73b 1caa 52bd 437b 78be
000002c0: 12d1 5c3e 3e83 afbd 2d4d 16bd e4f0 94be
000002d0: a4c5 8f3e 2c4b d23d 1c9d 603d 3a61 2fbe
000002e0: 7629 60be 9c35 8ebe c6a1 9e3e 34fe 493e
000002f0: b27b b03e 1fe6 3f3e 2513 6abd 7ca5 743e
00000300: 18fc 8a3e 88ae 6f3e 1b21 8abe 67d3 a7be
00000310: add2 803e 7e87 49bd 7c9f b33d 2fb3 523e
00000320: a56d 8ebe 3ea3 b0be 66ad a8be 9908 4a3e
00000330: bf75 e6bd 49a0 9f3e ed7e 213d 68ea 75be
00000340: 711f 9b3e 82f7 a3be cce2 793e 579b 9c3c
00000350: db11 10be f4a6 7d3d 9c09 643d 0974 a53e
00000360: 6b2f d2bd d7db e63d 63a0 373e 645a 37be
00000370: 9387 213e c74b efbd 7ecf 8ebe 1255 123e
00000380: c6e9 cf3d 6ed4 66be 245d 893c e7bb da3c
00000390: 0bb7 45be 0c9f 123e 8dff ad3e c053 6b3e
000003a0: d364 bd3c 05ba ce3b 7c96 f2bc 71c9 98be
000003b0: 21fd e6bd 004f b33d 3fed 13be f77b 843e
000003c0: 7810 20be def1 af3e 8c78 1e3e 86da 8f3d
000003d0: 7b55 9bbe 50dd 6a3e 8dc2 353d cbc8 b03e
000003e0: f3d2 86be d234 2f3e 031b ac3e fedd e93c
000003f0: 5d2e a6be 2fa4 313d aabb 773e e023 73bd
-0.07205968 0.26332524 -0.075859375 -0.29786375 -0.35687643 0.29980665 0.3353889 0.11302756
-0.20003758 -0.25311664 0.063432515 0.047391858 -0.023812877 0.3007976 0.13086978 0.053813614
-0.31967315 0.15557848 0.2813557 -0.14615339 0.12177955 -0.2595048 -0.109969094 -0.2247892
0.28586122 0.3362593 -0.34878126 0.3377261 0.07783616 -0.044542454 0.032909848 0.27947396
-0.2479875 0.15062986 -0.16058095 0.18686202 -0.17585905 -0.17411228 -0.10048364 -0.22341193
-0.09433053 0.07116368 -0.18421088 -0.25585443 -0.11071662 0.10988453 -0.16344611 -0.059205223
0.11565189 -0.20104451 0.017722055 0.18344413 -0.32362005 0.22047919 0.0383154 0.25018087
-0.33439845 0.28496486 -0.27772364 0.34249854 0.18160054 -0.18285164 -0.15766504 0.1430214
-0.35400647 0.20508598 0.14152746 0.32135403 0.12635607 -0.1791214 -0.11552086 0.33487025
-0.14749244 0.14599602 0.24745086 0.22256416 -0.20644855 -0.28042096 0.15821657 -0.3223506
0.13008197 0.32488796 -0.2194765 -0.2885386 0.23857453 0.08834294 -0.24150327 0.15422364
-0.011047331 0.30150393 -0.25658786 -0.26409942 -0.16625278 0.34389824 0.20767131 -0.32440072
-0.11586669 -0.118386276 -0.28211543 0.24329662 0.21130809 -0.21102649 -0.23887342 0.046819508
-0.14868067 0.31951284 -0.004965232 -0.256432 -0.07386357 0.31156862 -0.21098901 0.3081021
0.29734918 -0.051375814 0.30084577 -0.067650326 -0.33770275 -0.05050392 -0.013316822 -0.20014895
-0.14161745 0.124875546 0.28593576 -0.09007783 0.3261609 0.25593737 0.22259454 -0.26750982
-0.26534352 0.13907759 0.34191927 -0.047622535 0.13887313 -0.098543465 -0.28904277 -0.07572535
0.31102413 -0.28249413 0.24241899 0.222514 -0.29401046 -0.082435295 -0.16337302 -0.23020524
-0.32157013 -0.077064894 -0.17250076 -0.18458238 0.24034731 -0.25409597 0.14235307 -0.11926662
-0.020445026 0.015313994 -0.15292151 0.29264545 -0.0054157516 -0.079487324 -0.12569803 -0.041226845
-0.19968404 0.10992303 0.1229605 -0.14675222 -0.33485317 0.08887275 0.2898081 -0.25430638
-0.2590903 0.13619857 -0.21526755 -0.30117542 0.0357987 0.0051095267 -0.05143176 -0.2426577
0.21564129 -0.08569954 -0.036694694 -0.29090035 0.28080475 0.10268244 0.05483733 -0.17126933
-0.21890816 -0.27775276 0.30982798 0.19725877 0.34469372 0.18740128 -0.057147164 0.23891252
0.27145457 0.23406422 -0.26978382 -0.32778475 0.25160733 -0.04920148 0.087706536 0.20576166
-0.27818027 -0.34499544 -0.32944793 0.19729842 -0.11252927 0.31176975 0.039427686 -0.240152
0.30297425 -0.3202477 0.24402922 0.01911704 -0.14069311 0.061926797 0.055673227 0.3231509
-0.102629505 0.112724 0.17932276 -0.17905575 0.15774374 -0.11684375 -0.2789268 0.14290264
0.101520106 -0.22541973 0.016768046 0.026700927 -0.19308107 0.14318484 0.33984032 0.22981167
0.023119366 0.0063087963 -0.029612772 -0.29841188 -0.11278749 0.087553024 -0.14445971 0.25875828
-0.15631282 0.34364218 0.15475672 0.07024102 -0.30338654 0.22935987 0.04437499 0.34528193
-0.26332816 0.17109993 0.33614358 0.028548237 -0.32457247 0.04336947 0.24192682 -0.059360385

resnet_embedding.edge_embedding.bias f4 [64]
00000000: 64ad 7ebe a395 5b3e 8d02 a3be 482e 033e
00000010: 1aa0 973e 19c0 92be 095c 663a 0197 88be
00000020: 9520 67bd 8006 4ebe 4e0c 9bbd d54a 393d
00000030: 94c1 e63d 38e5 37bd 51ed 543e b13a c1bd
00000040: 17b1 bc3d 2331 71be ed10 89be 047c 963e
00000050: e3b3 193d e94a 923e 2048 3abe 258d 3b3e
00000060: 61b9 bc3d 41c0 06bd dd52 b53e d388 8dbe
00000070: ab22 153e c3e3 0f3e b94f 80be 8c33 103e
00000080: 26a1 9d3e e785 a53e 0eed 143e 014b 413d
00000090: 20a0 68be e2f5 383e b2d9 963e f306 febd
000000a0: 6cef aa3e 245a 8ebe f5e6 1abd 6d2f 6f3e
000000b0: 1865 86be 2da8 0dbe a6ff d4bd 02b2 633d
000000c0: 9a1b 1bbd d69a 8a3e 4c90 a93e e86e 86be
000000d0: 17db ad3d e7b2 a1be 5ac7 7bbe ca34 50be
000000e0: a64a ad3e 0480 4fbd a05c f2bc f979 b03e
000000f0: b049 32be 4a5a 2e3c 08ec 94be 68d3 433d
-0.24870831 0.214438 -0.31837884 0.12810624 0.29614335 -0.28662184 0.0008787518 -0.26677707
-0.056427557 -0.20119667 -0.07570706 0.04523738 0.11267391 -0.044896334 0.20793654 -0.094350226
0.09213465 -0.235539 -0.26770726 0.2939149 0.03752507 0.28572777 -0.18191576 0.18315561
0.09215046 -0.03289819 0.35414782 -0.2764345 0.14564006 0.14051728 -0.25060824 0.14082164
0.3078701 0.32328722 0.14543554 0.04719067 -0.22717333 0.18062547 0.29462963 -0.12403669
0.3338579 -0.27803147 -0.037817914 0.23357935 -0.26249003 -0.13833685 -0.104003236 0.055589683
-0.03786812 0.27071255 0.33117902 -0.2625649 0.08489054 -0.31581804 -0.24587765 -0.20332637
0.33846015 -0.050659195 -0.029585183 0.34468058 -0.17410922 0.010641644 -0.29086328 0.047809035

resnet_embedding.bn_edge.weight f4 [64]
00000000: 3a74 373f e572 373f ee74 373f b673 373f
00000010: 5a74 373f 2a73 373f d173 373f 7a75 373f
00000020: c272 373f a973 373f 4f73 373f a374 373f
00000030: 9f72 373f 4572 373f bd74 373f 9c72 373f
00000040: 7473 373f ed72 373f b173 373f 4f74 373f
00000050: c372 373f 8a74 373f 7073 373f 0574 373f
00000060: 0473 373f 3b72 373f 7e74 373f c973 373f
00000070: 2173 373f 7274 373f ee74 373f 0b74 373f
00000080: 2a74 373f 5d74 373f 7d74 373f b073 373f
00000090: 0374 373f 9372 373f 8973 373f 2e76 373f
000000a0: 9773 373f ee72 373f 8d72 373f 5474 373f
000000b0: ed74 373f 7872 373f c573 373f 1873 373f
000000c0: 2872 373f fc74 373f fd74 373f 1773 373f
000000d0: e372 373f 3274 373f 7e73 373f e971 373f
000000e0: e072 373f 6074 373f 7773 373f a072 373f
000000f0: 6773 373f 2a73 373f cc73 373f b373 373f
0.7166172 0.7165969 0.71662796 0.71660936 0.71661913 0.716601 0.71661097 0.7166363
0.7165948 0.7166086 0.7166032 0.7166235 0.7165927 0.71658736 0.71662503 0.71659255
0.7166054 0.7165974 0.71660906 0.7166185 0.7165949 0.716622 0.7166052 0.71661407
0.71659875 0.71658677 0.7166213 0.7166105 0.7166005 0.71662056 0.71662796 0.7166144
0.7166163 0.7166193 0.7166212 0.716609 0.71661395 0.716592 0.7166067 0.716647
0.7166075 0.71659744 0.71659166 0.7166188 0.7166279 0.7165904 0.71661025 0.71659994
0.71658564 0.7166288 0.71662885 0.7165999 0.7165968 0.71661675 0.716606 0.7165819
0.7165966 0.7166195 0.7166056 0.7165928 0.71660465 0.716601 0.71661067 0.7166092

resnet_embedding.bn_edge.bias f4 [64]
00000000: ea31 6a37 9e9a a5b7 a220 ee36 e20f 20b7
00000010: 0dab 9b35 67eb b4b7 40d3 21b4 4b78 0838
00000020: 1761 14b7 c90e 67b7 fa1e 6036 61d8 0eb2
00000030: 3151 0eb8 6e36 88b7 2713 d637 3bcd 15b8
00000040: 6bc7 9db7 149f a3b7 4a98 d434 ded1 2f37
00000050: f42f c2b7 42e5 a7b5 d2e3 9bb7 1b97 1137
00000060: a1ed a3b7 56e7 0ab8 0203 ff36 b962 0db6
00000070: fcd9 a8b7 84e4 9e37 8777 e936 9ee9 0337
00000080: d21c 28b7 b913 2b37 80ee 8f36 f5f1 9bb6
00000090: 562c d535 db7f dcb7 1c33 b735 77ee 9f37
000000a0: 7a95 59b7 4ccd dfb7 42a8 8db7 80ff a337
000000b0: e90e 6d37 f41a c0b7 3a99 cbb6 4e2d 59b7
000000c0: 1d13 07b8 58ce 5537 500f 8535 5cc9 cdb7
000000d0: e8f4 2736 ec40 5ab6 4aeb d1b6 b40a 00b8
000000e0: 34b4 beb7 fb01 0637 aece e5b6 ad57 f9b7
000000f0: c3f5 88b7 d5da 5fb6 a28f d6b5 0dd9 cfb6
1.3959108e-05 -1.9741532e-05 7.0967517e-06 -9.540441e-06 1.1598182e-06 -2.156729e-05 -1.5071146e-07 3.253696e-05
-8.844093e-06 -1.3772115e-05 3.3396632e-06 -8.314687e-09 -3.3931054e-05 -1.623781e-05 2.5519706e-05 -3.5715504e-05
-1.880872e-05 -1.950519e-05 3.9598882e-07 1.0479676e-05 -2.3148932e-05 -1.2509192e-06 -1.8583527e-05 8.6778555e-06
-1.9541769e-05 -3.3117212e-05 7.5999424e-06 -2.1068101e-06 -2.0128668e-05 1.8941479e-05 6.957856e-06 7.862602e-06
-1.0020291e-05 1.0196986e-05 4.289497e-06 -4.6475275e-06 1.588264e-06 -2.6285581e-05 1.3649437e-06 1.906532e-05
-1.2969011e-05 -2.667927e-05 -1.6886861e-05 1.955009e-05 1.4129772e-05 -2.2900735e-05 -6.0677094e-06 -1.2944756e-05
-3.220431e-05 1.27438325e-05 9.913729e-07 -2.453167e-05 2.5027493e-06 -3.252232e-06 -6.2560766e-06 -3.0527546e-05
-2.2733679e-05 7.9874835e-06 -6.8487925e-06 -2.972394e-05 -1.6326905e-05 -3.3356966e-06 -1.5986045e-06 -6.1943488e-06

resnet_embedding.bn_edge.running_mean f4 [64]
00000000: a278 8bbe f849 b23e 90d0 05bf 329e b03e
00000010: e6cc 903e d9be ebbe c5b5 873e 14da 1cbe
00000020: 5bbf 1bbe 9a6f 00bf 09b5 80be ea50 6cbd
00000030: ccbe 0a3e 710a 19bd 0131 ed3d 6ab4 f1bd
00000040: aeb0 113e 5b91 5fbe c5ef d0bd 1489 943c
00000050: 3336 c93d 996e cb3e 17ed 68be 4416 8c3e
00000060: 60c7 d9bd f1c6 f1bd 68d6 b73e 011f 37be
00000070: f819 d73e 719f 13be 305f 21be 524b ff3e
00000080: 6a30 bf3e 57f5 483e da0c b83e 0f9f 9dbe
00000090: 4b7d 16bf 81b7 693e 4267 973e d6be 74be
000000a0: 0f7e 953e 38fe b7be a6c2 9bbe f2c0 2b3e
000000b0: 75af 8cbe 4576 753d 175d 32be bc44 c83e
000000c0: 8a82 cd3c fb3f fb3e df0c e9bd 04ea 5bbe
000000d0: dc7b 623e d8f9 81be 0ff3 57be a2ce 87be
000000e0: 6f9b 983e ac05 083e 05b7 dabd 8189 a53e
000000f0: 4f25 203b b003 813d 51ad 42be d890 afbc
-0.27240473 0.3482206 -0.52271366 0.34495693 0.28281325 -0.46044043 0.26505867 -0.15317565
-0.15209715 -0.5017029 -0.2513812 -0.057694353 0.13549346 -0.037363473 0.115816124 -0.118019894
0.14227554 -0.21832792 -0.102019824 0.01813177 0.09824791 0.39732817 -0.22746693 0.27360737
-0.10633731 -0.11805523 0.35905766 -0.17882921 0.42012 -0.14416291 -0.15758967 0.49862152
0.37341624 0.1962484 0.35947305 -0.30785415 -0.5878493 0.22823907 0.29570967 -0.23900923
0.29197738 -0.3593614 -0.30421942 0.16772822 -0.27477613 0.059927244 -0.17418323 0.3911494
0.02508666 0.4907225 -0.11379408 -0.21475989 0.22117561 -0.25385928 -0.21088813 -0.26524836
0.29806086 0.13283414 -0.106794395 0.3233147 0.00244363 0.062995315 -0.19011427 -0.021431372

resnet_embedding.bn_edge.running_var f4 [64]
00000000: 4188 843c c5c3 a33c caf9 7d3c e267 a13c
00000010: 2194 743c 29be 8b3c b8e3 3d3d a368 6c3c
00000020: f296 3c3c 7e38 023d 53e1 883c efa9 893b
00000030: 3650 e53b 84cc 243c f5e7 f73c b962 213c
00000040: 748a 883c 68e0 c83c 6b68 8f3c 8c92 1c3d
00000050: 2e7d 933c e115 463c e0e0 553c 42fa 1c3d
00000060: 7c56 173d dc5e 423c 4667 7e3c 9cc3 b03c
00000070: c1ca fa3c f98e da3c 4799 6f3c 750b 8e3d
00000080: 63be 703c cfba 423c 3a19 9e3c 7454 293d
00000090: 436d 273d 2b56 a03b 3c1b 943c 8ba8 b43b
000000a0: 66d4 e73b 3a2b c13c fee7 f53c 312a 1b3c
000000b0: b01a 533c c773 a53c 1e11 483c 0da0 1f3d
000000c0: 3f64 ac3c ca75 913c efd8 c03d c39e 893c
000000d0: e25b 023c f9d4 833c b107 463c fc74 7f3c
000000e0: 5d81 113b 0028 bc3c 7877 6e3c 8a55 673c
000000f0: 5fc8 893c a65a 993c 3eb1 703c 4d85 f33b
0.016178252 0.019990811 0.015501449 0.019702855 0.014927895 0.017058449 0.046359748 0.014429244
0.011510598 0.031792156 0.016709005 0.004201166 0.0069980873 0.010058526 0.030261973 0.0098501975
0.016667582 0.024521068 0.017505845 0.038225695 0.018004026 0.012090177 0.013054103 0.038324602
0.036947712 0.011863437 0.015527552 0.021577649 0.030614259 0.026679503 0.0146239465 0.06935779
0.014693829 0.011885359 0.019299138 0.041340306 0.040875684 0.0048930845 0.018079393 0.005513256
0.0070748804 0.023580182 0.030017849 0.009470508 0.012884781 0.020196809 0.012211112 0.038970996
0.021043895 0.017756362 0.09416377 0.016799336 0.007956477 0.016092764 0.012086795 0.015591856
0.002220235 0.022968292 0.014554851 0.014119515 0.016819177 0.018719982 0.014690695 0.007431662

graph_transformer_layer.0.attention.Q.weight f4 [64, 64]
00000000: f8eb 813d 7c6b 1fbd bbe1 5f3c a9ff 023c
00000010: a602 a43d 4d94 ae3d 0cc3 b43b 6650 5bbc
00000020: 785b b53d 4073 adbd 5bb2 01bd f636 0f3d
00000030: 5b59 963d c1aa 0ebd c005 38bd 2158 633b
00000040: 6c74 a13b 9df8 9cbd 0bb0 2a3d ace1 82bd
00000050: c6dc 713b f79f 8ebd 2a11 7dbc f92d b3bd
00000060: a2ba 8f3c c1cd 2fbd bf8c 8ebb e7eb 973d
00000070: 02ae 08bc 6cd1 83bd 9cfc 14bd fad5 5d3d
00000080: 08e0 ac3c 1ad1 633c 041d 973c c8dc 8c3d
00000090: 78f1 09bd 4abe a83d 9d8a 0b3d c418 11bd
000000a0: d3ca 98bd 33c3 9fbd 436a b4bd 9c9a c43c
000000b0: 37f9 813d 3594 ad3d a278 48bd a6f8 533d
000000c0: 9ca7 3e3d f505 473d 6f3e aebd 54b1 f83c
000000d0: 64ee a73d ed2d 7abc d8d5 9c3d a8ad b03d
000000e0: dfe7 723d 4dce 72bb 5c91 84bd 958e 3fbd
000000f0: 9cd1 e73c 2c82 853d d436 103c 69bb 6bbd
00000100: e62e efbc 0023 53bd c7a7 733d 5e76 513d
00000110: 8c4c 40bd caf6 6e3d ece7 5cbc 593e 1e3c
00000120: 151c f73c 0fcf 4ebc 2eaf 67bd 5bf0 5bbd
00000130: c6e7 89bd 60c9 5bbd 4999 26bd c69b 84bd
00000140: f935 20bd c9e5 a83d 5d4b 0c3d e2df b3bd
00000150: 136c 383c 3f58 19bd 98ce 233d 5e87 3c3c
00000160: b49b 843b 502d d83b 4654 49bd 45a4 dbbc
00000170: ab15 1e3d e355 8ebc 3d7e b4bd 32e5 abbd
00000180: 443d 7c3d 74b1 553d cabc 4dbd 95e9 aa3d
00000190: 6cbd b43d cdb0 95bc 87e7 7a3d 53a6 9b3d
000001a0: 95b4 a13d 2d16 e0bc 500d 9abd 419c a03d
000001b0: 5eae 8a3c 1c34 60bc e956 833d 4393 a7bd
000001c0: 1fec 363d 37e2 97bd dbe7 a5bd b21a 7b3d
000001d0: 9483 8fbd c746 8abd c058 19bd 650a 953d
000001e0: f7ab 48bd adb4 89bd bf04 173d fa7a 433d
000001f0: 971f 703b 20a8 16bd ea38 edbc 8b3b abbd
00000200: 22ff 92bd abda ae3d 9338 93bd 5ad8 833c
00000210: 376e 33bd 9d29 10bd 1681 fc3c 2651 5f3c
00000220: 7242 08bd d6d3 ed3c bdf8 88bd 5d83 4abd
00000230: cf8e 94bd b434 54bd 2f56 93bb 7229 913d
00000240: 8b2c 17bb 8c78 623d 1cbf 38bd 9f9a 96bc
00000250: 25e1 41bd d528 9f3d 3483 bc38 c05d 9ebd
00000260: 0ee1 15bd aaa1 45bd f4d4 ba3c 0680 9ebd
00000270: cbb3 76bd a707 00bc eff9 a5bd e2a1 203c
00000280: 35c1 1e3d ae40 b1bd 4f67 083c e750 a0bd
00000290: 1f3b ad3d dfab 34bd 7823 b63d abab 05bb
000002a0: 07dd 83bd d55b aabd 5364 9abc e36a 283d
000002b0: 7aac 37bd c210 e43b 45d1 00bd 0868 8d3d
000002c0: 6690 c8bc 3d62 a0bd ed0b 6fbc 6cf5 8e3c
000002d0: 1764 dabc 8352 f13c 375c e03b cdba 3ebc
000002e0: ffe7 303c f97b 25bc 483b 403c be64 55bd
000002f0: 18ab 2b3d 0b35 8abc 7816 fd3c 1647 31bd
00000300: ed46 fdbc 99de 90bc b905 b63d 24cf 783c
00000310: 775b 803d dc22 43bd 0bd1 e33c f8de 863d
00000320: 9caf 7fbd 1d67 003d baa5 afbd 220f b33d
00000330: 5e1d ccbc 92bc d5bc 9f7b 613d 409b d7bc
00000340: ac5f 463c 4fe0 a7bc 3fa9 18bd 8311 2c3c
00000350: 22a8 643d e795 38bd 3399 97bb 7d64 ed3b
00000360: b8a9 1ebc 7935 9b3d f58c 463d 7dec 95bd
00000370: 6931 633c cd74 8abd 67d0 09bd a656 91bd
00000380: 587b 053d fcf5 8dbc 5c55 453d a34e 2d3d
00000390: 0f31 593c b559 9dbd c2f6 99bd c6e5 873d
000003a0: aa1c 85bd 1ad7 b13d a025 8d3d c371 b23d
000003b0: 4b11 993d 4f2d fcba 2147 a63d e55b a1bc
000003c0: a8ee f0bc f3e2 9c3c 2769 923d 50d0 933d
000003d0: 4acd 423d fb2e 0bbc 9606 41bc 4d3e 853d
000003e0: 3782 913d 8029 9c3c 6149 18bd e97e 97bd
000003f0: d0d1 4bbd dc38 b8bc d7b7 acbd 418f c33c
0.063438356 -0.038920864 0.013664658 0.007995524 0.08008318 0.0852438 0.0055164155 -0.013385868
0.08855337 -0.08469248 -0.031664234 0.034964524 0.07341262 -0.034830812 -0.04492736 0.003468998
0.0049272086 -0.07664607 0.041671794 -0.063907 0.0036905273 -0.069641046 -0.015445987 -0.08749003
0.017545048 -0.04292083 -0.0043502743 0.07418042 -0.008342268 -0.064364284 -0.03637372 0.054159142
0.02110292 0.013904834 0.018446453 0.06878048 -0.03367755 0.0823942 0.03406774 -0.03542401
-0.07460561 -0.07800903 -0.0880933 0.023999505 0.06346362 0.08475534 -0.04894317 0.0517508
0.046546564 0.048589665 -0.08508002 0.030357994 0.08199766 -0.015269739 0.07657975 0.08626872
0.05930316 -0.0037049234 -0.064730376 -0.046766836 0.028298192 0.06518969 0.008802135 -0.057551775
-0.029197168 -0.05154705 0.059486177 0.051138274 -0.046948 0.058340825 -0.013483029 0.0096584195
0.030164758 -0.012622609 -0.05656355 -0.053696018 -0.067336604 -0.053658843 -0.040673528 -0.06475024
-0.039113972 0.08246953 0.03425156 -0.08782937 0.011256236 -0.037437674 0.039991945 0.011506883
0.0040468816 0.0065971985 -0.049152635 -0.026811728 0.038594883 -0.017374938 -0.088131405 -0.08393325
0.061581865 0.052171186 -0.05022887 0.083453335 0.08825192 -0.018272782 0.061255958 0.07600083
0.078957714 -0.027354324 -0.075220704 0.07842303 0.016928848 -0.013684299 0.06413061 -0.08182385
0.044658776 -0.07416194 -0.081008635 0.061304756 -0.070075184 -0.06751781 -0.037438154 0.07277373
-0.048992123 -0.06723914 0.03686976 0.0477247 0.0036639923 -0.03678143 -0.028957803 -0.08360966
-0.07177569 0.08537801 -0.07188525 0.016094375 -0.04380628 -0.035195936 0.030823272 0.013630187
-0.033266492 0.029031675 -0.06688068 -0.049441684 -0.07253801 -0.051808074 -0.004496358 0.07087983
-0.002306732 0.055290744 -0.04510413 -0.018384276 -0.047333855 0.0777146 8.988977e-05 -0.07732725
-0.036591582 -0.048249878 0.022806622 -0.07739262 -0.060230058 -0.007814324 -0.08104312 0.009804221
0.038758475 -0.08654915 0.008325412 -0.07827931 0.08458542 -0.04410922 0.08893484 -0.0020396512
-0.06438642 -0.08318297 -0.018846666 0.04111756 -0.04484222 0.0069600055 -0.031449575 0.06904608
-0.024482917 -0.078312375 -0.014590246 0.01745101 -0.026659055 0.02945829 0.0068469304 -0.011641216
0.0107975 -0.010100358 0.011732884 -0.05209803 0.041911215 -0.016870996 0.030894503 -0.043280683
-0.03091761 -0.017684268 0.0888781 0.015186105 0.062674455 -0.047640666 0.02780964 0.06585497
-0.062423334 0.031348336 -0.08576532 0.08743121 -0.024916347 -0.026090894 0.055049535 -0.026319146
0.012107771 -0.0204927 -0.03727078 0.010502222 0.055824406 -0.045064833 -0.004626417 0.007244645
-0.009684019 0.075785585 0.04847427 -0.07320497 0.013866761 -0.06760559 -0.033646014 -0.07096605
0.032588333 -0.017329209 0.04817711 0.042311322 0.013256325 -0.07683126 -0.075177684 0.06635623
-0.06499608 0.086836055 0.06891942 0.087131046 0.074740015 -0.0019239577 0.081190355 -0.019697139
-0.029410675 0.019151187 0.071489625 0.07217467 0.04755906 -0.008495088 -0.011781355 0.065060236
0.07104915 0.019062757 -0.037179355 -0.07397253 -0.04976064 -0.02248805 -0.08433502 0.02387202

graph_transformer_layer.0.attention.Q.bias f4 [64]
00000000: 6989 7c3d b66c 10bd c89f 193d 812c b4bd
00000010: b2fe 09bd c43e c83c afaf 08bd e763 80bd
00000020: 5d43 f5bc deff aabd 892b f73b d18f 0e3d
00000030: 38de 76bd 6118 e63c 7ee1 c13c c5e3 473d
00000040: bbb8 903d 174c b93b a857 103c 9681 05bd
00000050: c8ce df3c 002a 97bd 4c22 363d 914f 353d
00000060: 9e87 2f3b ec47 823d 3e50 b2bd be34 783d
00000070: 1329 afbd c26e 0cba 10b3 3ebd ad54 623d
00000080: 8676 a53d d6dd 34bd d7dd b4bc 0bd3 86bc
00000090: d2fc 9abd 9d04 cd38 6fe8 b6bd 5969 a33d
000000a0: 4ed8 a03d 3c27 723d a891 afbd e31f a63d
000000b0: ef30 e83a c786 4f3d 03d1 98bd 8da1 1c3d
000000c0: 70c7 633c bcc2 8fbd 9b05 02bd 0111 3d3d
000000d0: 9767 c23c d2e5 ac3d 7967 67bd c951 33ba
000000e0: 3b3e 8fbd 46fd 9bbd a53b 3fbd 9695 4abd
000000f0: f78f 99bd 1579 843d fdb9 a7bd a648 8a3c
0.061654482 -0.035259925 0.037505895 -0.08797551 -0.033690162 0.024443991 -0.03337067 -0.06269055
-0.029939348 -0.08349584 0.0075430316 0.034805123 -0.060270518 0.028087797 0.023667093 0.048801202
0.070664845 0.0056548226 0.008809961 -0.032594286 0.02732028 -0.07381058 0.0444663 0.044265334
0.0026783715 0.06361374 -0.08706711 0.060597174 -0.08552756 -0.00053570804 -0.046557486 0.055256534
0.08079247 -0.04415687 -0.022078438 -0.016458055 -0.07567753 9.776021e-05 -0.08931052 0.07979078
0.07853757 0.059119448 -0.085727036 0.08111551 0.0017714779 0.050665643 -0.07461741 0.038240004
0.01390253 -0.070195645 -0.031743627 0.046158794 0.023731036 0.08442272 -0.056495164 -0.0006840495
-0.069942914 -0.076166674 -0.04668774 -0.049459063 -0.07498162 0.06468407 -0.08189771 0.016880345

graph_transformer_layer.0.attention.K.weight f4 [64, 64]
00000000: 57ab a33d eb40 6fbd b123 ecbb 9b05 87bd
00000010: d7e5 6ebd 2627 7a3d 3d13 75bc 5060 ac3d
00000020: f9fd 91bd a70a 87bd 7b62 563d 0a53 183d
00000030: 0e96 a43d 744c 9a3d 7c7c 483c 7936 973c
00000040: 2d6f 3c3d 7b6d 4a3d a77c f4bc cc2f ba3c
00000050: be24 83ba a4eb d43c 5f9d b3bd 9567 973d
00000060: 3554 8cbd 60a1 843d 0169 183d 77de a8bd
00000070: e1ca aabd 6e91 863c 4606 05bd a959 3fbd
00000080: 7224 39bd 0729 a9bd 3ff7 a83c 8f59 68bc
00000090: 5249 b4bc 4833 a13d 7820 543d da1e 8e3d
000000a0: 2613 72bc 4159 ac3d ff25 6d3d 3cfa 983d
000000b0: eeb5 853d b175 f83c f1d0 8b3d b569 3dbb
000000c0: f8be 6dbc 1d2b 613d 5100 97bd 5b65 423c
000000d0: d80b 993c 9382 883d 53b9 553d 035e 86bd
000000e0: d7f0 743d 1d27 85bb e59e 84bd 36c8 a9bc
000000f0: 023e debb 73f3 b4bb be6c 10bd 4a2a b13d
00000100: 0d8f 243b 6e74 00bd 1f4b 85bb fb3e 68bd
00000110: 5140 90bd e2c0 ab3d 97b3 39bd 3f7d 8d3b
00000120: b102 71bd 86a1 0fbd 957c ecbc 1604 9cbb
00000130: 09f3 34bd 50a0 0bbd e6cc 9e3d 8db9 143d
00000140: 1237 1fbd bdad 84bd 8a35 b53d 8f94 20bd
00000150: 4f6c af3d a45b 64bb c093 8d3c d92a 853d
00000160: d847 fbbc 1f78 2e3d fdd9 b73b f82c 8abd
00000170: 428f b63d 9be5 27bd 8b47 a5bd 5bc4 673c
00000180: 9edb 283d 3f97 6e3d 9121 9ebd 4c8d a6bc
00000190: 7ca1 9a3d 980b 933c 9143 653d 6724 b2bd
000001a0: e8f6 833d be9f 1c3d 54bf 78bd 65aa ae3d
000001b0: a545 443d 77dd b2bd 2875 86bd c169 73bd
000001c0: c56c 823d 1696 65bd e3df 9dbb b726 a23d
000001d0: ed1b a63d a7e7 f6bc f905 953c d294 a4bd
000001e0: 744f f03b 102d a43d e8f5 a43c ad6e e63c
000001f0: 44e9 dfbc 82a7 b2bd bac1 923d ed05 88bd
00000200: 0a7b b3bd 6ec7 a1bc e4af 9ebd 7695 463d
00000210: 2d0e 683c 6198 b13c 203b 8f3d 9bb5 86bd
00000220: 68ed 953d 3d4c 60bd bed5 863d a3df 74bd
00000230: a2fd e53c db4e a7bc 0fa4 883d d35f febc
00000240: 8bd2 a33d 8059 91bd 4eb9 b2bd 693a 02bd
00000250: f641 7ebd dffe 6cbd 89ed b23d 6b2f 91bd
00000260: 4a76 4ebd 2bd1 af3c 13b7 90bd 80b4 a4bd
00000270: 99c6 8abc 5fde ddbc ef66 a5bd 41a3 033d
00000280: 8675 b5bd 3616 9d3d 661f 4dbd e29f b1bd
00000290: a70a f0bc 8d25 88bd f41d 33bd 0e63 6a3d
000002a0: 1b3a 9a3b 71ef 58bd 865f c6bc e97c e53c
000002b0: f4fc 4ebd eeec 2c3d 71a7 8c3d 956f 52ba
000002c0: 0422 963c e815 09bd b548 31bd 3fb2 2abd
000002d0: e73b 37bc f0bd 7abd c2e8 71bd fff5 0dbd
000002e0: 57ae c4ba 5dd5 1f3d 1353 83bd 40f8 513c
000002f0: 1ec7 a7bd da93 63bc 9abb 7ebd 0208 aebc
00000300: b822 02bd 5400 adbd 64f0 cb3c 84d0 9ebd
00000310: f811 4a3c 9fdb af3d 92da cdbb b065 9fbc
00000320: 9a32 babc d490 403c 180f 9f3d cedd ae3d
00000330: dd5d b93b 8375 4cbd 91d9 4fbd bd29 8dbd
00000340: 28dd 613d e396 a4bd a81e 9c3d 10cb 25bd
00000350: 646d 823d 62d9 1dbc c513 a8bd 8db1 aabd
00000360: a0dc 9ebb 1c73 1abc dea7 8d3d 874d b5bd
00000370: 3dd7 10bd cada 8ebd c569 9fbc d755 843d
00000380: 233e 333d 5666 923d d900 f63b 7a1f aabd
00000390: 50f4 73bc 79dd b2bd 448a 15bb 2bc1 893d
000003a0: 731d a7bc 1966 303c 1f0e 9cbc 7ba3 a1bd
000003b0: 94d1 1f3d 812a 593d b06c ca3c 9088 a63b
000003c0: a94e 7f3d c150 803d a73f 79bc 2591 06bd
000003d0: d710 29bd e407 f5bc 426f 723b e0e0 f13c
000003e0: 46f6 1c3c 3bd7 73bd fb15 b73b 8fe0 87bd
000003f0: 9404 ab3d ee77 46bc 5f8d a63c 9d16 b3bd
0.07991665 -0.05841152 -0.007206403 -0.06592866 -0.05832466 0.06107249 -0.0149582 0.08416808
-0.071285196 -0.06593829 0.052340012 0.037188567 0.08036433 0.075341135 0.012236711 0.018458592
0.046004463 0.049420815 -0.029844595 0.02272787 -0.0010005457 0.025991268 -0.087702505 0.073928036
-0.06851999 0.06476092 0.037209515 -0.08245557 -0.08339477 0.016426768 -0.032476686 -0.046716366
-0.045200773 -0.082597785 0.020625709 -0.014181509 -0.022007618 0.07871109 0.051788777 0.06939478
-0.014775073 0.08415461 0.057897564 0.074696034 0.06528841 0.030329557 0.06826962 -0.0028902118
-0.0145108625 0.054972757 -0.07373107 0.011864985 0.018682405 0.0666553 0.052178692 -0.065609
0.059799995 -0.0040635006 -0.06475619 -0.02072535 -0.0067822943 -0.0055221855 -0.035259955 0.08650644
0.002510968 -0.031361036 -0.004067793 -0.056700688 -0.070435174 0.08386399 -0.045337286 0.004317909
-0.058840457 -0.03506615 -0.028868 -0.0047612293 -0.04417709 -0.034088433 0.07753925 0.036309768
-0.03887088 -0.064784504 0.088481024 -0.039204177 0.0856558 -0.003484466 0.017282367 0.06502313
-0.030673906 0.042595025 0.005610703 -0.06746858 0.08914043 -0.040990453 -0.08070286 0.014145936
0.04122507 0.05824971 -0.07721246 -0.020331047 0.07550332 0.017949864 0.05597264 -0.086983494
0.06443578 0.03823828 -0.06072934 0.08528594 0.04791798 -0.08733647 -0.065653145 -0.059427027
0.063684024 -0.056051336 -0.004817949 0.079175405 0.08110795 -0.030139757 0.018191325 -0.08036198
0.0073336903 0.080164075 0.020136788 0.028128946 -0.02733291 -0.08723356 0.07165857 -0.06641755
-0.08763702 -0.019748416 -0.07748392 0.04848238 0.014163536 0.021679105 0.06993699 -0.06577607
0.07320672 -0.054760206 0.06583737 -0.05978359 0.028075043 -0.020423343 0.06671917 -0.031051552
0.07999142 -0.07097149 -0.0872675 -0.031793986 -0.062074624 -0.05786025 0.087367125 -0.070891224
-0.050405778 0.021462044 -0.07066169 -0.0804224 -0.016940402 -0.027083574 -0.08076274 0.032138113
-0.088603064 0.07670252 -0.050078772 -0.08673073 -0.029301954 -0.06647787 -0.043729737 0.057223372
0.0047066337 -0.052962724 -0.024215471 0.028013663 -0.050534204 0.04221814 0.068678744 -0.0008027491
0.018326767 -0.033468157 -0.04328223 -0.041673895 -0.011183715 -0.061216295 -0.059059866 -0.03465843
-0.0015005571 0.03902184 -0.064123295 0.012815535 -0.081922755 -0.013890231 -0.06219063 -0.021244053
-0.03177139 -0.08447328 0.0248949 -0.07754615 0.012333386 0.08586811 -0.006282159 -0.019457668
-0.022729207 0.01175328 0.07766551 0.085384 0.0056569413 -0.049916755 -0.050744597 -0.068927266
0.05514255 -0.08036592 0.07623035 -0.04047686 0.06368521 -0.009634348 -0.08206896 -0.083346464
-0.004848078 -0.009426858 0.06916784 -0.08852678 -0.035361517 -0.069753245 -0.019459615 0.06461685
0.04376043 0.07148425 0.0075074253 -0.08306785 -0.014889792 -0.08733649 -0.0022818008 0.06726297
-0.020399785 0.0107665295 -0.019049702 -0.078925095 0.03901823 0.05301905 0.02471003 0.0050821975
0.062330876 0.062654026 -0.01521293 -0.032853264 -0.041275825 -0.02991099 0.0036992584 0.029526174
0.009580201 -0.05953143 0.005587337 -0.06634628 0.083504826 -0.012113554 0.020331083 -0.087445475

graph_transformer_layer.0.attention.K.bias f4 [64]
00000000: cb75 1ebc 3b96 a73d e0b9 8d3d da50 84bc
00000010: 16cd 523c 6a2f 473d d0e5 e1bc 7891 3d3c
00000020: c3f7 eebc 687a afbd bfcc 143c 8860 3abb
00000030: 52dd 1bbd c704 393d 498a b03d 70c0 04bc
00000040: 993c 02bc c754 ad3d 2e1f 9e3d b3fb 533d
00000050: b44a 853d f664 4bbd b9ad 54bd 4514 05bd
00000060: 10ac 36bd 022d d4bc 1445 253d d70a a4bd
00000070: 305d bd3c 7182 54bd 5b89 aa3b 20d2 883d
00000080: ce13 8d3d 0ecc abbc 14c1 213d c143 97bd
00000090: 78b7 5fbd 119e 25bc 253a a83d 5c29 62bd
000000a0: 9371 813d 10ef 7f3d dae5 2d3d 715d 26bd
000000b0: 11e7 be3c dce6 3ebd b6a7 793c 4b0f 203d
000000c0: 4910 283d 9efc 95bd e121 793d db27 263d
000000d0: 2e04 233d 8b85 28bd 2258 9bbd e9a3 c0bc
000000e0: af1f 9fbb c30f 163c 7472 a5bd ca42 96bc
000000f0: d8ec 37bd 1ed6 8c3d 278f 8abc 2603 b5bc
-0.009671639 0.08182951 0.069202185 -0.016151834 0.012866279 0.048629202 -0.027575403 0.011570327
-0.029170876 -0.08568269 0.009082018 -0.0028438885 -0.038052864 0.04517057 0.08620126 -0.008102521
-0.007949018 0.084634356 0.07720791 0.05175371 0.06508389 -0.04965683 -0.051923487 -0.032490034
-0.044597685 -0.025900368 0.04034908 -0.0800988 0.023115724 -0.05188221 0.0052043623 0.06680703
0.06888543 -0.020971324 0.039490774 -0.0738597 -0.05461833 -0.010108487 0.08214215 -0.055215225
0.06320491 0.062483847 0.04245553 -0.040616456 0.02330354 -0.046606883 0.015237739 0.039077085
0.041031156 -0.073235735 0.060823325 0.040565353 0.039798908 -0.04114298 -0.075851694 -0.023515658
-0.004856072 0.009159031 -0.08078471 -0.018342394 -0.044903606 0.06876777 -0.016913963 -0.022096228
