checkpoints/casp15_inhouse_ts_fold1.ckpt (torch, 446679 bytes, 223 tensors)

resnet_embedding.node_embedding.weight f4 [32, 42]
0	0x3df2ef19	0.118620105
1	0x3def0d14	0.11672416
2	0xbbdec134	-0.006797934
3	0xbd62e640	-0.055395365
4	0xbcba1708	-0.02271606
5	0xbd361fba	-0.04446385
6	0x3bd1a5c0	0.006397933
7	0xbdec7841	-0.11546374
8	0xbc1e1c9d	-0.009650377
9	0xbd0f50e8	-0.034989268
10	0x3e3303a2	0.17481855
11	0x3da5b7ac	0.08091673
12	0x3cc85df2	0.02445886
13	0x3dc652a9	0.09683735
14	0x3b2c641c	0.0026304787
15	0x3e13f720	0.1444974
16	0x3d665df6	0.056241952
17	0xbd2d6671	-0.042334024
18	0x3c0a4ab3	0.008440661
19	0xbc96c9fc	-0.01840686
20	0xbcbe89c1	-0.023259046
21	0x3da5ab72	0.08089341
22	0x3cd62519	0.026140736
23	0x3d0e7d9f	0.03478777
24	0xbdc65671	-0.09684456
25	0xbda6920c	-0.08133325
26	0xbe41fd1d	-0.18944211
27	0xbdeb9a6f	-0.11504065
28	0x3e1c5ab6	0.15268978
29	0xbdb1f00b	-0.08688363
30	0xbda822dc	-0.08209774
31	0xbe19bdbe	-0.15013787
32	0xbde160e8	-0.110048115
33	0x3a86e701	0.0010292233
34	0x3d01ee8e	0.031721644
35	0x3d31be49	0.04339436
36	0xbdcf5fca	-0.10125692
37	0x3d795523	0.06087221
38	0x3e0fbab0	0.1403606
39	0x3c979a5a	0.018506218
40	0x3e1d3121	0.15350772
41	0x3d865430	0.06559026
42	0xbe157578	-0.14595592
43	0x3d4c67aa	0.04990355
44	0x3db3b296	0.08774297
45	0x3ba18c8c	0.0049300846
46	0xbc92cf3a	-0.017921079
47	0x3e10afef	0.14129613
48	0xbc9f09ed	-0.019413913
49	0xbdc0ea78	-0.09419721
50	0xbdf0fe8c	-0.11767301
51	0x3e000e85	0.12505539
52	0xbde65514	-0.11246696
53	0x3d9dc49e	0.077035174
54	0xbd86f47c	-0.065896004
55	0x3c4c0a8c	0.012453686
56	0xbd5fa5b3	-0.054601382
57	0x3d84d5d0	0.06486094
58	0xbd505fe3	-0.050872695
59	0xbd963dd5	-0.07336012
60	0x3dcdcc61	0.10048748
61	0xbd2e8f74	-0.042617276
62	0xbba0f976	-0.0049125506
63	0x3c9df158	0.01928012
64	0xbe0d8b49	-0.13822664
65	0xbd82c13f	-0.06384515
66	0x3d4dabcc	0.050212666
67	0x3d80d8cd	0.062913515
68	0xbd222994	-0.039590433
69	0x3d8f63b7	0.07001441
70	0x3bb5037f	0.0055240984
71	0xbe222e40	-0.15837955
72	0x3c35f758	0.011106335
73	0xbd1fe243	-0.03903414
74	0x3dc76711	0.09736455
75	0xbbccf6f1	-0.0062550236
76	0xbd045b5b	-0.032313686
77	0x3c8f7ae8	0.017514661
78	0xbdacea47	-0.08443122
79	0xbcc9adc6	-0.024618994
80	0xbc248e18	-0.010043643
81	0xbe1f5b54	-0.15562183
82	0xbd8e6f8c	-0.0695487
83	0xbda8b28c	-0.0823718
84	0xbc98c1f7	-0.018647177
85	0x3d3c3f3b	0.04595874
86	0xbd8e55e6	-0.069499776
87	0xbcf77cca	-0.030210871
88	0xbc97b01d	-0.018516595
89	0xbd47bcd9	-0.048764084
90	0x3e284758	0.16433465
91	0xbdb481ed	-0.08813844
92	0x3daa79bf	0.083240025
93	0x3d930a1d	0.07179663
94	0x3ddb2a72	0.10701455
95	0xbddd8fe9	-0.10818464
96	0xbe0cbc2d	-0.13743658
97	0x3d806bc8	0.06270558
98	0x3d2ed21c	0.042680845
99	0xbde77a6e	-0.113026485
100	0x3de12c3f	0.109947674
101	0xbcbc1f4a	-0.022964139
102	0x3c7e8812	0.015535371
103	0x3d32f19f	0.04368746
104	0x3dcf888d	0.10133467
105	0x3c550ced	0.01300357
106	0xbdf24868	-0.11830217
107	0xbe166ed5	-0.14690717
108	0x3d694c51	0.056957547
109	0xbdc71a9b	-0.097218715
110	0x3d2f95c1	0.042867426
111	0x3db02a0c	0.0860177
112	0xbdd278b1	-0.10276926
113	0x3ddbf629	0.10740311
114	0xb9ccf5be	-0.00039093004
115	0xbd9b0584	-0.075694114
116	0x3e4d060e	0.20021841
117	0xbdc8f68e	-0.098126516
118	0xbc77bd92	-0.015120881
119	0x3ca4cfd6	0.020118635
120	0x3da5fcac	0.08104834
121	0x3d88608e	0.06659041
122	0xbdedca20	-0.11610818
123	0xbd99b99e	-0.07506107
124	0x3cbf396a	0.023342807
125	0x3da3eafc	0.08003804
126	0x3d8639f1	0.0655402
127	0xbddb6bc1	-0.10713912
128	0xbdfd6576	-0.12372868
129	0x3db79c16	0.08965318
130	0x3baafad3	0.005217889
131	0xbce3ac65	-0.027792165
132	0x3d30d286	0.04316952
133	0x3d94955d	0.07255051
134	0xbe35cd54	-0.17754108
135	0xbe418d0c	-0.18901461
136	0xbe2bd8fa	-0.16781989
137	0x3c823082	0.015892271
138	0x3d743a8e	0.059626155
139	0xbc0733dd	-0.008252111
140	0xbe24c7f6	-0.16091904
141	0x3d38ff24	0.045165196
142	0xbaba1801	-0.0014197828
143	0x3c31aa07	0.01084376
144	0xbc0c18d9	-0.008550846
145	0x3c026239	0.007957988
146	0x3caef441	0.021356704
147	0xbd6fd0f7	-0.058548894
148	0x3d0889a5	0.033334393
149	0x3dd5e4a3	0.104439996
150	0x3db934ec	0.09043297
151	0xbd0fd193	-0.035111975
152	0x3e308d8a	0.17241493
153	0x3dde06fb	0.10841175
154	0xbdb6f200	-0.089328766
155	0x3e3a1cbd	0.18175025
156	0xbe15a7d7	-0.14614807
157	0xbd535674	-0.05159612
158	0xbe13fb2c	-0.14451283
159	0x3c790b83	0.0152004985
160	0xbd4f33a6	-0.050586365
161	0x3bd5677b	0.00651258
162	0x3da1620c	0.07880029
163	0xbc999983	-0.018749958
164	0xbda48bd9	-0.08034486
165	0x3ba629d5	0.0050709047
166	0xbc99cb35	-0.018773654
167	0x3de09858	0.10966557
168	0xbd816512	-0.06318106
169	0x3d9ef5db	0.07761737
170	0xbda82c83	-0.08211615
171	0xbd0b7a42	-0.03405214
172	0x3d2f4a76	0.04279562
173	0x3d450795	0.048102934
174	0x3c144c9c	0.009051468
175	0x3d090df3	0.03346057
176	0x3cec83ff	0.028871534
177	0xbd7ab4bf	-0.06120753
178	0x3de1c4a2	0.11023833
179	0xbda7dd30	-0.08196485
180	0x3da4f4d4	0.0805451
181	0xbdcbc6ad	-0.09950004
182	0x3d12d3b9	0.035846446
183	0xbc88a019	-0.016677903
184	0xbc1c56f5	-0.009542217
185	0x3dbd0783	0.09229948
186	0xbd98e9fe	-0.074665055
187	0xbddedc56	-0.108818695
188	0x3c02ed60	0.007991165
189	0xbca67f3a	-0.020324338
190	0xbdb1f3dd	-0.08689091
191	0xbd725e40	-0.059171915
192	0x3dbc9a19	0.09209079
193	0x3d947f32	0.07250823
194	0x3e29db1c	0.1658749
195	0x3daf02bc	0.085454434
196	0xbe326680	-0.17421913
197	0xbe09692f	-0.1341903
198	0xbdf0f6a0	-0.1176579
199	0x3d784907	0.06061652
200	0x3df2ab9b	0.118491374
201	0xbdeb82d2	-0.11499561
202	0x3cc55192	0.024086747
203	0xbdc0584d	-0.09391842
204	0x3df023de	0.11725591
205	0xbcfb1084	-0.030647524
206	0x3d3ab283	0.0455804
207	0xbd8008ea	-0.062517
208	0xbc3f2c2c	-0.011668246
209	0x3e032991	0.12808825
210	0xbb1a6804	-0.0023560533
211	0xbd34a061	-0.04409826
212	0x3e1a82af	0.15088914
213	0x3d11776c	0.03551428
214	0x3c51af60	0.01279816
215	0x3d550ebc	0.052016005
216	0x3caa82a5	0.02081425
217	0xbcfaa1ef	-0.030594794
218	0xbe07a27d	-0.13245578
219	0x3dab8b31	0.08376158
220	0x3d50d9a0	0.050988793
221	0xbdbeb7bc	-0.09312388
222	0xbe00d8de	-0.12582728
223	0xbddd4269	-0.10803682
224	0xbd7a5b1d	-0.06112205
225	0xbd7a7ddb	-0.06115518
226	0x3decd24c	0.115635484
227	0xbc3a92e9	-0.011387565
228	0xbcf468bf	-0.029835103
229	0x3e29e069	0.16589512
230	0xbe10b0df	-0.14129971
231	0x3d567276	0.052355252
232	0x3d0fad2c	0.03507726
233	0xbbd8302d	-0.00659754
234	0x3dee7b1b	0.11644574
235	0xbdb342b1	-0.08752955
236	0x3e3cd932	0.18442228
237	0xbdfcedf4	-0.123500735
238	0xbcf4b4d1	-0.029871376
239	0xbd296a7a	-0.04136131
240	0xbd51beaf	-0.05120724
241	0x3db70c4c	0.08937892
242	0xbd9ab428	-0.07553893
243	0xbde6314b	-0.11239871
244	0x3cc91652	0.024546776
245	0x3deb70ce	0.11496125
246	0x3d74cb00	0.05976391
247	0x3d23a3b8	0.039951056
248	0xbc87e251	-0.016587408
249	0xbb6f42b8	-0.0036508273
250	0xbc46c783	-0.012132528
251	0xbda324a5	-0.07965974
252	0xbe47502c	-0.19464177
253	0x3dcff76d	0.101546146
254	0xbda32f67	-0.07968026
255	0xb92b9bd1	-0.00016365877

resnet_embedding.node_embedding.bias f4 [32]
0	0xbe06af39	-0.1315278
1	0x3d6ed4a3	0.058308255
2	0x3e1ca311	0.1529658
3	0xbdebcfb9	-0.11514229
4	0x3dbd00b0	0.09228647
5	0xbde520e0	-0.11187911
6	0x3e09afeb	0.13446014
7	0xbde56ef0	-0.112028
8	0x3e0a4eeb	0.13506667
9	0xbdfe4d77	-0.12417119
10	0x3ca7928a	0.020455617
11	0x3d17e51e	0.037083738
12	0xbd5d14d8	-0.053974956
13	0x3d5e15f1	0.054220144
14	0xbdab5901	-0.083665855
15	0x3d6b9e9d	0.057524312
16	0xbd4a9599	-0.049459074
17	0xbd8133fc	-0.06308743
18	0xbd15c9bb	-0.03656934
19	0xbd1ac6f9	-0.03778741
20	0x3e0f6ca3	0.14006285
21	0xbdfb198c	-0.12260732
22	0x3d8a07d9	0.06739778
23	0x3e15ff5a	0.1464819
24	0xbd64a7f6	-0.055824243
25	0xbd5ab683	-0.053396713
26	0x3dc9dd3a	0.09856649
27	0x3daf0d22	0.08547427
28	0x3dabad42	0.08382656
29	0xbe1b2751	-0.15151717
30	0xbce71de0	-0.028212488
31	0xbd18f285	-0.03734066

resnet_embedding.bn_node.weight f4 [32]
0	0x3f80a124	1.0049176
1	0x3f8083e2	1.0040247
2	0x3f86cfce	1.0532167
3	0x3f7855a8	0.970057
4	0x3f876320	1.0577126
5	0x3f85d113	1.0454429
6	0x3f89f259	1.0777084
7	0x3f800a2e	1.0003107
8	0x3f8492f7	1.035735
9	0x3f868e48	1.0512171
10	0x3f87144a	1.0553067
11	0x3f814a24	1.0100751
12	0x3f7ec214	0.9951489
13	0x3f80fe25	1.0077559
14	0x3f8d2364	1.1026425
15	0x3f820c35	1.0159975
16	0x3f88892d	1.0666863
17	0x3f7cb274	0.987098
18	0x3f871b48	1.05552
19	0x3f850082	1.039078
20	0x3f87b5e1	1.060238
21	0x3f7cb202	0.9870912
22	0x3f820c83	1.0160068
23	0x3f8371e3	1.026913
24	0x3f847a07	1.034974
25	0x3f79bf83	0.9755785
26	0x3f75c673	0.96005934
27	0x3f6cbb3f	0.92473215
28	0x3f80e11b	1.0068697
29	0x3f89a2af	1.0752772
30	0x3f89a3d6	1.0753124
31	0x3f7c6eec	0.98606753

resnet_embedding.bn_node.bias f4 [32]
0	0xbdd71d23	-0.10503604
1	0x3b2a21ba	0.0025960044
2	0xbd07dda8	-0.033170372
3	0xbdc5fbd9	-0.09667177
4	0xbdc43169	-0.09579737
5	0x3d72cf7d	0.059279907
6	0xbd8e5f8d	-0.069518186
7	0xbd84b8bf	-0.0648055
8	0xbd7b09ce	-0.061288647
9	0xbdfb2150	-0.12262213
10	0xbcfbe638	-0.030749425
11	0xbddbf946	-0.107409045
12	0xbdb45fc5	-0.08807329
13	0xbda962a9	-0.08270771
14	0xbc616cb7	-0.01375883
15	0xbc5e89d7	-0.013582668
16	0x3d1e31f9	0.038621876
17	0xbc443d4c	-0.011977505
18	0x3d14471f	0.03620064
19	0xbdf85a26	-0.121265694
20	0xbd7f8923	-0.062386643
21	0xbd85868c	-0.065198034
22	0xbddb7e83	-0.107174896
23	0xbd4330a7	-0.04765382
24	0xbd803b44	-0.06261304
25	0xbda4e55d	-0.0805156
26	0xbd802ff8	-0.06259149
27	0xbe1262e5	-0.14295538
28	0xbd3a68d7	-0.04551014
29	0xbb192147	-0.0023365782
30	0xbdea3b4d	-0.11437092
31	0xbdfa3587	-0.12217241

resnet_embedding.bn_node.running_mean f4 [32]
0	0xbc6b4b5c	-0.014361229
1	0xbe9347b0	-0.2876563
2	0x3e559832	0.20858839
3	0xbeb880d8	-0.360358
4	0x3dcd88a5	0.100358285
5	0xbe767036	-0.24066243
6	0x3e565f6b	0.20934837
7	0x3ea238cd	0.3168396
8	0x3df99205	0.12186054
9	0xbe0b5466	-0.13606414
10	0xbd96bd2f	-0.07360303
11	0xbe3bce0a	-0.18340316
12	0x3eddf907	0.43354055
13	0xbc00b955	-0.007856687
14	0xbe70a80c	-0.23501605
15	0xbdffc44d	-0.12488613
16	0x3d074b58	0.033030838
17	0xbed7a3ac	-0.4211706
18	0x3e8ac41f	0.27102754
19	0xbef08573	-0.46976814
20	0x3e6bd4d7	0.2303041
21	0xbe7dcc2a	-0.24784914
22	0xbe635951	-0.2220204
23	0xbc885a0b	-0.016644498
24	0xbf347128	-0.7048516
25	0xbc84b657	-0.016200228
26	0x3ebd0704	0.36919415
27	0xbec3dc62	-0.38254076
28	0x3dabdb7e	0.08391474
29	0xbdfcc8a8	-0.1234296
30	0xbe5ed03d	-0.21759124
31	0xbeb35aaa	-0.3503011

resnet_embedding.bn_node.running_var f4 [32]
0	0x3cc256ff	0.023723124
1	0x3d242c65	0.0400814
2	0x3c7dc165	0.015488003
3	0x3d19308f	0.037399825
4	0x3cb7a394	0.022416867
5	0x3cd2b588	0.025721326
6	0x3c3aa415	0.011391659
7	0x3d1fa66f	0.038977083
8	0x3d415c8c	0.0472074
9	0x3d46357f	0.04839086
10	0x3c289e69	0.010291674
11	0x3ce1ed39	0.027578937
12	0x3d3feaa2	0.046854623
13	0x3cb88b90	0.022527486
14	0x3c583ca6	0.013198053
15	0x3ca8aef8	0.020591244
16	0x3cefc8d4	0.029270567
17	0x3d7b4f16	0.06135472
18	0x3d3401a8	0.043946892
19	0x3cdd0dff	0.026984213
20	0x3c89c5cd	0.016817952
21	0x3c885a9d	0.01664477
22	0x3d13cbfb	0.036083203
23	0x3cacde74	0.021102168
24	0x3d2fc2e2	0.042910464
25	0x3cd85e4e	0.026412155
26	0x3cbb81da	0.022889066
27	0x3d110e8c	0.035414264
28	0x3c93aa02	0.018025402
29	0x3cb8a9e1	0.022541942
30	0x3cddb316	0.027062934
31	0x3cee0d34	0.02905903

resnet_embedding.edge_embedding.weight f4 [32, 4]
0	0x3dee822a	0.116459206
1	0x3eacf610	0.3378148
2	0xbefba8f1	-0.4915233
3	0x3e7063f4	0.23475629
4	0xbed27519	-0.41104963
5	0x3e0d8242	0.1381922
6	0xbf0f5c81	-0.56000525
7	0x3e91238d	0.28347436
8	0xbe3b5205	-0.18293007
9	0xbea5fb5f	-0.32418343
10	0xbe9d18b9	-0.30682924
11	0x3e02e171	0.12781312
12	0x3d775b46	0.06038978
13	0xbee3b370	-0.44472837
14	0x3ec1a9dd	0.37824908
15	0x3c37c987	0.011217481
16	0x3e9d7818	0.30755687
17	0xbed0d6fb	-0.40789017
18	0xbddcb701	-0.10777093
19	0x3e338557	0.17531334
20	0xbe1be1f2	-0.1522291
21	0x3eeb05ab	0.45902762
22	0xbea61cbd	-0.324438
23	0x3e8c0a06	0.27351397
24	0xbe9b22e9	-0.30300072
25	0x3edc6aaf	0.43050143
26	0xbe838a33	-0.25691375
27	0x3e46b856	0.19406256
28	0x3e0a81ce	0.13526079
29	0x3d019c11	0.031642977
30	0x3eb5cf38	0.35509658
31	0x3eabf899	0.33588102
32	0xbee7f141	-0.4530125
33	0x3eee8eea	0.4659341
34	0x3dbea98b	0.093096815
35	0x3cdea1eb	0.027176818
36	0x3ed78470	0.4209323
37	0xbf00f904	-0.5037997
38	0xbece8f52	-0.4034372
39	0x3e9854ac	0.297521
40	0xbe9f2f3e	-0.3109073
41	0x3e96ef8b	0.29479632
42	0xbee3a34b	-0.4446052
43	0x3e99b6bc	0.30022228
44	0xbe055e76	-0.13024315
45	0xbe47093a	-0.19437113
46	0x3ed312e1	0.4122534
47	0xbd03b89e	-0.032158487
48	0xbcb75941	-0.022381427
49	0x3cbba53d	0.02290594
50	0xbefddcc4	-0.49582493
51	0x3e723d65	0.23656233
52	0xbe2d9a09	-0.16953291
53	0x3be172e1	0.0068801497
54	0x3e4811e3	0.19538073
55	0x3eca1c8b	0.39474902
56	0x3bb1da96	0.005427669
57	0xbdb1c54c	-0.086802095
58	0x3ea9f564	0.3319503
59	0xbe387f5b	-0.18017332
60	0xbeaa66df	-0.3328161
61	0xbe7bc9e5	-0.24588735
62	0xbe9e1600	-0.3087616
63	0xbd787875	-0.06066175
64	0xbed85c89	-0.422581
65	0x3e99e305	0.30056015
66	0x3e26f93d	0.16306014
67	0xbd5b6a5c	-0.05356823
68	0x3e2f3bb8	0.17112625
69	0x3ebe0ea2	0.3712054
70	0x3e94de36	0.29075783
71	0x3e317160	0.17328405
72	0x3df58df3	0.11989965
73	0x3ece4678	0.40288138
74	0xbe2a609e	-0.16638419
75	0x3c924477	0.017854912
76	0xbcf7a0af	-0.030227987
77	0xbeb14acd	-0.3462738
78	0xbc5256be	-0.012838064
79	0xbe67041c	-0.22560161
80	0x3df3e4cd	0.11908875
81	0xbe7b6086	-0.2454854
82	0x3ec88d27	0.3917019
83	0x3da74ee4	0.08169344
84	0x3e8357b4	0.2565285
85	0x3f0637cf	0.5242891
86	0x3db4ed2b	0.08834299
87	0xbebba8ec	-0.36652315
88	0xbe5a97d7	-0.21346985
89	0xbe126fc1	-0.14300443
90	0xbe72de1f	-0.23717545
91	0x3ebbdf29	0.36693695
92	0xbe0cc5a8	-0.13747275
93	0xbe3772a8	-0.17914832
94	0x3d44c079	0.04803512
95	0x3edf470f	0.436089
96	0xbe3cac52	-0.1842511
97	0xbed70caf	-0.42001864
98	0x3c85ebb0	0.016347736
99	0x3e5d72c1	0.21625806
100	0xbd9c58ca	-0.07634123
101	0x3dc89570	0.09794128
102	0xbd75840f	-0.059940394
103	0x3d11759d	0.035512555
104	0xbe50e24f	-0.2039883
105	0xbdd26d9e	-0.10274814
106	0x3ebc623d	0.367937
107	0x3e2b8057	0.16748177
108	0xbd822f4e	-0.06356679
109	0x3ef2e7c9	0.47442463
110	0x3e752d63	0.23943095
111	0xbe92c590	-0.28666353
112	0xbebbec14	-0.3670355
113	0x3e92ee2a	0.2869733
114	0xbde2086d	-0.11036763
115	0xbd1081df	-0.035280105
116	0xbeaac443	-0.3335286
117	0xbeb11d5c	-0.34592712
118	0x3ebddcb5	0.3708245
119	0xbe3f1a8e	-0.18662474
120	0x3f0ea9e4	0.5572798
121	0x3ee3bad5	0.4447848
122	0x3ca9f127	0.020744873
123	0xbec92ca4	-0.3929187
124	0xbed93f19	-0.42430952
125	0x3e905b38	0.28194594
126	0x3edbb528	0.4291165
127	0xbed7d52d	-0.42154828

resnet_embedding.edge_embedding.bias f4 [32]
0	0x3edca5da	0.43095285
1	0xbcc394e1	-0.023874702
2	0xbe7cbe0d	-0.24681874
3	0xbe27ada6	-0.16374835
4	0x3e03ac4f	0.128587
5	0x3e94cede	0.29064077
6	0x3d99fc11	0.07518781
7	0xbe6285e2	-0.22121385
8	0x3d83536e	0.06412397
9	0x3edf5b5e	0.43624395
10	0x3efb36a0	0.49065113
11	0x3ccf5de9	0.025313335
12	0xbe75e9ef	-0.2401502
13	0xbe835c26	-0.2565624
14	0x3ef8277c	0.48467624
15	0x3e13cccd	0.14433594
16	0x3ea669d6	0.3250262
17	0xbecda4de	-0.40164846
18	0x3e07ec40	0.13273716
19	0x3e222f0b	0.15838258
20	0xbe99bb62	-0.30025774
21	0xbe51021d	-0.20410962
22	0xbe5d208b	-0.21594445
23	0x3e2aa2a4	0.16663605
24	0x3e06335e	0.13105533
25	0x3db92b57	0.090414695
26	0xbea822d6	-0.32839078
27	0x3ee6e43f	0.45096013
28	0xbeaa2088	-0.33227944
29	0x3eac764f	0.33684012
30	0x3c198f5e	0.00937256
31	0x3e34a8d2	0.17642525

resnet_embedding.bn_edge.weight f4 [32]
0	0x3f8b3a52	1.0877173
1	0x3f84b0fe	1.0366514
2	0x3f85136f	1.0396556
3	0x3f867ca8	1.0506792
4	0x3f903aa2	1.1267893
5	0x3f8e529a	1.1118958
6	0x3f903bcd	1.126825
7	0x3f8b6871	1.0891248
8	0x3f8d9886	1.1062171
9	0x3f90c488	1.1309977
10	0x3f86096c	1.0471625
11	0x3f83db04	1.0301213
12	0x3f884c73	1.064833
13	0x3f8c8582	1.0978243
14	0x3f88476f	1.06468
15	0x3f8b6af4	1.0892015
16	0x3f8b2522	1.0870707
17	0x3f81995a	1.0124924
18	0x3f8d0ee9	1.1020175
19	0x3f837e83	1.0272983
20	0x3f88989e	1.0671575
21	0x3f89a4d2	1.0753424
22	0x3f8c05d1	1.0939275
23	0x3f8c3e4d	1.0956513
24	0x3f881e4d	1.0634247
25	0x3f8e531d	1.1119114
26	0x3f8613e8	1.0474825
27	0x3f86bf5d	1.052715
28	0x3f82458f	1.0177478
29	0x3f836779	1.0265952
30	0x3f891c95	1.0711848
31	0x3f8af109	1.0854808

resnet_embedding.bn_edge.bias f4 [32]
0	0x3dd6c27c	0.10486314
1	0x3d82f618	0.06394595
2	0x3ce90c2f	0.028448192
3	0x3d0a6eba	0.033797003
4	0x3de84389	0.11341006
5	0x3dfb8ce8	0.12282735
6	0x3dc3faea	0.095693424
7	0x3e010569	0.1259972
8	0x3dc91e00	0.09820175
9	0x3e0c752f	0.13716577
10	0x3d8a1d4d	0.0674387
11	0x3db26eaf	0.087125175
12	0x3dc2b52a	0.095072106
13	0x3e017c1b	0.12644999
14	0xbc646d44	-0.013942067
15	0x3d780620	0.060552716
16	0xbd5d8441	-0.054081205
17	0x3cd1b24e	0.025597718
18	0x3dfae684	0.122509986
19	0x3b931fe0	0.004489884
20	0x3d5f6935	0.054543693
21	0x3ddd2b16	0.107992336
22	0x3da31b0b	0.079641424
23	0x3cabd7b0	0.020976871
24	0xbc9d52e2	-0.01920456
25	0x3d5a13e9	0.053241644
26	0x3cac52d0	0.021035582
27	0x3d3c6c17	0.04600152
28	0xbc9f4e78	-0.019446597
29	0xba80cce4	-0.0009826687
30	0x3daca342	0.084295765
31	0xbd225168	-0.039628416

resnet_embedding.bn_edge.running_mean f4 [32]
0	0x3f0d0c65	0.5509704
1	0xbe7d7559	-0.24751796
2	0xbf0d3b90	-0.5516901
3	0xbe347851	-0.17624022
4	0x3df9acce	0.12191163
5	0x3ede728c	0.43446767
6	0x3dff138c	0.124549
7	0x3e37cf6d	0.1795022
8	0x3e01c44c	0.12672538
9	0x3ebe41ad	0.37159482
10	0x3ee40264	0.44533074
11	0x3d0e562b	0.034750145
12	0xbeaacf2c	-0.33361185
13	0xbd4477e5	-0.047965903
14	0x3eff0b58	0.49813342
15	0xbe943ed8	-0.28954196
16	0x3ea0622a	0.31324893
17	0x3d85d40a	0.06534584
18	0x3ea16b4d	0.31527176
19	0xbe0d8226	-0.13819179
20	0xbe19d092	-0.1502097
21	0x3c65bd3a	0.014022166
22	0xbe98fca2	-0.29880244
23	0x3e852ffd	0.26013175
24	0xbd1161fc	-0.035493836
25	0x3dbeceb7	0.093167715
26	0xbe6995b7	-0.22811018
27	0x3f1a3ee8	0.6025224
28	0xbeddcbca	-0.4331954
29	0x3dad4a05	0.08461384
30	0x3e931063	0.2872344
31	0x3dab00b3	0.08349743

resnet_embedding.bn_edge.running_var f4 [32]
0	0x3c35d830	0.011098906
1	0x3c73029b	0.014832164
2	0x3ce1663f	0.027514575
3	0x3be6d480	0.007044375
4	0x3b0808fc	0.0020757308
5	0x3c1510b0	0.009098217
6	0x3b433c46	0.0029790564
7	0x3d11405e	0.035461776
8	0x3b350f55	0.0027627547
9	0x3b877a17	0.0041344273
10	0x3b230923	0.0024877272
11	0x3b8f833f	0.0043796594
12	0x3b47392b	0.0030399065
13	0x3c2a74d2	0.010403829
14	0x3a6408a6	0.00086987985
15	0x3d4ad8a0	0.049522996
16	0x3ad5366d	0.001626683
17	0x3d5f7f87	0.05456498
18	0x3c8397b3	0.016063547
19	0x3cbb52d6	0.022866648
20	0x3be69e2d	0.007037899
21	0x3cf3034b	0.029664656
22	0x3bb975af	0.005659781
23	0x3bb888d8	0.0056315474
24	0x3c90cd21	0.017675938
25	0x39067f51	0.00012826665
26	0x3bc0391e	0.005866184
27	0x3c3d0bd8	0.011538468
28	0x3b6eded7	0.003644874
29	0x3ce6b310	0.028161556
30	0x3d3fdd3f	0.046841856
31	0x3b9bef50	0.004758753

graph_transformer_layer.0.attention.Q.weight f4 [32, 32]
0	0xbd8a7fd9	-0.06762666
1	0xbe643dba	-0.22289172
2	0xbca03608	-0.019557014
3	0xbd4d118d	-0.050065566
4	0xbc7080e7	-0.01467917
5	0xbd899fa6	-0.06719904
6	0xbddcace0	-0.10775161
7	0xbd03aa1b	-0.032144647
8	0x3cb00d25	0.021490643
9	0xbd5f9174	-0.054582074
10	0xbc78c00d	-0.015182507
11	0xbe0d21d9	-0.13782443
12	0xbd500ee2	-0.050795443
13	0x3d833ecb	0.06408461
14	0x3888ce02	6.523357e-05
15	0xbd9528a7	-0.072831444
16	0xbe285b96	-0.16441187
17	0xbe0befc6	-0.13665685
18	0xbe5b2a83	-0.21402936
19	0xbe2cb9d0	-0.16867757
20	0x3dbfbb5c	0.09361908
21	0x3d974719	0.07386608
22	0xbe077cdd	-0.13231225
23	0xbd9f2045	-0.07769827
24	0x3d804f28	0.06265098
25	0x3d05abf8	0.032634705
26	0xbe522213	-0.20520811
27	0xbdda4564	-0.106577665
28	0xbe262495	-0.16224892
29	0x3b812265	0.0039408677
30	0xbdf4319e	-0.11923526
31	0xbddd3258	-0.10800618
32	0xbc3dfba0	-0.011595637
33	0x3d5d0c5e	0.053966872
34	0xbdd62ec6	-0.1045814
35	0xbca0f24a	-0.019646782
36	0x3de37ee8	0.1110819
37	0xbe1e8f2a	-0.154843
38	0xbdb08b0e	-0.086202726
39	0x3e2f359d	0.17110296
40	0x3d93ad4a	0.07210787
41	0xbdd926f7	-0.10603135
42	0xbc9ae4b2	-0.018907879
43	0x3cee5a76	0.02909587
44	0x3e00c5fa	0.12575522
45	0xbdc2cc65	-0.095116414
46	0xbe272dfc	-0.16326135
47	0x3dfd2f49	0.123625346
48	0x3d95fac8	0.07323223
49	0xbda3a705	-0.07990841
50	0xbdc3925f	-0.095494024
51	0xbe0c537a	-0.13703719
52	0x3dd57abd	0.10423801
53	0x3d453bee	0.048152857
54	0x3beea470	0.007282786
55	0xbdd0f928	-0.10203773
56	0x3dadb893	0.0848247
57	0xbe493496	-0.19648966
58	0xbd36944c	-0.04457502
59	0xbccda0da	-0.025101114
60	0xbd83a5e3	-0.06428125
61	0x3e0b14ff	0.13582228
62	0xbe098ba1	-0.1343217
63	0x3da06acd	0.07832871
64	0x3d42bfc6	0.04754617
65	0x3e675da5	0.22594316
66	0x3d8d9cad	0.06914649
67	0x3df8243a	0.12116285
68	0x3bd633d3	0.0065369396
69	0x3c33c449	0.010972091
70	0x3d79f808	0.061027557
71	0x3de0084a	0.10939081
72	0x3e4a5d63	0.19762187
73	0xbc06e473	-0.0082331775
74	0x3bac919f	0.005266383
75	0x3d851eb3	0.06499996
76	0xbd4945be	-0.049138777
77	0x3b539cd0	0.0032289512
78	0x3e9362a3	0.2878619
79	0x3d349fce	0.044097714
80	0xbd4e605b	-0.05038486
81	0x3e487548	0.19575989
82	0x3d935d5c	0.07195541
83	0xbdafd81b	-0.08586141
84	0xbd318112	-0.04333598
85	0x3e178f92	0.14800861
86	0x3d82ebcd	0.06392632
87	0x3e123196	0.14276728
88	0x3daf8621	0.08570505
89	0x3e4b8cd2	0.19877937
90	0x3d4923a9	0.049106274
91	0x3e667ae1	0.22507812
92	0x3e1680be	0.14697549
93	0x3e23de2e	0.16002724
94	0x3e33ad58	0.17546594
95	0x3e6a0d07	0.22856532
96	0xbdbb608e	-0.09149276
97	0x3d20c997	0.03925475
98	0x3e0697a0	0.13143778
99	0xbd92b7f0	-0.071639895
100	0x3e55b69d	0.20870443
101	0x3d49f7e0	0.049308658
102	0x3e6418fc	0.22275156
103	0xbc68f163	-0.014217707
104	0xbd4c2cba	-0.049847342
105	0x3dfcabbe	0.12337445
106	0x3d06f25a	0.03294597
107	0x3de0223b	0.10944029
108	0xbe03f478	-0.12886226
109	0xbc23a10d	-0.009987128
110	0xbd377e1a	-0.044797994
111	0xbdf6ba50	-0.12047255
112	0x3e83c94a	0.2573951
113	0xbdc733ac	-0.097266525
114	0x3e81635b	0.25271115
115	0xbd4426c1	-0.04788852
116	0x3d8b5e91	0.068051465
117	0xbe05c014	-0.13061553
118	0x3de92108	0.11383253
119	0xbe32a58e	-0.17445967
120	0x3e0297d8	0.12753236
121	0xbd0d3681	-0.034475807
122	0xbcfbbec8	-0.03073062
123	0xbc6d96c1	-0.014501275
124	0xbda9fa9c	-0.08299753
125	0x3d9acc17	0.07558458
126	0xbe2254eb	-0.15852706
127	0xbd9cf774	-0.076643854
128	0x3de47001	0.111541755
129	0xbddf37a9	-0.10899288
130	0x3c36bed9	0.0111539
131	0xbd7396eb	-0.0594701
132	0x3dd3734c	0.103247255
133	0xbb1a917f	-0.0023585258
134	0xbd1d88fd	-0.03846072
135	0xbd1ef697	-0.038809385
136	0xbe21220d	-0.15735646
137	0xbe09116b	-0.1338555
138	0xbdce888b	-0.10084637
139	0xbe178ebd	-0.14800544
140	0x3dc97cdf	0.098382704
141	0xbe78f46e	-0.24311993
142	0x3ca57f8a	0.020202417
143	0x37e5d462	2.7397826e-05
144	0xbde26e8b	-0.11056241
145	0xbe39d644	-0.18148142
146	0xbe23cded	-0.15996523
147	0x3d5300f7	0.051514592
148	0xbe199739	-0.14999093
149	0x3d7f7fab	0.062377613
150	0x3cc97bd7	0.024595184
151	0xbe3c1964	-0.18369061
152	0x3dda1534	0.106485754
153	0x3cb6d9ae	0.022320595
154	0x3ddec4cb	0.10877379
155	0x3d6078a5	0.054802556
156	0x3cc097c5	0.02350987
157	0xbe380dd1	-0.1797402
158	0xbe30fe1d	-0.17284437
159	0xbe2b7903	-0.16745381
160	0xbdb79ea7	-0.089658074
161	0xbdab1826	-0.08354215
162	0xbdf5efa9	-0.12008602
163	0xbe0e0a4f	-0.1387112
164	0x3c1e27b4	0.009653021
165	0xbd9340ab	-0.07190069
166	0xbe156539	-0.14589395
167	0xbdabcf8d	-0.083891965
168	0xbd24e97f	-0.04026174
169	0xbe39f92a	-0.18161455
170	0xbe07255c	-0.13197845
171	0xbdee996b	-0.11650356
172	0xbd38b13e	-0.045090906
173	0xbd114b17	-0.035472002
174	0xbe78f34a	-0.24311557
175	0x3d17063a	0.036871172
176	0x3e0cfdfc	0.13768762
177	0xbd42b5fc	-0.047536835
178	0x3da21416	0.07913987
179	0xbe03471e	-0.12820098
180	0xbc0ddee3	-0.008659097
181	0x3debe9a8	0.11519176
182	0xbe7ada47	-0.24497329
183	0xbc8984d4	-0.01678697
184	0xbe167327	-0.14692365
185	0xbdeaec94	-0.11470905
186	0x3d0d45c4	0.03449036
187	0xbe1b1917	-0.1514629
188	0x3da00e07	0.078151755
189	0xbb3f8176	-0.0029221452
190	0xbe7d2e95	-0.24724801
191	0xbe450377	-0.19239603
192	0xbdfe268a	-0.124096945
193	0x3e1aa8e9	0.15103497
194	0xbd9382a6	-0.072026536
195	0x3e5bcf4e	0.21465799
196	0xbd8b79d6	-0.06810348
197	0x3e1b81ee	0.15186283
198	0xbd59273f	-0.053015944
199	0x3e419a14	0.18906432
200	0xbcf7a5a8	-0.030230358
201	0xbb7ea2e5	-0.0038854417
202	0xbe1642b9	-0.1467389
203	0x3d5e1c4e	0.054226212
204	0x3d2dd590	0.042439997
205	0xbb7def03	-0.0038747198
206	0xbcffc22c	-0.031220518
207	0x3e03ce3b	0.1287164
208	0xbd1b8afb	-0.03797434
209	0x3e652c26	0.22380123
210	0x3e35a013	0.17736845
211	0x3cbfa0e9	0.023392158
212	0x3e11822c	0.14209813
213	0xbde573f6	-0.112037584
214	0xbd3d32b8	-0.046190947
215	0xbbd578c3	-0.00651464
216	0x3d78ea8a	0.06077055
217	0x3e46b22d	0.19403906
218	0xbe18740e	-0.14888021
219	0xbd02e720	-0.0319587
220	0x3db1d7f7	0.0868377
221	0xbd12e49b	-0.035862546
222	0x3cbe4e44	0.02323068
223	0x3e5db56c	0.21651238
224	0x3e07cd49	0.13261904
225	0xbe53564b	-0.20638387
226	0xbda2437a	-0.079230264
227	0xbe47f4e5	-0.19527014
228	0x3ddc91ef	0.10770022
229	0xbd9e2c0d	-0.07723246
230	0xbe1e9c17	-0.15489231
231	0xbe0d59fd	-0.13803859
232	0xbdfaf903	-0.122545265
233	0xbd41100e	-0.04713445
234	0xbdaea2ce	-0.08527146
235	0x3db770d4	0.08957067
236	0xbe0faafd	-0.1403007
237	0xbd20cb24	-0.03925623
238	0xbb65f295	-0.0035087217
239	0x3de00b06	0.109396026
240	0xbe26c7ff	-0.1628723
241	0xbcfe4f0d	-0.031043554
242	0xbdee189d	-0.11625788
243	0x3d0d6d34	0.034527972
244	0xbb0d6f2e	-0.002158116
245	0xbdeea441	-0.11652423
246	0x3d9e376f	0.07725417
247	0xbdf519f4	-0.11967841
248	0x3d9a248a	0.075265005
249	0x3ddd75de	0.10813497
250	0x3e09b11a	0.13446465
251	0xbc25a98a	-0.010111222
252	0xbdeb28ef	-0.11482417
253	0xbe0d354e	-0.13789865
254	0xbdca4087	-0.09875589
255	0x3ddfdf4d	0.10931263

graph_transformer_layer.0.attention.Q.bias f4 [32]
0	0xbe86fcac	-0.26364648
1	0xbdc21583	-0.09476759
2	0x3e8df1ac	0.27723444
3	0x3e79295c	0.24332184
4	0x3daef9c2	0.08543731
5	0x3d5ebdf0	0.054380357
6	0x3e5da54c	0.21645087
7	0xbbd75b8c	-0.0065721925
8	0xbe97abd7	-0.2962329
9	0x3e8c2f69	0.2737992
10	0xbda5b9d1	-0.08092082
11	0xbe673dad	-0.22582121
12	0x3b3084ae	0.0026934552
13	0x3e18306d	0.14862223
14	0xbc7da610	-0.015481487
15	0x3db22052	0.08697571
16	0xbd0dcf0e	-0.03462129
17	0x3e39ff24	0.18163735
18	0x3cc82e12	0.02443603
19	0xbe83be5a	-0.25731164
20	0xbe239206	-0.15973672
21	0x3e26ae85	0.16277511
22	0xbdecd55b	-0.11564132
23	0xbe2da4b7	-0.16957365
24	0x3e6df128	0.23236525
25	0x3db2b269	0.08725435
26	0x3e983325	0.2972652
27	0xbcceb41e	-0.025232371
28	0xbe78bb92	-0.24290302
29	0xbe2460b4	-0.16052514
30	0xbe288a15	-0.16458924
31	0xbdce17aa	-0.10063107

graph_transformer_layer.0.attention.K.weight f4 [32, 32]
0	0xbd41a2ba	-0.04727433
1	0x3a512af6	0.0007979119
2	0xbd09258f	-0.033483084
3	0x39d5cf79	0.00040781105
4	0x3d3419cc	0.043969914
5	0xbdaad22c	-0.08340868
6	0x3e19573d	0.14974685
7	0xbd4b62fa	-0.04965494
8	0x3dcb45ef	0.09925448
9	0xbe799506	-0.24373254
10	0xbdbc24b8	-0.09186691
11	0xbda9218d	-0.082583524
12	0x3e3b611e	0.18298766
13	0x3d83e755	0.064406075
14	0x3d4073b8	0.046985358
15	0x3da9744f	0.08274137
16	0x3dea35f5	0.11436073
17	0x3df59443	0.11991169
18	0x3d6f4318	0.058413595
19	0x3e5da203	0.21643834
20	0x3dee7c3e	0.11644791
21	0xbd5bc9bb	-0.053659182
22	0xbc94f0e1	-0.018181266
23	0xbd112b86	-0.035441898
24	0x3d6eed54	0.058331802
25	0x3e31c5fa	0.17360678
26	0x3d64d633	0.05586834
27	0xbc8f184f	-0.017467646
28	0xbd9e706e	-0.07736288
29	0x3e2da687	0.16958056
30	0x3e7a8edb	0.24468558
31	0x3d52d4d3	0.051472496
32	0xbe4712e7	-0.19440804
33	0x3dcd260e	0.10017024
34	0x3d9e3f3f	0.07726907
35	0x3d4311a9	0.047624264
36	0x3e11fdbc	0.14256948
37	0xbd1c2d5d	-0.0381292
38	0xbe80bc5b	-0.25143704
39	0x3dd64b6d	0.10463605
40	0xbe33ffdc	-0.17578071
41	0xbc283cad	-0.0102683725
42	0xbe2bcdf3	-0.16777782
43	0xbd5f16eb	-0.054465216
44	0xbd89e727	-0.06733542
45	0xbe003f68	-0.12524188
46	0xbe3145f0	-0.17311835
47	0xbdbc850a	-0.09205063
48	0xbdbe6ac8	-0.09297711
49	0x3b84a5b4	0.0040480737
50	0x3c81f51f	0.015863953
51	0xbd3ca329	-0.04605404
52	0x3c217368	0.009854175
53	0xbd4f2e0c	-0.050581023
54	0xbe5858ef	-0.21127675
55	0x3bba2231	0.0056803455
56	0x3d2293a7	0.039691593
57	0x3ca75493	0.02042607
58	0xbe4f4efb	-0.20244972
59	0xbd8afb58	-0.06786221
60	0x3c6555c7	0.013997502
61	0xbe09d9df	-0.13462017
62	0xbe3c16b6	-0.18368039
63	0xbdf2dcd2	-0.118585244
64	0x3ba03a9b	0.004889799
65	0xbd6521ee	-0.05594056
66	0x3c9c8d31	0.019110294
67	0x3db92036	0.09039347
68	0x3d91e8eb	0.07124504
69	0x3dbbc2cf	0.09168016
70	0xbace6a70	-0.0015748274
71	0xbd3d66ad	-0.046240497
72	0xbcb2d64d	-0.021830702
73	0xbdd826a5	-0.10554246
74	0x3e5ba218	0.21448553
75	0xbdd93a0e	-0.10606776
76	0x3e4d6e17	0.20061527
77	0x3e21d9d6	0.15805754
78	0xbdce690b	-0.10078629
79	0x3e8221fd	0.25416556
80	0x3e6dc775	0.23220618
81	0xbc9b343f	-0.018945811
82	0x3a851a7f	0.0010154991
83	0xbd81b661	-0.06333614
84	0x3cd2d250	0.02573505
85	0xbd97d22b	-0.07413133
86	0xbd5ff240	-0.054674387
87	0x3e2b8020	0.16748095
88	0x3e1e1fc5	0.15441807
89	0x3e2eb94d	0.17062874
90	0xbd41a6aa	-0.047278084
91	0xbd4a229b	-0.04934941
92	0xbe270268	-0.16309512
93	0xbdd08540	-0.101816654
94	0x3bbbedd8	0.0057351403
95	0xbcd6df58	-0.026229545
96	0xbde74809	-0.112930365
97	0x3c2e98cd	0.010656548
98	0x3d4ba0e1	0.049713973
99	0xbe06edae	-0.13176605
100	0xbe2661d8	-0.16248262
101	0x3d91d632	0.07120933
102	0xbc75d8be	-0.015005289
103	0x3e7e3e96	0.24828562
104	0x3d16c2be	0.036806814
105	0x3d16aab8	0.036783904
106	0xbe20e663	-0.15712886
107	0x3da0f005	0.0785828
108	0xbe3fc79e	-0.18728492
109	0x3de213d7	0.110389404
110	0x3d85542e	0.065101966
111	0x3da8bbea	0.08238967
112	0xbd9b1a69	-0.07573397
113	0xbc9de7e6	-0.019275617
114	0x3e4a2321	0.19739963
115	0xbda05f35	-0.07830659
116	0x3d4d6eb8	0.050154418
117	0x3de7855d	0.11304734
118	0xbe159a89	-0.14609732
119	0xbdbf24c9	-0.09333188
120	0xbe308b72	-0.17240694
121	0xbc8bed6c	-0.017080985
122	0x3e2bb3d9	0.16767825
123	0xbe00a461	-0.12562706
124	0x3db87730	0.09007108
125	0xbd8f84fb	-0.07007786
126	0x3dbe84d4	0.09302679
127	0xbe16828b	-0.14698236
128	0xbccfe21b	-0.02537637
129	0xbd292283	-0.04129268
130	0xbcaa07f5	-0.020755747
131	0xbe2e0f74	-0.16998082
132	0xbe0be8b2	-0.13662985
133	0x3deb63af	0.114936225
134	0x3e05171a	0.12997094
135	0x3e09b776	0.13448891
136	0x3e0e3027	0.13885556
137	0x3d213608	0.03935817
138	0x3e096497	0.13417278
139	0x3e11b763	0.14230113
140	0xbd28341f	-0.04106533
141	0x3dca67da	0.09883089
142	0xbe6e15b6	-0.2325047
143	0x3e3c2787	0.18374453
144	0xbe166dc7	-0.14690314
145	0xbe2b795b	-0.16745512
146	0xbe646609	-0.22304548
147	0xbc6cb3fc	-0.0144472085
148	0x3dddcd56	0.1083018
149	0xbdd95d33	-0.106134795
150	0x3d3205ff	0.04346275
151	0x3d684233	0.056703757
152	0x3d9664d1	0.07343448
153	0x3e1a07db	0.15042059
154	0xbe0bff12	-0.1367152
155	0xbe1af1fd	-0.15131374
156	0x3e3ca685	0.18422897
157	0xbd638713	-0.05554874
158	0xbe10f302	-0.141552
159	0x3d460aa0	0.048349977
160	0x3d9d97c4	0.076949626
161	0x3dd10be4	0.10207346
162	0xbd0ae152	-0.03390629
163	0xbdf13282	-0.11777212
164	0x3a9decc4	0.0012048711
165	0xbcf80a4c	-0.030278347
166	0x3e73043f	0.23732089
167	0x3d8d4499	0.068978496
168	0x3968a2b8	0.00022185862
169	0x3e195466	0.14973602
170	0x3e724eb8	0.23662841
171	0xbdd2438a	-0.10266788
172	0x3c9ecf00	0.019385815
173	0x3e01463e	0.12624452
174	0x3e27f7e8	0.16403162
175	0x3e66f39d	0.22553869
176	0x3e0bc567	0.13649522
177	0x3d81920c	0.06326684
178	0xbe533a6f	-0.2062776
179	0x3d82bd22	0.063837305
180	0x3dff27f9	0.12458796
181	0x3e2469b0	0.16055942
182	0x3db67757	0.08909481
183	0x3c20fdab	0.009826104
184	0x3de7bd47	0.11315399
185	0x3dbdbc2e	0.09264408
186	0xbda945cb	-0.08265265
187	0x3d340c59	0.04395709
188	0x3e41591a	0.18881646
189	0xbd5416cb	-0.05177955
190	0x3e0c7c83	0.13719372
191	0xbe16d6dc	-0.147304
192	0xbe020e29	-0.12700714
193	0xbccbd1c9	-0.024880307
194	0x3e524a7c	0.20536226
195	0x3e0da10c	0.13830966
196	0xbd32bb25	-0.043635506
197	0xbd55d133	-0.05220146
198	0x3e0f6616	0.14003786
199	0xbd34e5bb	-0.0441644
200	0x3e16ae33	0.14714889
201	0xbd4decf1	-0.050274793
202	0x3e384716	0.17995867
203	0x3dbdeb3f	0.09273385
204	0x3dc298cc	0.095018
205	0xbd0c579a	-0.03426323
206	0xbd5236cc	-0.05132179
207	0x3e2b797b	0.1674556
208	0xbda1a625	-0.07893018
209	0xbde259ca	-0.11052282
210	0x3d8fb5c0	0.07017088
211	0x3ba2ea8b	0.0049718074
212	0xbd319777	-0.04335734
213	0x3bcc7719	0.0062397835
214	0x3cb764e2	0.022386972
215	0xbdc35ef6	-0.09539597
216	0xbe2aa23d	-0.16663451
217	0xbd0d85ad	-0.03455131
218	0x3e15344e	0.14570734
219	0xbc5349b6	-0.012895992
220	0x3d09ed89	0.033673797
221	0x3e29fad7	0.16599594
222	0x3da4a034	0.08038369
223	0xbdbbffcb	-0.09179648
224	0x3dcd934c	0.1003786
225	0xbdb36825	-0.08760098
226	0x3e17b1a1	0.14813854
227	0xbe09b34e	-0.13447306
228	0x3dab7fc9	0.083739825
229	0xbdfa9631	-0.12235678
230	0xbdc8f783	-0.09812834
231	0xbc29690a	-0.010339985
232	0x3e32f62e	0.17476723
233	0xbd835c46	-0.06414084
234	0xbddd26d3	-0.10798421
235	0xbcc4cbe2	-0.024023
236	0xbd6e79b9	-0.058221553
237	0xbda8b475	-0.082375444
238	0xbe4ac6d2	-0.19802406
239	0x3dc5c014	0.096557766
240	0xbddd2c2c	-0.10799441
241	0x3d65516c	0.055985853
242	0xbd9da159	-0.0769679
243	0xbdf2e3e2	-0.118598714
244	0x3e23d831	0.16000439
245	0xbd86f26c	-0.06589207
246	0xbe243fcd	-0.16039963
247	0xbe10d6da	-0.1414446
248	0x3e0c9818	0.13729894
249	0x3e5d71ca	0.21625438
250	0x3d830e0c	0.063991636
251	0x3da2e5a6	0.07953958
252	0xbd917b8c	-0.07103643
253	0x3e303e10	0.17211175
254	0x3e0becd2	0.13664559
255	0xbd60fdc4	-0.05492951

graph_transformer_layer.0.attention.K.bias f4 [32]
0	0x3d8f2591	0.06989587
1	0x3d58f577	0.05296847
2	0x3d00fe2d	0.0314924
3	0x3e0a39b1	0.1349857
4	0x3dc58283	0.09644034
5	0xbdd6bd90	-0.10485375
6	0xbde385d4	-0.1110951
7	0x3cb60791	0.022220405
8	0x3e62c421	0.2214513
9	0xbe06f901	-0.13180925
10	0x3d9509d2	0.07277264
11	0x3bd93664	0.0066287983
12	0x3e452936	0.19254002
13	0x3e813820	0.25238132
14	0x3e5a119f	0.21295784
15	0xbdacfc8c	-0.08446607
16	0xbd1b5d2c	-0.037930652
17	0xbe536103	-0.20642476
18	0x3dba77ec	0.091049045
19	0xbcd27079	-0.025688397
20	0xbc428e35	-0.011874725
21	0xbdae05b9	-0.08497185
22	0x3e0ae252	0.13562897
23	0xbe442529	-0.191548
24	0x3d4b46cf	0.049628075
25	0xbbfabe68	-0.0076520927
26	0xbe163fde	-0.14672801
27	0xbd903e8a	-0.070431784
28	0x3dd0ab5c	0.10188934
29	0xbe0edd5e	-0.13951632
30	0x3d8697ff	0.0657196
31	0xbd8c6884	-0.06855872

graph_transformer_layer.0.attention.V.weight f4 [32, 32]
0	0xbe34cb8e	-0.17655775
1	0xbd82bdc3	-0.063838504
2	0xbe31cc10	-0.17363
3	0xbe1cc819	-0.15310706
4	0xbd889ce4	-0.066705495
5	0xbdab06b5	-0.08350889
6	0xbd3f4a14	-0.046701506
7	0xbe000462	-0.12501672
8	0xbb3f3398	-0.002917504
9	0xbd4d5f62	-0.050139792
10	0xbcb346b0	-0.021884292
11	0x3c3326c9	0.01093454
12	0x3e04b51f	0.12959717
13	0x3c11dfca	0.008903453
14	0xbd18bdd7	-0.03729042
15	0xbe14dfe3	-0.14538531
16	0xbe304ec8	-0.17217553
17	0xbdc515ae	-0.09623276
18	0x3df05db1	0.1173662
19	0x3d216cbd	0.03941034
20	0x3d613b1b	0.054988008
21	0xbbb50497	-0.005524229
22	0x3d90be4d	0.07067547
23	0xbe2e553f	-0.17024706
24	0xbc9c2313	-0.019059693
25	0xbd8a8a89	-0.06764705
26	0x3afa7ebd	0.0019111257
27	0x3d92a024	0.07159451
28	0x3db0dfaa	0.086364105
29	0xbda74186	-0.081667945
30	0x3e13245e	0.14369342
31	0xbd1282ba	-0.0357692
32	0xbdf414ab	-0.119180046
33	0x3c9aa0eb	0.01887556
34	0xbd3d789f	-0.04625761
35	0xbd35db3e	-0.04439854
36	0x3e0f35c6	0.13985357
37	0xbcc2d278	-0.023782
38	0x3e03cbe5	0.12870748
39	0xbdb46d45	-0.08809904
40	0xbcc03607	-0.023463262
41	0xbd2e36f8	-0.04253289
42	0x3e64d741	0.22347738
43	0xbdd4e68a	-0.10395534
44	0x3cd5de95	0.026107112
45	0x3cf55d94	0.029951848
46	0x3cbc3a3e	0.02297699
47	0x3e27f800	0.16403198
48	0x3d7b7b02	0.061396606
49	0xbdc6d132	-0.097078696
50	0xbb42d835	-0.002973092
51	0xbe03d6c8	-0.12874901
52	0x3d3555ca	0.044271268
53	0x3de6b62c	0.11265215
54	0xbd68833e	-0.056765787
55	0x3df758dd	0.12077496
56	0x3e36cb2a	0.17850938
57	0x3dbb90fc	0.09158513
58	0x3c68482c	0.014177363
59	0xbd3f3654	-0.04668267
60	0xbc9dd91a	-0.019268561
61	0xbd35d669	-0.04439393
62	0x3dc83213	0.09775176
63	0xbd9f36d2	-0.07774128
64	0x3c82092e	0.015873518
65	0x3d018624	0.031622067
66	0x3e133532	0.14375761
67	0xbcba75c3	-0.022761231
68	0xbcca7f53	-0.024718916
69	0xbcf44993	-0.02982024
70	0x3e5f9cd2	0.21837166
71	0xbe1dab13	-0.15397291
72	0xbe00729b	-0.12543719
73	0xbe09acb3	-0.13444786
74	0x3ce2509b	0.027626326
75	0x3d6fbe57	0.05853113
76	0x3cf55cac	0.029951416
77	0xbcdb106b	-0.026741227
78	0xbdcd0e79	-0.10012526
79	0x3dbeb928	0.093126595
80	0x3cf16577	0.029467328
81	0x3deeccad	0.116601326
82	0x3d905f81	0.07049466
83	0x3dd20dac	0.10256514
84	0xbdfaa209	-0.12237937
85	0xbe5bb441	-0.2145548
86	0xbb25cb13	-0.0025298044
87	0x3bd49667	0.006487656
88	0x3e4e5837	0.20150839
89	0xbde55969	-0.11198694
90	0x3dfaffe9	0.12255842
91	0xbd6b483a	-0.057441927
92	0xbe1c72e3	-0.15278201
93	0x3d991e1c	0.07476446
94	0x3db8aaf0	0.09016979
95	0x3d6e52d5	0.058184464
96	0xbd449784	-0.04799606
97	0xbe1761cc	-0.147834
98	0xbe2aa34a	-0.16663852
99	0xbe026d5c	-0.1273703
100	0x3d4cafb6	0.04997226
101	0x3e0c8412	0.13722256
102	0x3e009a82	0.1255894
103	0xbcaeb674	-0.021327235
104	0xbd953741	-0.072859295
105	0xbdc2eabf	-0.095174305
106	0xbde1ea53	-0.11031022
107	0x3dbcbf5a	0.09216185
108	0x3e7715ec	0.24129456
109	0xbd8d6cfe	-0.06905554
110	0xbdacf2e5	-0.08444766
111	0xbe174cc5	-0.14775379
112	0x3d6d597c	0.057946667
113	0x3d9c134b	0.07620867
114	0xbe599dcf	-0.21251605
115	0x3e3dc030	0.18530345
116	0x3dad6326	0.08466177
117	0xbc7cfc94	-0.015441079
118	0xbe3db751	-0.18526961
119	0xbe37c433	-0.17945938
120	0xbdee8095	-0.11645619
121	0x3cf2ed36	0.029654127
122	0xbe32bafb	-0.1745414
123	0x3d396b8e	0.045268588
124	0xbde420cf	-0.1113907
125	0xbcc3fcbf	-0.02392423
126	0x3b0b8e3f	0.0021294502
127	0xbd627012	-0.05528266
128	0x3daa0cc4	0.08303216
129	0x3d341159	0.043961857
130	0xbe3030f3	-0.17206173
131	0x3c6f6cec	0.014613371
132	0x3c30c359	0.010788762
133	0xbbeac38c	-0.0071644243
134	0xbe0867a1	-0.13320781
135	0xbd2d5d7e	-0.04232549
136	0x3daf80b9	0.08569474
137	0x3d9bb688	0.076031744
138	0xbe454cc5	-0.19267567
139	0x3d0adcc3	0.03390194
140	0x3c8f161b	0.017466595
141	0xbd8111da	-0.06302233
142	0x3e280d4d	0.16411324
143	0xbdfa7c96	-0.12230794
144	0xbe38376d	-0.17989893
145	0xbc3a22e0	-0.011360854
146	0x3e106fcc	0.14105147
147	0xbbb15999	-0.005412292
148	0x3d5baf1f	0.053633805
149	0xbd39d72d	-0.045371223
150	0xbdb9b506	-0.090677306
151	0xbe14a907	-0.14517604
152	0x3d29a2fe	0.041415207
153	0x3da9e45b	0.082955085
154	0x3d25623c	0.040376887
155	0xbc34833e	-0.011017619
156	0x3e0bb027	0.13641416
157	0x3da61313	0.08109107
158	0xbe3f330f	-0.18671821
159	0x3dcf3635	0.10117761
160	0xbbb09698	-0.005389046
161	0x3d9be684	0.07612327
162	0xbd8232d7	-0.06357353
163	0x3d85b31e	0.065283045
164	0xbda2b9c0	-0.07945585
165	0x3dc588b9	0.096452184
166	0x3e11fb7f	0.14256094
167	0xbdacf8bc	-0.0844588
168	0xbe49b0b4	-0.19696313
169	0xbd09459c	-0.03351365
170	0x3d5a262a	0.053259052
171	0xbe10f457	-0.14155708
172	0x3c47e300	0.012200117
173	0x3e178470	0.14796615
174	0xbe55b261	-0.20868827
175	0x3e34f359	0.17670955
176	0x3cf06beb	0.029348334
177	0x3d666fa9	0.05625883
178	0x3b018ce5	0.0019767818
179	0x3dba6030	0.091003776
180	0x3dc1a0da	0.09454508
181	0xbdce2c8e	-0.10067092
182	0xbd5e62ca	-0.05429343
183	0x3d81930e	0.063268766
184	0xbd9bf930	-0.07615888
185	0x3de270f1	0.11056698
186	0xbe0932c2	-0.13398269
187	0x3d615086	0.055008434
188	0xbdd5a516	-0.10431878
189	0x3e59aad6	0.21256575
190	0x3e4aa716	0.197903
191	0xbda73764	-0.08164862
192	0xbd007946	-0.031365655
193	0x3e3536a3	0.17696624
194	0xbd43115e	-0.047623985
195	0xbdf99275	-0.121861376
196	0xbe3774f5	-0.1791571
197	0x3dc87e39	0.097897
198	0xbdf2be65	-0.11852721
199	0xbe051265	-0.12995298
200	0x3de7bf54	0.1131579
201	0x3df2765a	0.1183898
202	0xbe37269f	-0.17885827
203	0x3de938cb	0.113877855
204	0xbd634bb2	-0.05549211
205	0x3d27cbbf	0.04096579
206	0xbbac9e72	-0.0052679116
207	0xbdefadb4	-0.11703053
208	0x3df5d898	0.120042026
209	0xbd80be23	-0.06286266
210	0x3e6bd7ac	0.23031491
211	0x3dc2fb58	0.09520596
212	0xbdc72ff9	-0.09725947
213	0x3da889d1	0.082294114
214	0xbda9ee68	-0.082974255
215	0xbe033f4c	-0.12817115
216	0xbe48aefe	-0.19598004
217	0xbd27b376	-0.04094263
218	0xbd2b6825	-0.041847367
219	0x3d70a098	0.058746904
220	0x3d0cc809	0.034370456
221	0x3d96847a	0.07349487
222	0xbe2d5211	-0.16925837
223	0xbdbd9455	-0.09256808
224	0xbbb51dba	-0.0055272253
225	0xbe0ea47b	-0.13929932
226	0xbd832d3f	-0.064051144
227	0x3bb39ecf	0.005481578
228	0x3d0ac6ce	0.033881
229	0xbde7c486	-0.11316781
230	0x3d8161e9	0.06317503
231	0x3d42a7b5	0.04752322
232	0x3dcabd92	0.09899439
233	0xbdf38398	-0.11890334
234	0x3d36800f	0.04455572
235	0xbca4b065	-0.020103643
236	0x3ccce70a	0.025012512
237	0x3cdea9a9	0.02718051
238	0xbdeea338	-0.11652225
239	0xbe272b06	-0.16325006
240	0xbdbc390a	-0.09190567
241	0xbe1f6547	-0.15565978
242	0x3c2ceb93	0.010554212
243	0xbda95790	-0.08268654
244	0xbe3e62dd	-0.18592401
245	0xbe6e6f60	-0.23284674
246	0xbda7fdf7	-0.08202737
247	0x3ca5e84b	0.020252367
248	0xbe434060	-0.19067526
249	0xbc68475e	-0.0141771715
250	0xbe051356	-0.12995657
251	0x3dbe6b59	0.09297819
252	0xbdc2b871	-0.09507836
253	0xbe42f087	-0.19037066
254	0xbdc4e8a2	-0.09614684
255	0xbc8007eb	-0.015628776

graph_transformer_layer.0.attention.V.bias f4 [32]
0	0xbcb7d1bf	-0.022438882
1	0x3c0a1c19	0.008429551
2	0x3d8fb99c	0.07017824
3	0x3c718556	0.014741262
4	0xbdee904f	-0.116486184
5	0x3dfc0b0b	0.12306794
6	0xbbb1d36e	-0.0054268157
7	0x3dad19f8	0.08452219
8	0x3d5c47c2	0.05377937
9	0xbcefd3a6	-0.029275727
10	0x3d845017	0.064605884
11	0xbde740e7	-0.11291676
12	0xbdef1092	-0.116730824
13	0xbddca0b3	-0.107728384
14	0x3d94552a	0.07242806
15	0xbe65f247	-0.22455703
16	0x3d1294b8	0.03578636
17	0x3d25e4f6	0.040501557
18	0x3c7d1555	0.0154469805
19	0xbe61a076	-0.22033867
20	0x3cf93be6	0.03042407
21	0xbc350623	-0.011048826
22	0x3d1f725e	0.03892743
23	0x3dd7545d	0.10514138
24	0x3db053e7	0.08609753
25	0x3d2ce47c	0.042210087
26	0x3b2ab144	0.00260456
27	0xbdaa2e8e	-0.08309661
28	0x3b92ec52	0.004483738
29	0x3e075d47	0.13219176
30	0x3da8d063	0.082428716
31	0xbca58dec	-0.020209275

graph_transformer_layer.0.attention.proj_e.weight f4 [32, 32]
0	0x3e723390	0.23652482
1	0x3d747e69	0.059690867
2	0x3dd53c1e	0.10411857
3	0xbdb14894	-0.08656421
4	0xbe068eb5	-0.13140376
5	0x3e5bef3d	0.21477981
6	0x3e506a44	0.20353037
7	0xbd2add49	-0.04171494
8	0x3d5d556e	0.05403655
9	0xbdcd4ff1	-0.10025013
10	0x3dc99636	0.098431036
11	0x3e46a188	0.19397557
12	0x3c59d027	0.013294256
13	0x3dc3556c	0.09537777
14	0xbd955bd2	-0.07292904
15	0x3d9342e1	0.071904905
16	0x3e432570	0.1905725
17	0x3e1b5fc3	0.15173249
18	0x3dd798b6	0.10527174
19	0xbe151f75	-0.14562781
20	0xbd8bd8a4	-0.0682843
21	0x3e7f20ad	0.24914809
22	0x3c64e8d6	0.013971528
23	0xbde50825	-0.11183194
24	0x3d93c43b	0.07215162
25	0xbd449007	-0.047988918
26	0xbcf21896	-0.02955274
27	0x3e55d7b9	0.20883073
28	0x3e026e4f	0.12737392
29	0xbdc27d52	-0.09496559
30	0x3e7830c4	0.24237353
31	0x3e045a8a	0.12925163
32	0x3e017e14	0.12645751
33	0x3e3714a9	0.17878975
34	0xbd104c13	-0.0352288
35	0xbd173bb0	-0.036922157
36	0xbcf4a5e2	-0.029864255
37	0x3db8d52c	0.09025034
38	0x3e07aa50	0.13248563
39	0x3db1d2db	0.086827956
40	0x3e373774	0.17892247
41	0x3e5e4eb0	0.21709704
42	0xbdeedce6	-0.11663227
43	0xba5af361	-0.00083523063
44	0x3e2696ce	0.16268465
45	0x3d66453b	0.056218367
46	0xbe3433d8	-0.17597902
47	0xbd0fb873	-0.035088014
48	0xbd0fdfad	-0.035125423
49	0x3e2ea4b2	0.17055014
50	0x3d892184	0.06695846
51	0x3d4586f4	0.048224404
52	0xbdd2476d	-0.1026753
53	0xbe1f2b7a	-0.15543929
54	0x3dd40416	0.10352342
55	0xbdd635f9	-0.10459513
56	0xbe11a35b	-0.14222471
57	0x3cee21e9	0.029068904
58	0xbbe4f633	-0.006987357
59	0xbdea5ec6	-0.11443858
60	0x3e1cc75c	0.15310425
61	0x3e05c42d	0.13063116
62	0x3e11315c	0.14178985
63	0x3d8398ad	0.06425605
64	0xbc769ea4	-0.015052471
65	0x3db7d4c9	0.089761324
66	0x3df0177a	0.11723228
67	0x3d206b6f	0.039164957
68	0x3e36640d	0.17811604
69	0xbe50d946	-0.20395383
70	0xbd1453b3	-0.036212634
71	0xbd06f512	-0.03294856
72	0x3d0e9bbc	0.03481649
73	0x3e67358e	0.22579023
74	0xbccf580c	-0.025310539
75	0xbe158ed4	-0.14605266
76	0x3e433e9f	0.19066857
77	0x3c2e5bb8	0.010641985
78	0xbdc9753e	-0.09836815
79	0xbd860653	-0.06544175
80	0xbddf65de	-0.109081015
81	0xbe13c176	-0.14429268
82	0xbe23f4be	-0.1601133
83	0xbd84fbb1	-0.06493319
84	0x3e13621a	0.14392892
85	0x3dca3702	0.09873773
86	0xbdb206ca	-0.08692701
87	0x3d248c32	0.040172763
88	0x3cee71f0	0.029107064
89	0x3d93d913	0.07219138
90	0x3e3afa04	0.18259436
91	0xbd781487	-0.06056645
92	0xbe2e2fa9	-0.17010368
93	0x3dc745b1	0.097300895
94	0x3cbd5477	0.023111565
95	0xbe4e4d79	-0.20146741
96	0xbe49ae95	-0.19695504
97	0x3e0f5eb7	0.14000975
98	0x3e07032d	0.13184805
99	0xbd8f61c3	-0.070010684
100	0xbdb214cb	-0.08695372
101	0xbdc34c81	-0.09536076
102	0x3e01bf24	0.1267057
103	0xbe4fb77a	-0.20284835
104	0x3e07c1f4	0.13257581
105	0xbdd23382	-0.102637306
106	0x3e3fc27e	0.18726537
107	0x3e11b115	0.14227708
108	0x3c48d005	0.012256627
109	0xbd9c00c4	-0.076173335
110	0x3dfb1cba	0.122613385
111	0x3e5f877a	0.21829024
112	0x3e805ef2	0.25072438
113	0x3d9ed4c9	0.07755429
114	0xbdd02493	-0.10163226
115	0xbdb24448	-0.0870443
116	0xbe4f29f6	-0.2023085
117	0xbde6091e	-0.11232208
118	0x3e0b2e4e	0.13591883
119	0x3d2acff6	0.041702233
120	0xbca0181a	-0.019542743
121	0xbdf451c3	-0.11929657
122	0x3d7a8857	0.06116518
123	0xbda602de	-0.081060156
124	0x3dc5189c	0.096238345
125	0x3d8a5302	0.06754114
126	0xbd8a976d	-0.067671634
127	0x3e6a8c65	0.22905119
128	0x3e1f084a	0.15530506
129	0x3dc57a8e	0.09642516
130	0xbe0ded9d	-0.13860174
131	0xbe418e8a	-0.1890203
132	0xbd6a28ed	-0.057167936
133	0xbd8dc99d	-0.0692322
134	0x3d415dc4	0.047208562
135	0x3dd9a904	0.1062794
136	0x3c8e34e3	0.017359203
137	0xbe5a472a	-0.2131621
138	0xbcdae236	-0.026719194
139	0xbd914364	-0.07092932
140	0xbcc09ca1	-0.023512186
141	0x3c745f2e	0.014915271
142	0x3caee419	0.021349
143	0x3dadd794	0.08488384
144	0xbd9ce69b	-0.07661172
145	0xbb263ff6	-0.0025367714
146	0xbcaf5dd3	-0.021407044
147	0xbd88dfae	-0.066832885
148	0xbda4ea31	-0.08052481
149	0xbe041b94	-0.12901145
150	0x3dac7ee1	0.08422638
151	0xbe492a37	-0.1964501
152	0xbdc9e0ed	-0.09857354
153	0xbbd81a8e	-0.0065949624
154	0x3df07ed2	0.11742939
155	0x3d9e3095	0.0772411
156	0xbe0c6e95	-0.13714059
157	0xbdd5021f	-0.10400795
158	0x3dfe30a4	0.12411621
159	0x3d38589a	0.045006372
160	0xbcba8a44	-0.022771008
161	0xbe33db96	-0.17564234
162	0x3d2d4d6b	0.04231016
163	0xbe3aac32	-0.1822975
164	0xbdefd7cb	-0.11711081
165	0xbd906074	-0.07049647
166	0xbd5fad7e	-0.054608814
167	0xbe526002	-0.20544437
168	0xbe282f20	-0.16424227
169	0xbe133a3b	-0.14377682
170	0xbe23ccca	-0.1599609
171	0x3d237a3b	0.03991149
172	0xbe4749c1	-0.19461729
173	0x3dc44480	0.09583378
174	0x3e097f71	0.13427521
175	0x3de3d413	0.11124434
176	0xbd647963	-0.055779826
177	0xbd9ad234	-0.07559624
178	0xbd850a16	-0.06496064
179	0xbd65373a	-0.05596087
180	0xbdc9e42c	-0.098579735
181	0x3a867807	0.001025916
182	0xbe311e63	-0.17296748
183	0x3dee0c00	0.116233826
184	0x3d5a1909	0.05324653
185	0xbcdcae5f	-0.026938615
186	0x3d947e70	0.072506785
187	0x3da64f62	0.0812061
188	0xbc2a62b7	-0.010399512
189	0x3d0ab7c1	0.033866648
190	0xbe086bf7	-0.13322435
191	0x3dadcb06	0.08485989
192	0xbd0c36d9	-0.034231994
193	0xbdce8f34	-0.100859076
194	0x3e2741eb	0.1633374
195	0x3e6e5644	0.23275095
196	0x3e53dfef	0.20690893
197	0xbd9db1d1	-0.076999314
198	0xbd9b8943	-0.0759454
199	0x3ba3f1c6	0.005003187
200	0xbcc1cfe4	-0.0236587
201	0x3e4e8803	0.20169072
202	0xbd15e8aa	-0.03659884
203	0x3e42d63c	0.19027036
204	0x3dedc475	0.11609737
205	0x3d4f5a44	0.050623193
206	0xbdb64339	-0.088995405
207	0x3e51c22f	0.20484231
208	0x3e0aaa83	0.13541608
209	0x3d2d005f	0.042236682
210	0xbd45b1c7	-0.048265245
211	0x3e78104b	0.24224965
212	0x3e28a6b9	0.1646985
213	0xbcca69e9	-0.024708705
214	0x3dcc8729	0.09986717
215	0x3dc8e68c	0.09809598
216	0x3d81434c	0.06311664
217	0x3dd86dbc	0.10567805
218	0xbdea4023	-0.11438014
219	0xbd071fd5	-0.03298934
220	0x3d00b0e1	0.031418685
221	0x3e2d252c	0.16908711
222	0x3d2e30ff	0.042527195
223	0x3e225d00	0.15855789
224	0xbd4bbbe4	-0.049739733
225	0xbce40df7	-0.02783869
226	0xbd2ee8b8	-0.042702407
227	0xbe1e487d	-0.1545734
228	0x3d102c1e	0.035198323
229	0xbdc01abb	-0.093800984
230	0x3e0c27d1	0.13687064
231	0x3d969120	0.07351899
232	0x3dc0b012	0.09408583
233	0xbe5ef66d	-0.21773691
234	0xbe14adac	-0.14519376
235	0x3d0e554f	0.034749325
236	0xbe0a300e	-0.13494894
237	0xbdba1180	-0.09085369
238	0xbe3b9e09	-0.18322004
239	0xbe17b423	-0.1481481
240	0x3e44b5f7	0.19210039
241	0x3dac2efe	0.084074005
242	0x3dac1a4e	0.08403455
243	0xbe13b49e	-0.14424369
244	0xbc5ca53e	-0.013467131
245	0xbdda09b6	-0.106463835
246	0xbe22b100	-0.15887833
247	0xbe1428a3	-0.14468627
248	0xbe50edfd	-0.20403285
249	0x3e7e4bcd	0.24833603
250	0x3d5bd07f	0.053665634
251	0xbcd932fc	-0.026513569
252	0x3d4600fe	0.04834079
253	0xbd6f0d64	-0.05836238
254	0xbd48cf77	-0.04902598
255	0x3deb6884	0.11494544

graph_transformer_layer.0.attention.proj_e.bias f4 [32]
0	0x3d95634e	0.072943315
1	0xbdf244fc	-0.11829564
2	0xbdb19dc0	-0.086726665
3	0x3e21e2bc	0.15809149
4	0xbe298900	-0.16556168
5	0xbe3caa41	-0.18424322
6	0xbd9b49a9	-0.07582409
7	0x3d8ef33e	0.069799885
8	0xbd201e29	-0.039091263
9	0x3e3172f4	0.17329007
10	0x3df3815a	0.11889906
11	0x3c99e33f	0.018785117
12	0xbe2e8a79	-0.1704501
13	0x3d510d7d	0.051038254
14	0x3e5e448d	0.21705838
15	0x3c9ee475	0.019396046
16	0xbd92e227	-0.071720414
17	0x3cab2c65	0.020895192
18	0xbd9f430d	-0.07776461
19	0xbd77c840	-0.060493708
20	0x3e1dc0ed	0.15405627
21	0x3e19871e	0.1499295
22	0xbe383aa0	-0.17991114
23	0x3c9eb7fc	0.01937484
24	0x3e06c41d	0.13160749
25	0x3cf45b62	0.029828731
26	0x3c30874b	0.010774444
27	0x3c104020	0.008804351
28	0x3c958012	0.018249545
29	0xbe388d7e	-0.18022725
30	0x3c53edfb	0.012935157
31	0xbe17a52e	-0.14809105
