checkpoints/casp15_inhouse_top_v8_fold5.ckpt (torch, 659551 bytes, 315 tensors)

resnet_embedding.node_embedding.weight f4 [32, 25]
0	0x3dadbf2d	0.084837295
1	0xbe18a810	-0.14907861
2	0xbc751e07	-0.014960772
3	0x3e3a3d14	0.18187362
4	0xbc6e4219	-0.014542126
5	0x3e651d35	0.22374423
6	0x3e870e25	0.2637798
7	0x3c939c84	0.018018968
8	0x3d9bf316	0.07614724
9	0xbd9d95c5	-0.07694582
10	0xbe898329	-0.2685788
11	0xbdb5fc90	-0.08886063
12	0x3d84938c	0.06473455
13	0x3ce0a394	0.02742175
14	0x3e1eeb8f	0.15519546
15	0x3c7f9486	0.015599376
16	0x3e395d32	0.18101957
17	0x3dfdc75f	0.12391543
18	0x3c24eeb4	0.010066677
19	0xbc9402a9	-0.018067675
20	0x3d0e4c38	0.034740657
21	0x3c90987f	0.01765084
22	0x3abcab81	0.0014394374
23	0xbdd5a69c	-0.10432169
24	0x3dba15fc	0.090862244
25	0xbd7d07b5	-0.061774928
26	0xbe238eb8	-0.15972412
27	0x3dac9667	0.084271245
28	0xbe4bbad4	-0.19895488
29	0xbcd4e48e	-0.02598789
30	0x3ddb9e0f	0.10723507
31	0x3e2ca58c	0.16860026
32	0xbe0106c8	-0.12600243
33	0xbd345503	-0.044026386
34	0xbd2f8eb9	-0.04286072
35	0x3e8a7bc1	0.27047542
36	0xbe0a3ba1	-0.13499309
37	0x3e298347	0.16553985
38	0x3dd4f601	0.10398484
39	0xbd213ae6	-0.03936281
40	0x3b591570	0.003312435
41	0x3bc47e30	0.005996488
42	0x3dc0f22b	0.0942119
43	0x3cd25962	0.025677387
44	0xbd749d73	-0.059720468
45	0x3e0766ab	0.13222758
46	0xbcd49139	-0.025948154
47	0x3d052538	0.032506198
48	0x3e738b53	0.23783617
49	0xbe52be1a	-0.2058033
50	0xbd04919b	-0.032365423
51	0xbdf9c2c3	-0.12195351
52	0x3d623813	0.055229258
53	0x3e273d9f	0.163321
54	0x3e444a91	0.1916907
55	0xbe5c845b	-0.21534865
56	0xbe329734	-0.17440492
57	0xbdf6909a	-0.12039299
58	0x3d7ef2f9	0.062243436
59	0x3cf1ee20	0.029532492
60	0xbe0bf131	-0.13666226
61	0xbcc2bc43	-0.02377141
62	0xba90552d	-0.0011011712
63	0x3dea55b7	0.1144213
64	0x3e2170e6	0.15765724
65	0x3e08fd28	0.13377821
66	0x3e257901	0.1615944
67	0x3d37371d	0.044730294
68	0xbaae4afd	-0.0013297495
69	0x3d2a194d	0.041528035
70	0x3e493ab5	0.19651301
71	0xbcb690bf	-0.022285817
72	0xbe3d4101	-0.18481828
73	0x3e08ee0d	0.13372059
74	0xbd9e437d	-0.07727716
75	0xbd095657	-0.033529606
76	0x3df3cb7d	0.11904047
77	0x3e6c03a9	0.23048271
78	0x3d6c9e22	0.057767995
79	0x3d8d06b6	0.06886046
80	0xbdc42498	-0.09577292
81	0xbd471e58	-0.048612922
82	0xbe44d63a	-0.19222346
83	0xbd1ecf12	-0.038771696
84	0x3e40e66a	0.18837896
85	0x3d6e2abd	0.058146227
86	0xbe3c0759	-0.18362178
87	0xbe039814	-0.12850982
88	0x3e335487	0.17512713
89	0x3e355ba5	0.17710741
90	0x3da58ae1	0.0808313
91	0xbe09c994	-0.13455802
92	0x3da2f9ad	0.07957778
93	0xbd8534fa	-0.06504245
94	0x3cb80f23	0.022468155
95	0x3d9c65e4	0.076366216
96	0xbd48d8e1	-0.049034957
97	0xbe7b371b	-0.2453274
98	0x3ccb908e	0.024849202
99	0x3cb4a0a9	0.022049265
100	0x3dfdfe99	0.12402076
101	0xbce7c1ab	-0.02829059
102	0xbe281b4e	-0.16416666
103	0xbbc2c754	-0.005944172
104	0x3d64449c	0.055729493
105	0xbe9139ff	-0.2836456
106	0xbe433d2b	-0.19066302
107	0xbdbafa9a	-0.0912983
108	0x3d390d0d	0.04517846
109	0xbda031b2	-0.07821979
110	0xbe517294	-0.20453864
111	0xbdcd1b76	-0.100150034
112	0xbe1c570d	-0.15267582
113	0x3df5d716	0.12003915
114	0x3cc068fe	0.023487564
115	0xbccaeb70	-0.024770468
116	0x3e93c168	0.28858495
117	0x3d02b14d	0.03190737
118	0x3e1fe466	0.15614471
119	0xbd479767	-0.048728373
120	0x3c953fd8	0.01821892
121	0xbd14b682	-0.036306866
122	0x3c73d552	0.0148824025
123	0x3e3c6339	0.18397225
124	0x3e252577	0.16127573
125	0xbec09344	-0.37612355
126	0xbdb38075	-0.087647356
127	0xbe27c1de	-0.16382548
128	0xbe25dd97	-0.16197811
129	0x3db02625	0.086010255
130	0xbdcd26e7	-0.10017186
131	0x3d3f124e	0.046648316
132	0x3d5fa969	0.05460492
133	0xbe1c25ab	-0.15248744
134	0x3d064da3	0.032788884
135	0x3de6e4d6	0.11274116
136	0x3de7775e	0.11302064
137	0xbe047163	-0.12933879
138	0x3d121bb7	0.035670962
139	0x3cb39906	0.021923553
140	0x3bb1e6be	0.005429118
141	0x3caf0c4f	0.021368174
142	0x3cd52caa	0.026022274
143	0xbcb47775	-0.022029618
144	0x3ba32800	0.0049791336
145	0x3d64488f	0.05573326
146	0xbdd0f125	-0.10202245
147	0xbe50247d	-0.20326419
148	0x3e59ea74	0.21280843
149	0x3c450af2	0.012026535
150	0xbcc2a7bc	-0.023761623
151	0x3daf6c79	0.085656114
152	0xbe120af9	-0.14261998
153	0xbceafb4a	-0.028684277
154	0x3df116c2	0.11771919
155	0x3e9e4601	0.30912784
156	0x3e406822	0.18789724
157	0x3aa63b96	0.0012682553
158	0x3d8b7c4b	0.068108164
159	0xbe4545cf	-0.19264911
160	0xbdf8feff	-0.12158012
161	0xbde0ac1b	-0.109703265
162	0x3e84b7cc	0.25921476
163	0x3c6e7086	0.014553195
164	0x3c4ee87e	0.012628673
165	0x3c52abe5	0.012858366
166	0x3eabf24a	0.3358329
167	0x3d749edb	0.05972181
168	0xbcd8a9e1	-0.026448192
169	0x3d5351ff	0.05159187
170	0x3dd9e0de	0.10638593
171	0x3d57a6ec	0.052649423
172	0x3de2b147	0.11068969
173	0xbd83d66e	-0.064373836
174	0x3e158368	0.14600909
175	0xbdd2323e	-0.10263489
176	0xbcd98444	-0.026552327
177	0xbe5d07cf	-0.2158501
178	0x3e462313	0.19349317
179	0xbdb405b2	-0.08790149
180	0xbdbf3cbb	-0.09337755
181	0xbd0a1c9e	-0.033718698
182	0xbddbca66	-0.10731964
183	0xbdf22029	-0.1182254
184	0xbd188923	-0.03724016
185	0xbc9f1403	-0.019418722
186	0xbd4b54f1	-0.049641553
187	0xbdcb5860	-0.099289656
188	0x3e23802e	0.15966865
189	0xbe109513	-0.14119367
190	0x3d8abed4	0.06774679
191	0x3e2eea5a	0.17081586
192	0x3dd45576	0.10367863
193	0x3d96698a	0.07344349
194	0xbdb81d5b	-0.08989974
195	0x3d87d0c5	0.066316165
196	0x3dac4cda	0.08413096
197	0xbddc9023	-0.107696794
198	0x3e63afda	0.22235051
199	0x3d21324d	0.03935461
200	0xbe2a2cf6	-0.16618714
201	0x3e03f606	0.12886819
202	0x3df0c4ae	0.11756264
203	0x3d732d52	0.059369393
204	0x3d953d53	0.07287087
205	0x3cb2e98d	0.021839881
206	0x3c813887	0.015774025
207	0x3d5d6fd2	0.05406172
208	0x3d549175	0.05189653
209	0x3d6c62a0	0.057711244
210	0x3e23cf8a	0.15997139
211	0xbe1576ea	-0.14596143
212	0x3bb1fc61	0.0054316972
213	0xbe12db1f	-0.143414
214	0xbca860f7	-0.020554049
215	0xbd8780ca	-0.066163614
216	0x3cfa6040	0.030563474
217	0x3e02f80a	0.12789932
218	0xbe15fdbd	-0.14647575
219	0xbd9d8491	-0.07691301
220	0xbd888469	-0.0666588
221	0xbd6a4968	-0.057198912
222	0x3e2d63c9	0.16932596
223	0xbe0c3970	-0.13693786
224	0xbe2c162e	-0.16805336
225	0xbd297d4a	-0.04137925
226	0xbd90e306	-0.07074551
227	0x3de67c83	0.112542175
228	0xbd83cf1f	-0.064359896
229	0x3b8e7ee1	0.0043486212
230	0xbdf24844	-0.1183019
231	0xbe8eb355	-0.27871194
232	0xbceb6209	-0.02873327
233	0x3e183ebb	0.1486768
234	0xbd1b6cb7	-0.037945475
235	0xbdbbee11	-0.09176267
236	0xbd6f1816	-0.05837258
237	0x3e309f37	0.17248236
238	0xbde389d5	-0.11110274
239	0x3daad9ec	0.083423465
240	0x3e19b079	0.15008725
241	0x3d18af88	0.037276775
242	0x3dd95935	0.10612718
243	0xbd5393c7	-0.051654603
244	0xbe0b5258	-0.1360563
245	0xbd5fe600	-0.054662704
246	0x3e4321fe	0.19055936
247	0xbdd90740	-0.10597086
248	0xbded1bd7	-0.11577576
249	0x3ddd7df8	0.10815042
250	0xbd52d224	-0.051469937
251	0xbd593cad	-0.05303638
252	0x3d86b031	0.065765746
253	0xbdf46cf9	-0.119348474
254	0xbdd5124a	-0.10403879
255	0xbe044d8b	-0.12920205

resnet_embedding.node_embedding.bias f4 [32]
0	0x3e0d55fb	0.1380233
1	0xbe460a14	-0.19339782
2	0xbd6d7659	-0.057974193
3	0xbd9e6513	-0.07734122
4	0x3dadac0e	0.084800825
5	0xbde573d6	-0.112037346
6	0x3ba4724e	0.005018509
7	0xbdaa0bfc	-0.08303067
8	0xbd9c66fb	-0.076368295
9	0xbe351607	-0.17684184
10	0x3da7b185	0.08188156
11	0x3d9a85fe	0.07545088
12	0xbd430b2d	-0.04761808
13	0xbd33f8c6	-0.04393842
14	0xbd8a7fb3	-0.06762638
15	0xbd352cff	-0.044232365
16	0x3d6a1c4b	0.05715589
17	0xbdd2eff9	-0.102996774
18	0xbd8a263b	-0.06745573
19	0x3dc9b18b	0.09848317
20	0xbd838e99	-0.06423683
21	0x3b48d63b	0.003064527
22	0xbdb53179	-0.08847327
23	0x3e2eeb86	0.17082033
24	0xbcc943b9	-0.024568425
25	0xbe357717	-0.1772121
26	0x3d639b34	0.055567935
27	0x3ce6b0af	0.028160421
28	0xbe3e5626	-0.1858755
29	0xbd194c3f	-0.03742623
30	0x3e24c4a2	0.16090634
31	0xbdbcdec3	-0.09222176

resnet_embedding.bn_node.weight f4 [32]
0	0x3f52837d	0.82231885
1	0x3f848e36	1.0355899
2	0x3f848f98	1.0356321
3	0x3f746261	0.95462614
4	0x3f5fe0ed	0.87452585
5	0x3f723ad5	0.9462102
6	0x3f809dcb	1.0048155
7	0x3f6aa6d7	0.9166083
8	0x3f865713	1.0495323
9	0x3f69dcc6	0.913525
10	0x3f46d58d	0.776696
11	0x3f739d48	0.9516187
12	0x3f374131	0.7158385
13	0x3f91c9ed	1.1389748
14	0x3f51033d	0.81645566
15	0x3f6c7d9b	0.9237916
16	0x3f31d2c0	0.69462204
17	0x3f5e9bd8	0.8695655
18	0x3f7ae015	0.9799817
19	0x3f4d62c5	0.80228835
20	0x3f857cfc	1.0428767
21	0x3f8c1b52	1.0945837
22	0x3f88226e	1.0635507
23	0x3f88b1e6	1.067929
24	0x3f82c7c9	1.021722
25	0x3f67202f	0.90283483
26	0x3f852476	1.0401752
27	0x3f67a433	0.90484923
28	0x3f891860	1.0710564
29	0x3f540620	0.82821846
30	0x3f89ed61	1.0775567
31	0x3f699764	0.9124663

resnet_embedding.bn_node.bias f4 [32]
0	0xbeda3176	-0.4261586
1	0xbd9c4d27	-0.07631903
2	0xbe1a476e	-0.15066311
3	0xbe840fab	-0.25793204
4	0xbe8367b2	-0.2566505
5	0xbe96646a	-0.29373485
6	0xbef589a8	-0.47956586
7	0xbee470a4	-0.44617188
8	0xbead3a4f	-0.33833548
9	0xbea8636c	-0.32888353
10	0xbecf8afe	-0.4053573
11	0xbe9c342c	-0.30508554
12	0xbeed23a5	-0.46316257
13	0xbdcf5ef9	-0.101255365
14	0xbe58bc49	-0.21165575
15	0xbf1030ce	-0.5632447
16	0xbf073d95	-0.5282834
17	0xbde0f5e8	-0.10984403
18	0xbeafb24d	-0.3431572
19	0xbf121008	-0.5705571
20	0xbf124e7a	-0.57150996
21	0xbe7f9ac4	-0.24961382
22	0xbe60ffb6	-0.21972546
23	0x3d42e940	0.047585726
24	0xbe7e9a7b	-0.24863617
25	0xbe04b0e7	-0.12958108
26	0xbda6667b	-0.08125015
27	0xbeda3557	-0.4261882
28	0xbe325a23	-0.17417197
29	0xbf4bd776	-0.7962564
30	0xbe7f4db5	-0.24931987
31	0xbecd6bfe	-0.40121454

resnet_embedding.bn_node.running_mean f4 [32]
0	0x3f24f73e	0.6443976
1	0xbcf02e89	-0.029319065
2	0x3dc52fe1	0.09628273
3	0xbc27b21b	-0.010235335
4	0xbe2be832	-0.16787794
5	0xbecc9efd	-0.39965048
6	0x3f3f6188	0.74758196
7	0xbe5f43f0	-0.2180326
8	0xbe0f5b4e	-0.13999674
9	0xbeb6023b	-0.35548577
10	0xbdd3bb11	-0.103384145
11	0xbe2f21a3	-0.17102675
12	0xbedce59a	-0.43143922
13	0x3e5d54c0	0.21614361
14	0xbe895b29	-0.26827362
15	0x3d086324	0.033297673
16	0xbdbc1603	-0.09183886
17	0xbe8f40cc	-0.27979124
18	0x3dee452e	0.11634289
19	0xbe95b5fd	-0.2924041
20	0xbdadadcf	-0.08480417
21	0x3f299058	0.66235876
22	0xbf1849f6	-0.59487855
23	0x3f003c92	0.5009242
24	0xbe2f47aa	-0.17117181
25	0xbeb9e0ad	-0.36304227
26	0xbc8d2911	-0.017231496
27	0xbe3e36ff	-0.18575667
28	0x3bdbcd0c	0.006707793
29	0x3d657e25	0.056028504
30	0x3e5d9d35	0.21642001
31	0xbd0ee993	-0.034890722

resnet_embedding.bn_node.running_var f4 [32]
0	0x3d2e5bd1	0.04256803
1	0x3c9c29e1	0.019062938
2	0x3ca7106e	0.020393576
3	0x3cb591a4	0.022164173
4	0x3d70e3fe	0.05881118
5	0x3d18aefe	0.03727626
6	0x3d8ff08c	0.070283026
7	0x3cc446a8	0.023959473
8	0x3cd02de4	0.025412507
9	0x3c37de76	0.011222472
10	0x3c8c1fac	0.017104946
11	0x3c6f34e8	0.014600016
12	0x3d0847dd	0.03327166
13	0x3c62b161	0.013836236
14	0x3c2e1306	0.010624653
15	0x3cf0b02a	0.029380877
16	0x3c9aa1db	0.018876007
17	0x3d8fd4e7	0.0702303
18	0x3d076ebb	0.033064585
19	0x3d146105	0.036225338
20	0x3ce8d5c2	0.02842224
21	0x3d6ce90b	0.057839435
22	0x3d6c6c26	0.057720326
23	0x3ce45a1b	0.027874997
24	0x3c4fc92c	0.01268224
25	0x3cd0d223	0.025490826
26	0x3caf6a19	0.021412896
27	0x3bd02665	0.0063522332
28	0x3c4ab6d1	0.012372688
29	0x3c722660	0.014779657
30	0x3c8017db	0.015636375
31	0x3cc2ccf5	0.023779372

resnet_embedding.edge_embedding.weight f4 [32, 7]
0	0xbe011e48	-0.12609208
1	0x3edbfeb3	0.42967758
2	0xbe340bcf	-0.1758263
3	0xbe550008	-0.20800793
4	0xbe91b91f	-0.2846155
5	0x3e829511	0.25504354
6	0x3d21866b	0.03943483
7	0x3ec755bb	0.38932595
8	0xbdf88db5	-0.121364035
9	0x3e047aee	0.12937519
10	0xbe0dd64f	-0.13851283
11	0xbda1963e	-0.078899845
12	0xbeac4bbf	-0.3365154
13	0x3d247c7b	0.040157776
14	0x3d364d69	0.044507418
15	0xbe48bee7	-0.19604073
16	0xbd166fa1	-0.03672755
17	0x3ec0de22	0.37669474
18	0x3ea24fbc	0.31701458
19	0xbec64ffd	-0.387329
20	0x3c5948cf	0.013261988
21	0xbd64ecc9	-0.05588988
22	0xbe927087	-0.28601477
23	0x3e824bdf	0.2544851
24	0x3d3e1dff	0.046415325
25	0x3e0ec747	0.13943206
26	0xbd475104	-0.048661247
27	0x3d68cca0	0.05683577
28	0x3e9810b8	0.29700255
29	0xbe0e6ab2	-0.13907889
30	0xbd9e3839	-0.07725567
31	0x3de84f97	0.113433056
32	0xbef38305	-0.47560897
33	0xbe3ae997	-0.1825317
34	0xbe3caf48	-0.1842624
35	0xbe52601b	-0.20544474
36	0x3e7e147d	0.24812503
37	0x3eb6d626	0.35710257
38	0x3b532ab6	0.0032221503
39	0xbe769e67	-0.24083863
40	0xbdc0acee	-0.09407984
41	0x3e6b47ee	0.22976658
42	0xbe31327e	-0.17304417
43	0x3edb8955	0.42878214
44	0x3deb0ce6	0.114770696
45	0xbdfd4dc2	-0.12368347
46	0xbcaf3c49	-0.02139105
47	0x3e9ba39a	0.30398256
48	0x3e012fbf	0.1261587
49	0x3e55e905	0.20889671
50	0xbe66cbb0	-0.22538638
51	0x3dc46ae4	0.095907
52	0x3e098500	0.13429642
53	0x3d9fe7d2	0.07807888
54	0x3cb35136	0.02188931
55	0xbdc94406	-0.098274276
56	0xbda37e7a	-0.07983108
57	0x3eabf08e	0.33581966
58	0xbe23b482	-0.15986827
59	0x3d002bb8	0.031291693
60	0x3dd70ca2	0.105004564
61	0x3d86c4cd	0.065805055
62	0x3c13ea9f	0.009028106
63	0xbe9f8e7a	-0.31163388
64	0xbd0d2345	-0.034457464
65	0x3df03c22	0.117302194
66	0x3e9ac2eb	0.30226836
67	0x3cb11c0b	0.021619817
68	0xbde2ef37	-0.11080783
69	0xbd629f25	-0.055327553
70	0xbe47c5f8	-0.19509113
71	0xbdf43f0d	-0.119260885
72	0x3ebe505a	0.37170678
73	0xbe82de49	-0.25560215
74	0xbed39348	-0.41323304
75	0xbe682814	-0.22671539
76	0xbdbe3ae3	-0.092885755
77	0x3d8eae12	0.06966795
78	0xbe24a4ec	-0.16078538
79	0x3e501c25	0.20323236
80	0x3d8184c4	0.06324151
81	0xbed156ca	-0.40886527
82	0x3e59eb91	0.21281268
83	0xbd1f28d6	-0.038857304
84	0xbdfd1a05	-0.123584785
85	0xbe2d0678	-0.16896999
86	0xbd8cd151	-0.068758614
87	0x3e86ad2c	0.26303995
88	0x3deaad03	0.114587806
89	0x3e25752f	0.16157983
90	0x3bb39e68	0.00548153
91	0x3df896cf	0.121381395
92	0x3c071a98	0.008246087
93	0x3e3689db	0.17826025
94	0x3e179724	0.1480375
95	0xbe236b1e	-0.1595883
96	0xbe582307	-0.21107112
97	0xbe5976ab	-0.21236674
98	0xbdc7d6c0	-0.09757757
99	0x3e20c149	0.15698732
100	0x3e6404d8	0.22267473
101	0xbe894329	-0.26809052
102	0xbd92549d	-0.07145045
103	0x3d40e44a	0.047092713
104	0xbda0fa4f	-0.078602426
105	0xbe81637e	-0.2527122
106	0x3dd64f58	0.10464352
107	0x3e8364ea	0.2566293
108	0x3e8a1164	0.26966393
109	0x3e476a36	0.1947411
110	0x3dd921f5	0.1060218
111	0x3db9882d	0.090591766
112	0xbcda4c84	-0.026647814
113	0x3ebab816	0.3646857
114	0xbe309d4e	-0.17247507
115	0xbdb76e26	-0.08956556
116	0xbcd35f76	-0.025802355
117	0xbe185a1f	-0.14878128
118	0xbceccf4b	-0.028907439
119	0xbe844443	-0.2583333
120	0xbe74b3d5	-0.23896725
121	0xbd2d9489	-0.042377982
122	0xbe505fb2	-0.20349005
123	0x3ed05933	0.40693054
124	0x3ceb211a	0.028702307
125	0x3e11e082	0.14245799
126	0x3e310dca	0.17290416
127	0xbe3686d2	-0.17824867
128	0xbe831840	-0.2560444
129	0xbea39192	-0.31947
130	0xbd1b5166	-0.037919424
131	0xbe26d54c	-0.16292304
132	0x3dd90c8e	0.10598098
133	0xbe96aa93	-0.29427013
134	0xbe727684	-0.23678023
135	0x3e4028ae	0.18765518
136	0xbebba7a4	-0.36651337
137	0xbdfc04ca	-0.12305601
138	0xbe941b30	-0.28926992
139	0xbe06b88f	-0.13156341
140	0xbe8ab175	-0.27088514
141	0x3e26ebb6	0.16300854
142	0xbd782169	-0.060578737
143	0xbe4d2b79	-0.20036115
144	0x3ea7f5b3	0.3280464
145	0x3e0206e1	0.12697937
146	0xbd071d8e	-0.03298717
147	0xbeab6fde	-0.33483785
148	0xbed51cf9	-0.41623667
149	0x3e55e54e	0.20888254
150	0x3e9f7a21	0.31147864
151	0x3de6f7a8	0.112777054
152	0xbccc68cf	-0.02495232
153	0x3cb30169	0.021851258
154	0x3d205424	0.039142743
155	0x3dd15a92	0.10222353
156	0x3eaac8e1	0.33356383
157	0x3e0d27cd	0.13784714
158	0x3e92ccd7	0.28671905
159	0xbe127323	-0.14301734
160	0x3eaeb46e	0.34122032
161	0xbaeb4cce	-0.0017951967
162	0x3ed12385	0.40847412
163	0xbd8a82f6	-0.0676326
164	0xbccc82a6	-0.024964642
165	0x3da92d04	0.08260539
166	0x3d38d8e9	0.045128737
167	0x3e54db6d	0.2078683
168	0x3e83f882	0.25775534
169	0x3dade671	0.08491219
170	0x3e02d05e	0.12774798
171	0xbd12b0b1	-0.035813037
172	0x3d6da83d	0.058021773
173	0x3ec73436	0.3890702
174	0xbec3e655	-0.38261667
175	0xbe17971a	-0.14803734
176	0x3eb03aff	0.3442001
177	0x3defca42	0.117084995
178	0xbd9e4361	-0.07727695
179	0x3e8d3e82	0.27586752
180	0xbef863e0	-0.485137
181	0x3e053b26	0.13010845
182	0x3e8c9bcd	0.27462617
183	0x3e5d6808	0.21621716
184	0x3e02367b	0.12716095
185	0x3dd05d17	0.101740055
186	0xbe9e9091	-0.3096967
187	0xbecc2c69	-0.39877632
188	0xbe04b8b6	-0.12961087
189	0x3d75a874	0.059975103
190	0x3ec7a662	0.38994128
191	0xbe993be4	-0.29928505
192	0xbe8894ac	-0.26675928
193	0x3e7d123e	0.2471399
194	0x3e168dc0	0.14702511
195	0xbda0da1b	-0.078541
196	0xbdae82b6	-0.08521025
197	0x3eb8e187	0.36109564
198	0x3e972e46	0.2952749
199	0xbe849ebc	-0.25902355
200	0xbeaab2fe	-0.33339685
201	0x3df1c2d2	0.11804737
202	0xbd2ee4a5	-0.04269852
203	0xbe4e2939	-0.20132913
204	0x3ea92b46	0.33040828
205	0x3d248aca	0.040171422
206	0xbe00c6c5	-0.12575825
207	0xbe5b9222	-0.21442464
208	0xbe42dcf9	-0.19029607
209	0x3dc31c23	0.09526851
210	0xbc886c1c	-0.016653113
211	0x3e69c54a	0.22829166
212	0x3d7ac4a2	0.06122268
213	0x3d1b3ef2	0.037901826
214	0x3e5e9215	0.21735413
215	0x3c3a8934	0.011385251
216	0xbe979314	-0.296044
217	0xbd16550b	-0.036702197
218	0xbcc52848	-0.02406706
219	0xbd34162d	-0.04396646
220	0x3e7acb7d	0.24491687
221	0xbe9513f6	-0.2911679
222	0x3ed95b3f	0.42452428
223	0xbe4c268a	-0.19936576

resnet_embedding.edge_embedding.bias f4 [32]
0	0x3eac14f2	0.3360973
1	0xbeabbbb6	-0.3354165
2	0xbe2f5a80	-0.17124367
3	0xbdf06206	-0.117374465
4	0x3ded375d	0.11582825
5	0x3e29cfdb	0.16583197
6	0x3ebe0bc4	0.3711835
7	0x3e257f79	0.16161908
8	0x3dd1bab9	0.10240693
9	0x3eb460ce	0.35230106
10	0x3d156bf0	0.03647989
11	0x3def07ba	0.116713956
12	0xbd96ab8d	-0.073569395
13	0x3eb4cd11	0.35312703
14	0xbd9cc2bd	-0.07654331
15	0x3e603a76	0.21897301
16	0xbe858548	-0.26078248
17	0x3d8b5210	0.068027616
18	0xbdf5aff3	-0.1199645
19	0xbe0eb129	-0.13934769
20	0x3de239c6	0.11046176
21	0xbdf09b76	-0.11748402
22	0xbe6a37a2	-0.22872785
23	0x3c247a0b	0.010038863
24	0xbeb240b3	-0.34814987
25	0x3e682a51	0.22672392
26	0x3d0be8d8	0.034157604
27	0x3e96ccef	0.29453227
28	0x3eb709f8	0.35749793
29	0xbe520f7b	-0.20513718
30	0x3d547fcc	0.05187969
31	0x3e8117b0	0.25213385

resnet_embedding.bn_edge.weight f4 [32]
0	0x3f9d3ee6	1.228482
1	0x3f98f907	1.1950997
2	0x3fa54893	1.2912773
3	0x3fa60f40	1.2973404
4	0x3fa120a7	1.258809
5	0x3fa09e35	1.2548281
6	0x3f910b84	1.1331639
7	0x3f9f4150	1.2441807
8	0x3f9a095f	1.203411
9	0x3f857ff2	1.0429671
10	0x3fa17d3b	1.2616342
11	0x3f96cbe8	1.1780977
12	0x3f9465fa	1.1593621
13	0x3fa274bd	1.2691876
14	0x3fa4a713	1.2863487
15	0x3f8d6b52	1.1048377
16	0x3fb3a567	1.4034852
17	0x3f9dafce	1.2319276
18	0x3f92acf5	1.1459032
19	0x3f90359a	1.1266358
20	0x3fa4a967	1.2864197
21	0x3f972149	1.1807033
22	0x3f9d58ee	1.2292764
23	0x3faa5fb6	1.3310459
24	0x3f94da14	1.1629052
25	0x3f98df6d	1.1943184
26	0x3fb2875b	1.3947557
27	0x3fad0350	1.3516636
28	0x3fb0d009	1.3813487
29	0x3fa2ba5e	1.2713125
30	0x3f8c8159	1.0976974
31	0x3f9de33a	1.2334969

resnet_embedding.bn_edge.bias f4 [32]
0	0x3da75b50	0.08171713
1	0x3d151584	0.036397472
2	0x3c4c5afd	0.012472865
3	0xbe3125d6	-0.1729959
4	0xbc4dc4b6	-0.012559107
5	0x3d666f72	0.056258626
6	0x3d6f7abf	0.05846667
7	0x3ba856fe	0.0051373234
8	0x3e422c3e	0.1896219
9	0xbe7715ef	-0.24129461
10	0x3d88e749	0.06684739
11	0xbdffa55a	-0.1248271
12	0xbe04360b	-0.12911241
13	0x3e1a0b2c	0.15043324
14	0x3d84787e	0.064682946
15	0xbd706fc0	-0.058700323
16	0x3c1aa95b	0.009439792
17	0xbd329750	-0.043601334
18	0xbdc80861	-0.09767223
19	0x3c2c1e22	0.010505231
20	0x3dea9396	0.11453931
21	0x3e8497de	0.25897115
22	0x3e34a530	0.17641139
23	0x3e52b0b5	0.20575221
24	0x3e39da9d	0.181498
25	0xbe39f195	-0.18158562
26	0x3e070cb0	0.13188434
27	0x3da20fee	0.079131946
28	0xbe35d072	-0.17755297
29	0xbc91ba67	-0.017789079
30	0x3dbeba29	0.09312851
31	0xbe2f6377	-0.17127787

resnet_embedding.bn_edge.running_mean f4 [32]
0	0x3e97e074	0.29663432
1	0xbeafa2d5	-0.34303918
2	0xbe041f65	-0.12902601
3	0xbdc08cd5	-0.094018616
4	0xbdcf77e8	-0.10130292
5	0x3e8a2d5d	0.26987734
6	0x3f28bd12	0.659135
7	0x3e9c21d9	0.30494574
8	0x3e790d8d	0.24321575
9	0x3e9cdefe	0.3063888
10	0xbeb4b819	-0.35296705
11	0x3def570a	0.11686523
12	0xbd09e78c	-0.033668086
13	0x3ecc2502	0.39871985
14	0xbd8b7778	-0.06809896
15	0x3f0b6d6d	0.54463845
16	0xbe9723ee	-0.295196
17	0xbdebe176	-0.11517613
18	0xbef5d18a	-0.48011428
19	0xbf35aa88	-0.70963335
20	0x3de9fb25	0.11424855
21	0xbe76f734	-0.24117738
22	0x3e60def5	0.21960051
23	0x3e8c8e67	0.27452394
24	0x3d3a51ad	0.04548805
25	0x3e93e7ef	0.2888789
26	0x3dc62bcd	0.09676323
27	0x3ed68177	0.4189565
28	0x3ee68aa1	0.4502764
29	0xbeaf3250	-0.34218073
30	0x3e8dcbc5	0.27694526
31	0x3ea9c822	0.33160502

resnet_embedding.bn_edge.running_var f4 [32]
0	0x3c3f63d0	0.011681512
1	0x3beb6206	0.007183316
2	0x3c9ade83	0.01890493
3	0x3b93a304	0.004505517
4	0x3cb5ca75	0.022191266
5	0x3c3db203	0.011578086
6	0x3ca7aecb	0.02046909
7	0x3c298b49	0.01034815
8	0x3c20f220	0.009823352
9	0x3bd4d694	0.0064953063
10	0x3d805fde	0.06268285
11	0x3bc937b4	0.0061406735
12	0x3b8f507a	0.004373607
13	0x3c36bf09	0.011153945
14	0x3b746e92	0.003729735
15	0x3d47e8f0	0.04880613
16	0x3b6358ef	0.003469046
17	0x3c776a27	0.015100992
18	0x3d75c765	0.06000461
19	0x3dd53a71	0.104115374
20	0x3b43a916	0.0029855422
21	0x3c4d037a	0.012513036
22	0x3db63758	0.08897275
23	0x3cd39801	0.025829317
24	0x3d8bb307	0.06821256
25	0x3c97e5f3	0.018542266
26	0x3c62c735	0.01384144
27	0x3c2fe45e	0.010735599
28	0x3beb7d18	0.007186543
29	0x3c2032b6	0.009777715
30	0x3d388ced	0.045056272
31	0x3c2149aa	0.009844223

graph_transformer_layer.0.attention.Q.weight f4 [32, 32]
0	0xbe58222f	-0.2110679
1	0xbe104159	-0.14087428
2	0xbf078dae	-0.5295056
3	0xbe821841	-0.2540913
4	0x3d23d0bd	0.03999399
5	0xbd38581c	-0.045005903
6	0xbdf190e3	-0.11795213
7	0x3db25afd	0.08708761
8	0x3dba2097	0.09088247
9	0xbcd35fde	-0.025802549
10	0x3e41152d	0.18855734
11	0x3c0f4d1b	0.008746411
12	0xbcad33b0	-0.02114281
13	0xbec4fa13	-0.3847204
14	0xbc314d9e	-0.010821728
15	0x3cf922d1	0.03041211
16	0x3b1a9060	0.002358459
17	0xbc264ec6	-0.010150617
18	0xbeb5c543	-0.3550206
19	0x3e27e39f	0.16395424
20	0x3badc4e2	0.0053030113
21	0xbe471f78	-0.19445598
22	0xbcaf045b	-0.021364382
23	0xbe1bc44e	-0.15211603
24	0x3dc44763	0.095839284
25	0xbd77009e	-0.060303323
26	0x3ca0c04d	0.019622946
27	0x3e3c9b61	0.18418647
28	0xbe59f65f	-0.2128539
29	0xbccdf210	-0.025139838
30	0xbd1e4e6a	-0.038649
31	0xbdfa8470	-0.12232292
32	0x3dd578a4	0.10423401
33	0xbe116eea	-0.14202467
34	0x3e93064d	0.28715745
35	0x3e0b6d5e	0.13615939
36	0xbd06caf2	-0.032908387
37	0xbe07800c	-0.1323244
38	0x3ccb3901	0.024807455
39	0xbe644e07	-0.2229539
40	0x3d9c654a	0.07636507
41	0xbe5ea21c	-0.21741527
42	0xbdb5f640	-0.08884859
43	0xbe2b153d	-0.1670732
44	0xbe2e4cee	-0.17021534
45	0x3e883af9	0.26607493
46	0xbdba072e	-0.09083401
47	0x3ddada55	0.10686175
48	0xbd8ef040	-0.06979418
49	0xbd31ee60	-0.043440223
50	0x3e9a7761	0.30169204
51	0xbe76ff2a	-0.24120775
52	0x3e18262f	0.14858316
53	0xbd860ff2	-0.0654601
54	0xbe676a0d	-0.22599049
55	0xbd4ed0f5	-0.050492246
56	0xbe47fe5e	-0.19530627
57	0xbe6f7887	-0.23385821
58	0xbc47c0fc	-0.012192007
59	0xbe7c5617	-0.24642216
60	0x3e8396bf	0.25700948
61	0xb9fddec5	-0.00048421897
62	0x3ceac26a	0.028657157
63	0x3e852cd0	0.26010752
64	0x3db12fe5	0.08651713
65	0xbd2f5238	-0.04280302
66	0xbda6a4a3	-0.08136871
67	0xbe73dffe	-0.23815915
68	0x3c27a641	0.010232509
69	0xbdf063f9	-0.11737818
70	0x3ce42571	0.027849885
71	0xbdcff01a	-0.101532176
72	0xbef0dc9f	-0.4704332
73	0xbe97ba02	-0.296341
74	0xbdd7bf02	-0.10534479
75	0xbdb42eaa	-0.08797963
76	0xbc2caacb	-0.010538767
77	0xbd8faee4	-0.070157796
78	0xbe2b9e85	-0.16759689
79	0xbd0b2705	-0.03397276
80	0xbd688c41	-0.05677438
81	0xbe9d8516	-0.307656
82	0xbd66c82f	-0.056343254
83	0xbdc6bd85	-0.09704117
84	0xbe0130f9	-0.12616338
85	0xbd13b830	-0.036064327
86	0xbd810ecf	-0.06301653
87	0x3c9c5809	0.019084947
88	0xbd8840ea	-0.066530064
89	0xbd4f8776	-0.050666295
90	0xbebe7e56	-0.37205762
91	0xbea468f7	-0.32111332
92	0xbd4ab649	-0.049490247
93	0x3e275b51	0.16343428
94	0xbda35109	-0.079744406
95	0xbe0448ba	-0.12918368
96	0xbdab506c	-0.08364949
97	0x3d34723b	0.04405425
98	0xbeab57d9	-0.3346546
99	0xbe591a82	-0.21201518
100	0xbdcd718f	-0.10031425
101	0xbce9cf7b	-0.028541317
102	0x3e0f315e	0.13983676
103	0x3daa4599	0.08314056
104	0xbe19cf42	-0.15020469
105	0xbca80886	-0.020511877
106	0xbe76ed6d	-0.24114008
107	0xbd65cca8	-0.05610338
108	0xbe03140f	-0.1280062
109	0xbe9c3b22	-0.30513865
110	0xbe1069cf	-0.14102863
111	0x3c40f6e3	0.011777612
112	0x3cbf52d2	0.023354921
113	0x3dbb77f5	0.09153739
114	0xbf29f58d	-0.66390306
115	0xbe10bc07	-0.14134227
116	0x3d28c589	0.04120401
117	0xbdcf7531	-0.10129774
118	0xbb1d281a	-0.0023980201
119	0xbc784211	-0.01515247
120	0x3d1140e4	0.035462275
121	0x3d23b37b	0.039966088
122	0x3ec32ce6	0.38120192
123	0x3c51d37d	0.01280677
124	0xbe8f10ed	-0.279426
125	0xbb0e062a	-0.0021671155
126	0x3c221c43	0.009894433
127	0xbe4adf88	-0.19811833
128	0x3e5aff94	0.21386558
129	0xbdb111ca	-0.08645971
130	0x3e36233b	0.17786877
131	0xbe99f1a9	-0.30067185
132	0xbe902921	-0.2815638
133	0xbe906530	-0.282022
134	0x3e87bab6	0.26509637
135	0xbe99e90b	-0.3006061
136	0x3cbba2dc	0.022904806
137	0xbf12bee2	-0.57322514
138	0xbe979f6a	-0.2961381
139	0xbe2dedda	-0.16985264
140	0xbe4d2082	-0.20031932
141	0xbe8ddf03	-0.27709207
142	0xbea17846	-0.31537074
143	0xbdad55c5	-0.08463625
144	0xbdcd5749	-0.10026414
145	0xbe33fd29	-0.17577042
146	0xbeeb9a2c	-0.4601606
147	0xbe59b8da	-0.21261922
148	0xbd9b1ade	-0.07573484
149	0x3e1f8ef3	0.15581875
150	0xbdd810ed	-0.10550103
151	0xbe23af3c	-0.15984815
152	0xbec0d7d1	-0.37664655
153	0xbdcca7a1	-0.0999291
154	0xbec6b75d	-0.3881177
155	0xbe4b8d53	-0.1987813
156	0x3d852be1	0.0650251
157	0xbec7468b	-0.38921008
158	0xbd62ec69	-0.05540124
159	0xbe984655	-0.2974116
160	0x3ddc2d8d	0.107508756
161	0xbd78ac42	-0.060711153
162	0xbeb74b92	-0.35799843
163	0xbe7237b7	-0.23654066
164	0xbeffb1fd	-0.49940482
165	0x3d77c244	0.060488
166	0x3c518f13	0.012790459
167	0x3d01627a	0.031588055
168	0xbe1b3f85	-0.1516095
169	0x3d4576b0	0.048208892
170	0xbec760d4	-0.38941061
171	0xbe8b3e47	-0.2719595
172	0xbee0e306	-0.43923205
173	0xbeaadf98	-0.33373713
174	0xbe612a38	-0.21988761
175	0xbc1691d0	-0.009190038
176	0xbcae4356	-0.021272343
177	0xbd2c7908	-0.042107612
178	0xbf096b5b	-0.53679436
179	0xbeaa0685	-0.332081
180	0x3c997402	0.018732075
181	0x3d3e1ef8	0.046416253
182	0xbd1c2f48	-0.03813103
183	0xbd82ad02	-0.06380655
184	0xbe32b132	-0.17450407
185	0x3d7bf30d	0.06151109
186	0x3e0646dd	0.1311297
187	0x3ea3fdb7	0.32029507
188	0xbe0d866a	-0.13820806
189	0xbddd3d35	-0.1080269
190	0xbcdb4732	-0.026767347
191	0xbe51e7d1	-0.20498587
192	0x3cbb8915	0.022892514
193	0xbe3ab5dd	-0.18233438
194	0x3e05778e	0.13033888
195	0x3ce9d045	0.028541693
196	0x3e1cde00	0.15319061
197	0x3c91d3bc	0.017801158
198	0xbd9bc637	-0.07606166
199	0x3d70a28b	0.058748763
200	0xbe4fe196	-0.20300898
201	0x3ca7d958	0.02048938
202	0xbe86400b	-0.26220736
203	0x3e0b6e15	0.13616212
204	0x3e1c6d58	0.15276086
205	0x3d73d9c1	0.05953384
206	0xbc8bfe18	-0.017088935
207	0xbd23a578	-0.039952725
208	0x3e70e5b6	0.23525128
209	0x3d757011	0.059921328
210	0x3ea97e38	0.3310411
211	0xbdded59f	-0.10880589
212	0x3e0c9118	0.13727224
213	0xbe544c0f	-0.20732139
214	0x3cef767e	0.029231306
215	0xbe39ac19	-0.18132056
216	0x3d1793ee	0.03700631
217	0x3e32a52d	0.17445822
218	0xbdd11193	-0.1020843
219	0xbe209d39	-0.15684976
220	0xbe336108	-0.17517483
221	0x3e9aaf6a	0.30211955
222	0xbe618b80	-0.22025871
223	0x3e8f0d52	0.2793985
224	0xbe6889a2	-0.22708753
225	0x3da21f58	0.079161346
226	0x3e512fb6	0.20428357
227	0x3ec7024f	0.3886895
228	0x3d1557d0	0.036460698
229	0xbd5ec64c	-0.05438833
230	0xbcdd2a96	-0.026997846
231	0xbd63b5b7	-0.05559322
232	0x3de18ed2	0.11013569
233	0xbe25f1f4	-0.16205579
234	0x3e57c9cc	0.21073073
235	0xbbc9db2c	-0.0061601605
236	0xbd16aa2f	-0.036783393
237	0x3eff4aae	0.49861664
238	0x3cc1ab1d	0.023641163
239	0xbcf9985b	-0.030468157
240	0xbd3b587b	-0.04573868
241	0x3c9544eb	0.01822134
242	0x3edb6071	0.42847016
243	0x3d330157	0.04370245
244	0x3dcc0b5f	0.09963106
245	0xbe41f881	-0.18942453
246	0xbd12cceb	-0.035839956
247	0x3de61bcc	0.112357706
248	0x3d9fdafb	0.07805439
249	0x3e2c10a1	0.16803218
250	0xbd2da89c	-0.042397127
251	0xbe71849d	-0.23585744
252	0xbe4977fe	-0.1967468
253	0xbe340485	-0.17579849
254	0x3de132ac	0.10995993
255	0x3e37d5a8	0.17952597

graph_transformer_layer.0.attention.Q.bias f4 [32]
0	0xbea276b8	-0.317312
1	0x3cca3498	0.024683282
2	0xbe466b4d	-0.1937687
3	0xbdd046f2	-0.10169782
4	0xbd9242b3	-0.07141628
5	0x3d1b1a3e	0.037866823
6	0x3e213be0	0.15745497
7	0x3c5cba90	0.013472214
8	0x3f0300a8	0.51172876
9	0xbe561bb6	-0.20909008
10	0x3e1c7801	0.15280153
11	0x3e0a34a3	0.13496642
12	0xbb9830c6	-0.004644486
13	0xbe37ba0d	-0.17942066
14	0xbe68c2d3	-0.2273057
15	0xbe89834e	-0.2685799
16	0x3edb71f4	0.42860377
17	0x3ec65a2c	0.3874067
18	0xbe12f939	-0.14352883
19	0xbeb5e871	-0.355289
20	0x3ed2d2bd	0.41176406
21	0x3ea3dc3a	0.32003957
22	0x3e868c51	0.26278928
23	0x3e0741e5	0.1320873
24	0x3dd9c0a6	0.10632448
25	0x3dedc569	0.116099186
26	0xbe85437c	-0.2602805
27	0x3e1acc9a	0.15117112
28	0x3f0529c8	0.5201688
29	0x3e0b6ac3	0.13614945
30	0x3eaed1c5	0.34144416
31	0xbe0ed53f	-0.13948534

graph_transformer_layer.0.attention.K.weight f4 [32, 32]
0	0xbd9386d0	-0.07203448
1	0x3e3c4145	0.18384273
2	0xbcffcbd2	-0.031225119
3	0x3e007c3b	0.1254739
4	0x3e45728e	0.1928198
5	0x3e518583	0.20461087
6	0xbd9a0246	-0.07519965
7	0x3d8073db	0.06272098
8	0x3eb8b19b	0.36073002
9	0x3e089a5a	0.1334013
10	0x3d9a3a01	0.075305946
11	0x3e988239	0.29786852
12	0x3e2115a9	0.15730919
13	0x3da6dd40	0.08147669
14	0x3e11e104	0.14245993
15	0x3dccd91d	0.100023486
16	0x3d42c705	0.04755308
17	0x3d74cda7	0.059766438
18	0x3e8dde9e	0.27708906
19	0x3e3b196e	0.1827142
20	0x3cb8b0cb	0.022545239
21	0xbe487fd7	-0.19580017
22	0x3ebb2318	0.36550212
23	0x3dd23dc6	0.102656886
24	0x3df45454	0.11930147
25	0x3e5774a3	0.21040587
26	0x3da555bb	0.080729924
27	0x3e1cf096	0.15326151
28	0x3adec621	0.0016996303
29	0x3c78fbdb	0.015196766
30	0x3e288627	0.16457425
31	0x3de17f61	0.11010624
32	0x3d778ec4	0.060438886
33	0xbe5a467c	-0.2131595
34	0xbc342247	-0.0109945005
35	0x3d3b0cad	0.045666385
36	0x3d93a698	0.072095096
37	0xbd2d72fb	-0.042345982
38	0x3e7a0409	0.24415602
39	0x3d663507	0.056202915
40	0xbdd63bee	-0.104606494
41	0xbd18c1e1	-0.037294272
42	0xbd584e88	-0.05280927
43	0xbd6d3b41	-0.057917837
44	0xbdec1d9e	-0.115290865
45	0x3ded5469	0.115883656
46	0xbe072ceb	-0.13200729
47	0xbe0a2e54	-0.13494235
48	0xbd94fdcd	-0.07274971
49	0x3d18a49a	0.03726635
50	0x3e2aeaaa	0.1669108
51	0xbd75267a	-0.059851147
52	0xbd1fc1ca	-0.03900317
53	0xbda01ac7	-0.078176074
54	0xbda10c47	-0.0786367
55	0x3ea7538a	0.32680923
56	0xbe8c5a7e	-0.2741279
57	0x3d0a1b77	0.0337176
58	0x3dce6278	0.10077375
59	0xbc4ca1e5	-0.012489771
60	0xbe1f7f43	-0.1557589
61	0x3e0ce4af	0.13759111
62	0xbe3ad4d6	-0.18245253
63	0x3e10b924	0.14133126
64	0xbdc78fdf	-0.09744238
65	0x3e1bd487	0.15217791
66	0x3e9163ed	0.2839655
67	0x3c9b5675	0.018962124
68	0xbd6a0fc5	-0.057143945
69	0x3d4ba8be	0.049721472
70	0xbe31064b	-0.17287557
71	0xbd516173	-0.051118325
72	0xbd4320c6	-0.047638677
73	0x3d2a5eb5	0.041594226
74	0xbcc59740	-0.024119973
75	0xbd3f06ec	-0.04663746
76	0xbda8e572	-0.08246888
77	0xbc2c0be8	-0.010500886
78	0x3e80b8cf	0.25140998
79	0xbdff1165	-0.124544896
80	0xbe68f5d2	-0.22750023
81	0x3c1a39e1	0.0094132135
82	0xbdef1a6c	-0.116749614
83	0x3e15a365	0.14613111
84	0x3d8577c4	0.06516984
85	0xbe649358	-0.22321832
86	0xbc725c2a	-0.014792481
87	0xbeaa6a73	-0.3328434
88	0x3ec18605	0.3779756
89	0x3d13fbd5	0.036128838
90	0x3ea43ffe	0.32080072
91	0x3d6f703b	0.05845664
92	0xbb0966cb	-0.002096581
93	0xbc820da9	-0.015875654
94	0xbc819729	-0.01581915
95	0x3c800c0b	0.015630743
96	0x3bb200bd	0.005432217
97	0xbe537fb5	-0.20654185
98	0x3db89897	0.09013479
99	0x3da26a08	0.0793038
100	0x3c81d81d	0.015850121
101	0x3d75f94c	0.0600522
102	0x3e28a709	0.16469969
103	0x3c778bc9	0.015109011
104	0xbe2caa17	-0.16861759
105	0x3d8c7675	0.068585314
106	0x3e8be2b6	0.27321404
107	0x3e43ad7e	0.19109151
108	0x3e851550	0.25992823
109	0xbd4ada44	-0.04952456
110	0x3d603fbe	0.05474829
111	0xbe803d4b	-0.25046763
112	0xbe491a29	-0.19638886
113	0xbddd2298	-0.10797614
114	0x3cc0eefb	0.023551455
115	0x3dd1c378	0.10242361
116	0xbe99a3fd	-0.30007926
117	0x3b88cb64	0.0041746367
118	0x3e338b84	0.1753369
119	0xbcc07b02	-0.023496155
120	0xbdaec3d0	-0.08533442
121	0xbd3c4946	-0.045968316
122	0xbe7ab95f	-0.24484776
123	0x3df098c7	0.1174789
124	0x3e199ef4	0.15002042
125	0x3da35155	0.07974497
126	0x3e09c321	0.13453342
127	0x3cad7c7f	0.021177528
128	0x3ea525dd	0.3225545
129	0xbdb9e24a	-0.09076364
130	0x3d03400b	0.032043498
131	0x3ea1056c	0.3144945
132	0xbd8bfd7e	-0.06835459
133	0xbd4ff587	-0.050771262
134	0x3e80155e	0.25016302
135	0xbdb1a045	-0.08673147
136	0xbe148cf6	-0.14506897
137	0xbd432ba8	-0.047649056
138	0xbd4e5f9c	-0.05038415
139	0xbdacd2f2	-0.08438672
140	0xbdb6a8c0	-0.08918905
141	0xbbf23309	-0.007391338
142	0xbdc3a85b	-0.09553596
143	0x3ee3cbaa	0.4449132
144	0x3e46da29	0.19419159
145	0x3e3f1f18	0.18664205
146	0xbe578da3	-0.21050124
147	0xbc1b3ebf	-0.009475409
148	0x3f0ffc53	0.5624439
149	0xbd7d0535	-0.061772544
150	0xbd08bf61	-0.03338564
151	0x3eff3b53	0.49849948
152	0x3cbecea2	0.02329189
153	0xbd0f5836	-0.034996234
154	0xbe16e832	-0.14737013
155	0x3d3ddbda	0.046352245
156	0xbd51d9eb	-0.051233213
157	0xbe79fd01	-0.2441292
158	0x3dc562ab	0.0963796
159	0xbe323677	-0.17403589
160	0xbe24e21c	-0.16101879
161	0x3e062aaf	0.1310222
162	0xbd348ad6	-0.044077717
163	0xbcdc47a4	-0.02688963
164	0x3a547f0d	0.000810609
165	0x3d0d860f	0.034551676
166	0x3beea362	0.0072826603
167	0x3d393f36	0.0452263
168	0xbd33b448	-0.0438731
169	0x3b52292b	0.0032067995
170	0x3d9d6420	0.07685113
171	0x3dc369fe	0.09541701
172	0x3e006bb5	0.12541087
173	0xbd4a4d97	-0.0493904
174	0x3a28ffbb	0.0006446798
175	0xbeb35097	-0.35022423
176	0xbe80a1aa	-0.2512334
177	0xbe1a0c33	-0.15043716
178	0xbdd53c07	-0.1041184
179	0xbd29db91	-0.04146916
180	0xbf1156fb	-0.56773347
181	0x3d102809	0.03519443
182	0xbcf29706	-0.02961303
183	0xba5ac77e	-0.00083457667
184	0x3d1973d5	0.03746398
185	0x3cfe9511	0.03107694
186	0x3e75943c	0.23982328
187	0x3e0599fb	0.1304702
188	0x3d8e9d5b	0.06963607
189	0x3d6b238f	0.05740696
190	0x3daa7d69	0.08324701
191	0xbcb2f19f	-0.02184373
192	0x3df242c0	0.11829138
193	0xbe3076f1	-0.17232873
194	0x3e844064	0.25830376
195	0x3e12b3bf	0.1432638
196	0x3ce97139	0.028496372
197	0x3d9af282	0.07565786
198	0x3e254765	0.16140516
199	0x3d8151a9	0.063144036
200	0xbe757ad6	-0.2397264
201	0x3d1d1f95	0.038360197
202	0x3dac5c60	0.08416057
203	0x3bd49f06	0.0064886836
204	0x3ce11a66	0.027478408
205	0x3eb38054	0.35058844
206	0xbe0451d0	-0.12921834
207	0x3e073b36	0.13206181
208	0x3dc45ef3	0.095884226
209	0x3d5c6edd	0.053816665
210	0x3e1522f4	0.14564115
211	0xbd16bbd8	-0.036800236
212	0x3db2e7b1	0.08735598
213	0x3e925141	0.28577617
214	0x3ccbde08	0.024886146
215	0x3eb71c79	0.3576391
216	0xbd8ac086	-0.06775002
217	0xbb8ae9f8	-0.004239317
218	0x3e25cdd2	0.16191795
219	0xbc42d0d6	-0.011890611
220	0xbdd6b390	-0.104834676
221	0xbe12ddce	-0.14342424
222	0xbeb9422b	-0.36183295
223	0x3e151892	0.14560154
224	0x3e3171f0	0.1732862
225	0x3d74a3a2	0.059726365
226	0xbca62d05	-0.020285139
227	0x3c7b7baf	0.015349313
228	0x3e0cdbff	0.13755797
229	0xbd6bce1e	-0.057569616
230	0x3e27e3b8	0.16395462
231	0x3dde4111	0.10852254
232	0x3df18991	0.11793817
233	0x3ddb6862	0.10713269
234	0x3e0ea77a	0.13931075
235	0x3d96be49	0.07360513
236	0x3daf9d93	0.08574977
237	0x3d41bece	0.047301106
238	0x3bc4453c	0.0059896987
239	0x3ddf4c3f	0.10903215
240	0x3e5ffef4	0.218746
241	0x3e2e2966	0.1700798
242	0x3cb34273	0.021882271
243	0x3d7c8393	0.061648916
244	0x3d9e0f4d	0.07717762
245	0xbd25ba46	-0.040460847
246	0x3b847e27	0.004043359
247	0xbd27c9b8	-0.04096386
248	0x3e168949	0.14700808
249	0xbd1cb87d	-0.03826188
250	0xbd44de06	-0.0480633
251	0x3e857e1f	0.26072785
252	0x3c9f7df2	0.019469235
253	0x3e10f84a	0.14157215
254	0xbd6785e8	-0.056524187
255	0xbd697cb8	-0.057003707

graph_transformer_layer.0.attention.K.bias f4 [32]
0	0x3e908fd8	0.28234744
1	0xbdffa239	-0.124821134
2	0x3d98e44a	0.07465418
3	0xbe516e90	-0.20452332
4	0x3e3a4f13	0.18194227
5	0xbe8bd594	-0.27311385
6	0x3e58135a	0.21101132
7	0x3e916581	0.28397754
8	0x3ef2b1c4	0.4740125
9	0xbece79e5	-0.40327373
10	0x3eab2a32	0.3343063
11	0x3dc11ff2	0.09429921
12	0xbe639d4a	-0.2222797
13	0x3e53e516	0.20692858
14	0xbd0cd3d8	-0.034381717
15	0xbebec23a	-0.37257558
16	0x3e4d200b	0.20031755
17	0x3e3246f6	0.17409882
18	0xbe58f5fe	-0.21187589
19	0x3c7759c2	0.0150970835
20	0xbdbf3d77	-0.09337895
21	0x3e1fc49b	0.15602343
22	0x3e043ad1	0.12913062
23	0xbe99ede3	-0.30064306
24	0x3da59228	0.08084518
25	0x3dd6f616	0.10496156
26	0x3e6f964f	0.23397182
27	0xbd5e55cd	-0.054281045
28	0xbe0313ff	-0.12800597
29	0xbc196cfd	-0.009364364
30	0x3ebc31fb	0.36756882
31	0x3e6e4574	0.23268682

graph_transformer_layer.0.attention.V.weight f4 [32, 32]
0	0xbe49daac	-0.19712323
1	0xbe25e863	-0.1620193
2	0xbb0490a6	-0.0020227819
3	0xbcc0c56f	-0.023531644
4	0x3d8c1ad9	0.06841058
5	0x3d9a1cd0	0.07525027
6	0x3d2840d6	0.041077457
7	0x3d5b06a9	0.05347315
8	0xbda14643	-0.078747295
9	0x3dceee18	0.101040065
10	0xbe121f40	-0.14269733
11	0xbdeae8cd	-0.114701845
12	0xbddfecd4	-0.10933843
13	0x3d0b534f	0.034014996
14	0xbd5642ff	-0.052309986
15	0x3dbf5d46	0.09343962
16	0x3e1c0046	0.1523448
17	0x3e40dfcb	0.1883537
18	0x3e8552b7	0.2603967
19	0xbd83b03c	-0.064300984
20	0x3de21a23	0.110401414
21	0xbca03d8b	-0.019560596
22	0xbd90a8a4	-0.07063416
23	0x3e7f6efb	0.2494468
24	0x3dc25c29	0.094902344
25	0x3d3e8162	0.046510108
26	0x3d9f6df2	0.07784642
27	0xbdb13fda	-0.08654757
28	0xbd88ce6d	-0.066799976
29	0x3d103e8b	0.035215896
30	0xbdb587f0	-0.08863819
31	0x3d94b85f	0.072617285
32	0xbdb623f6	-0.08893578
33	0x3bb8a46e	0.005634836
34	0xbe085add	-0.13315912
35	0xbb7067c6	-0.0036682948
36	0x3c1b1573	0.009465563
37	0xbd12abcb	-0.035808366
38	0xba7d3516	-0.00096590945
39	0x3e1f756a	0.15572134
40	0x3dd533fe	0.10410307
41	0x3d19f378	0.037585706
42	0x3ca91318	0.020638987
43	0xbe2bc09c	-0.16772693
44	0xbe1a197a	-0.15048781
45	0x3e06213b	0.13098614
46	0xbddb005a	-0.106934264
47	0x3e32f793	0.17477255
48	0x3c424a66	0.011858558
49	0x3ddaf5f4	0.10691443
50	0x3d628720	0.055304646
51	0xbdaf9934	-0.08574143
52	0x3e5c8c66	0.21537933
53	0xbdb2c0b1	-0.08728159
54	0xbd1ec986	-0.038766406
55	0x3e54f6a7	0.20797215
56	0xbe1e3d4c	-0.1545307
57	0xbc732fd8	-0.01484295
58	0xbd06b535	-0.032887656
59	0xbdede8b9	-0.11616654
60	0xbe0c878a	-0.13723579
61	0x3d5a3feb	0.053283613
62	0xbcf8346e	-0.030298438
63	0x3d9201b0	0.07129228
64	0xbdfce901	-0.123491295
65	0xbd213219	-0.039354417
66	0x3d1280b8	0.035767287
67	0xbb4716d0	-0.0030378588
68	0xbddf14a6	-0.1089261
69	0xbd962c57	-0.07332676
70	0x3d25bb8e	0.04046207
71	0x3baf297f	0.005345523
72	0xbdb20b75	-0.086935915
73	0x3d81bd83	0.063349746
74	0xbca0506c	-0.019569598
75	0x3b1fb77d	0.0024370842
76	0x3d5bd3cb	0.05366878
77	0xbe1ca5f2	-0.15297678
78	0x3dde99cd	0.10869179
79	0xbe0fd196	-0.14044794
80	0xbe3c0423	-0.18360953
81	0xbd5a4731	-0.05329055
82	0xbd1ee609	-0.038793597
83	0xbd5c0039	-0.05371115
84	0xbe93eb2f	-0.28890368
85	0xbe2e5404	-0.17024237
86	0xbce4fe05	-0.027953157
87	0xbde1c950	-0.110247254
88	0x3caa1ccc	0.020765685
89	0x3d0f8b19	0.035044763
90	0x3dc38276	0.09546368
91	0xbc14dbb1	-0.009085582
92	0xbe04f10e	-0.1298258
93	0xbdd7cf8d	-0.10537634
94	0xbcd3038f	-0.025758533
95	0x3cc7a5fb	0.024371138
96	0xbca73a87	-0.02041365
97	0xbdff399c	-0.1246216
98	0x3ddc1398	0.10745925
99	0x3bf1bf25	0.0073775225
100	0xbb866afa	-0.004102108
101	0xbd49b4a5	-0.04924454
102	0x3e0ef28e	0.13959715
103	0xbd1d761b	-0.038442712
104	0xbdcda873	-0.10041895
105	0x3de5800b	0.11206063
106	0xbda142af	-0.07874047
107	0xbe1678c3	-0.14694504
108	0x3d0dcf52	0.034621544
109	0x3d02e95e	0.031960838
110	0xbe2627e0	-0.16226149
111	0x3dbec6ac	0.093152374
112	0x3df74e10	0.12075436
113	0x3e128b3c	0.14310926
114	0x3d36ea20	0.044656873
115	0x3cec9e8a	0.028884191
116	0x3e501d00	0.20323563
117	0xbe25aad7	-0.16178451
118	0xbdb532a1	-0.08847547
119	0x3e803525	0.25040546
120	0x3d808fd7	0.06277435
121	0x3d93a6ea	0.07209571
122	0xbc1f690a	-0.009729633
123	0xbe249a28	-0.16074431
124	0xbd83a364	-0.06427649
125	0x3dac7642	0.084209934
126	0xbcdcba86	-0.02694441
127	0xbdc22384	-0.0947943
128	0x3c16e20c	0.009209167
129	0x3e2124cb	0.15736692
130	0xbccdbf9d	-0.025115782
131	0x3dc149e9	0.09437925
132	0x3d51a997	0.051187124
133	0xbd8d20c9	-0.06891019
134	0xbdcadd52	-0.09905495
135	0xbe0c68be	-0.13711831
136	0xbdd28412	-0.10279097
137	0xbc4ada6b	-0.012381176
138	0x3dd0c5aa	0.101939514
139	0x3db1e175	0.08685581
140	0x3caf0fa0	0.021369755
141	0xbe13036d	-0.14356776
142	0x3ddc25af	0.10749375
143	0xbe475380	-0.19465446
144	0xbe36b3e2	-0.17842057
145	0xbdc4c05d	-0.09607003
146	0xbdf88deb	-0.12136444
147	0x3dd42154	0.10357919
148	0xbe50fb2a	-0.20408311
149	0x3d645089	0.055740867
150	0x3d8efb52	0.06981529
151	0xbdf2b04a	-0.11850031
152	0x3cb89814	0.022533454
153	0xbd386516	-0.045018278
154	0xbc935968	-0.017986968
155	0x3dca76ad	0.09885917
156	0x3d0da0e0	0.03457725
157	0xbd8baf57	-0.06820553
158	0x3d11e006	0.035614036
159	0x3db7d032	0.08975257
160	0x3e84bce8	0.25925374
161	0x3d036f77	0.032088723
162	0xbe066552	-0.13124588
163	0x3de9d5ec	0.114177555
164	0xbe2d4fa5	-0.16924913
165	0xbdc97399	-0.09836502
166	0x3d81badf	0.06334471
167	0xbdf2b0b7	-0.11850112
168	0xbda4fab9	-0.08055634
169	0xbe836630	-0.256639
170	0xbd2b7a2c	-0.04186456
171	0xbe22338a	-0.15839973
172	0x3d7f4bd9	0.062328193
173	0xbd2890df	-0.041153785
174	0xbd082f1e	-0.03324806
175	0x3da6eda6	0.081507966
176	0xbd47257d	-0.048619736
177	0x3da55847	0.08073478
178	0x3cb8729c	0.022515588
179	0xbe2985f7	-0.1655501
180	0xbbd38777	-0.0064553577
181	0x3e190a61	0.14945365
182	0xbe86f046	-0.2635519
183	0x3c71321b	0.014721419
184	0x3dc45c6c	0.095879406
185	0xbdf24ead	-0.118314125
186	0x3db87d4d	0.09008274
187	0xbdf68ec9	-0.12038953
188	0xbc481723	-0.0122125475
189	0xbe4bdb2a	-0.19907823
190	0x3d310d9c	0.04322587
191	0xbe0445d9	-0.1291727
192	0xbdd4d94d	-0.10393009
193	0x3cc05a2e	0.023480501
194	0x3c3130e3	0.010814878
195	0xbcd67d55	-0.02618281
196	0xbd2ff9f2	-0.042962976
197	0xbd1d0bb1	-0.038341228
198	0x3d85cf07	0.06533628
199	0xbdbe21c5	-0.09283785
200	0xbd9e110f	-0.077180974
201	0xbe351c40	-0.17686558
202	0x3e050b99	0.12992705
203	0xbd0c98b0	-0.0343253
204	0x3e603d15	0.21898301
205	0x3ae43cc7	0.0017413133
206	0x3db5c2b1	0.08875025
207	0xbe1b6607	-0.15175639
208	0xbe43faf2	-0.19138697
209	0xbe5bbcc1	-0.21458723
210	0x3c0be069	0.00853739
211	0x3cc8fcf7	0.024534686
212	0xbd9911ea	-0.0747412
213	0x3e6778aa	0.22604623
214	0x3db35b4f	0.0875765
215	0xbdbd3f0b	-0.0924054
216	0x3e8a2fa3	0.2698947
217	0xbdf11932	-0.11772384
218	0xbdf8f2a4	-0.12155655
219	0xbd6cbd26	-0.057797574
220	0x3b4b33ee	0.0031006294
221	0xbe6ba71b	-0.23012964
222	0xbd159428	-0.036518246
223	0xbce3118e	-0.027718332
224	0x3d413e2d	0.047178436
225	0xbdc5ab9f	-0.09651875
226	0x3ced247d	0.028948063
227	0x3d8400f7	0.064454965
228	0x3e20b9e6	0.15695915
229	0x3e5f7427	0.21821652
230	0x3e7b4cdf	0.24541043
231	0x3d5a31a8	0.053270012
232	0x3d989a2e	0.074512824
233	0xbcec432c	-0.028840624
234	0x3dda17f4	0.106491
235	0xbccded7c	-0.025137655
236	0x3d2799f1	0.040918294
237	0xbe0e87e8	-0.13919032
238	0xbd960b0b	-0.07326325
239	0xbc2e30df	-0.010631769
240	0x3d03f0a5	0.03221192
241	0xbe2ac606	-0.16677102
242	0x3c986fd7	0.018608017
243	0x3da6f3d7	0.081519775
244	0xbdb7cb7f	-0.08974361
245	0x3bb8d17e	0.005640208
246	0x3e2ffc93	0.17186193
247	0x3e2ec1c3	0.17066102
248	0x3c8054d9	0.015665459
249	0xbd4d264d	-0.050085355
250	0xbe1c72b3	-0.1527813
251	0xbd98c31c	-0.07459089
252	0xbcd0cbbe	-0.025487777
253	0xbe87b9e2	-0.26509005
254	0x3e1b1511	0.15144755
255	0xbd899d02	-0.067194

graph_transformer_layer.0.attention.V.bias f4 [32]
0	0x3d8324a6	0.064034745
1	0x3dbc8f35	0.09207002
2	0x3e5d9acc	0.21641082
3	0x3dca2940	0.09871149
4	0xbd54bb9c	-0.05193673
5	0x3e5822bc	0.21107
6	0x3d9ff9d2	0.07811321
7	0xbcbb5359	-0.022866892
8	0xbd818dfd	-0.0632591
9	0x3c101b37	0.008795551
10	0xbde86844	-0.11348012
11	0x3e0cab7f	0.13737296
12	0x3d825701	0.06364251
13	0xbdebafec	-0.11508164
14	0xbe052a22	-0.13004354
15	0x3d80c0d8	0.06286782
16	0x3d2851a6	0.04109349
17	0x3db0a913	0.08625998
18	0xbbce4a65	-0.0062954896
19	0x3e119865	0.1421829
20	0x3d7a1982	0.061059482
21	0x3db52110	0.08844197
22	0xbdd5389f	-0.1041119
23	0xbe4152f2	-0.18879297
24	0xbe16aba8	-0.14713919
25	0x3cfd5ab2	0.030927036
26	0x3dd72238	0.105045736
27	0x3dbdf0fc	0.0927448
28	0x3dc1a916	0.09456079
29	0x3cb7d66e	0.022441115
30	0xbdba6172	-0.091006175
31	0x3d8e0f1f	0.06936478

graph_transformer_layer.0.attention.proj_e.weight f4 [32, 32]
0	0xbd3a9059	-0.045547817
1	0xbdc9cc51	-0.098534234
2	0xbc586aea	-0.013209084
3	0x3e27916d	0.1636407
4	0xbd6e6204	-0.058198944
5	0xbe0cb839	-0.1374215
6	0xbe12eed4	-0.14348918
7	0xbd7197fe	-0.05898284
8	0x3dccf608	0.10007864
9	0x3e013d16	0.12620959
10	0xbbf7938c	-0.0075554308
11	0xbd62afa4	-0.055343285
12	0x3c9cae7b	0.019126168
13	0x3c3a7e4a	0.011382649
14	0xbe952283	-0.29127893
15	0x3e44d10c	0.1922037
16	0x3ca0ea70	0.019643039
17	0xbc748118	-0.0149233565
18	0xbc552963	-0.013010356
19	0x3d497e3f	0.049192663
20	0xbe4c767a	-0.1996707
21	0x3de543bf	0.11194562
22	0xbc9a1211	-0.018807443
23	0xbe0526e7	-0.13003121
24	0xbd69031d	-0.056887735
25	0x3da1b912	0.078966275
26	0xbe57d724	-0.21078163
27	0x3d936cd5	0.071984924
28	0xbebb0c67	-0.365329
29	0xbe1dffbd	-0.15429588
30	0xbd8e0339	-0.069342084
31	0xbddd2d40	-0.107996464
32	0xbdba5c1e	-0.09099601
33	0x3d70c9fb	0.058786374
34	0xbd2fd85d	-0.04293095
35	0xbb405de4	-0.0029352838
36	0xbe4f5ba3	-0.202498
37	0xbdef5332	-0.1168579
38	0x3d00a52d	0.031407524
39	0xbdf9ea5e	-0.12202905
40	0x3dd60f17	0.10452097
41	0xbe124d98	-0.14287412
42	0xbdc65eb1	-0.0968603
43	0x3cbb01a0	0.022827923
44	0xbe9306a1	-0.28715995
45	0xbe8cfee4	-0.27538216
46	0xbd6aadac	-0.057294533
47	0xbdbffaec	-0.093740314
48	0xbdc80552	-0.0976664
49	0xbbfc55c4	-0.0077006537
50	0x3d36f802	0.044670112
51	0xbe5abd34	-0.21361238
52	0xbe6352a7	-0.22199498
53	0xbe5f3f54	-0.21801502
54	0xbea8cd80	-0.32969284
55	0xbe11768d	-0.1420538
56	0xbe0ac273	-0.13550739
57	0x3e0bb3b1	0.13642766
58	0xbd993c39	-0.0748219
59	0xbdee76b3	-0.11643734
60	0x3e066c8f	0.1312735
61	0xbeab8d85	-0.33506408
62	0xbd5db793	-0.05413015
63	0xbe5fbe68	-0.21849978
64	0x3da09ab9	0.07842011
65	0xbddb329c	-0.10703012
66	0xbe5ef8e9	-0.21774639
67	0xbd10da58	-0.03536448
68	0x3e75e04b	0.24011342
69	0x3d8f4338	0.06995243
70	0xbd4114d1	-0.047138993
71	0xbe44b08d	-0.19207974
72	0xbdf44c80	-0.11928654
73	0xbe9129d2	-0.2835222
74	0x3e25c177	0.16187082
75	0x3e18a428	0.1490637
76	0x3c202328	0.009774007
77	0x3d55080d	0.05200963
78	0xbc3139c2	-0.010816993
79	0x3db42270	0.08795631
80	0x3e93f104	0.28894818
81	0xbdc63e65	-0.096798696
82	0xbdc7b477	-0.09751218
83	0xbd05a92c	-0.032632038
84	0xbebc1e76	-0.3674199
85	0xbe5fd89c	-0.21859974
86	0x3e061055	0.13092168
87	0x3da580b5	0.080811895
88	0x3c2d28a0	0.010568768
89	0x3e887007	0.2664797
90	0x3d10ee1d	0.035383333
91	0xbe4927a1	-0.19644023
92	0xbda2b294	-0.07944217
93	0x3dece4a5	0.11567048
94	0x3daf3c3d	0.085564114
95	0x3cb5876a	0.022159297
96	0xbc90b4c1	-0.017664315
97	0x3e1e984e	0.15487787
98	0x3d76ecc5	0.060284395
99	0x3d8fc753	0.0702044
100	0xbd477199	-0.04869232
101	0x3d0fc6f7	0.035101857
102	0x3ddf0112	0.10888876
103	0x3e875997	0.2643554
104	0x3e153764	0.14571911
105	0x3dd0849e	0.10181545
106	0x3d2d6967	0.042336848
107	0xbe823b96	-0.25436085
108	0x3e34255e	0.1759238
109	0x3e10460f	0.14089225
110	0x3e2490d8	0.16070879
111	0x3eaac730	0.33355093
112	0xbcf616e9	-0.030040221
113	0xbe3adee6	-0.18249092
114	0x3e5288a6	0.2055994
115	0xbdcc726a	-0.0998276
116	0x3e9aa26f	0.30202052
117	0x3e379428	0.17927611
118	0x3df96a13	0.12178435
119	0x3e638213	0.22217588
120	0x3e1c42af	0.15259813
121	0xbe5daefa	-0.2164878
122	0xbd89d23b	-0.067295514
123	0x3dcdf0a6	0.10055666
124	0x3cc0683f	0.023487208
125	0xbe138b99	-0.14408721
126	0x3e832689	0.25615337
127	0x3e9a2b5c	0.30111206
128	0xbdb74b2d	-0.089498855
129	0xbcdf09f1	-0.02722642
130	0xbdc03f78	-0.09387106
131	0xbb66c0aa	-0.0035210052
132	0x3c1a647e	0.009423373
133	0x3ebbf013	0.367066
134	0xbd49a5fe	-0.049230568
135	0xbce9bcd2	-0.02853242
136	0x3d50a4c1	0.05093837
137	0xbc55af00	-0.0130422115
138	0xbda0ef50	-0.07858145
139	0xbc7ff70a	-0.015622864
140	0x3e02fe0f	0.12792228
141	0x3ddfde57	0.1093108
142	0x3e89c9cd	0.26911774
143	0xbe432c9a	-0.19059983
144	0xbdb14f91	-0.08657754
145	0xbe0b9d84	-0.13634306
146	0xbe7ee428	-0.24891722
147	0x3d0cc59c	0.034368142
148	0x3dba630c	0.09100923
149	0x3de6e6fc	0.112745255
150	0x3c4b586d	0.012411219
151	0x3d6a22e9	0.0571622
152	0xbe64747a	-0.22310057
153	0xbdee2921	-0.116289385
154	0x3db5f4ed	0.088846065
155	0xbe0a6d30	-0.13518214
156	0x3ecdf251	0.40223935
157	0xbe289576	-0.16463265
158	0xbde5836b	-0.112067066
159	0x3d30b3c2	0.04314018
160	0xbe9ddc5c	-0.30832183
161	0xbe18a929	-0.1490828
162	0x3e686260	0.22693777
163	0x3dccaf65	0.09994391
164	0x3e448534	0.19191438
165	0x3d80598e	0.06267081
166	0x3e8b10f1	0.27161363
167	0x3e62e423	0.2215734
168	0x3e55c79b	0.20876925
169	0x3e60093d	0.21878524
170	0x3e300fc2	0.17193511
171	0xbd816aef	-0.06319224
172	0x3e473c1c	0.19456524
173	0x3e807526	0.25089377
174	0xbdae967d	-0.08524797
175	0x3ededdc0	0.43528557
176	0x3e2010d1	0.15631415
177	0xbd83c17f	-0.06433391
178	0x3d171f35	0.036894996
179	0xbe14af53	-0.14520006
180	0x3d181388	0.037128
181	0xbe0991ae	-0.13434479
182	0x3ede57f8	0.4342649
183	0x3e767202	0.24066928
184	0x3e067719	0.1313137
185	0xbd02fa71	-0.03197712
186	0xbe0a7fcc	-0.13525313
187	0x3e993263	0.29921255
188	0xbe9b074a	-0.30279
189	0xbc2aabb2	-0.010416912
190	0x3eaa99e2	0.33320528
191	0x3eb64f84	0.3560754
192	0x3e1f181a	0.15536538
193	0x3e04ec57	0.12980781
194	0xbe3680c4	-0.17822558
195	0xbd6728f5	-0.056435544
196	0x3e2c131a	0.16804162
197	0xbd34fb77	-0.044185128
198	0x3e379311	0.17927195
199	0x3df4bfaa	0.119506195
200	0x3d097e5c	0.03356777
201	0xbcd4f81d	-0.025997216
202	0x3c947f50	0.018127114
203	0xbe2ede2b	-0.17076938
204	0x3d37e10e	0.044892363
205	0x3d6a9aef	0.057276662
206	0x3ce5062d	0.027957046
207	0x3e386184	0.1800595
208	0x3e037563	0.12837748
209	0xbdd1e83a	-0.10249372
210	0x3e15caed	0.14628191
211	0xbe360bfa	-0.17778006
212	0xbe0f0298	-0.13965833
213	0xbe47bf0d	-0.19506474
214	0xbdaa1fde	-0.083068594
215	0xbdbaa05c	-0.091126174
216	0xbd101498	-0.03517589
217	0x3db569ec	0.088580936
218	0x3db7a158	0.08966321
219	0x3a581a55	0.000824367
220	0x3e3e4498	0.18580854
221	0x3e1bc225	0.15210779
222	0x3e2ac2a8	0.16675818
223	0x3c53cdb6	0.012927463
224	0xbd2faac1	-0.042887453
225	0xbd634b67	-0.05549183
226	0x3eb809b8	0.35944915
227	0xbe4e40f7	-0.2014197
228	0xbd0e9c6b	-0.03481714
229	0x3c15760f	0.009122386
230	0x3e9122dc	0.28346908
231	0x3df38bbd	0.11891887
232	0x3d15ad1e	0.03654205
233	0x3d672773	0.056434106
234	0xbe3f8ac0	-0.18705273
235	0xbe11d4a6	-0.14241275
236	0x3e23d57b	0.15999405
237	0x3e3e98bc	0.18612951
238	0xbe0e37a5	-0.13888414
239	0x3d1922a5	0.037386555
240	0xbf174b04	-0.5909884
241	0xbd145b91	-0.036220137
242	0x3da8db18	0.08244914
243	0xbcbdeebd	-0.023185128
244	0x3d344edb	0.044020515
245	0x3d71473e	0.058905832
246	0x3de9d423	0.11417415
247	0x3e5e33f7	0.2169951
248	0x3e0694ba	0.13142672
249	0x3e008839	0.12551965
250	0x3cc6c5b0	0.024264187
251	0xbd102268	-0.035189062
252	0xbd478be4	-0.048717394
253	0x3bb3364b	0.0054691187
254	0x3ddf5c9f	0.10906338
255	0x3eb2358a	0.34806472
