checkpoints/casp15_official_v7_gcpnet_fold9.ckpt (torch, 958679 bytes, 160 tensors)

resnet_embedding.node_embedding.weight f4 [64, 15]
00000000: 294d ea3d 711b 653e 4e6f b13d 8c48 e3bd
00000010: 4fb8 bc3d 0ef6 89bb c964 1b3e 445a 173e
00000020: 98d7 38be 50d5 d63d 15cb 15be 3f2f 81bd
00000030: 50d8 2ebe 1da3 1ebe 3e28 2dbe 90f0 41bb
00000040: dd0f 01bd a783 903d 01ba 463e 9999 833d
00000050: 45ea 1abe 1d9e ce3d 5c62 483e e468 46be
00000060: 564b 12be 8aca 033e 0b49 9dbd 1a19 b8bd
00000070: 9267 4e3e e1cc f5bd 942e 5dbd ad88 653d
00000080: f155 3bbe d6fc 0b3e 3c3c 293e d36f f93d
00000090: 25e0 373e cf16 9bbd 7491 1fbe 124f dcbd
000000a0: 6863 d4bc 3644 45be afb2 db3c e14c fabd
000000b0: 426e 8b3c c2c2 263e 8e7b 503e bcc8 4f3e
000000c0: 6a95 dcbd aca5 0abe fc81 963d c1ee 31bc
000000d0: a5be febd 1be8 f23d 7f35 153e 4efa 3fbe
000000e0: 8173 babc b619 953d 8dd0 08bd e986 25be
000000f0: 6e44 113e b4e0 373e cf93 283e 73e9 303e
00000100: 1d77 1abb a2a5 953d ad80 26ba a3a1 4e3e
00000110: 3446 11be 0020 4abe 24a4 9c3d bed7 093e
00000120: da2a 323e 465d cebd a6e5 45be 13da 85bc
00000130: 7a66 e03d 8c21 b93d 9e4b 14be a34e 36be
00000140: a799 f53d c4d5 afbc 63bb fd3d dc1e 143e
00000150: 866e cbbd 0adb 173e 6409 04be 9c3b 263e
00000160: f3ce 9b3d 5d33 503e 8e60 073e da7d 173e
00000170: f1ea d7bd c736 0f3e 692e 593e a01a 163e
00000180: 0fb7 193d ce3c 09be 2e82 673c 9336 51be
00000190: 4d74 65bc ed3d d93d 9629 2d3e 59e9 cabb
000001a0: b37a 77bd cec1 8e3d 41e8 9d3d 625b 3a3e
000001b0: 8fdb 04be 2985 5b3e 74c8 6d3d 012b 303e
000001c0: b6bd 1c3e 608e 95bd cf50 383e b250 293b
000001d0: d0fc 46be 6069 3f3e 7875 343e afb4 da3d
000001e0: cedb ebbd 8f03 313e 92ad 39be f863 7e3d
000001f0: 2af9 1a3e cfdb 233e 6f6f 04be edc9 0a3d
00000200: d1ad 27be 8bfc 25be 5d00 373d 7345 b83d
00000210: ced9 1f3b 3b62 113d ed52 493d 8a81 5f3d
00000220: 15ba 2a3e cabb 583e ef50 0bbd ca21 5a3c
00000230: 5c5d d4bc 36e2 a7bc b850 083e 57c5 95bd
00000240: 789c ad3d b5ca c43d eced a43d beb8 42be
00000250: 2873 c5bd c87c 47bc cc32 9e3d 4c6f 85ba
00000260: 5189 633e a906 063e 1fc2 bf3d 1dda 10be
00000270: e493 a03d 3e83 8c3c 3644 23bd 46ef f0bd
00000280: 846b a43a 55e4 e4bd 1f12 d5bc d9f9 683d
00000290: 5a1c f9bc 29cb 19be 87e6 2cbd 40cf 0abe
000002a0: 05a6 17bd 37f8 e93b 7081 4cbb 498f ca3c
000002b0: 4a4b b83d c642 8eba 9ad4 febd 622c c23d
000002c0: 78be f83c 454e a83d 6b77 abbd 80e8 65bd
000002d0: 48f4 16be b713 77bd 45d4 993c def6 ef3d
000002e0: d02c b73d a9a1 e3bc 8f7f 4dbe a4c6 af3d
000002f0: 5b89 1fbe 5dbb 89bd 2fcb 0a3e c348 15bd
00000300: f9a9 61bd 8836 8abd 7151 e1ba c92b 7abd
00000310: cd0b 1fbc 389f d13d ef3c 40be 1b5b e23d
00000320: ef8c 58be 8ae3 563d b98a 4e3e 83f1 a8bd
00000330: 9919 c43d def9 4f3e 1386 cb3c 557d 813c
00000340: e71a 2abe 1aca 3fbe d2c4 bd3d 3d7d 8e3d
00000350: 2de8 afba d877 183e bea3 4dbe 9f77 18be
00000360: d4d0 14bc 954e 0ebe 5572 d63d 7035 413d
00000370: 04b6 8e3d 71e5 103e 651f 97bd 5e35 04be
00000380: bd43 b73d ed18 2abe 8ac6 063e a27e 30bd
00000390: d2bd ef3d 4a54 2cbe b683 843d 209a 153b
000003a0: f068 8d3d 826e 2a3e bb61 2b3e bdf7 a13c
000003b0: b065 32bd ecd3 14be a509 2bbe eac5 c9bd
000003c0: 762a bc3d aabf 273e d732 31be 3ef6 3c3e
000003d0: 8f02 64be 7810 023b 8d86 b0bd 2692 683d
000003e0: ef0d 2d3c 7099 11bd 046b aebd 5f98 8abd
000003f0: 3cf9 333d 3894 0dbe bcb9 793c bee5 343b
0.114404984 0.2237375 0.08663808 -0.110978216 0.092148416 -0.00421024 0.15175165 0.14780527
-0.18050992 0.10489905 -0.14628251 -0.063078396 -0.17074704 -0.1549191 -0.16909882 -0.002959285
-0.03150927 0.07056361 0.19406892 0.06425781 -0.15128429 0.100887515 0.19568771 -0.1937595
-0.14286551 0.12870231 -0.076799475 -0.08989163 0.20156696 -0.12001968 -0.0539995 0.056038547
-0.18294503 0.13670668 0.16526884 0.12179532 0.17956598 -0.0757271 -0.1558283 -0.10757269
-0.025926307 -0.19264302 0.026818601 -0.12221695 0.017020348 0.16285232 0.20359632 0.20291418
-0.10770686 -0.13539761 0.07349011 -0.010860146 -0.12438706 0.11860677 0.14571188 -0.18747827
-0.022760155 0.072802946 -0.033402015 -0.16164745 0.1418626 0.17956811 0.16462635 0.17276554
-0.0023569532 0.073069826 -0.00063515716 0.20178847 -0.14186937 -0.1973877 0.07648495 0.13461205
0.17399159 -0.10076384 -0.19325885 -0.016339337 0.10957046 0.09039602 -0.1448197 -0.17803435
0.119921975 -0.021464236 0.12389257 0.14464897 -0.0993319 0.1482965 -0.12894207 0.16233677
0.07607832 0.20332094 0.13220426 0.14794102 -0.105428584 0.1398574 0.2120911 0.14658594
0.037528094 -0.13402101 0.014130158 -0.20430975 -0.014004779 0.106075145 0.16910395 -0.006192368
-0.06041975 0.06970559 0.077103145 0.18198922 -0.1297438 0.21437515 0.058052495 0.17203905
0.15306744 -0.073025465 0.17999576 0.0025835452 -0.19432378 0.18692541 0.17622936 0.10678994
-0.11516534 0.17286514 -0.18132618 0.062107056 0.15134111 0.16001819 -0.12933134 0.033883978
-0.163749 -0.16209619 0.04467808 0.089976214 0.0024391296 0.03549407 0.04915135 0.054566897
0.16672547 0.21165386 -0.03401273 0.01331372 -0.025923423 -0.020493608 0.13312042 -0.0731303
0.0847711 0.09608976 0.080531925 -0.19015786 -0.09641105 -0.012175746 0.077245325 -0.0010180264
0.22220351 0.13088478 0.093631975 -0.14145704 0.07840708 0.017152425 -0.039859973 -0.11764388
0.0012544249 -0.111763634 -0.026009617 0.0568789 -0.030409027 -0.15018906 -0.042212036 -0.13555622
-0.037023563 0.007140185 -0.003120508 0.024726527 0.08998735 -0.001085364 -0.12442894 0.094811216
0.03036426 0.08218054 -0.083723865 -0.056129932 -0.14741623 -0.060321536 0.018777976 0.11717008
0.08944094 -0.027787047 -0.20068191 0.085828096 -0.1557974 -0.0672519 0.13554071 -0.036446344
-0.05509374 -0.06748682 -0.0017190409 -0.061076913 -0.009707403 0.10235447 -0.18773244 0.11052533
-0.21147512 0.052463092 0.20170106 -0.0824919 0.09575195 0.2031016 0.024844205 0.015806833
-0.16611825 -0.1872944 0.09266056 0.06957481 -0.0013420634 0.14889467 -0.20081994 -0.14889382
-0.009082992 -0.13897164 0.10471026 0.047170103 0.069683105 0.14150025 -0.07379035 -0.12910983
0.08948467 -0.16611071 0.13161674 -0.043089516 0.11706127 -0.16829029 0.06470434 0.0022827461
0.06904781 0.16643718 0.167365 0.019771451 -0.043554008 -0.14533967 -0.16702898 -0.09852202
0.09187786 0.16381708 -0.1730455 0.18453309 -0.22266601 0.0019846242 -0.086194135 0.056780003
0.010562404 -0.03554672 -0.08516505 -0.06767344 0.04393886 -0.13826072 0.015242036 0.0027602757

resnet_embedding.node_embedding.bias f4 [64]
00000000: 7ccc 553d 0ca7 1fbd 8676 c93c 1f56 52be
00000010: b684 4ebe a7c3 f2bd fece f23d 69da a83c
00000020: d81e 53be a5c4 483e 5a24 2fbd 4cba fc3c
00000030: 2340 0a3e 1105 483e eb86 4dbd 1d8e 563d
00000040: e395 3f3e 4f1b e5bc 8029 c83d bc0d 8cbd
00000050: e059 4d3d 9872 443d 5aab a2bd 7040 473d
00000060: ebbf a33d 3b4d 9d3d 91f7 323e cdb9 113e
00000070: 341c 113e 28a4 8e3d fa6a 7a3c 320a debb
00000080: 4a54 08be 9b3e b93d 5f55 3d3d 957f 163e
00000090: bd2a bfbd c3f5 92bc d05a 52be 5207 ea3d
000000a0: d411 953c 7f1c 3e3e bc06 483e 3119 a2bc
000000b0: d464 39be f0b6 4a3e 89e7 f5bd df42 24be
000000c0: f64e d5bd 29ba 073e 346f b8bb 4a57 26bd
000000d0: fdaf 51bb fff7 47be 1f77 13bd 8a05 323e
000000e0: 3973 7dbd 6c7d 4a3e 95ab 42be 5e97 c6bd
000000f0: 8eb7 28be 358f 543e e1ee 903d f0b5 d2bd
0.052196965 -0.038977668 0.02459265 -0.20540665 -0.20167813 -0.11853724 0.11855887 0.020611959
-0.20617235 0.19606264 -0.042759277 0.030850552 0.13501029 0.19533183 -0.050177496 0.052381624
0.18709521 -0.027967123 0.097735405 -0.06838557 0.05013454 0.047960848 -0.07942839 0.048645437
0.0799559 0.07680746 0.17477252 0.14231034 0.14170915 0.06964904 0.015284294 -0.0067761177
-0.13313404 0.09045144 0.046223994 0.14697106 -0.093343236 -0.017939454 -0.20542455 0.114271775
0.018196978 0.18565558 0.19533819 -0.019787403 -0.18104869 0.19796348 -0.120070525 -0.16041134
-0.10415451 0.13254608 -0.005628491 -0.04061059 -0.0031995766 -0.19528197 -0.036002275 0.17384925
-0.061877463 0.19774407 -0.19010766 -0.0969684 -0.1647627 0.20757754 0.070768125 -0.10288608

resnet_embedding.bn_node.weight f4 [64]
00000000: 690a 4f3f 481a 4f3f 6bd4 4e3f e5bc 4e3f
00000010: 51ab 4e3f f2c3 4e3f f763 4e3f 534e 4f3f
00000020: 1321 4f3f a601 4f3f 9cce 4e3f cd58 4f3f
00000030: 0093 4e3f 82e0 4e3f c7bd 4e3f 04bb 4e3f
00000040: 7fe9 4e3f 580d 4f3f db81 4e3f 3787 4e3f
00000050: 5daf 4e3f 2cdd 4e3f 0698 4f3f d0e0 4e3f
00000060: 848b 4e3f f3fe 4e3f 4819 4f3f 5904 4f3f
00000070: 9fb2 4e3f 30e7 4e3f c82d 4f3f 0306 4f3f
00000080: 5f11 4f3f 8aa3 4f3f 3b9f 4e3f cb4f 4f3f
00000090: 3217 4f3f 46a7 4e3f 589a 4e3f 9aea 4e3f
000000a0: 725a 4e3f 8678 4f3f 8eac 4e3f 455d 4e3f
000000b0: f070 4f3f b574 4e3f c30c 4f3f 51ba 4e3f
000000c0: fbac 4e3f 708d 4e3f 0b72 4f3f f0c5 4f3f
000000d0: a712 4f3f e4e4 4e3f b24d 4f3f d5ed 4e3f
000000e0: e7f1 4d3f c2fc 4e3f 2542 4f3f 0917 4f3f
000000f0: adcc 4f3f f80c 4f3f 44f8 4d3f a5c7 4e3f
0.8087526 0.80899477 0.80792874 0.8075698 0.8073016 0.8076774 0.80621284 0.8097889
0.8090984 0.8086189 0.8078401 0.80994874 0.80693054 0.8081132 0.8075833 0.80754113
0.80825037 0.80879736 0.80666894 0.8067507 0.80736333 0.8080623 0.81091344 0.80811787
0.80681634 0.8085777 0.8089795 0.8086601 0.80741304 0.80821514 0.8092923 0.8086855
0.8088588 0.81108916 0.80711716 0.8098113 0.8089477 0.8072399 0.8070426 0.80826724
0.8060676 0.8104328 0.8073205 0.8061107 0.81031704 0.8064683 0.8087885 0.80753046
0.807327 0.80684566 0.8103339 0.81161404 0.80887836 0.8081801 0.8097793 0.8083165
0.8044724 0.8085443 0.80960304 0.80894524 0.81171685 0.80879164 0.8045695 0.80773383

resnet_embedding.bn_node.bias f4 [64]
00000000: 132c e0ba fff3 d5ba a468 d6b9 64f8 6abb
00000010: efd9 483a 8056 e5b9 8e9f 693b 93ef bd3b
00000020: fa05 adb9 262c 853a 8682 be39 fa5e f2b9
00000030: 9dce 4abb e9a5 8c39 4d3a 04ba 32a3 d0ba
00000040: 45b1 203a f3f7 36ba fb15 f1b8 11b7 d6b8
00000050: 0867 87ba 528a 423b ad70 8aba f86b 36b9
00000060: 2e70 89ba 0725 57bb 18de 563b a69e e238
00000070: 4f05 dfba ffbe 2fba 8735 cc3a b5ca 0d3b
00000080: 455c 8f3a e06a c53a bad7 bfba fcd2 23b7
00000090: 70be 3637 6055 0abb ad5b dfba 3ea6 ca38
000000a0: 349a aeba ad2b a33b ae03 2dba e453 523b
000000b0: 308c 8438 f0b4 4abb eb47 253a 74e9 7cba
000000c0: 948c c5bb ac1e dfb9 9b6f c939 e849 db3b
000000d0: dc39 dd3a 8e12 e93a 9416 ef3a 61ff 11ba
000000e0: 0761 e6bb ecc8 933b 9d78 b739 7f4b 03ba
000000f0: 7e24 3d3b a89e 51b9 8d99 4239 33c5 9b3a
-0.0017102979 -0.0016323327 -0.00040895224 -0.0035853619 0.0007661869 -0.0004374273 0.003564808 0.0057963817
-0.00033001584 0.0010160252 0.00036336872 -0.000462286 -0.0030945905 0.00026826494 -0.0005044088 -0.0015917777
0.0006129931 -0.00069796963 -0.0001149587 -0.00010238414 -0.0010330388 0.0029684496 -0.0010562144 -0.00017397094
-0.0010485703 -0.0032828467 0.0032786187 0.0001080607 -0.0017015132 -0.0006704181 0.0015579917 0.0021635715
0.0010937533 0.0015061758 -0.0014636435 -9.764681e-06 1.0892385e-05 -0.0021108016 -0.0017040871 9.6630756e-05
-0.0013321103 0.004979572 -0.00065999746 0.003209346 6.3203624e-05 -0.00309306 0.0006304967 -0.00096478243
-0.006028721 -0.00042556727 0.0003842086 0.00669216 0.0016878205 0.0017782019 0.0018240982 -0.00055693655
-0.0070306095 0.0045100357 0.00034994344 -0.0005008503 0.0028860862 -0.00019990897 0.00018558484 0.0011884331

resnet_embedding.bn_node.running_mean f4 [64]
00000000: 447e 3f3e c2ba af3d fe36 6c3c c113 60bd
00000010: c0d2 243e 01cb c23d 129b e83e 9633 323f
00000020: 48ae 17be 2819 fb3e 222c 2e3e b350 83be
00000030: 91c4 70bd 4eee ef3c 6734 65bc 7689 9fbc
00000040: 852e be3d c811 80be 837b b7bd 64fc 843c
00000050: 0b6a 22bf 7c94 233f 9248 593e 0e73 b93d
00000060: 4d79 73be 443b 59be 875b 0f3f e161 a53d
00000070: 11ae c73d fb05 2ebc 6c0f a6be d079 563e
00000080: 3a07 b3be c237 4cbe 8ae1 153f 6c83 993e
00000090: 83e2 bebd 0683 b73e 8e58 d6be 83fb 2a3e
000000a0: c261 10bf a13d 413f c21d 2c3e b548 27be
000000b0: cf3b 06bf 0e8f 1c3f ecde 1ebe 5870 32be
000000c0: 7de1 673e 3454 8fbe fd4a f1be 0b41 5fbe
000000d0: 8fba 1b3e da61 37bf 58bd 3abe 2a03 b73e
000000e0: 360e bfbe b91f b73e 9af1 153d 6612 3f3e
000000f0: 96c2 37bf 1af7 363e 3f9b a8be a5e3 0cbf
0.1870051 0.08580543 0.014417408 -0.05470634 0.1609602 0.09511376 0.4543081 0.69609964
-0.14812577 0.4904263 0.17009023 -0.25647506 -0.05878121 0.029288437 -0.0139895445 -0.019474726
0.09286217 -0.25013566 -0.08959105 0.01623363 -0.6344306 0.63898444 0.2121909 0.09055148
-0.23776741 -0.21214014 0.55999035 0.080753095 0.097499974 -0.010621543 -0.3243364 0.20944905
-0.3496645 -0.19943145 0.5854727 0.2998308 -0.093205474 0.3584215 -0.41864437 0.16697507
-0.56399167 0.75484663 0.16808227 -0.1633633 -0.5243501 0.61155784 -0.15514725 -0.17425668
0.2264461 -0.2799393 -0.47127524 -0.21802156 0.15207885 -0.71633685 -0.18236291 0.357446
-0.3731553 0.3576639 0.036607362 0.18659362 -0.7178129 0.178677 -0.32930943 -0.5503486

resnet_embedding.bn_node.running_var f4 [64]
00000000: e862 b03c f850 ae3c 438a f83c 1373 6a3c
00000010: bd5c 843d 3b87 863c 3ea6 8c3d 74e1 8e3d
00000020: 77a9 ab3c b613 703c 36a2 a03c 4c8b 793c
00000030: a7ab 653c 5bd9 b03c ebda 083c 6494 1c3d
00000040: 5e66 073c b15d 0e3c 9d17 f13b e30d d23c
00000050: f893 a93d 4562 2e3d 4f58 9a3c 1436 723c
00000060: 1ed6 213d d2f2 133d e494 b83c 61d6 473c
00000070: ff45 143c 295c 903c 4eb3 133d bcef b73c
00000080: f8b2 bd3b d454 283d 9798 433d c838 883c
00000090: 7bce d13c 804b 143d f0cb 7b3c d11f bf3b
000000a0: 26ea 883d a3c7 803d c5a9 953c 6bc7 3b3c
000000b0: e4de aa3c 1404 493d 67ed 643c 3509 0b3d
000000c0: dac3 0a3d 9427 433d 7f77 073d 910a 073c
000000d0: 890e d73c 43b2 6c3d 2175 123c 0d04 b73c
000000e0: 6402 8e3c bd13 013d 40ea 263d 6e0e f73c
000000f0: f554 843d c3b5 733c 1549 e93c 6e85 3d3d
0.021531537 0.021278843 0.030339366 0.014309662 0.06463001 0.016421905 0.06867646 0.069765955
0.02095483 0.014653137 0.019608598 0.015230965 0.014017976 0.021588018 0.008352975 0.038227454
0.008264152 0.00868933 0.0073575513 0.025641387 0.08280176 0.042574186 0.018840937 0.014783401
0.03951084 0.036120243 0.022531934 0.012197108 0.0090498915 0.01762207 0.03605967 0.022453181
0.005789157 0.041096523 0.047752943 0.016628638 0.025611153 0.036204815 0.015368447 0.0058326502
0.06685285 0.06288078 0.018269429 0.011461119 0.020858236 0.049076155 0.013972617 0.033944327
0.033878185 0.047645167 0.033072945 0.008242265 0.026252048 0.05778719 0.0089390585 0.022340799
0.017335124 0.031512965 0.040750742 0.030158248 0.06461517 0.014874878 0.028477231 0.046269827

resnet_embedding.edge_embedding.weight f4 [64, 4]
00000000: bc0e 0c3e 1470 863d b2fe babe 272c 9fbe
00000010: ce02 afbe 6c09 a73e 6385 cbbe 97ed 803e
00000020: 6043 a2bb fe6b a33e 5355 bbbe 5144 cd3e
00000030: 5b8a acbe 4afa a9be 590a f3bd 0059 1e3e
00000040: 3892 14be 26fa 72be 94e0 ca3d 7da7 acbe
00000050: 5c09 a0be 8762 b7be c5be c2be a84e a83e
00000060: b304 c0be 2aea 353d 01fb 1ebe 2784 b43d
00000070: e3b4 cabe 3de0 e23d a81e 513e 39b0 9dbe
00000080: d045 023c bdf0 4e3c c50f 8fbd fa30 34be
00000090: 886d 04bb b1b0 3e3e 896b aa3e a746 603e
000000a0: 28d3 acbd aa85 153c b417 cebd 09ee a8bd
000000b0: 02ea 9a3e ff7d 673e 4416 8f3e 7377 913e
000000c0: 331f 45be 1269 97bd 9c75 203e cfb8 4bbe
000000d0: b859 8e3e 4510 173d 203b 923e 2378 733e
000000e0: 1eed 40be 0818 5abd b6cc b0be 0722 a7bd
000000f0: ee67 c9bd 8c4e 473e 0a4d ccbe 3a6d 7abe
00000100: 2cc7 3fbe d3c6 26bd 43a7 55bd 8b14 3fbe
00000110: 8555 c93e ce47 c73e 7c80 27bd a7da 323e
00000120: 3d13 bfbe 10d8 5e3d 59e1 8c3e 4532 dbbd
00000130: 8490 40be 3aa8 073e ac5e ad3e f3d3 863e
00000140: 1bcc 4e3d 05ba e33d f99d c03e 3767 113e
00000150: 3714 9b3e 6b32 fbbb 4be7 39be abfa a83d
00000160: 1ecb 533e 1055 803e 62ae 03be c32b 243e
00000170: 3da4 e93c 30ad 6a3d 46a0 1abe c842 47be
00000180: ddc6 c4be 1ea7 a3bd 8d44 1bbe 5d8a abbe
00000190: 0cad b9be 2863 ba3e 0687 af3e d259 95be
000001a0: e977 c63e d942 113e cc52 4d3e 7848 2cbe
000001b0: 4e5e 1abe ecb9 adbe 5d41 3e3d 371f 733e
000001c0: cb17 9d3e 1c88 aebd b770 963e 2537 773e
000001d0: 3997 653e 600c 093d 9a76 e5bc 91a7 53bd
000001e0: 6e97 bc3e d5a4 523e 79e6 37bd 958a f4bd
000001f0: 2e31 783e de2f cdbe f953 bc3e aff4 823e
00000200: b47f 8fbe 9232 2dbd 0bc3 a4bd 2bd5 00be
00000210: cc63 a13e df22 8dbe 8ff9 aa3d 5a7a 84be
00000220: 4c78 cdbe 799f b73d 40e4 cb3e 6c19 e7bd
00000230: d779 86be feb2 483e e96b 9abe 1376 c3be
00000240: 4584 c5be e2f2 b7be 7370 85bb 81c1 c83d
00000250: b7f9 d63d d72b 083e 2171 18bd b9f7 de3d
00000260: 6e1b f0bd edd4 eebd 7273 b63e 0c8c 563d
00000270: 466e 32be b6cb 93be e16b 9d3e e333 823e
00000280: 1452 85be 5d30 083e 5646 83be 8640 523e
00000290: ae62 36be 38ff 0d3d 6b59 a43e df5b 00be
000002a0: 7c11 0e3e 3e8d d7bd 5445 c8be 50f4 9bbe
000002b0: 5e00 3bbe d8d0 c3bd 5610 863e e6d4 a0be
000002c0: 67a4 53be c798 b1be 3f3c c0bd 50b2 15be
000002d0: b016 663e 567f 16bb 5ca2 cabe 0757 9ebe
000002e0: b507 8abe 9101 8e3e a428 a9be 8c60 a53e
000002f0: 1ba6 5abe 522e 92bc 825b c5be 8f07 3ebb
00000300: fda1 193c 80b5 513e 9fb3 8f3e 56bc 9d3e
00000310: 6377 093d e31f a23d 38a0 3b3e 9911 203e
00000320: 88df 92be 66c5 a6be a09a c4be d278 003e
00000330: 6998 2b3e 0e08 13be 874b 10bd 89b2 a5be
00000340: 08f1 193e afee d23d 4d12 3bbd e16a 573e
00000350: 7a56 7cbd 4e0c a5be fd89 36be f770 57bd
00000360: 1b1e 28bd 3f29 c0bc ed23 463e 83d1 99be
00000370: a9ea ccbd cce8 b33e a4d6 213e 3426 a4be
00000380: 6c17 af3e 9d70 4cbe 8125 e23d 4d57 cdbd
00000390: 76e7 183e 0f6c 96bd 56bb 67be 026b 833e
000003a0: 9eb6 c93e a897 173e 9a3f ca3d 1434 b33d
000003b0: 1f8d 83be 1ba8 b4be 5a71 8fbd 9e8d 83be
000003c0: c8ef 05be e1f2 4b3e 7ffd 233e 3f9f bdbe
000003d0: 0550 7fbe 9c63 d93d a8d3 63be 2043 60be
000003e0: a696 35be f194 933e ef00 cc3e d562 10be
000003f0: bd61 8e3e 0560 9fbd 9eff ae3e 874a 2cbe
0.13677496 0.06564346 -0.36522442 -0.31088373 -0.34181827 0.32624376 -0.39750203 0.25181267
-0.0049518794 0.3191833 -0.36588535 0.40091184 -0.33699307 -0.33198768 -0.11867208 0.15463638
-0.14508903 -0.23728237 0.09906116 -0.33721533 -0.3125714 -0.35817358 -0.3803617 0.3287251
-0.37503585 0.04441277 -0.15525438 0.088142686 -0.3959113 0.11077926 0.2042185 -0.3079851
0.007951215 0.012630639 -0.0698543 -0.17596808 -0.0020206887 0.1862209 0.33285168 0.21901952
-0.08438712 0.009126106 -0.10063115 -0.082485266 0.3025666 0.22606657 0.27946675 0.28411445
-0.19250183 -0.073930874 0.15669864 -0.19894718 0.27802825 0.03688075 0.28560734 0.23776297
-0.18840453 -0.053245574 -0.34531182 -0.08160787 -0.09834276 0.19463557 -0.39902526 -0.24455729
-0.18728322 -0.040716957 -0.052161466 -0.1866018 0.3932306 0.3892197 -0.040894017 0.17466222
-0.37319365 0.054405272 0.27515677 -0.107029475 -0.18805128 0.13247767 0.3386129 0.2633358
0.05048762 0.11119465 0.37620524 0.1419953 0.3028886 -0.0076659224 -0.18154638 0.08250936
0.20682952 0.25064898 -0.1285949 0.16032319 0.028520698 0.05729407 -0.15100202 -0.19459069
-0.3843297 -0.079908594 -0.15162869 -0.33504 -0.36264837 0.36403775 0.34282702 -0.2917009
0.3876336 0.14185657 0.20051116 -0.1682452 -0.15075037 -0.3393091 0.046449054 0.23742376
0.30682215 -0.085220546 0.2938287 0.2414213 0.22420968 0.033459067 -0.028010655 -0.051673476
0.36834282 0.20570691 -0.04489753 -0.11940495 0.2423751 -0.40075582 0.36782816 0.25577304
-0.28027117 -0.042284556 -0.08045014 -0.12581317 0.3152145 -0.27565667 0.08348381 -0.25874597
-0.40130842 0.08965964 0.39822578 -0.11284146 -0.2626483 0.1959953 -0.30160454 -0.3817602
-0.38577476 -0.35927492 -0.004072243 0.09802533 0.10496848 0.13297974 -0.037217263 0.10887093
-0.11723982 -0.11661706 0.35634953 0.052379653 -0.17424878 -0.28866357 0.30746368 0.2543021
-0.26039183 0.13299699 -0.256396 0.20532426 -0.17811081 0.034667224 0.3209947 -0.12535046
0.13873857 -0.10524987 -0.39115393 -0.30459833 -0.18261859 -0.09561318 0.26184338 -0.3141243
-0.20668183 -0.34686872 -0.09386491 -0.14618802 0.22469592 -0.0022964082 -0.39576995 -0.30925772
-0.26959005 0.2773557 -0.3303882 0.32300222 -0.21352427 -0.017844353 -0.38546377 -0.0028996204
0.009377 0.20479393 0.28066728 0.3080775 0.03356112 0.07916238 0.18322837 0.15631713
-0.28686166 -0.32572478 -0.3839922 0.1254609 0.16757359 -0.14358541 -0.03522828 -0.32362774
0.15033352 0.102994315 -0.04567175 0.21036865 -0.061605908 -0.3223595 -0.17826076 -0.052597966
-0.041044336 -0.023457168 0.19349642 -0.30042657 -0.100056954 0.35138547 0.15804535 -0.32060397
0.34197557 -0.19964834 0.110423096 -0.10026417 0.14932045 -0.07344829 -0.22630057 0.25667578
0.39397138 0.14803946 0.09875412 0.087501675 -0.25693604 -0.35284504 -0.07004042 -0.25693983
-0.1307975 0.1991687 0.1601467 -0.37035558 -0.24932869 0.10614702 -0.22248709 -0.21900606
-0.17733249 0.2882457 0.39844462 -0.14100201 0.27808943 -0.07781986 0.34179395 -0.16825305

resnet_embedding.edge_embedding.bias f4 [64]
00000000: 8265 063d 86d7 d8bc c440 88be 62cd 5abe
00000010: 6b5f 943e 6b9a bd3e 4e09 c33d fe6e cabe
00000020: 9fca a0be ca90 b7be 6401 16be c0e8 1abd
00000030: 915e c2be c41b 3c3e c08c acbe a8ac c43e
00000040: 349b 943e e719 87be de27 87be 81c8 ba3e
00000050: 6a18 c9be 1e2a 273e 1545 c33e 45df 99bb
00000060: b70b 9a3d efa4 873e 200c 1ebe 83b7 bf3e
00000070: 3bc8 86be 1d90 41be 9392 ccbc b27d 76bd
00000080: 5647 34be 0e80 28be cc07 2ebc 7800 483e
00000090: 6f27 333e 3a3f ed3b 8e74 583e 268a a4be
000000a0: 43c0 c13e 87be 113d 1857 a8be 801a 083e
000000b0: 6a41 103e 83fd d53d 7d61 a33e ec33 b63e
000000c0: e07a 613e c2a5 3bbe 562a a2be 6385 97be
000000d0: 81e2 8c3e 37a9 bdbe 2c62 32be 859b 733e
000000e0: 6b8a b63e 5bd6 cf3d be96 c03d 4191 47be
000000f0: 140d c6bc e1ba 113e fb27 27be 3a6f 723e
0.03281165 -0.026469957 -0.26611912 -0.2136741 0.28979048 0.37031874 0.09523259 -0.39537805
-0.31404588 -0.35852653 -0.14648968 -0.037819624 -0.37962773 0.18369967 -0.33701134 0.38412976
0.2902466 -0.2638695 -0.26397604 0.36481097 -0.3927644 0.1632466 0.38138643 -0.0046958053
0.07521766 0.26493022 -0.15434313 0.37444696 -0.2632464 -0.18902631 -0.024972236 -0.060178466
-0.17605338 -0.16455099 -0.010621976 0.19531429 0.17495511 0.007240203 0.21138212 -0.3213665
0.37841997 0.03558209 -0.32878947 0.13291359 0.14087453 0.10448744 0.31910315 0.35586488
0.2201953 -0.1832495 -0.31672925 -0.29593953 0.2751656 -0.37043163 -0.17420262 0.23789795
0.3565248 0.10148307 0.09403752 -0.19489004 -0.024176158 0.14231445 -0.16323845 0.23675242

resnet_embedding.bn_edge.weight f4 [64]
00000000: 47e8 4e3f 66ea 4e3f 53e7 4e3f fce8 4e3f
00000010: d1e8 4e3f 48e9 4e3f 13ea 4e3f 96e7 4e3f
00000020: 01e8 4e3f faea 4e3f 57ea 4e3f afeb 4e3f
00000030: a8ea 4e3f 16e8 4e3f 3ce9 4e3f 45e8 4e3f
00000040: 5be8 4e3f c5ea 4e3f 1ae7 4e3f d4e8 4e3f
00000050: 70e9 4e3f fae8 4e3f 7ce8 4e3f 6de7 4e3f
00000060: 8de9 4e3f 8ee9 4e3f 60eb 4e3f c2e8 4e3f
00000070: 66e9 4e3f 3fe9 4e3f 35e6 4e3f c2e8 4e3f
00000080: 38e8 4e3f 51e9 4e3f 03e8 4e3f 1ce8 4e3f
00000090: 71e7 4e3f 3ee8 4e3f 34e9 4e3f 73e8 4e3f
000000a0: 60e8 4e3f cce7 4e3f b1e7 4e3f c4ea 4e3f
000000b0: e7ea 4e3f 9fe7 4e3f 8ce6 4e3f ecea 4e3f
000000c0: d7e9 4e3f 1ce8 4e3f 43e7 4e3f 5de9 4e3f
000000d0: 14e8 4e3f 21e7 4e3f cbe8 4e3f a1e6 4e3f
000000e0: 64e6 4e3f e6e6 4e3f e0e9 4e3f 40e9 4e3f
000000f0: 7ee9 4e3f 3ee8 4e3f a2e6 4e3f 7ae9 4e3f
0.8082318 0.80826414 0.8082172 0.80824256 0.80824 0.8082471 0.8082592 0.8082212
0.8082276 0.80827296 0.80826324 0.80828375 0.8082681 0.80822885 0.8082464 0.80823165
0.80823296 0.8082698 0.80821383 0.8082402 0.8082495 0.80824244 0.80823493 0.8082188
0.8082512 0.80825126 0.80827904 0.8082391 0.8082489 0.80824655 0.8082002 0.8082391
0.8082309 0.8082476 0.8082277 0.8082292 0.808219 0.80823123 0.8082459 0.8082344
0.80823326 0.80822444 0.80822283 0.80826974 0.8082718 0.80822176 0.80820537 0.8082721
0.8082556 0.8082292 0.8082163 0.80824834 0.80822873 0.80821425 0.80823964 0.8082066
0.808203 0.80821073 0.80825615 0.8082466 0.8082503 0.80823123 0.8082067 0.80825007

resnet_embedding.bn_edge.bias f4 [64]
00000000: a952 aeb7 8af1 05b6 a7c3 eeb6 365a 2836
00000010: 3669 e836 9b5d ee36 d6a1 b937 a6e0 82b7
00000020: 08ab 5bb5 69c6 2b38 791c 3438 60aa 1138
00000030: d45f 2e37 18f2 cab6 5519 f636 43d2 5fb7
00000040: 3486 8536 30f6 1a38 0fcc f8b7 ea2b 5236
00000050: 5c49 5937 aa34 c0b7 fc94 8237 f886 c3b7
00000060: 6f67 3337 af1c e437 c63d cf37 ac06 46b7
00000070: 140c cbb6 0d2b 8ab5 d597 6db8 610a ea37
00000080: a167 c4b7 a403 3237 d231 0237 d54d 18b6
00000090: a8cb e3b7 2efc 6537 be66 0f38 07c0 fcb5
000000a0: 4803 02b6 7511 c1b7 2ddc afb7 4b3f 8537
000000b0: fa52 cf37 de9e d1b7 eb32 0cb8 1bd1 1938
000000c0: 6405 17b7 0b10 e3b7 c1a2 2eb8 058d ba36
000000d0: b678 3ab7 dbea 9cb7 b682 b7b6 321e 31b8
000000e0: 6ca5 48b8 2b40 0db8 1ee8 b937 38a0 d1b6
000000f0: c219 a437 b939 c2b6 d636 29b8 d096 bf36
-2.0780908e-05 -1.9959139e-06 -7.1157297e-06 2.508646e-06 6.926387e-06 7.10385e-06 2.212908e-05 -1.5601818e-05
-8.183274e-07 4.095436e-05 4.294186e-05 3.4729368e-05 1.039352e-05 -6.0482525e-06 7.3343203e-06 -1.3340791e-05
3.979332e-06 3.694574e-05 -2.9658926e-05 3.1318e-06 1.2951288e-05 -2.2912707e-05 1.5566584e-05 -2.3308661e-05
1.0693314e-05 2.7193075e-05 2.4705088e-05 -1.1803273e-05 -6.0512775e-06 -1.0294331e-06 -5.6646608e-05 2.7899807e-05
-2.3413277e-05 1.0610474e-05 7.7602035e-06 -2.269507e-06 -2.7155344e-05 1.3708179e-05 3.4189543e-05 -1.883135e-06
-1.937342e-06 -2.3015522e-05 -2.0964153e-05 1.5884309e-05 2.4714962e-05 -2.498872e-05 -3.3426022e-05 3.6672787e-05
-9.0015565e-06 -2.706798e-05 -4.163641e-05 5.559649e-06 -1.1114569e-05 -1.8706012e-05 -5.4690418e-06 -4.222821e-05
-4.7837777e-05 -3.367678e-05 2.2161807e-05 -6.2473373e-06 1.9562318e-05 -5.7883703e-06 -4.034381e-05 5.7098005e-06

resnet_embedding.bn_edge.running_mean f4 [64]
00000000: d8a8 e2bd a214 3cbe 1791 31be aa4e 19bf
00000010: c500 233d 4a67 bebd 8cb8 1dbe 6d5a 0ebf
00000020: 0e38 c4be 747e 3cbd 1f08 86be 5fe2 ee3e
00000030: c953 02bf 4a20 113f 00ac 29bf dae3 2d3e
00000040: 104b ac3d 6edd 473e 4496 b4be 8cf6 0d3f
00000050: 4e76 b3bd f2b8 8b3e 5306 1d3f 5540 a9bd
00000060: 8b81 b5be 365b a63e 4e44 4b3e 3744 493e
00000070: 01df a13d 0ac9 88bd c298 7a3e 23ff f73d
00000080: 32d0 debe def8 18be e84b 25bd e82c d7bd
00000090: 664c 5abe e349 183e f0b7 883e ce05 b7be
000000a0: 817d 663e 31fa 8c3d 01dd 11bf 0d20 923c
000000b0: e039 79be 82b1 14bd 9f06 6c3e 9349 103d
000000c0: 3e36 0c3f 7f08 dd3b 2fd8 4dbf a88a bfbe
000000d0: d2e5 e63e 2e0b 2cbf 4b88 4abe cb2d b33e
000000e0: f2a3 f63e d0bd e43d cf44 f23e e744 21bf
000000f0: 5e5a aabc 12ca ebbd 5db3 0a3d 369e f53e
-0.11067361 -0.18367246 -0.17340504 -0.59885657 0.039795656 -0.092970446 -0.1540243 -0.5560673
-0.38324016 -0.046019033 -0.2617807 0.46657082 -0.50909096 0.56689894 -0.66278076 0.1698145
0.084127545 0.19518062 -0.35270894 0.55454326 -0.08762799 0.2728954 0.61337775 -0.082642235
-0.35450396 0.32491463 0.19850275 0.19654928 0.07903863 -0.0667897 0.24472335 0.1210921
-0.43518215 -0.14938685 -0.040355593 -0.10506612 -0.21318206 0.14871936 0.26702833 -0.35746616
0.22508813 0.06883658 -0.5697785 0.017837549 -0.24338484 -0.036302097 0.23049401 0.035226416
0.54770267 0.0067453976 -0.80407995 -0.37410474 0.45097214 -0.6720456 -0.19778554 0.34995875
0.48171955 0.11169016 0.47318122 -0.6299576 -0.020795044 -0.11513151 0.03386246 0.47972268

resnet_embedding.bn_edge.running_var f4 [64]
00000000: 0c8c b53c ac24 fd3c 4550 243d 448c 763d
00000010: 5dff 0c3d ec26 f73d 432e b53c d256 ec3c
00000020: f2fa b03b daa7 253d ccb9 983b 3c13 ae3d
00000030: a985 553c d926 4a3d 155c 1e3d dcbb c73c
00000040: 0192 7f3c 38ea 893d 5a03 443c 76e1 ca3c
00000050: b869 1b3d 0bcf f73b 3f52 a93c fce6 e43b
00000060: f481 813d ba32 2f3d b051 533d 04e2 d03c
00000070: a33b 243d ecdb a73b 9924 de3c cfe1 ac3c
00000080: b475 a63c 6cb2 443c 103f 9b3c 59c6 2e3d
00000090: 2965 5d3d b338 f63b c507 083c b6a4 693c
000000a0: 7950 ab3c e52c 643c d2a4 0d3d a2cf d83c
000000b0: f033 493d 6b24 c33c aaa5 f63c 0dd9 273d
000000c0: e27c 3a3d 63b8 6d3c 12ae cd3d 3581 883c
000000d0: 67d3 713c dbfe 0d3d 394b a53c 6199 143d
000000e0: 61be f03b 2599 9c3c c75c 303d 7a43 833d
000000f0: 538e 023d f579 c43c fa03 273d 40b1 0a3d
0.022161506 0.030901276 0.040115613 0.06019236 0.03442322 0.12067971 0.022116786 0.028849993
0.0054010088 0.04044328 0.0046608206 0.084997624 0.013032355 0.049353454 0.038662035 0.02438157
0.015598775 0.06734127 0.01196369 0.024765711 0.037942618 0.0075625232 0.0206691 0.0069855433
0.06323615 0.042772986 0.051591575 0.025498398 0.040095937 0.0051226523 0.02711706 0.021103768
0.020319797 0.01200543 0.018950969 0.042669628 0.054051552 0.0075140833 0.008302634 0.014260462
0.020912396 0.013926719 0.034581013 0.026466195 0.049121797 0.023821076 0.030108292 0.04097848
0.045529254 0.014509293 0.10042967 0.016663173 0.014759875 0.034666877 0.02017747 0.036279086
0.0073469137 0.019115994 0.04305723 0.064093545 0.031874012 0.023983935 0.040775277 0.033860445

graph_transformer_layer.0.attention.Q.weight f4 [64, 64]
00000000: 373e 53ba 2174 663c c7f0 19bd 6f21 853d
00000010: 345d 8bbd 0e53 15bd f928 b53d 6ce8 ea3c
00000020: 759a 223d de05 333c fd70 8a3d 01df 6e3d
00000030: fca2 f0b8 f21d 8dbc 393d 4d3d d07b a4bd
00000040: 50a5 9f3d 55b3 ed3c 3b93 a93d 2e19 7e3c
00000050: 0eaa c63d 2114 b3bd d508 26bd b74f 9e3d
00000060: 29e8 cbbd 6d34 b43d a5b5 45bd 2e43 8f3d
00000070: c722 903d 0d1f 0eba 2763 74bd 5141 53bd
00000080: 96ef a2bd 78fa 693d 0084 fabc ad47 ecbc
00000090: a002 85bc 3296 aabc ee85 b73d d9cc a5bd
000000a0: 3251 57bd a7e9 3dbd d5fa b2bd 95ea f93c
000000b0: 5d35 8bbd c12b 573c ce4f 013d 1320 a03d
000000c0: 31bb a5bc 0ec5 aa3d 8bfe b1bd e297 a4bd
000000d0: 4d6a 833d 924e 91bd c747 4ebd bbb4 cc3d
000000e0: 28bf bbbd dad3 8e3d 242b a23d 9c41 113d
000000f0: 2f6c b1bd e676 85bc 1136 b63c 0838 b33d
00000100: eef4 2fbd 7c98 8d3d 8935 61bd c25f cf3c
00000110: 15e2 723d 226e 813d 01ac b13d 8980 ef3b
00000120: 7d32 943c d2b3 783c 427c b53d 98c3 aa3d
00000130: 4580 903d 6111 14bb 6256 08bc b7be a8bd
00000140: 3870 863c 96ef e43c afc7 563d d6a0 133d
00000150: 9910 22bb c529 a9bc 0c11 ccbd 4f6f 91bd
00000160: ced6 99bd 3e81 883d 8d78 033d 8912 88bd
00000170: 82de 87bc 219b 0cbd 48fe 693d ede2 fcbc
00000180: 1720 5b3d 7127 a4bc ba4a cb3c b049 9a3c
00000190: 35b6 303d b3f4 823d f18d 5e3c f373 5dbd
000001a0: 6068 943d f497 5e3d 1b4d 613c b72e fc3c
000001b0: 3317 9fbd 2b26 403d 5c54 8bbd 5662 9ebd
000001c0: 94b4 2d3d e183 4abd 77f7 a5bd f002 c73d
000001d0: 9125 a6bd a424 99bc effa 89bc d913 883d
000001e0: 7649 3abd 2e09 b43d 0f18 833d 146e 0cbd
000001f0: 5d7d cebd 5c2c cebd 30d5 00bc c6b7 c83c
00000200: 5c8f 5d3c 4651 bf3d 8701 2e3a 7ebb 103a
00000210: 8837 0c3d 4bfe bf3d 5684 e1bc 15d4 afbd
00000220: 8959 6a3d cb0e 673d 613a 6fbc 3e02 b9bd
00000230: ceb3 8a3d 07f4 3ebd 5c51 78bc 47ee 093c
00000240: a9ad 37bd 03bd 4bbd 34f5 afbc 066e 733d
00000250: 85ac 68bd 18f0 773d 008e a0ba 3e05 a4bd
00000260: 2647 c4bd 7cdc bb3d 26d1 623d f1f0 bbbd
00000270: bced a93d f7ba 23bd eae3 003d b741 663d
00000280: e5b3 b23c 710a c9bd bfcb b8bd 8354 adbd
00000290: d13f 98bd b01a 0c3d 2834 51bd 2036 a4bd
000002a0: 8438 7fbd ae69 bcbd 0e94 ad3d 28a9 48bc
000002b0: 8725 1fbd 3869 d7bb 4dc5 45bd 0d0e 2fbc
000002c0: bcdd 8cbd d2e2 b5bd c2ce fbbb a0d7 1c3d
000002d0: 28b0 593d 3387 9c3d 72cd 5abd 3e06 b4bc
000002e0: f093 55bd aacb bebd 9025 723d 23bf a83d
000002f0: 39b3 8dbd 9572 a5bd d5ea 5abd b9cd 0fbd
00000300: 9070 3aba 1601 773d ba76 2d3d 1082 74bd
00000310: d621 f03c d70b 69bd 0fd6 d1bc c272 823c
00000320: f62d 5a3d eb1f 96bd f6ef b9bc e9f9 923d
00000330: 348a 48bd fb6c 4abd 2fb1 783b b42a 043d
00000340: 5432 26bc f2f5 873c 7e5e 0b3d 6adc fa3c
00000350: b234 af3d 19a1 1d3b a7f9 78bd 5e92 c6bd
00000360: c935 0e3d b4cd febc 2b76 bcbd cf01 a6bd
00000370: 9f46 44bb c6d0 a4bd 542c 993b 4a21 9ebd
00000380: 4bca a1ba d2f4 59bc 51b1 cebd 1f0a b33d
00000390: 0213 813d 01f9 c93d 5ff9 31bd b74a a4bd
000003a0: e0bb 02bd f75f 1d3d 6289 1dbd ce52 873d
000003b0: 5eb5 a93d 2ca2 493d 18aa 7f3d bebe 8abc
000003c0: 16ea ff3b b753 ca3d 1a14 2e3d c85b b03d
000003d0: 0908 e0bc c3f9 72bd b3e8 aabd 09a6 8b3d
000003e0: c3db a03d 590e 053d b442 6fbd d3f2 343d
000003f0: 5a20 c8bd 7aa2 e43c de81 b63c 87ec 0a3d
-0.0008058282 0.014065773 -0.03758314 0.065005176 -0.068048865 -0.03645616 0.088457055 0.02867528
0.039698083 0.010926692 0.06759832 0.05831814 -0.0001147445 -0.017226193 0.050107215 -0.08031428
0.07795203 0.029016176 0.08280035 0.015508933 0.09700404 -0.08744074 -0.040535767 0.07730048
-0.099563904 0.08799062 -0.048268933 0.069952354 0.07037883 -0.0005421497 -0.05966487 -0.051575962
-0.07955854 0.05712363 -0.03058052 -0.028842771 -0.016236603 -0.020823572 0.08961092 -0.08095712
-0.05256767 -0.046365406 -0.08739249 0.030507365 -0.067972876 0.01313299 0.03157025 0.07818618
-0.020230861 0.083383664 -0.08691128 -0.08036782 0.0641676 -0.07095064 -0.05036142 0.09995409
-0.091673195 0.06974001 0.07918385 0.03546296 -0.086632125 -0.016292047 0.022242578 0.087509215
-0.042958193 0.0691385 -0.054982696 0.025314216 0.05929764 0.06319834 0.08675385 0.0073090238
0.018090481 0.015179591 0.08861591 0.08338088 0.070557155 -0.0022593366 -0.0083213765 -0.08239501
0.016410932 0.027946275 0.052436527 0.036042057 -0.0024729131 -0.0206498 -0.09964189 -0.071013086
-0.07511674 0.06665276 0.032097388 -0.0664416 -0.016585592 -0.03432763 0.057127267 -0.030869925
0.0534974 -0.020038338 0.024815906 0.018833965 0.043142516 0.06394329 0.013583646 -0.054065656
0.072464705 0.054344133 0.0137512935 0.030783994 -0.07768097 0.0469114 -0.068032 -0.077336
0.04240854 -0.049442176 -0.08103841 0.09717357 -0.08112634 -0.01869423 -0.016843287 0.06644411
-0.045480214 0.087908134 0.06401073 -0.034284666 -0.10082505 -0.10067055 -0.007863328 0.024501693
0.013522949 0.093416736 0.0006637801 0.00055211026 0.034232646 0.093746744 -0.027528923 -0.08585373
0.057214294 0.056410592 -0.014601321 -0.09033631 0.06772576 -0.04661944 -0.015156116 0.008418626
-0.04484335 -0.049740802 -0.021479227 0.0594311 -0.056805152 0.060531706 -0.001224935 -0.08008812
-0.09583883 0.091729134 0.05537524 -0.09176815 0.08297297 -0.039973225 0.031467356 0.056215014
0.021814296 -0.09816445 -0.090232365 -0.08463385 -0.07434047 0.03420514 -0.05107513 -0.08018136
-0.062309757 -0.09199844 0.08475505 -0.012247361 -0.03885415 -0.0065738223 -0.048283864 -0.010684502
-0.0687823 -0.08881153 -0.0076845596 0.038291574 0.05314651 0.07642975 -0.053418584 -0.021975633
-0.052143037 -0.093161896 0.059117854 0.082395814 -0.0691895 -0.080784954 -0.05344661 -0.0351083
-0.000711211 0.06030377 0.042349555 -0.05969435 0.02931301 -0.056896057 -0.025614766 0.015923861
0.053266488 -0.073303066 -0.02269743 0.07176573 -0.048959926 -0.049420338 0.0037947407 0.032267287
-0.010143835 0.016596768 0.03402566 0.03062268 0.08554973 0.002405232 -0.060784962 -0.09695886
0.034719262 -0.031103946 -0.09202226 -0.08105814 -0.002994932 -0.08047633 0.004674474 -0.07721193
-0.0012343613 -0.013302999 -0.10092414 0.08742165 0.063024536 0.09861947 -0.04345071 -0.08022063
-0.031917453 0.038421597 -0.038461097 0.066075906 0.08286546 0.049226925 0.062418073 -0.016936656
0.0078098876 0.098792486 0.04249964 0.08611256 -0.027347581 -0.059320223 -0.08345165 0.06818778
0.07854416 0.032484386 -0.058413222 0.044176888 -0.097717956 0.027909506 0.022278722 0.033916976

graph_transformer_layer.0.attention.Q.bias f4 [64]
00000000: 10d8 7bbd c8ef ca3d 27d5 dcbc 9a37 a8bd
00000010: bef4 893d 18b9 c73d b22e b6bd 0ac7 573d
00000020: 30d9 33bc 6303 4abd d679 ce3d f230 a7bd
00000030: e819 833d 89f8 f13c 9dd1 953d e611 853d
00000040: 269e 31bd 9d4e c8bd 713f 113c 4666 553d
00000050: 0fa7 72bb fe9a 7e3b d9a6 b7bd 0963 713d
00000060: 80e1 143c 4798 c23c 0c0e 373d 82f5 a53d
00000070: 12ba cc3d 7052 acbc c561 683c 0306 b0bd
00000080: 7a93 67bd 339b cd3d 1b33 90bd 3f98 ba3d
00000090: 4254 3e3d 2e1b 763d a772 40bd 3d4c a2bd
000000a0: c7bd 9e3c d49d 57bd 96e4 aabd eb21 a1bd
000000b0: c7f0 613d 8eb3 c6bd 2315 673d 9fdd d03c
000000c0: a298 af3c ef7b a3bd 4a96 cb3d 0786 c9bd
000000d0: bdc5 f7bc 8b80 4cbd 9aa6 a9bd 9831 753a
000000e0: b92d f23c 8442 b1bd b0f9 a23d 8ae2 90bd
000000f0: 2ff9 52bc 1a06 c23d e61d c1bd 5a63 86bb
-0.06148535 0.09909016 -0.026957108 -0.0821373 0.06736134 0.09752101 -0.08895625 0.052680053
-0.0109770745 -0.049319636 0.10081832 -0.081636325 0.064014256 0.029537456 0.07315371 0.064975545
-0.043363713 -0.09780619 0.008865223 0.05209949 -0.0037025844 0.0038849707 -0.089673705 0.058932338
0.0090869665 0.023754252 0.04469113 0.081034675 0.099964276 -0.021035403 0.014183466 -0.08594897
-0.05653713 0.100393675 -0.070409976 0.0911107 0.046467073 0.060084514 -0.04698434 -0.079246975
0.019377602 -0.05264075 -0.083443806 -0.078677975 0.055161264 -0.09702216 0.056416642 0.025496302
0.021435086 -0.07982623 0.09940775 -0.09840017 -0.030245656 -0.049927276 -0.0828373 0.00093533983
0.029562818 -0.08655265 0.0795778 -0.07074459 -0.012876793 0.0947382 -0.09429531 -0.004101199

graph_transformer_layer.0.attention.K.weight f4 [64, 64]
00000000: b86a 4a3d 07cc c43c 88bb 9fbd e05b 233d
00000010: 491b 0fbd 5005 c63d 1f67 953d 10e0 2abd
00000020: 1259 b5bd 51c0 773d 0874 83bd 2277 3b3d
00000030: 1b09 bdbd 8751 eaba 75aa 5fbd edde 943d
00000040: ee16 a9bd 5492 603d 18ff 173d 44ac 1f3d
00000050: 2fee 163d c3d8 b1bd 841e 79bd d2be fcbb
00000060: fe55 0c3d a085 203c a230 a8bd d49d 93bd
00000070: ebe9 59bd b8b6 863d 2456 293d 30b1 a93d
00000080: 6b24 9cbd 359a c0bd ca0e c8bd 30cd ba3d
00000090: 25d9 0f3c 1dda eabc 7ad6 babc f5f2 033c
000000a0: 1d13 94bd 2c28 3abd fb23 683d ea18 4ebd
000000b0: 11e3 32bc d993 0cba eb9f 47bd 98f5 2bbd
000000c0: cdfa c33d 023e ec3c e776 80bd 01d0 043c
000000d0: eccd a9bb 5063 b6bd 8309 97bc c41c 143d
000000e0: 5bdc a2bc 0e76 96bc d10b 7cbb b1de bcbc
000000f0: f2e1 d33b 1333 5ebd 66cf 6d3c 069f 97bd
00000100: 19e4 2ebc 8e5d 333d 4b3b 673d c0d7 8abd
00000110: 4278 ba3c d206 ad3d 6556 a73d ed82 c73d
00000120: 071b 0b3d 5dc8 85bc f156 713c e196 7dbc
00000130: 867a cdbc ae22 07bd 3d49 92bd 9149 edbc
00000140: 9e32 e83c bef8 e43c 5c29 e9bc d859 553d
00000150: 70a3 3bbd 5a8b 9a3c 43e9 bebc b09c be3c
00000160: e94b 37bb 6819 8a3d b47b 8e3b 750f 6f3d
00000170: b208 983d b13a f93c 5b34 b2bd 9210 00ba
00000180: bd48 23bb ca44 a53d 7831 9b3d c33e 0f3d
00000190: 01db 9d3d 62d9 82bd bb4d 983d 154a b7bc
000001a0: f607 643d 8df0 f03c 78fa 8cbd 0852 293d
000001b0: 63d3 b5bd 411d 503c 51cc 69bd 131c 453d
000001c0: 699b 40bd a9a2 2ebd a482 fabc 1d30 8fbd
000001d0: 62de 543d b3b0 ab3c 6559 8bbd 821f 633b
000001e0: 4369 95bd 56df d3ba b0a7 b5bd 6fd8 34bc
000001f0: 3361 1ebd 11d6 973b e28e 62bc ff37 963c
00000200: 59ce 573d db3b 8ebd 1a33 cebb 14fe a53d
00000210: 6d91 57bd f6e2 5fbd 6de9 923d a870 9c3d
00000220: fdb3 e43c 6217 ef3a 7d6f 80bd 45ef 84bc
00000230: 0412 5f3d e043 ac3c 9bbe 9cbd c1c3 b13c
00000240: 522c 18bd 9803 bb3c 3231 6f3d 19f9 683b
00000250: b539 18bd ce77 c33d c29d f13b 489d 9dbc
00000260: 2e30 b93d ed0c 213d 528e 223d 8312 a9bd
00000270: 760e 683d 324f 013c 9340 92bd 6851 73bb
00000280: 5b9c 363c 13a3 6ebd 9d57 cdbb 7967 8dbd
00000290: 375c b6bb 206b c6bb 59f7 83bd b848 b9bd
000002a0: d8f8 babc 9f1b 36bc 938d c5bd 7c8a 7b3c
000002b0: 2627 dd3c 6ad6 5bbd eb7d a63d c896 893d
000002c0: bb25 babd e8d8 5bbb c648 513d 670d a13c
000002d0: d9c1 da3b 709e c0bd d4aa edbc 9a3e 2bbd
000002e0: 9a85 b43d ec67 0e3d 0643 5ebd b65b 303d
000002f0: 77bd b6bd 35e5 8d3d 862f 23bc 7cf6 b53d
00000300: ec00 edbc 70e9 c83d 18f8 3fbd 2bc8 35bc
00000310: f2e3 05bc c8b2 673d 37a9 27bd 77f4 943d
00000320: 5274 643d e964 3a3d 129f 25bd d594 0d3c
00000330: 4541 b43d 65d0 b7bd d71c adbd 94b7 cc3d
00000340: fe90 6fbd 50a9 b7bd 625e 873d 9904 763d
00000350: 4dc8 bebc 8da3 923d f4d8 ae3d 2090 acbd
00000360: b8f3 15bd 702f e53c e082 2fbd 3990 97bd
00000370: 2f59 c93d 3125 a63c 94e8 4abd 3e2b 863b
00000380: e520 b2bd de7e 94bc b5b6 7cbd a273 453d
00000390: 297e a7bd fab2 98bb 7562 513b 6fe5 b0bd
000003a0: fddf a83c b702 8ebc 9b68 6abd 0e79 553d
000003b0: ef49 28bd f2e7 9b3d 5eea 893d 293c 333d
000003c0: 4518 ab3d b0bc c6bd ef78 a4bd 3909 02bd
000003d0: c6f0 86bc 95c7 cd3d f456 56bd 8ec9 0cbb
000003e0: d9bb 73bc ca05 cbbd b5c0 41bb 0239 88bc
000003f0: 4471 9e3d 73b5 503d 9f8d 683d 7595 93bd
0.04941818 0.02402307 -0.077994406 0.03988254 -0.03493813 0.09668982 0.072950594 -0.04171759
-0.088548794 0.06048614 -0.064186156 0.04576791 -0.09230252 -0.001787708 -0.05460592 0.07269082
-0.082563266 0.05482705 0.03710851 0.038982645 0.036848243 -0.08683922 -0.060820118 -0.0077131772
0.034261696 0.009797484 -0.08212401 -0.07207838 -0.053201597 0.065778196 0.041341916 0.08285749
-0.07624134 -0.09404413 -0.09768446 0.09121168 0.008779799 -0.028668458 -0.022807349 0.008053531
-0.07230208 -0.045448467 0.05667494 -0.05031673 -0.010918395 -0.0005362607 -0.048736494 -0.041982263
0.09569321 0.028838161 -0.06272679 0.008106233 -0.0051820185 -0.08905661 -0.018437153 0.036160246
-0.019880464 -0.01836684 -0.0038459192 -0.023055406 0.0064661438 -0.054247927 0.01451478 -0.07403378
-0.0106745 0.043790393 0.05645303 -0.06779432 0.022762422 0.084485665 0.08170775 0.09741769
0.033961322 -0.016330892 0.014730201 -0.015477867 -0.025082838 -0.032992058 -0.07142875 -0.028965743
0.028344449 0.02795064 -0.028462104 0.052087635 -0.045810163 0.018865276 -0.023304587 0.023268074
-0.002796883 0.06743127 0.0043482427 0.05836435 0.074235335 0.030423494 -0.08701392 -0.00048852817
-0.0024915182 0.08069761 0.07577795 0.034971964 0.07707787 -0.06389119 0.07436701 -0.022374192
0.055671655 0.029411579 -0.068837106 0.041337997 -0.088782094 0.012702287 -0.057079617 0.048122477
-0.04702321 -0.042635594 -0.030579872 -0.06991599 0.051969893 0.02095828 -0.0680416 0.0034656231
-0.07295468 -0.0016164582 -0.088698745 -0.01103793 -0.038666915 0.004633673 -0.013828011 0.018337248
0.052687023 -0.0694501 -0.006292713 0.08105102 -0.052628923 -0.054659806 0.07173429 0.07638675
0.027917856 0.0018241222 -0.06271265 -0.016227374 0.05446054 0.02102846 -0.076535426 0.021699788
-0.037151642 0.022828862 0.058396526 0.0035548864 -0.03716441 0.09544335 0.0073735425 -0.019240037
0.09042393 0.039318968 0.03968651 -0.08255484 0.056654416 0.007892417 -0.07141223 -0.003712738
0.0111456765 -0.05826099 -0.006266548 -0.069045015 -0.005565192 -0.0060552508 -0.06443662 -0.09047073
-0.022823736 -0.011114984 -0.09646144 0.0153528415 0.026996206 -0.053671278 0.08129486 0.06718212
-0.09089228 -0.0033546034 0.051094793 0.019659711 0.0066759405 -0.094052196 -0.029012121 -0.04180775
0.08814545 0.034767076 -0.054263137 0.043056212 -0.08922856 0.069284834 -0.009960061 0.08884904
-0.028931104 0.0981015 -0.04686746 -0.011095087 -0.008172022 0.056566983 -0.04093286 0.072731905
0.055774994 0.04550639 -0.040434904 0.008641441 0.08801512 -0.08975295 -0.084527664 0.09995952
-0.058487885 -0.08967841 0.06609799 0.06006298 -0.02328887 0.07160101 0.08537474 -0.08425927
-0.03660938 0.027976722 -0.04284942 -0.07400555 0.098314635 0.020281406 -0.04953821 0.0040945103
-0.086976804 -0.018126901 -0.06169768 0.04820598 -0.0817836 -0.0046600075 0.0031949554 -0.08637511
0.020614618 -0.017335279 -0.057228666 0.0521174 -0.041086134 0.076125994 0.06734155 0.043758545
0.083542384 -0.09703958 -0.08030879 -0.031747077 -0.016472232 0.10047833 -0.05232902 -0.002148244
-0.014876329 -0.099132136 -0.0029564325 -0.016628746 0.077364475 0.050954293 0.056775685 -0.07206241

graph_transformer_layer.0.attention.K.bias f4 [64]
00000000: 5516 37bb 11f1 2ebd e6c5 b2bd 8088 b1bd
00000010: f79e 8e3d 8535 93bd 4658 93bd e0d0 2d3c
00000020: 90c9 eabc b6aa 17bd 96b7 3bbd ce32 a73d
00000030: 1bfa fc3c 6f37 a83d 6f06 cb3d d9e5 843d
00000040: 1329 8fbd 51fb 2fbc 66d2 673d 3e04 b73d
00000050: b8af 303c df82 ccbd bb1d c33d 3591 5c3d
00000060: b230 943d 746e e6bb b9fc 983d 2356 6cbd
00000070: 0a2d 0fbd 0cb0 873b b08e 1b3d a60c 643d
00000080: d96e 943d 44ad ab3c 68c3 103d 16e6 b6bd
00000090: 8a0a 97bd 1a93 ecbc 9d99 9abd a2b4 afbd
000000a0: 717d 483d e823 323d 4791 b03d 1464 d0bc
000000b0: 1f98 e23c 9edf f93c 2bf2 bdbd dc7a 9d3d
000000c0: 26af b0b9 7be8 cdbd 5664 3abd 0bf5 7abd
000000d0: 2647 a53d 7fad 21bc daf1 c03d b553 96bd
000000e0: badb b4bd 46af 31bc 0210 c53c 5cfc 613d
000000f0: 903f 42bc fdbb 47bd 407f 9d3d e3d1 cdbd
-0.0027936895 -0.042710368 -0.087291524 -0.086686134 0.06963914 -0.071879424 -0.07194571 0.010608882
-0.028660566 -0.037028037 -0.045829378 0.08163987 0.030880978 0.08213698 0.099133365 0.064891525
-0.06990256 -0.010741071 0.056597136 0.08936356 0.010784082 -0.09985899 0.09527155 0.053849418
0.072358504 -0.00703221 0.07470078 -0.057699334 -0.034955062 0.0041408595 0.037977874 0.055676125
0.07247705 0.020956643 0.035342604 -0.08930604 -0.07375057 -0.028878737 -0.07548831 -0.08579375
0.048947755 0.043491274 0.086214595 -0.025438346 0.027660428 0.030502137 -0.092747055 0.07689449
-0.00033699832 -0.10054108 -0.045505844 -0.061268847 0.08070211 -0.009868025 0.094211295 -0.073401846
-0.08830972 -0.010845011 0.024055485 0.05517231 -0.011855975 -0.048763264 0.07690287 -0.10049798
