checkpoints/casp15_inhouse_ts_fold4.ckpt (torch, 436551 bytes, 207 tensors)

resnet_embedding.node_embedding.weight f4 [32, 42]
0	0xbdc318b9	-0.095262
1	0x3cefa026	0.02925117
2	0xbc3b0de3	-0.011416885
3	0xbb523766	-0.0032076477
4	0x3e1fd976	0.15610299
5	0xbd9269da	-0.07149096
6	0x3e15b6dc	0.14620537
7	0xbdde353a	-0.10849996
8	0x3d9a2195	0.075259365
9	0x3d807a86	0.062733695
10	0x3cf6c799	0.030124472
11	0x3cd581d4	0.026062883
12	0xbd8ae3b4	-0.06781712
13	0xbc94ce24	-0.018164702
14	0x3dbcf38f	0.092261426
15	0x3d12b49d	0.035816777
16	0x3dd3541c	0.10318777
17	0x3de04ec1	0.10952521
18	0x3ceae4c5	0.028673539
19	0xbd964db0	-0.073390365
20	0xbd97b28d	-0.07407103
21	0xbe05128e	-0.1299536
22	0xbd192457	-0.037388172
23	0x3d968a94	0.073506504
24	0x3d0fe5da	0.035131313
25	0xbe323bbb	-0.17405598
26	0xbe15cc72	-0.14628771
27	0xbda8b772	-0.082381144
28	0xbdc26827	-0.09492522
29	0x3e3b48f0	0.18289542
30	0x3d812ff2	0.06307973
31	0xbd7449c0	-0.059640646
32	0x3d6e5be4	0.058193102
33	0x3c8d829f	0.017274199
34	0xbe227e1b	-0.15868418
35	0x3da85c52	0.08220734
36	0x3cfc8594	0.030825414
37	0x3dd06429	0.10175354
38	0xbdbf538b	-0.093421064
39	0xbe2104b4	-0.1572445
40	0xbc5b892b	-0.013399403
41	0x3dfeb3c9	0.12436635
42	0x3db78878	0.08961576
43	0x3d7d9e4e	0.06191855
44	0x3dc35040	0.09536791
45	0x3d862939	0.06550831
46	0xbe082a5d	-0.1329741
47	0xbdcfc250	-0.10144484
48	0xbdc2caa1	-0.09511305
49	0x3e00e682	0.12587932
50	0x3d3da366	0.046298407
51	0xbd47e375	-0.048800904
52	0xbd43b0f0	-0.047776163
53	0x3e2b8693	0.16750555
54	0xbd997bb6	-0.07494299
55	0x3d873b20	0.06603074
56	0x3c1a1db4	0.009406496
57	0x3e07352b	0.13203876
58	0x3da1e5c8	0.079051554
59	0xbd7ff219	-0.06248674
60	0x3cd8089a	0.026371289
61	0xbe03914e	-0.12848398
62	0x3e1085fc	0.14113611
63	0x3dc6e3fe	0.09711455
64	0xbc84882c	-0.016178213
65	0xbd6b7a4e	-0.057489686
66	0xbd8b1f22	-0.067930475
67	0xbe0872a7	-0.13324986
68	0xbd902c7c	-0.07039735
69	0x3b831786	0.004000607
70	0x3dc4435a	0.09583159
71	0xbd7980d4	-0.060913876
72	0xbdfb1efc	-0.12261769
73	0x3d94e3e2	0.07270028
74	0xbe23b34f	-0.1598637
75	0x3d7a70b9	0.061142657
76	0xbd939d36	-0.0720772
77	0x3dacf82b	0.08445772
78	0xbd73b9dd	-0.059503425
79	0x3bd28d1c	0.006425513
80	0xbd865bec	-0.065605015
81	0xbd825cd6	-0.06365363
82	0x3cf4a54e	0.02986398
83	0x3cc935fc	0.024561875
84	0x3ccc8211	0.024964364
85	0xbde3c28a	-0.1112109
86	0xbd596a7a	-0.05308006
87	0xbdb4b234	-0.08823052
88	0x3db2b1dd	0.08725331
89	0x3d069711	0.032858912
90	0x3de81d05	0.1133366
91	0xbd824ead	-0.063626625
92	0x3d686821	0.05673993
93	0xbd9906f2	-0.07472028
94	0x3e309273	0.17243366
95	0xbdfef7ee	-0.124496326
96	0xbdf5b044	-0.119965106
97	0xbd8bf6ca	-0.06834181
98	0xbd8b3efa	-0.06799121
99	0x3d883319	0.06650371
100	0x3d89d6a2	0.06730391
101	0x3c400289	0.011719354
102	0xbdf394f5	-0.11893646
103	0x3db47eb4	0.08813229
104	0xbdecee79	-0.115689225
105	0x3da79a4f	0.08183729
106	0x3ca6245c	0.02028101
107	0xbdb3bb30	-0.087759376
108	0xbd11151d	-0.035420526
109	0x3dcdd1f3	0.1004981
110	0xbb88140d	-0.004152781
111	0x3c569be7	0.013098693
112	0xbe0bc4a4	-0.13649231
113	0xbd6a449e	-0.057194345
114	0x3d52463b	0.05133651
115	0x3e0ae8d2	0.13565376
116	0x3e27ded6	0.16393599
117	0xbdad562a	-0.084637
118	0xbb7f685b	-0.0038972113
119	0xbcf3eb59	-0.029775308
120	0xbd745d41	-0.059659246
121	0x3b6d43f9	0.0036203845
122	0x3cf4797c	0.029843085
123	0x3dd891cb	0.10574683
124	0x3d851433	0.06497993
125	0xbd379a4a	-0.044824876
126	0x3e03294e	0.12808725
127	0xbdf714b5	-0.120644964
128	0x3d12d21b	0.035844903
129	0xbe080e8c	-0.13286799
130	0xbcd6c530	-0.026217073
131	0xbe024c90	-0.12724519
132	0x3d439901	0.047753338
133	0x3ca8b644	0.020594724
134	0x3e10c911	0.14139201
135	0xbdc2d712	-0.09513678
136	0x3e53ed8f	0.2069609
137	0x3b894d82	0.004190148
138	0x3d91741c	0.07102224
139	0x3cfaa742	0.030597333
140	0xbd61edc8	-0.055158406
141	0x3e2b8b7e	0.16752431
142	0x3db9e598	0.09076995
143	0xbcbfa294	-0.023392953
144	0x3c0884b2	0.008332418
145	0x3bdd6b91	0.0067572077
146	0xbcd763ad	-0.026292646
147	0xbdc3ca33	-0.09560051
148	0x3dbc712a	0.09201272
149	0x3df54567	0.11976128
150	0x3e1aab08	0.15104306
151	0xbe295fd4	-0.16540462
152	0xbe218e5f	-0.15776967
153	0xbc208b01	-0.009798766
154	0x3e0fa908	0.14029324
155	0x3b5d0275	0.0033723388
156	0xbda2fe9d	-0.0795872
157	0x3d26dac9	0.040735994
158	0xbd0c9582	-0.03432227
159	0x3e095a32	0.13413313
160	0xbda645d0	-0.081187844
161	0x3d89c3c5	0.06726793
162	0xbd712155	-0.05886968
163	0xbd29a4c6	-0.041416906
164	0x3d87b0bb	0.066255055
165	0x3e1563fa	0.1458892
166	0xbd90b455	-0.070656456
167	0xbd7f72dc	-0.062365398
168	0xbe169f53	-0.14709215
169	0xbb94b65e	-0.0045383414
170	0xbd91ee3e	-0.07125519
171	0x3ccc951b	0.024973443
172	0x3de441a7	0.11145335
173	0x3cd4cc81	0.025976421
174	0x3e03947e	0.12849614
175	0xbd26c4b3	-0.04071493
176	0xbe0dd1ef	-0.13849615
177	0x3dd93698	0.10606116
178	0xbdca0465	-0.098641194
179	0xbcb9bf24	-0.02267415
180	0x3d90f6c0	0.07078314
181	0x3d8e5ee9	0.069516964
182	0xbd95a685	-0.07307152
183	0xbdb050ba	-0.08609147
184	0xbdd9bcfb	-0.10631748
185	0x3dd6fd2a	0.10497506
186	0xbd813f62	-0.063109174
187	0xbda9903a	-0.08279462
188	0x3c9092ab	0.017648062
189	0x3d90af9b	0.07064744
190	0xbe1c1529	-0.15242447
191	0x3d3e90d3	0.046524834
192	0xbe10eb00	-0.14152145
193	0xbd4099dc	-0.04702173
194	0xbbe1d8bb	-0.0068922914
195	0x3de69e8a	0.11260708
196	0x3e094d27	0.13408338
197	0x3d51875e	0.051154487
198	0xbd272612	-0.04080779
199	0xbe335216	-0.17511782
200	0x3ce67f90	0.028136998
201	0x3c84234e	0.016130116
202	0xbe0d13b1	-0.13777043
203	0xbe442ab6	-0.19156918
204	0xbd6581c9	-0.056031976
205	0xbc6e58c2	-0.014547529
206	0x3de456f8	0.111494005
207	0x3dc7e39e	0.097602114
208	0x3c65b97d	0.014021275
209	0x3bb05b07	0.005381945
210	0x3d695334	0.056964114
211	0xbdb48907	-0.088151984
212	0xbd2ac45f	-0.04169118
213	0xbcffaa9e	-0.031209286
214	0x3d999141	0.07498408
215	0x3c82099f	0.015873728
216	0x3cdcdd5e	0.026961025
217	0xbdf07a0d	-0.11742029
218	0x3bc2db61	0.005946562
219	0xbdadfa28	-0.08494979
220	0x3dbe060b	0.09278496
221	0xbdaac4d3	-0.083383225
222	0xbd831ff8	-0.06402582
223	0x3ce41879	0.0278437
224	0x3d87a16f	0.06622588
225	0xbdc0b051	-0.0940863
226	0xbde8b470	-0.11362541
227	0x3b97164e	0.004610813
228	0x3d98a337	0.07453006
229	0x3ddb68e1	0.107133634
230	0xbdcc7836	-0.09983866
231	0xbe07b84a	-0.13253894
232	0xbdb5f552	-0.08884682
233	0xbd3e289b	-0.046425443
234	0xbe15e94b	-0.14639775
235	0x3d5d044c	0.053959176
236	0x3d87decc	0.06634292
237	0x3e111866	0.14169464
238	0xbd43ec5f	-0.047832843
239	0x3e0050d3	0.12530832
240	0xbc815411	-0.015787156
241	0x3e0077c3	0.12545685
242	0x3d587496	0.05284556
243	0xbe012916	-0.1261333
244	0x3e0c4ee8	0.13701975
245	0xbc3d6eb3	-0.011562037
246	0x3da1220b	0.07867821
247	0x3d22640a	0.039646186
248	0x3e37ae59	0.17937602
249	0x3e1caed8	0.15301073
250	0xbc16afc0	-0.0091971755
251	0x3dd70012	0.1049806
252	0x3c382128	0.011238374
253	0xbd0732f2	-0.03300757
254	0xbd811e6c	-0.06304631
255	0x3cf42f08	0.029807582

resnet_embedding.node_embedding.bias f4 [32]
0	0xbd861c4d	-0.06548367
1	0x3e130d96	0.14360651
2	0xbe0323f4	-0.12806684
3	0x3df36a9f	0.11885571
4	0x3e0ed394	0.13947898
5	0xbd924ba4	-0.071433336
6	0x3c28699c	0.0102790855
7	0xbdd51933	-0.10405197
8	0x3e16a8b2	0.1471279
9	0x3d9e269b	0.07722207
10	0xbd274cc4	-0.040844694
11	0x3ca0e43b	0.019640079
12	0xbd968278	-0.07349104
13	0x3da87c1e	0.082267985
14	0x3dd47b74	0.10375109
15	0xbd981cf6	-0.07427399
16	0x3e032b06	0.12809381
17	0x3ce78506	0.028261673
18	0xbdd278f0	-0.10276973
19	0xbe19009f	-0.14941643
20	0xbc4f9768	-0.012670375
21	0xbd9bbb4f	-0.07604086
22	0x3e020798	0.1269821
23	0x3a862ac3	0.0010236133
24	0xbdd89049	-0.10574395
25	0xbd52926f	-0.05140918
26	0x3d9a3150	0.07528937
27	0x3dc03a1e	0.09386085
28	0xbd95f7cb	-0.073226534
29	0x3dbf6977	0.09346288
30	0x3d74d39b	0.059772115
31	0xbdae9019	-0.08523578

resnet_embedding.bn_node.weight f4 [32]
0	0x3f81c7b8	1.0139074
1	0x3f820387	1.0157326
2	0x3f7ff33f	0.9998054
3	0x3f7eac21	0.994814
4	0x3f7a2059	0.9770561
5	0x3f844ef4	1.0336595
6	0x3f7dabbe	0.9909018
7	0x3f83fe53	1.0311989
8	0x3f7bcbc7	0.98357815
9	0x3f804ede	1.0024068
10	0x3f84f494	1.0387139
11	0x3f7de196	0.9917234
12	0x3f82779f	1.0192755
13	0x3f81bd44	1.0135884
14	0x3f89a312	1.075289
15	0x3f7f61c8	0.9975858
16	0x3f7e45dc	0.99325347
17	0x3f776140	0.96632767
18	0x3f84c989	1.0374004
19	0x3f82823e	1.0195997
20	0x3f7de4b2	0.99177086
21	0x3f7a045e	0.97662914
22	0x3f816623	1.0109295
23	0x3f7e2c60	0.9928646
24	0x3f81801a	1.0117218
25	0x3f844a43	1.0335163
26	0x3f8024dd	1.001125
27	0x3f798b51	0.97478205
28	0x3f84b025	1.0366255
29	0x3f7b0e98	0.98069143
30	0x3f860aae	1.0472009
31	0x3f892d4b	1.0716947

resnet_embedding.bn_node.bias f4 [32]
0	0xbd07061f	-0.032964822
1	0xbdbb9e69	-0.09161074
2	0xbb912744	-0.0044297297
3	0xbd20a42c	-0.039219067
4	0xbd5060e9	-0.05087367
5	0xbd570476	-0.05249449
6	0xbd94663c	-0.07246062
7	0xbce4894d	-0.027897501
8	0xbdba5d57	-0.090998344
9	0xbcb2d782	-0.021831278
10	0x3d192d22	0.037396558
11	0xbd713b46	-0.05889442
12	0x3caa6237	0.020798786
13	0xbd3bb78b	-0.045829337
14	0x3bd7c23a	0.006584433
15	0xbd5938be	-0.05303263
16	0xbdc5dc38	-0.09661144
17	0xbd8dfbe4	-0.0693281
18	0xbd18b4bc	-0.037281737
19	0xbd759d4d	-0.059964467
20	0xbcc8e598	-0.024523541
21	0xbd2fa6f7	-0.04288384
22	0xbc88a94e	-0.016682293
23	0xbda0e042	-0.07855274
24	0x3c0bd655	0.008534987
25	0xbd45585f	-0.04817998
26	0xbca0e3f6	-0.01963995
27	0xbd5df840	-0.054191828
28	0xbd523db2	-0.05132837
29	0xbce7df17	-0.02830462
30	0xbb9d7d37	-0.0048061865
31	0x3d560c8a	0.052258052

resnet_embedding.bn_node.running_mean f4 [32]
0	0x3bf34434	0.007423902
1	0x3e1b58d8	0.1517061
2	0xbe29e051	-0.16589476
3	0x3e9d53c6	0.30727977
4	0xbe0cda23	-0.13755088
5	0x3e0ebad1	0.13938452
6	0x3e078f83	0.13238339
7	0xbe9e23f7	-0.30886814
8	0xbe70d4ab	-0.23518626
9	0x3f3937d9	0.7235084
10	0x3e6cb726	0.2311674
11	0x3e413fe0	0.18872023
12	0x3b56738f	0.0032722687
13	0xbe9f18a6	-0.31073493
14	0x3e4ce33b	0.20008557
15	0xbefd4033	-0.49463043
16	0xbeaacca2	-0.33359247
17	0xbd64970d	-0.055808116
18	0xbc976c53	-0.01848427
19	0xbf04c1e4	-0.51858354
20	0x3ec8a3c6	0.3918745
21	0xbe6b6692	-0.22988346
22	0x3de19f33	0.11016693
23	0xbd21f231	-0.039537612
24	0xbe443eb0	-0.19164538
25	0xbe609d00	-0.21934891
26	0x3e110745	0.1416293
27	0x3e30d36c	0.17268151
28	0xbcfa6b40	-0.030568719
29	0x3de386b2	0.111096755
30	0x3e3a966e	0.18221447
31	0x3f4ee645	0.80820113

resnet_embedding.bn_node.running_var f4 [32]
0	0x3d32013e	0.043458216
1	0x3c4ab082	0.012371184
2	0x3c9c6834	0.019092657
3	0x3ce70c43	0.028204089
4	0x3ce8a884	0.028400667
5	0x3d2d0123	0.042237412
6	0x3ce59ff3	0.028030371
7	0x3d2c43c9	0.042056832
8	0x3cafd861	0.021465482
9	0x3d4f9171	0.050675813
10	0x3c8ed287	0.017434372
11	0x3ce06fb7	0.02739702
12	0x3c9fe595	0.019518653
13	0x3ccdda34	0.025128461
14	0x3d231608	0.039815933
15	0x3cd5fc8c	0.0261214
16	0x3ceaceab	0.028663
17	0x3c72557c	0.014790889
18	0x3cb7e402	0.02244759
19	0x3c414428	0.011796035
20	0x3cdaaea9	0.026694613
21	0x3d8d8448	0.06909996
22	0x3cd85e20	0.02641207
23	0x3c3b6075	0.011436571
24	0x3d3592d3	0.044329476
25	0x3d18d1c8	0.037309438
26	0x3c9178c9	0.01775779
27	0x3cbc84db	0.02301257
28	0x3c6a644b	0.014306138
29	0x3cb4835e	0.022035297
30	0x3cb5ba98	0.022183701
31	0x3dc32ca6	0.095300004

resnet_embedding.edge_embedding.weight f4 [32, 4]
0	0xbd1a7bc7	-0.0377157
1	0xbe4fbc2a	-0.20286623
2	0xbe982e09	-0.29722622
3	0xbcc065dc	-0.02348607
4	0xbe3645f1	-0.17800118
5	0x3e2ae467	0.16688691
6	0xbec7781c	-0.38958824
7	0x3e16567e	0.14681432
8	0xbed27c10	-0.41110277
9	0x3ecc1022	0.39856058
10	0xbd76b808	-0.0602341
11	0xbdab8b75	-0.08376209
12	0xbecf3f37	-0.40477917
13	0x3e779127	0.24176465
14	0x3d9f17e3	0.07768228
15	0x3d95a030	0.07305944
16	0x3e8e8048	0.27832246
17	0xbe056937	-0.13028418
18	0xbe594a35	-0.21219714
19	0x3ea14a34	0.31501925
20	0xbea3a4fc	-0.3196181
21	0x3db7c091	0.08972276
22	0x3ddb3b95	0.10704724
23	0xbcaaee05	-0.02086545
24	0x3efd50e9	0.49475792
25	0xbeac61c2	-0.33668333
26	0x3ed902c7	0.4238493
27	0xbe1acb6e	-0.15116665
28	0x3e17f94d	0.14841194
29	0x3e56da9b	0.20981829
30	0xbe92b186	-0.28651065
31	0xbe8b4b4b	-0.2720588
32	0x3e4691db	0.19391577
33	0xbe99370f	-0.2992482
34	0x3d8b6b74	0.068076044
35	0x3cd8c6f8	0.026462063
36	0x3e8454b7	0.25845882
37	0xbeeb52f3	-0.45961723
38	0x3e781b6e	0.24229214
39	0xbebf1ebb	-0.37328133
40	0xbeb4f94a	-0.35346442
41	0x3eb31d24	0.3498317
42	0xbee07eb3	-0.43846664
43	0x3e86726a	0.26259166
44	0xbe92eb1b	-0.28694996
45	0x3e1231c0	0.1427679
46	0x3de7c760	0.11317325
47	0x3d1de9be	0.038552992
48	0xbe93d5a9	-0.28873947
49	0x3e3e251b	0.18568842
50	0x3e929ad9	0.28633764
51	0xbe43f734	-0.1913727
52	0xbebab922	-0.3646937
53	0xbe9950f3	-0.29944572
54	0x3ead863f	0.33891484
55	0xbe6fef0f	-0.23431037
56	0xbea12d65	-0.31479946
57	0x3d100842	0.035164125
58	0x3e676292	0.22596195
59	0x3cf7c768	0.030246451
60	0x3e4320ea	0.19055524
61	0x3e993ca1	0.2992907
62	0xbdce468f	-0.10072052
63	0x3e4bfb1d	0.19920011
64	0xbe96c69e	-0.29448408
65	0x3e907432	0.2821365
66	0xbe544dc2	-0.20732787
67	0xbe4fc601	-0.20290376
68	0xbf05df31	-0.5229369
69	0xbc0777bd	-0.008268294
70	0xbe2e44d2	-0.1701844
71	0x3d5fc58b	0.05463175
72	0x3e7ea0c3	0.24866013
73	0xbe0767ee	-0.1322324
74	0x3ecb7d8a	0.39744216
75	0x3f11abde	0.56902874
76	0xbdfebc84	-0.124383
77	0x3d8954dd	0.067056395
78	0xbe8250e5	-0.25452343
79	0xbec8e569	-0.39237526
80	0x3e6d547e	0.23176762
81	0x3b776930	0.0037751906
82	0x3e4f9fd1	0.20275809
83	0x3e6f654b	0.23378484
84	0xbd8b69d9	-0.06807298
85	0x3e6c653b	0.23085491
86	0x3e832f54	0.25622046
87	0xbee6e151	-0.45093778
88	0xbe5c2a03	-0.21500401
89	0x3e87403b	0.2641619
90	0x3d4c519f	0.049882527
91	0xbed12b26	-0.40853232
92	0x3ef3973e	0.47576326
93	0x3e933175	0.2874867
94	0x3e4e5564	0.20149761
95	0xbe83aa7f	-0.25716016
96	0x3dda5837	0.10661357
97	0xbec2eee7	-0.38072893
98	0xbe8a7644	-0.27043355
99	0x3ed3a812	0.41339165
100	0xbd8f78d0	-0.07005465
101	0xbe05997d	-0.13046832
102	0x3e5c92c8	0.21540368
103	0x3d837236	0.064182684
104	0xbe449078	-0.19195735
105	0xbe9cb792	-0.30608803
106	0xbec869ca	-0.3914321
107	0xbef0e5cf	-0.4705033
108	0x3e573eda	0.2102007
109	0xbe869a9b	-0.2628983
110	0x3ec13485	0.37735382
111	0xbe61ed79	-0.22063245
112	0xbdb6a08b	-0.0891734
113	0x3bd61558	0.006533306
114	0x3e7bd81b	0.24594156
115	0xbe0521cf	-0.13001178
116	0xbe7471b1	-0.23871495
117	0x3dfcef21	0.12350298
118	0xbe8e9a90	-0.27852297
119	0x3e866261	0.26246932
120	0xbe4e6d05	-0.20158775
121	0x3e7f88f0	0.24954581
122	0x3ec1e9ae	0.37873596
123	0x3ed9b5a7	0.42521402
124	0xbe93fc73	-0.2890354
125	0x3c5b11a0	0.013370901
126	0xbe3155ab	-0.17317836
127	0xbea93cf9	-0.3305433

resnet_embedding.edge_embedding.bias f4 [32]
0	0x3ee0d71e	0.4391412
1	0x3eb7b2cc	0.358786
2	0x3d289b92	0.04116399
3	0x3dc382e4	0.0954645
4	0x3e179821	0.14804126
5	0xbd9cf087	-0.076630645
6	0x3ea2c3ac	0.3178991
7	0x3eae02e0	0.33986568
8	0x3e994e04	0.29942334
9	0xbe98d527	-0.29850122
10	0xbe2133b5	-0.15742381
11	0xbe50cbe8	-0.20390284
12	0x3e5ff540	0.21870899
13	0x3e429c20	0.1900487
14	0xbeb1aaf6	-0.34700745
15	0xbeda8aaa	-0.42683917
16	0xbe426e27	-0.18987332
17	0xbe3c5f52	-0.18395737
18	0x3ca7edf3	0.020499205
19	0x3ea013b3	0.3126503
20	0xbd787ed7	-0.06066784
21	0x3dacd067	0.08438187
22	0x3ea20c66	0.31650084
23	0xbe84a92c	-0.25910318
24	0x3ed3ef3d	0.41393462
25	0xbebafb15	-0.36519685
26	0x3e731b62	0.23740914
27	0xbcc8b4fd	-0.024500364
28	0x3ec10c4e	0.377047
29	0xbeee58de	-0.46552175
30	0xbe003020	-0.12518358
31	0x3ea2f0fb	0.31824479

resnet_embedding.bn_edge.weight f4 [32]
0	0x3f82965e	1.0202138
1	0x3f80ef7e	1.0073087
2	0x3f812a89	1.0091106
3	0x3f89042e	1.07044
4	0x3f8a70f5	1.0815722
5	0x3f85aefa	1.0444024
6	0x3f866ca1	1.0501901
7	0x3f8368b5	1.0266329
8	0x3f8a417a	1.0801232
9	0x3f85392f	1.0408076
10	0x3f853b66	1.0408752
11	0x3f890fae	1.070791
12	0x3f880d24	1.062901
13	0x3f87df25	1.0614973
14	0x3f7cd061	0.9875546
15	0x3f822cfc	1.0169978
16	0x3f7e4a11	0.99331766
17	0x3f809987	1.0046853
18	0x3f80ae36	1.0053165
19	0x3f80156c	1.0006537
20	0x3f7d6fa0	0.9899845
21	0x3f82aac2	1.0208361
22	0x3f82e8c5	1.0227286
23	0x3f87b15b	1.0601
24	0x3f83a019	1.0283233
25	0x3f7f75be	0.99789035
26	0x3f823745	1.0173117
27	0x3f857a9b	1.0428041
28	0x3f830441	1.0235673
29	0x3f8045a6	1.0021255
30	0x3f871199	1.0552245
31	0x3f7afc01	0.9804078

resnet_embedding.bn_edge.bias f4 [32]
0	0xbcd8d13e	-0.026466962
1	0x3d3e403b	0.046447974
2	0x3a8d806a	0.0010795717
3	0x3ca7e23b	0.020493617
4	0x3dc08b3a	0.09401555
5	0x37ef873b	2.8553992e-05
6	0x3cc8445a	0.024446655
7	0x3d5f842c	0.05456941
8	0x3d820497	0.06348532
9	0x3cbeef3a	0.023307431
10	0x3cf3cd4e	0.029760983
11	0x3c5ff005	0.013668065
12	0x3c998bf2	0.018743489
13	0x3c24d929	0.010061541
14	0xbc89f3f7	-0.016839964
15	0x3acfff6f	0.0015868972
16	0x3d4b68d4	0.04966052
17	0xbbdbb538	-0.0067049526
18	0x3c64b03a	0.013958031
19	0xbcefe603	-0.029284483
20	0xbd68f904	-0.056878105
21	0x3d9af51f	0.075662844
22	0xbb177497	-0.0023110264
23	0x3c3a92d1	0.011387543
24	0x3b55ff1a	0.0032653273
25	0x3c8745ba	0.01651274
26	0x3b0ed5be	0.002179488
27	0x3d98631b	0.07440778
28	0x3d89bee2	0.06725861
29	0x3d229c3f	0.03969979
30	0x3d58eb90	0.052959025
31	0xbd19efac	-0.037582085

resnet_embedding.bn_edge.running_mean f4 [32]
0	0x3e3afcff	0.18260573
1	0x3e85b463	0.26114187
2	0xbcf7155d	-0.030161554
3	0x3dc03601	0.093853004
4	0x3e9282d5	0.28615442
5	0xbe1669d7	-0.14688812
6	0x3efd73d1	0.49502423
7	0x3e78cc79	0.2429675
8	0x3e94c367	0.2905533
9	0xbef83c03	-0.48483285
10	0xbe580ad5	-0.21097882
11	0xbe4cf70b	-0.20016114
12	0x3e4b744b	0.19868581
13	0xbdc4f6ee	-0.096174106
14	0xbeb9a717	-0.36260292
15	0xbe0b2d10	-0.13591409
16	0xbec6d675	-0.38835493
17	0xbef4aead	-0.47789517
18	0x3f0ac195	0.5420163
19	0xbce53b22	-0.027982298
20	0x3e849f3c	0.25902736
21	0x3d288cd0	0.041149914
22	0x3e1c1b69	0.15244831
23	0x3d60a022	0.054840215
24	0x3ec17fbf	0.37792775
25	0xbeaa5912	-0.3327108
26	0xbed38822	-0.413148
27	0xbaa07543	-0.0012241978
28	0x3ec1ed90	0.37876558
29	0xbf00f025	-0.5036643
30	0x3e9258ae	0.28583282
31	0xbd6a2f7b	-0.057174187

resnet_embedding.bn_edge.running_var f4 [32]
0	0x3c8e5dbd	0.017378682
1	0x3b62d224	0.0034610117
2	0x3b431d3e	0.0029772068
3	0x3ab63595	0.0013901467
4	0x3bbdda8a	0.005793874
5	0x3b4ad0de	0.0030947248
6	0x3c369bc7	0.011145539
7	0x3be54f6b	0.0069979928
8	0x3a8d6b26	0.0010789379
9	0x3c26489e	0.010149149
10	0x3b446c8e	0.002997193
11	0x3a6528dc	0.0008741745
12	0x3a933818	0.0011231927
13	0x3d08ac45	0.033367414
14	0x3b332f5e	0.0027341465
15	0x3cde7a46	0.027157914
16	0x3c31e484	0.010857705
17	0x3cf603db	0.030031135
18	0x3d8648a0	0.06556821
19	0x3ce31049	0.027717726
20	0x3cd4c664	0.025973506
21	0x3b1642d1	0.002292801
22	0x3bf76796	0.00755019
23	0x3d2d4dbb	0.042310458
24	0x3b8ae22d	0.004238388
25	0x3af10aee	0.0018390098
26	0x3dd8a822	0.10578944
27	0x3acdff71	0.0015716386
28	0x39f70027	0.00047111625
29	0x3ac3280d	0.0014889255
30	0x3d1ef18d	0.03880458
31	0x3d126f3b	0.03575061

graph_transformer_layer.0.attention.Q.weight f4 [32, 32]
0	0x3e29df18	0.1658901
1	0x3e59f0d2	0.21283272
2	0x3e51d1e6	0.20490226
3	0xbd23474f	-0.039862927
4	0xbd265c6b	-0.04061548
5	0x3d72bbcd	0.059261132
6	0x3def66d2	0.11689533
7	0x3e2cbf42	0.16869834
8	0xbd8f2b6a	-0.069907025
9	0x3d89eb7d	0.06734369
10	0xbdabc5cb	-0.083873354
11	0x3e450ca8	0.19243109
12	0xbcb2f866	-0.021846961
13	0xbdab02d3	-0.08350148
14	0xbd78f759	-0.060782764
15	0x3e2a2af3	0.16617946
16	0x3e5f7cbd	0.21824928
17	0x3d1c2f15	0.03813084
18	0x3dac7258	0.08420247
19	0x3db38acf	0.0876671
20	0x3de8ec72	0.11373223
21	0xbbd37c7c	-0.0064540487
22	0xbcdf7680	-0.027278185
23	0x3da13421	0.07871271
24	0x3d238ae7	0.03992739
25	0x3dc41c6b	0.09575733
26	0x3d6b4af6	0.057444535
27	0x3e3ad7d4	0.18246394
28	0xbd047526	-0.032338284
29	0x3d824033	0.06359901
30	0x3e24617b	0.16052811
31	0x3e5f0291	0.21778323
32	0x3e503250	0.20331693
33	0x3e10ed1f	0.14152955
34	0x3e1150d5	0.14190991
35	0xbd8917f0	-0.06694019
36	0x3ca10538	0.019655809
37	0x3e03a58b	0.12856118
38	0x3df80419	0.121101566
39	0x3d28f402	0.04124833
40	0xbd5e82c5	-0.05432393
41	0xbd24aa9a	-0.04020176
42	0x3e002144	0.1251269
43	0xbc02399d	-0.007948306
44	0x3e64acfe	0.22331616
45	0x3e5cad98	0.21550596
46	0xbb418f76	-0.0029534972
47	0x3e645b29	0.223004
48	0x3d59b91b	0.053155046
49	0x3e362214	0.17786437
50	0x3e38f773	0.18063144
51	0x3db8269a	0.08991738
52	0xbc571731	-0.013128088
53	0x3d45eeab	0.048323315
54	0x3e10fc53	0.14158754
55	0x3d492e5f	0.04911649
56	0xbdbd295c	-0.09236404
57	0x3e14c510	0.14528298
58	0x3dc8d80a	0.09806831
59	0x3dd72159	0.105044074
60	0x3d3a14ba	0.045429923
61	0x3d7429f6	0.05961033
62	0x3e13e30f	0.14442085
63	0xbaf9a91c	-0.0019047591
64	0xbdb63aa1	-0.08897901
65	0xbe1c9104	-0.15289694
66	0x3bbbfe02	0.005737067
67	0xbddf2f62	-0.108977094
68	0xbb4ed87a	-0.0031562136
69	0xbe2d8b76	-0.16947731
70	0xbd253b53	-0.04033978
71	0xbe228deb	-0.1587445
72	0x3d2e430b	0.042544406
73	0x3db74bc5	0.08949999
74	0xbe23b173	-0.1598566
75	0xbe535a5e	-0.20639941
76	0xbe3b1ea9	-0.18273415
77	0xbe5b727e	-0.21430394
78	0xbcd23ccd	-0.025663758
79	0xbd495960	-0.0491575
80	0xbd401eeb	-0.046904486
81	0xbd8eb855	-0.06968752
82	0xbdb7ed37	-0.08980792
83	0x3d854347	0.06506973
84	0x3c966d77	0.018362744
85	0xbdbe1319	-0.09280986
86	0x3ce9fb4a	0.028562207
87	0x3dc01b0b	0.09380158
88	0xbe17cbac	-0.14823788
89	0xbde28a0f	-0.11061489
90	0x3d712fca	0.058883466
91	0x3d8615a5	0.06547097
92	0x3d0837ca	0.03325633
93	0x3d27665d	0.040869106
94	0xbe1d1b62	-0.15342477
95	0xbe7e1c99	-0.24815597
96	0x3dc9ea0e	0.098590955
97	0xbd8c6253	-0.06854691
98	0x3d66c8b4	0.05634375
99	0x3e3e039d	0.18556066
100	0x3d877a25	0.06615094
101	0x3e51c442	0.20485023
102	0xbd7fcade	-0.06244933
103	0xbdb02d42	-0.08602382
104	0xbe16f596	-0.14742121
105	0xbdaedc43	-0.08538105
106	0xbe2c11cc	-0.16803664
107	0x3c6563ba	0.014000827
108	0xbdde1525	-0.10843877
109	0xbd6c03d2	-0.05762083
110	0xbae63956	-0.0017564695
111	0xbe0e0a30	-0.13871074
112	0xbe27f0e9	-0.16400494
113	0xbd0a59b6	-0.03377696
114	0xbc852766	-0.016254138
115	0x3dc90565	0.09815482
116	0xbd2e841f	-0.04260647
117	0x3d8f6721	0.07002092
118	0x3dfa85ef	0.12232577
119	0xbd5a8b36	-0.05335542
120	0xbe2ed2cd	-0.17072602
121	0xbe1d53de	-0.15364024
122	0xbdde831e	-0.10864852
123	0x3b0c6551	0.0021422694
124	0xbe203ba7	-0.15647756
125	0xbcf07817	-0.029354138
126	0xbe7ac1ec	-0.24488038
127	0x3dc23ce4	0.0948427
128	0x3e112833	0.14175491
129	0xbbe78a28	-0.00706603
130	0x3d92cd63	0.07168081
131	0x3e6b4084	0.2297383
132	0x3cd90189	0.02648999
133	0x3dbe7243	0.092991374
134	0x3e09d517	0.13460194
135	0x3e6d8e8f	0.23198913
136	0x3c86e7a7	0.016467882
137	0x3d138276	0.03601309
138	0xbd1f95a2	-0.03896106
139	0x3e93d4e6	0.28873366
140	0x3c236249	0.0099721635
141	0x3e23e9f8	0.16007221
142	0x3e005290	0.12531495
143	0xbcf2f5d0	-0.029658228
144	0xbdac1887	-0.08403116
145	0x3dc995ab	0.09843
146	0x3d24ea09	0.040262256
147	0x3e5ed3df	0.2176051
148	0x3e955bb1	0.29171517
149	0xba87ebc7	-0.001036995
150	0x3e08b34b	0.13349645
151	0x3e160a82	0.14652446
152	0xbc064b87	-0.008196718
153	0x3e312bb8	0.17301834
154	0xbb3a64fa	-0.0028441534
155	0xbd275f86	-0.040862583
156	0xbda67615	-0.08127991
157	0x3e633743	0.2218905
158	0x3e0b96e8	0.13631785
159	0x3e7bcbeb	0.24589507
160	0x3d928487	0.07154184
161	0x3d295954	0.041344956
162	0x3e0c295d	0.13687654
163	0xbcf3dd82	-0.02976871
164	0x3dca3d4a	0.09874971
165	0x3d04eac0	0.032450438
166	0xbdf80754	-0.12110773
167	0x3d364632	0.044500537
168	0x3da5d05a	0.080963805
169	0x3dfa4c95	0.12221638
170	0x38c72a7a	9.496971e-05
171	0xbd28a6a6	-0.041174553
172	0xbe6c48ea	-0.2307469
173	0x3e0a1d27	0.13487683
174	0x3cb144e4	0.021639295
175	0xbe120286	-0.14258775
176	0xbd08b1f2	-0.033372827
177	0x3e42dbbe	0.19029137
178	0xbd879666	-0.06620483
179	0xbdb06b46	-0.08614211
180	0x3db977d8	0.090560615
181	0xbdb2a4b6	-0.08722822
182	0x3d80e6ef	0.06294047
183	0x3e2aa0ca	0.16662899
184	0x3e40592a	0.18784013
185	0x3d708ab2	0.05872602
186	0x3d41038a	0.047122516
187	0xbdc515fb	-0.09623333
188	0xbbbb9222	-0.0057242075
189	0xbdd23d74	-0.102656275
190	0x3e6aacaa	0.22917429
191	0xbcc08f97	-0.023505969
192	0x3dbb6385	0.09149841
193	0x3d7560d6	0.059906803
194	0xbde0a14e	-0.109682664
195	0xbe36c17b	-0.17847244
196	0xbda70383	-0.08154967
197	0x3b05385e	0.0020327787
198	0xbe22a2ce	-0.15882418
199	0x3e105c1d	0.14097638
200	0xbd6b7caa	-0.057491936
201	0x3cc28596	0.02374534
202	0xbe63e5f6	-0.22255692
203	0x3e01118b	0.12604348
204	0xbe5de255	-0.2166837
205	0xbe335f1b	-0.17516749
206	0xbe21cc8e	-0.15800688
207	0xbdb8776f	-0.09007155
208	0xbe520baa	-0.20512262
209	0x3c9673c5	0.01836575
210	0xbcd15462	-0.025552932
211	0xbe37d73b	-0.17953198
212	0x3ddb8885	0.107193984
213	0x3dc12786	0.094313666
214	0xbcbcb775	-0.023036698
215	0x3d0f80c3	0.035034906
216	0x3dcd90b9	0.10037369
217	0xbdbca4f5	-0.092111506
218	0xbe19c8b0	-0.15017962
219	0xbca3d9cd	-0.020001316
220	0x3ddffd04	0.10936931
221	0x3deaa3fb	0.11457058
222	0x3ccc8eb6	0.024970394
223	0x3d5b9b9f	0.05361521
224	0x3e661af8	0.22471225
225	0x3d6112a0	0.054949403
226	0x3d630cbc	0.055432066
227	0x3d829788	0.063765585
228	0xbdb9ba14	-0.09068695
229	0x3cd8b4e8	0.02645345
230	0xbda10d57	-0.078638725
231	0x3ad874e9	0.0016514334
232	0xbce572ca	-0.028008837
233	0x3dbcfe7f	0.09228229
234	0x3e224af1	0.158489
235	0x3d94c649	0.072643824
236	0x3d8571b4	0.06515828
237	0xbcad92e2	-0.021188203
238	0x3e30ab25	0.17252786
239	0x3da5b1b8	0.08090538
240	0xbcd0b4b2	-0.025476787
241	0x3e593644	0.21212107
242	0x3b31d722	0.0027136286
243	0x3de9ba85	0.11412529
244	0xbc7298e7	-0.014806963
245	0xbde4ff3f	-0.11181497
246	0x3df9e473	0.12201776
247	0x3de3614a	0.11102541
248	0x3e2d0c7a	0.1689929
249	0x3de8f341	0.11374522
250	0xba65fcfa	-0.0008773353
251	0x3d46ea04	0.04856302
252	0xbd1a530c	-0.037676856
253	0x3e4d32e7	0.20038949
254	0x3e4f9751	0.20272566
255	0x3e0edf7f	0.13952444

graph_transformer_layer.0.attention.Q.bias f4 [32]
0	0x3e7a2921	0.24429752
1	0x3e725b85	0.23667724
2	0xbe6f6630	-0.23378825
3	0x3d51fc57	0.05126604
4	0x3e686585	0.22694977
5	0xbe31082b	-0.17288272
6	0x3c99ba29	0.018765526
7	0x3e81abc8	0.2532637
8	0x3d9d0d81	0.07668591
9	0xbdf97973	-0.12181368
10	0xbe51aeb2	-0.20476797
11	0xbd9dbf55	-0.07702509
12	0x3e4435e8	0.19161189
13	0xbdb080d4	-0.08618322
14	0x3d9f90cd	0.077912904
15	0xbdb46447	-0.08808189
16	0x3d119348	0.03554085
17	0x3e7cbcda	0.24681416
18	0x3e33d35d	0.17561097
19	0xbc3f06ad	-0.0116593065
20	0x3d1fe3e2	0.039035685
21	0x3de2be7c	0.11071488
22	0xbe237ebc	-0.15966314
23	0x3cc146f4	0.023593403
24	0xbdebcac7	-0.11513286
25	0x3defa87d	0.117020585
26	0x3e3d271a	0.18471947
27	0x3e8b6671	0.27226594
28	0xbdd5ddcc	-0.10442695
29	0x3cc2bb47	0.023770941
30	0x3df96c41	0.12178851
31	0x3d4057dc	0.04695879

graph_transformer_layer.0.attention.K.weight f4 [32, 32]
0	0x3defaf32	0.11703338
1	0x3c573336	0.013134768
2	0xbe1bc0c4	-0.15210253
3	0x3d943d36	0.072382376
4	0xbdefd69e	-0.11710857
5	0x3c7c7eb0	0.015411064
6	0xbe2e77ae	-0.17037842
7	0xbd9cedbd	-0.076625325
8	0xbe4ac7d1	-0.19802786
9	0x3ca0ef0b	0.019645235
10	0x3cea7b86	0.028623354
11	0xbd36b89e	-0.04460966
12	0x3e1a8faa	0.15093866
13	0x3c307c3a	0.010771805
14	0xbdc67e80	-0.09692097
15	0xbdf74e92	-0.12075533
16	0xbd80b5e4	-0.06284693
17	0xbe403cf4	-0.18773252
18	0xbc4e30ab	-0.012584846
19	0xbc073955	-0.008253415
20	0xbd85e7ae	-0.0653833
21	0xbe2db5c3	-0.16963868
22	0xbd1cf65b	-0.03832088
23	0xbd60556e	-0.054768972
24	0x3de0da5f	0.10979151
25	0x3e4d4c0a	0.20048538
26	0xbaa9338d	-0.001290904
27	0x3d693a5c	0.05694042
28	0xbe3d429d	-0.18482442
29	0xbd91d9cd	-0.0712162
30	0xbc668c84	-0.0140715875
31	0xbcfe82c4	-0.031068213
32	0xbdbc2ca5	-0.09188203
33	0xbe17d44c	-0.14827079
34	0xbd2af69b	-0.041739088
35	0xbe266a62	-0.1625152
36	0x3ba4190c	0.0050078686
37	0xbd4f6176	-0.050630055
38	0xbd3dbcff	-0.04632282
39	0x3d95cefa	0.07314868
40	0xbe4fb2ba	-0.20283023
41	0x3d980bd0	0.07424128
42	0x3d13bf8d	0.03607135
43	0x3d68c4d5	0.05682834
44	0xbdc3c0c1	-0.09558249
45	0x3e359a4c	0.17734641
46	0xbe40c2f7	-0.18824373
47	0xbe52bdfe	-0.20580289
48	0x3ca055e6	0.01957221
49	0xbda43f6e	-0.08019911
50	0x3d8de2e0	0.069280386
51	0x3d770915	0.060311396
52	0xbd827a6e	-0.06371008
53	0x3df11f9c	0.11773607
54	0xbcaaaabd	-0.020833367
55	0x3db72561	0.08942676
56	0xbce6f352	-0.028192196
57	0x3d177f49	0.036986623
58	0xbddb5c4a	-0.10710962
59	0xbe06ef9f	-0.13177346
60	0x3de3e600	0.111278534
61	0x3e232bef	0.15934728
62	0xbd84104e	-0.06448422
63	0xbe2dbb9d	-0.169661
64	0xbe556a28	-0.20841277
65	0x3c1b1944	0.009466473
66	0xbe49155d	-0.19637056
67	0x3d85d786	0.065352485
68	0x3d9faef5	0.07797042
69	0xbde9cc5e	-0.11415933
70	0x3dc858f9	0.09782595
71	0x3de476f1	0.11155499
72	0x3e53c58d	0.20680828
73	0x3e0817f7	0.13290392
74	0x3da062c6	0.078313395
75	0x3c7ece49	0.015552112
76	0xbccc1856	-0.024913948
77	0x3e27ca21	0.163857
78	0xbc03283d	-0.008005199
79	0x3e429ca9	0.19005074
80	0xbe102055	-0.14074834
81	0x3ceea970	0.029133528
82	0x3ca03867	0.019558145
83	0x3dcf387f	0.10118198
84	0x3d04f83b	0.032463294
85	0x3d19bf30	0.037535846
86	0x3e5cfdb6	0.21581158
87	0x3d3134a5	0.043263096
88	0x3d5ffcb2	0.05468435
89	0x3e01a0be	0.12658975
90	0xbde1cb3a	-0.110250905
91	0xbbe40229	-0.0069582653
92	0xbdff324c	-0.12460765
93	0x3d731e50	0.05935508
94	0xbc63b5bf	-0.013898312
95	0xbe085c89	-0.1331655
96	0xbd0dd9a8	-0.0346314
97	0x3d87fd42	0.06640102
98	0xbe126fec	-0.14300507
99	0xbe67d33e	-0.22639176
100	0xbcd03389	-0.025415199
101	0x3c932845	0.017963538
102	0x3e1ffeb0	0.156245
103	0x3ceaf9cc	0.028683566
104	0xbe220fe9	-0.15826382
105	0xbd844813	-0.064590596
106	0x3e179095	0.14801247
107	0x3c62dec0	0.013847053
108	0xbe5e51d5	-0.21710904
109	0xbdb7bd44	-0.089716464
110	0xbddbc160	-0.10730243
111	0xbe155e03	-0.14586644
112	0x3d599852	0.05312378
113	0x3bc676a3	0.006056623
114	0xbdfc1785	-0.123091735
115	0xbd4edc2a	-0.050502934
116	0xbbb81526	-0.0056177555
117	0x3e01ddea	0.1268231
118	0xbcf12691	-0.029437335
119	0x3dd7c732	0.1053604
120	0xbdd703a9	-0.10498745
121	0xbdddbb94	-0.10826793
122	0x3e24b058	0.16082895
123	0xbe5a67cd	-0.2132866
124	0x3d1da45d	0.038486827
125	0x3e1ae739	0.15127267
126	0x3d8b210e	0.06793414
127	0x3e0401d1	0.12891318
128	0xbe25bd0f	-0.16185401
129	0x3e0fb668	0.14034426
130	0xbe2225e0	-0.1583476
131	0x3c9ad7ea	0.018901784
132	0x3e1c62df	0.15272091
133	0xbe12eb4c	-0.14347571
134	0xbde60621	-0.11231638
135	0x3e42b151	0.19012953
136	0x3de3681c	0.11103842
137	0x3d03af22	0.03214944
138	0xbe5e0041	-0.21679784
139	0x3d0a341c	0.0337411
140	0x3d476b90	0.048686564
141	0x3dcc4277	0.09973615
142	0x3c042d02	0.008067371
143	0x3e7a1c43	0.24424843
144	0x3c38ad9a	0.011271859
145	0xbe1210bc	-0.14264196
146	0x3e06664f	0.13124965
147	0x3d551e2a	0.05203072
148	0x3cc28179	0.023743378
149	0x3e3d972f	0.18514703
150	0xbe55615e	-0.20837924
151	0xbe362727	-0.17788373
152	0x3dd10749	0.10206468
153	0x3e8a3e6b	0.27000746
154	0xbd00f30d	-0.03148179
155	0x3d985b21	0.074392565
156	0x3e81006d	0.25195637
157	0x3e23ec2e	0.16008064
158	0xbe1d3837	-0.15353476
159	0xbe2dd789	-0.16976751
160	0x3c288456	0.010285458
161	0xbe73727b	-0.2377414
162	0x3c830d4a	0.015997548
163	0xbc9333a4	-0.01796896
164	0x3ac22556	0.0014812152
165	0xbe389e1c	-0.18029064
166	0xbe52d2fa	-0.20588294
167	0xbdf31783	-0.11869719
168	0x3d8b6d5a	0.068079665
169	0xbb14cb6b	-0.0022704254
170	0xbe0e7415	-0.1391147
171	0xbe18e03f	-0.14929293
172	0xbd20c64f	-0.03925162
173	0xbe16fb47	-0.14744292
174	0x3d806ab8	0.06270355
175	0xbca9909c	-0.020698838
176	0x3ded5111	0.11587728
177	0x3d89b50f	0.06723987
178	0xbe0be870	-0.13662887
179	0x3d251426	0.04030242
180	0xbdf97f93	-0.12182536
181	0xbdceb90a	-0.10093887
182	0x3df9f11f	0.12204193
183	0x3b6166b6	0.0034393496
184	0xbd4eff8c	-0.050536677
185	0xbe01c4b8	-0.12672698
186	0x3d9a40dd	0.07531903
187	0xbe01f38c	-0.12690562
188	0xbe0b5b4d	-0.13609047
189	0xbc12999d	-0.008947757
190	0xbe09e118	-0.13464773
191	0xbce49c71	-0.027906628
192	0x3e0a283e	0.13491914
193	0x3e0ff91a	0.14059868
194	0xbe3b03a6	-0.1826311
195	0x3ddba841	0.10725451
196	0x3cf954ba	0.030435909
197	0x3e0b7ffa	0.13623038
198	0xbe17167f	-0.14754675
199	0x3e18089d	0.14847036
200	0xbd15e499	-0.03659496
201	0xbd27b09e	-0.04093992
202	0xbe7224d6	-0.23646864
203	0xbc5d0506	-0.013489967
204	0x3defc07d	0.11706636
205	0xbd66a060	-0.05630529
206	0x3d30ab99	0.0431324
207	0x3d75fab7	0.060053553
208	0xbd47b439	-0.048755858
209	0x3d862ef6	0.06551926
210	0xbd67865b	-0.056524616
211	0x3d56e8ae	0.052467994
212	0xbd09bf4e	-0.033629708
213	0x3c21437d	0.009842751
214	0x3db5082b	0.088394485
215	0xbe26a5e7	-0.16274224
216	0x3e2ad871	0.16684128
217	0x3e08d07a	0.13360777
218	0x3db754f3	0.0895175
219	0x3d34c93b	0.04413722
220	0xbdd3cd3e	-0.10341881
221	0xbe19bea7	-0.15014134
222	0x3e22dc8a	0.15904441
223	0x3d0e9d37	0.0348179
224	0xbcbc6f34	-0.023002245
225	0xbdd729fe	-0.10506056
226	0xbe258b34	-0.16166383
227	0xbe1d6c5c	-0.15373367
228	0x3dfd135f	0.1235721
229	0x3e751ec5	0.23937519
230	0x3e47e35d	0.19520326
231	0xbcc81667	-0.024424745
232	0xbe2db5f6	-0.16963944
233	0xbdc8e44c	-0.09809169
234	0xbd86916d	-0.065707065
235	0x3d5cd077	0.053909745
236	0xbe08629c	-0.13318866
237	0x3da48bb0	0.08034456
238	0x3e4e4563	0.20143656
239	0x3deea540	0.11652613
240	0xbd2bce2f	-0.04194468
241	0x3e2e54b4	0.17024499
242	0x3bd1b0e2	0.00639926
243	0x3e068777	0.13137613
244	0x3bba703d	0.0056896494
245	0x3e2556c7	0.16146384
246	0x3caac4d8	0.020845816
247	0x3d41b990	0.047296107
248	0x3df73147	0.12069946
249	0x3dd2ed41	0.10299159
250	0x3b91d0ab	0.004449924
251	0xbe0f387c	-0.13986391
252	0x3e3a2746	0.18179044
253	0xbce3c128	-0.027802065
254	0xbe5348cc	-0.20633239
255	0x3e375b1e	0.17905852

graph_transformer_layer.0.attention.K.bias f4 [32]
0	0x3d09761a	0.033559896
1	0x3d548010	0.051879942
2	0xbca61fe7	-0.020278884
3	0xbdda8323	-0.106695436
4	0xbc7776df	-0.015104025
5	0xbddd6e6c	-0.10812077
6	0x3da995fd	0.08280561
7	0x3b7a1783	0.0038160987
8	0x3d0ec9d3	0.034860443
9	0xbd22417b	-0.03961323
10	0x3d792b61	0.060832385
11	0xbdc2da6c	-0.09514317
12	0x3e8c3408	0.27383447
13	0xbde76fb1	-0.113006
14	0x3e5dfc42	0.2167826
15	0xbe3f1e3f	-0.18663882
16	0x3e31c34c	0.17359656
17	0xbdcb9d9d	-0.09942172
18	0xbd84b979	-0.064806886
19	0xbdea1914	-0.114305645
20	0xbd99a7fb	-0.07502743
21	0x3dd0b817	0.10191362
22	0xbd981fc1	-0.074279316
23	0xbc370e05	-0.011172776
24	0x3cc531ce	0.0240716
25	0x3e0239d0	0.12717366
26	0xbd03c377	-0.03216883
27	0x3d01adfd	0.03166007
28	0xbcbce03d	-0.023056144
29	0x3d7022af	0.058626827
30	0xbcf13ba1	-0.029447379
31	0xbe492ca4	-0.19645935

graph_transformer_layer.0.attention.V.weight f4 [32, 32]
0	0x3cab53bf	0.020913957
1	0x3da6bb65	0.081412114
2	0xbe58360f	-0.21114372
3	0x3d9014e1	0.07035232
4	0x3e38a2ff	0.18030928
5	0x3e41cb16	0.18925127
6	0xbda26fa1	-0.07931448
7	0xbdfc3c24	-0.123161584
8	0x3d487c7c	0.048946843
9	0x3e344fde	0.17608592
10	0xbe306ee7	-0.17229806
11	0xbd399beb	-0.04531471
12	0xbe36cef0	-0.17852378
13	0xbd300f82	-0.04298354
14	0xbe18aa64	-0.14908749
15	0x3e48ae70	0.19597793
16	0xbdd82ecd	-0.105558015
17	0xbdea55f6	-0.11442177
18	0x3d80ceaf	0.06289422
19	0x3c44873f	0.011995136
20	0xbd869a20	-0.06572366
21	0x3d0c698e	0.034280352
22	0xbc219b37	-0.009863666
23	0xbe31c8ea	-0.17361799
24	0x3d52569d	0.051352132
25	0x3dd216fe	0.10258292
26	0x3dfe0d52	0.124048844
27	0x3dc88254	0.09790483
28	0x3dac2e22	0.08407237
29	0x3dac4a42	0.08412601
30	0xbe0ccfc9	-0.13751139
31	0x3ce21d3e	0.027601834
32	0x3e01d935	0.12680514
33	0x3dddd326	0.10831289
34	0xbe17909a	-0.14801255
35	0x3e11a3fb	0.1422271
36	0x3d44017a	0.04785297
37	0x3dd66457	0.10468357
38	0x3da880c6	0.082276866
39	0x3dfd0731	0.12354887
40	0x3dd3f4ec	0.103494495
41	0x3c8fbc63	0.017545884
42	0x3e1b2c43	0.15153603
43	0x3df47285	0.11935905
44	0x3dffe702	0.12495233
45	0xbe3d675a	-0.18496457
46	0x3e5f0073	0.21777515
47	0xbd7735eb	-0.060354155
48	0xbc497c88	-0.012297757
49	0x3dfbb978	0.12291235
50	0xbd6a530a	-0.0572081
51	0x3d2599eb	0.04042999
52	0xba939292	-0.0011258891
53	0xbb11513d	-0.0022173666
54	0xbc80c4a1	-0.01571876
55	0x3d0a484a	0.033760346
56	0xbe1e763a	-0.15474787
57	0x3d9c8929	0.07643349
58	0xbcf784bf	-0.030214665
59	0x3dd4d6c7	0.10392528
60	0xbe6313d1	-0.22175528
61	0xbe350be0	-0.17680311
62	0xbe7322cc	-0.23743743
63	0x3e00ca87	0.12577258
64	0xbe3a46b6	-0.18191037
65	0x3decf12a	0.11569436
66	0xbd9d2516	-0.07673089
67	0x3d37a951	0.044839207
68	0xbd83dd2b	-0.06438669
69	0xbe68fabb	-0.22751896
70	0x3d8175a2	0.06321265
71	0x3d88e0d9	0.06683511
72	0xbdddaca0	-0.10823941
73	0xbd501714	-0.05080326
74	0x3d876bdf	0.06612372
75	0xbe372bfd	-0.17887874
76	0xbd664c60	-0.05622518
77	0xbde755cd	-0.11295662
78	0xbe84e4c1	-0.25955775
79	0xbdeb9481	-0.11502934
80	0xbe05665a	-0.13027325
81	0x3d6fb39f	0.05852091
82	0xbd2a6d0d	-0.041607905
83	0xbdc33ee3	-0.09533479
84	0xbd7e5097	-0.062088575
85	0x3cf6f154	0.030144371
86	0x3d0d2014	0.03445442
87	0x3d052180	0.03250265
88	0x3cab636d	0.020921433
89	0xbe1e3e19	-0.15453376
90	0x3e34680d	0.17617817
91	0xbe1afd56	-0.15135702
92	0xbd3e6956	-0.046487175
93	0x3d470c20	0.048595548
94	0x3d9d7403	0.07688143
95	0xbd3557c3	-0.04427315
96	0x3ddc9026	0.10769682
97	0xbd5ed203	-0.0543995
98	0x3d659b28	0.05605617
99	0x3e18ae19	0.14910163
100	0x3de3422c	0.11096606
101	0x3d2de298	0.042452425
102	0x3a68bb9b	0.0008878053
103	0xbe20d61a	-0.15706673
104	0xbdd7028f	-0.10498535
105	0x3e0d451c	0.13795894
106	0x3d426056	0.047455154
107	0x3e26defd	0.16296001
108	0xbdbbae4f	-0.09164106
109	0xbc60f773	-0.0137308715
110	0x3da36efc	0.07980153
111	0xbcd58e56	-0.026068848
112	0xbd092253	-0.03348
113	0x3e39490e	0.18094274
114	0xbcf3d1ac	-0.029763065
115	0x3d7a6f50	0.061141312
116	0xbdd0fb8a	-0.10204227
117	0x3d212d92	0.0393501
118	0xbd793708	-0.060843498
119	0xbd7ad567	-0.061238673
120	0xbe4bb100	-0.19891739
121	0x3e033e84	0.12816817
122	0xbbacc138	-0.005272057
123	0xbd827a58	-0.063709915
124	0xbe00d568	-0.12581408
125	0xbc9f87d6	-0.019473951
126	0x3e1f4ebe	0.15557382
127	0xbe44ebbb	-0.19230549
128	0xbc536536	-0.012902549
129	0xbe02c4ca	-0.12770382
130	0x3d4e616e	0.050385885
131	0xbc1cb4ee	-0.009564621
132	0x3d9523a3	0.07282188
133	0xbd8976fd	-0.06712148
134	0xbd876b08	-0.066122115
135	0xbdc856c9	-0.09782178
136	0x3d419a4d	0.047266293
137	0x3d5a21cb	0.053254884
138	0x3e0b7b89	0.13621344
139	0xbc39544c	-0.011311602
140	0x3cb4c140	0.022064805
141	0x3df0a206	0.117496535
142	0x3c825202	0.015908245
143	0x3c6a8238	0.014313273
144	0xbd0a1742	-0.033713587
145	0x3e3ae848	0.18252671
146	0xbe1bd0c3	-0.15216355
147	0xbd8c49ea	-0.068500355
148	0xbdfeef0c	-0.12447938
149	0xbc2652b0	-0.01015155
150	0x3e3e9ddb	0.18614905
151	0x3d8af95d	0.067858435
152	0xbdebdc06	-0.115165755
153	0xbe30d6d6	-0.17269453
154	0x3dfff85a	0.12498541
155	0x3e046b0e	0.12931463
156	0xbde6d297	-0.112706356
157	0x3dd2caa3	0.10292556
158	0xbd101531	-0.03517646
159	0xbe67ecce	-0.22648928
160	0x3d912866	0.070877835
161	0xbe06ff1c	-0.13183254
162	0xbe15b4f8	-0.14619815
163	0xbe2ea292	-0.17054203
164	0x3dca33e4	0.098731786
165	0xbcb78bf8	-0.02240561
166	0xbcc8dfba	-0.024520744
167	0x3dd3bde5	0.10338954
168	0xbe29b01a	-0.16571084
169	0x3e192948	0.14957154
170	0xbcf45955	-0.029827753
171	0x3e20d270	0.15705276
172	0xbe36f81d	-0.17868085
173	0x3e10442f	0.1408851
174	0xbe3e984e	-0.18612787
175	0xbde08918	-0.109636486
176	0x3d807b78	0.0627355
177	0xbda1bcfe	-0.078973755
178	0xbe2969ef	-0.16544317
179	0xbdd75601	-0.10514451
180	0x3e2ac572	0.16676882
181	0x3da308f9	0.07960696
182	0xbe5420de	-0.20715663
183	0x3d01d24d	0.0316947
184	0xbe014396	-0.12623438
185	0xbdc903b4	-0.098151594
186	0xbe12ce6e	-0.14336559
187	0xbe42460f	-0.18972038
188	0x3e5d377d	0.21603198
189	0xbd95087c	-0.07277009
190	0x3e0efc4f	0.13963436
191	0xbd7300ba	-0.059326865
192	0x3e3577f3	0.17721538
193	0xbd717260	-0.058946967
194	0x3cbbaa8d	0.022908473
195	0x3e64c357	0.22340141
196	0xbdc9e20b	-0.098575674
197	0xbe51659f	-0.20448922
198	0x3dfd3df9	0.12365336
199	0x3bf38476	0.007431562
200	0x3b402177	0.0029316822
201	0xbcc259be	-0.023724433
202	0xbd4b9fa5	-0.049712796
203	0x3e0876f2	0.13326624
204	0xbe07e771	-0.13271882
205	0xbd68af99	-0.056808088
206	0xbe00b5ec	-0.12569398
207	0xbde46fcb	-0.11154135
208	0xbd699776	-0.05702921
209	0xbd8ba75b	-0.0681903
210	0x3c422b40	0.011851132
211	0x3d452511	0.048131052
212	0x3d8b41b9	0.06799645
213	0xbdfeeacf	-0.1244713
214	0xbd2b8c67	-0.041881945
215	0x3e01b5ce	0.12667009
216	0x3ba6d5dd	0.0050914125
217	0xbe023d75	-0.12718756
218	0x3e6e3102	0.23260882
219	0xbcd0a551	-0.025469454
220	0xbcb14db5	-0.021643499
221	0x3dfdf85a	0.12400885
222	0xbced5fe1	-0.028976383
223	0xbe154265	-0.14576109
224	0x3cedad18	0.029013202
225	0xbe38f527	-0.18062268
226	0xbd9e1f07	-0.07720762
227	0xbd99c581	-0.07508374
228	0xbb978907	-0.004624489
229	0xbe39a006	-0.1812745
230	0x3df480fc	0.11938664
231	0x3dc6a7ff	0.097000115
232	0xbe2061fd	-0.1566238
233	0x3d929557	0.071573906
234	0x3e113716	0.1418117
235	0x3e091fae	0.13390991
236	0xbe001d49	-0.12511171
237	0xbdb8d4bb	-0.0902495
238	0xbd48c789	-0.049018417
239	0xbe4fcb64	-0.20292431
240	0x3c0f3b6f	0.008742197
241	0xbcc9c351	-0.024629267
242	0xbde0690f	-0.10957538
243	0xbdc3fe24	-0.09569958
244	0xbd8c0efc	-0.068387955
245	0xbce70c99	-0.02820425
246	0x3d61b6a5	0.055105824
247	0xbd042cdd	-0.032269347
248	0xbde5ae58	-0.11214894
249	0xbd500bb1	-0.0507924
250	0x3e400fbb	0.18756
251	0xbd1125d7	-0.035436478
252	0x3d980d5b	0.07424422
253	0xba082a4d	-0.00051942916
254	0x3e80cfda	0.25158578
255	0xbdd60b7f	-0.104514115

graph_transformer_layer.0.attention.V.bias f4 [32]
0	0xbe0b3882	-0.13595775
1	0x3d127227	0.035753395
2	0x3d8a0ac2	0.06740333
3	0x3e103b48	0.14085114
4	0xbc044f18	-0.008075498
5	0xbe3bb5f7	-0.18331133
6	0xbdbc3bda	-0.09191103
7	0xbc677e3f	-0.0141292205
8	0xbe224f2d	-0.15850516
9	0xbdbaef61	-0.09127689
10	0xbda1af7f	-0.07894801
11	0xbe23219e	-0.15930793
12	0x3dcc4662	0.09974362
13	0x3e40cb16	0.18827471
14	0xbde0db72	-0.10979356
15	0x3da102b1	0.078618415
16	0xbe068acd	-0.13138886
17	0xbcc92b66	-0.024556827
18	0xbe1fb5d5	-0.15596707
19	0x3d70783a	0.058708407
20	0xbe261cb8	-0.16221893
21	0xbd7dc045	-0.06195094
22	0xbe480b91	-0.19535662
23	0x3e281ddc	0.1641764
24	0x3c8acd22	0.016943518
25	0xbd8f1984	-0.069872886
26	0xbd6f5da9	-0.05843893
27	0xbdc88a37	-0.097919874
28	0x3e1033e3	0.14082293
29	0x3dc124a7	0.09430819
30	0x3ca2eaf4	0.019887425
31	0xbcf2127e	-0.029549833

graph_transformer_layer.0.attention.proj_e.weight f4 [32, 32]
0	0x3ae2eaee	0.0017312446
1	0xbc065e20	-0.008201152
2	0x3e1d096f	0.1533563
3	0x3cf0964b	0.02936854
4	0x3e599a1a	0.21250191
5	0x3cfb3ba3	0.030668085
6	0x3dd3db3f	0.10344552
7	0xbd87f2d8	-0.06638116
8	0xbe1030fb	-0.14081185
9	0xbd2fe215	-0.042940218
10	0xbe004cec	-0.12529343
11	0x3e0de8cf	0.1385834
12	0x3e0e6c21	0.13908435
13	0x3d53606d	0.05160563
14	0xbdff9cba	-0.12481065
15	0x3e6871c8	0.22699654
16	0xbdd49334	-0.10379639
17	0x3da47297	0.08029669
18	0x3c82680f	0.01591876
19	0x3e3523ea	0.17689481
20	0x3e07bd6a	0.1325585
21	0x3dbb28a6	0.091386124
22	0x3d1f30b9	0.038864825
23	0x3ddbb1fc	0.10727307
24	0xbdc23cd8	-0.09484261
25	0xbdfcd2a3	-0.12344863
26	0x3e11b8d7	0.14230667
27	0x3c80161a	0.015635539
28	0x3e4e4181	0.20142175
29	0xbe0119af	-0.12607454
30	0x3e135d73	0.14391117
31	0x3e39696a	0.18106619
32	0xbe0350dd	-0.12823816
33	0x3ce71f3f	0.028213141
34	0x3dc0c62c	0.09412798
35	0x3d1abb7b	0.03777645
36	0xbd8fd607	-0.07023244
37	0x3de7c266	0.113163754
38	0x3c85c362	0.016328517
39	0x3cee294e	0.02907243
40	0xbbfc905c	-0.0077076387
41	0xbe43ae62	-0.1910949
42	0xbdd06b20	-0.101766825
43	0xbddb4f47	-0.1070848
44	0xba4a319e	-0.0007713082
45	0xbe0c62aa	-0.13709512
46	0xbe15294e	-0.14566538
47	0x3d0ac233	0.03387661
48	0x3d2c3a9d	0.042048085
49	0x3dc75a7e	0.09734057
50	0xbe1945d9	-0.14968051
51	0xbe3ecd6e	-0.18633053
52	0x3bfb551b	0.0076700575
53	0xbde6fb8c	-0.112784475
54	0x3d27b157	0.04094061
55	0x3dafd475	0.08585445
56	0xbe07ac56	-0.13249335
57	0xbdf29c08	-0.11846167
58	0xbe39ca44	-0.18143564
59	0xbe414987	-0.18875705
60	0xbe4fda39	-0.20298089
61	0x3d791fe2	0.06082142
62	0x3d33a3e8	0.043857485
63	0xbe3d934b	-0.18513219
64	0x3e492a4e	0.19645044
65	0x3e32cafc	0.17460245
66	0x3c8881ae	0.016663399
67	0xbe1977b5	-0.14987071
68	0xbda45eaa	-0.08025868
69	0xbd9eb339	-0.07749028
70	0xbe207f47	-0.15673552
71	0x3e734beb	0.23759429
72	0x3d46af74	0.04850717
73	0x3de035f5	0.109477915
74	0x3a8ee52e	0.0010902041
75	0xbb80ea5c	-0.003934188
76	0x3d9e3e7a	0.0772676
77	0x3e201ec7	0.1563674
78	0xbe4fc9ad	-0.20291777
79	0x3e6ea58a	0.23305336
80	0x3e314b1e	0.17313811
81	0x3e1e850b	0.1548044
82	0xbc97a6f0	-0.01851222
83	0x3db7a0c4	0.089662105
84	0x3df2cd87	0.118556075
85	0x3e2f1830	0.1709907
86	0x3e29e1c7	0.16590033
87	0x3bcf55af	0.006327353
88	0xbe3a3add	-0.18186517
89	0xbe3a283a	-0.18179408
90	0x3d703118	0.05864057
91	0xbc0777fd	-0.0082683535
92	0xbe3e8f3e	-0.1860933
93	0xbd62e313	-0.055392336
94	0xbde7c477	-0.113167696
95	0x3cc5f81f	0.024166165
96	0xbd408939	-0.047005866
97	0xbd882a2e	-0.0664867
98	0x3e3480ce	0.1762726
99	0x3e2f591b	0.17123835
100	0x3e017a29	0.12644257
101	0x3ded5ea3	0.11590316
102	0xbd155eca	-0.03646735
103	0x3ca1df7b	0.019759884
104	0xbd93b18b	-0.07211598
105	0xbd4be7ca	-0.0497816
106	0x3e579ad2	0.21055153
107	0x3de8a6fe	0.11359976
108	0x3e757447	0.23970138
109	0x3e46200b	0.19348161
110	0x3e2594c1	0.16170026
111	0xbd568816	-0.052375875
112	0x3e55c022	0.20874074
113	0x3d1acece	0.03779488
114	0x3d993fe4	0.07482889
115	0x3e3870a1	0.18011715
116	0xbdfcb9c3	-0.12340119
117	0x3cb11bfa	0.021619786
118	0x3e01b57f	0.12666892
119	0xbdf17536	-0.11789934
120	0x3dfa262c	0.12214312
121	0x3e21254d	0.15736885
122	0x3e267d99	0.16258849
123	0x3de96106	0.11395459
124	0x3dba8fe2	0.09109475
125	0xbcfbdf2e	-0.030746069
126	0x3cf71336	0.030160528
127	0x3e100625	0.14064844
128	0xbc24d3da	-0.010060275
129	0x3c0f2f04	0.008739237
130	0x3d345357	0.04402479
131	0x3de8f754	0.11375299
132	0xbe1c3c0a	-0.15257278
133	0xbc9c74b6	-0.01909862
134	0xbd3ec54f	-0.046574887
135	0xbe6a95b8	-0.22908676
136	0x3e1f4b4c	0.15556067
137	0xbdc15cb2	-0.09441508
138	0xbe44fbc7	-0.1923667
139	0x3dc57ac1	0.09642554
140	0x3e1c7b2e	0.15281364
141	0xbe1f1498	-0.155352
142	0x3e34aa27	0.17643033
143	0x3da59d0d	0.08086596
144	0xbe020476	-0.12697014
145	0xbe15605a	-0.14587536
146	0x3bf55f91	0.007488199
147	0xbd22c434	-0.039737895
148	0x3e038d06	0.12846765
149	0xbc99185d	-0.018688375
150	0xbcf34771	-0.029697152
151	0x3d48c5fb	0.049016934
152	0xbe7ed3a4	-0.24885422
153	0x3bcba8bc	0.006215183
154	0xbd5562cf	-0.052096184
155	0x3de9dab7	0.1141867
156	0x3d105fa3	0.035247456
157	0xbe314b24	-0.1731382
158	0x3d86c45a	0.0658042
159	0x3d985b7c	0.07439324
160	0xbde9935b	-0.11405059
161	0xbdeec4fd	-0.11658666
162	0x3de2b33a	0.11069341
163	0x3d831323	0.064001344
164	0x3e2f5282	0.17121318
165	0xbe208bf6	-0.15678391
166	0x3d4c7da2	0.0499245
167	0x3dbaacf2	0.09115018
168	0x3de36089	0.11102397
169	0xbd0f21e9	-0.03494445
170	0xbd1de061	-0.038544063
171	0x3d09a0e0	0.033600688
172	0xbc81349b	-0.015772155
173	0xbd8ecae8	-0.06972295
174	0x3d8f9600	0.07011032
175	0x3d6db52f	0.05803412
176	0xbe042062	-0.12902978
177	0xbd0aa97e	-0.033853047
178	0xbd70b660	-0.058767676
179	0xbe55f480	-0.2089405
180	0x3e45977f	0.19296072
181	0xbe16b959	-0.14719142
182	0xbe32092b	-0.1738631
183	0x3e4aeeb0	0.19817615
184	0x3c8fd3da	0.017557073
185	0xbd8d7e31	-0.06908835
186	0x3d739780	0.059470654
187	0xbd7f7328	-0.06236568
188	0xbde40160	-0.11133075
189	0xbe61720a	-0.22016159
190	0x3da1c960	0.07899737
191	0xbddceb84	-0.107871085
192	0xbc5b37b0	-0.013379976
193	0x3e314786	0.1731244
194	0xbe0cff33	-0.13769226
195	0xbe1c3e0f	-0.15258048
196	0xbe087c17	-0.13328587
197	0xbe304b2a	-0.17216173
198	0x3d9e7dfb	0.077388726
199	0x3e56a1b5	0.20960124
200	0x3bf6adc2	0.0075280378
201	0xbdbf40b1	-0.09338511
202	0x3d50dc01	0.050991062
203	0xbdef6358	-0.1168887
204	0x3dbdd7b2	0.09269656
205	0x3da48650	0.080334306
206	0x3db031f4	0.08603278
207	0xbdd6e4ca	-0.10492857
208	0x3df0dc6a	0.11760791
209	0xbe0a81a5	-0.13526018
210	0xbd8c8402	-0.06861116
211	0x3e31dd7f	0.1736965
212	0xbdf1961c	-0.11796209
213	0xbdef4851	-0.11683715
214	0xbd4728c5	-0.048622865
215	0x3d82dccc	0.0638977
216	0xbe23726e	-0.1596162
217	0xbcc459bb	-0.023968568
218	0x3e020ae3	0.12699465
219	0xbd973c86	-0.07384591
220	0xbd1db7eb	-0.038505476
221	0xbe3a2b38	-0.18180549
222	0xbddaaabb	-0.106770955
223	0x3e4259c8	0.18979561
224	0xbdfbfb12	-0.12303747
225	0x3d81982e	0.06327854
226	0xbde6bdd8	-0.112666786
227	0x3e6eeceb	0.23332565
228	0xbe05cd2a	-0.13066545
229	0x3db578e8	0.08860952
230	0xbe316f51	-0.1732762
231	0x3da2e61c	0.07954046
232	0x3e005413	0.12532072
233	0x3e333c80	0.17503548
234	0xbded2ee0	-0.11581206
235	0xbbbf99ad	-0.005847177
236	0xbd971c4a	-0.073784426
237	0x3e158099	0.14599837
238	0x3e2e9014	0.17047149
239	0xbdc1deab	-0.09466299
240	0xbdbf709d	-0.09347651
241	0x3da286ff	0.07935905
242	0xbddac0dc	-0.10681316
243	0x3e24a595	0.1607879
244	0xbe325893	-0.17416601
245	0x3e041f33	0.12902527
246	0xbdfa9c06	-0.1223679
247	0xbe531c19	-0.20616187
248	0xbc229fff	-0.009925841
249	0x3e33fa5a	0.1757597
250	0x3c57df81	0.013175846
251	0xbe12a945	-0.14322384
252	0x3e3592ea	0.17731825
253	0xbd967a19	-0.07347507
254	0xbdf5216f	-0.119692676
255	0x3c0e907e	0.008701442

graph_transformer_layer.0.attention.proj_e.bias f4 [32]
0	0xbd9fb202	-0.07797624
1	0xbe841132	-0.2579437
2	0xb96f1e94	-0.00022804207
3	0x3e4fb23b	0.20282833
4	0x3de24996	0.11049192
5	0xbdc6e76a	-0.097121075
6	0x3dd8a8c5	0.10579065
7	0xbc4b2413	-0.0123987375
8	0xbe159db8	-0.14610946
9	0x3da741e7	0.08166867
10	0xbdabcde0	-0.08388877
11	0x3deabd66	0.11461906
12	0xbd9ff775	-0.078108706
13	0x3e040787	0.12893496
14	0xbd736625	-0.059423584
15	0xbe10cf53	-0.14141588
16	0x3d038f55	0.032119114
17	0xbe4fc143	-0.20288567
18	0xbcb52a6b	-0.022114953
19	0xbdfbe3e3	-0.12299325
20	0xbd31b218	-0.043382734
21	0xbca34db1	-0.019934507
22	0x3e03082e	0.12796089
23	0xbdec99cb	-0.11552771
24	0x3d8f410f	0.06994831
25	0xbe071324	-0.13190895
26	0x3e4f3e28	0.20238554
27	0x3e339f0f	0.17541145
28	0x3e01f494	0.12690955
29	0xbe355f3f	-0.17712115
30	0x3e50c554	0.20387775
31	0xbdd6da26	-0.10490827
