checkpoints/casp15_inhouse_full_v7_gcpnet_fold1.ckpt (torch, 854279 bytes, 375 tensors)

resnet_embedding.node_embedding.weight f4 [32, 19]
0	0x3e0f6674	0.14003927
1	0x3e075379	0.13215436
2	0x3e0df646	0.13863477
3	0xbdd25f34	-0.10272065
4	0x3dd2b3a8	0.10288173
5	0xbd0b0637	-0.033941474
6	0x3d09c3d1	0.03363401
7	0xbd4f9b8f	-0.05068546
8	0x3e632122	0.22180608
9	0xbde5716a	-0.11203273
10	0xbe1f0b89	-0.15531744
11	0x3db57c9f	0.0886166
12	0xbe2d89f6	-0.16947159
13	0xbe3fb97a	-0.18723097
14	0x3d97e697	0.074170284
15	0xbdbcb05b	-0.09213325
16	0x3d7aefd3	0.06126387
17	0x3d2fe7cc	0.042945668
18	0xbc9d395b	-0.019192388
19	0xbe40dee1	-0.18835022
20	0x3d221f09	0.03958038
21	0x3e309f9f	0.1724839
22	0x3d33ab05	0.04386427
23	0x3d602b1c	0.054728612
24	0x3e75dded	0.24010439
25	0x3e9205d7	0.2852008
26	0x3c8ae777	0.016956074
27	0x3de834d0	0.11338198
28	0x3cf2fe36	0.029662233
29	0x3e5d9d9d	0.21642156
30	0x3e2965f2	0.16542795
31	0x3e3e3f35	0.18578799
32	0xbe43f918	-0.1913799
33	0x3da1ca64	0.07899931
34	0xbe5e5807	-0.21713267
35	0x3e8bc316	0.27297276
36	0x3cd4a3b2	0.025956962
37	0x3e8f63ed	0.28005925
38	0xbd51739c	-0.051135644
39	0xbe10c4fa	-0.1413764
40	0x3e4efc5a	0.20213452
41	0xbe3dc975	-0.18533881
42	0xbd855299	-0.06509895
43	0xbe1a1bee	-0.15049717
44	0x3de00a83	0.10939505
45	0x39924f07	0.0002790617
46	0x3e147612	0.14498165
47	0xbd77ce1c	-0.060499296
48	0x3e290760	0.1650672
49	0x3db2cc7b	0.08730408
50	0xbd242f7a	-0.04008434
51	0xbd385f94	-0.045013025
52	0x3e2a00a1	0.16601802
53	0x3c4556f1	0.012044654
54	0xbe838330	-0.25686026
55	0xbdfb2437	-0.12262767
56	0x3e18b08e	0.149111
57	0xbd92f782	-0.071761146
58	0xbd86dd35	-0.06585161
59	0x3d8d2bad	0.06893096
60	0xbcb00b7d	-0.021489853
61	0x3e048b0d	0.12943669
62	0xbd4e8c1d	-0.05042659
63	0xbe81155f	-0.25211617
64	0x3e657d0b	0.22410981
65	0xbc0cc19d	-0.008591083
66	0xbda15ad7	-0.078786545
67	0x3da7e117	0.08197229
68	0x3e1fc9fd	0.15604396
69	0x3d8ca0d8	0.06866616
70	0xbe2c9b47	-0.16856109
71	0xbd73a5e0	-0.059484363
72	0x3de40f3d	0.11135719
73	0xbde7f845	-0.113266505
74	0xbe06abd0	-0.13151479
75	0x3d92afda	0.07162447
76	0x3ca3aca4	0.019979782
77	0xbe1ae317	-0.1512569
78	0xbe43ece9	-0.19133343
79	0xbe2bb236	-0.16767201
80	0x3d853e76	0.06506054
81	0xbe2c90e8	-0.16852152
82	0x3cc60450	0.024171978
83	0xbdade031	-0.08490027
84	0x3dd16eb9	0.10226197
85	0xbe386c4f	-0.18010066
86	0xbe146197	-0.14490353
87	0x3c7f2c25	0.01557449
88	0xbde121c0	-0.109927654
89	0xbd41e470	-0.047336996
90	0xbe316c1e	-0.173264
91	0xbdc684e2	-0.09693314
92	0x3d6d1121	0.057877664
93	0x3e1a8601	0.15090181
94	0x3dcff51d	0.101541735
95	0xbe75c2f7	-0.24000154
96	0x3bd90542	0.0066229412
97	0x3e558f85	0.2085553
98	0xbd17fc37	-0.037105765
99	0xbd91f3a3	-0.07126548
100	0xbe712623	-0.23549704
101	0x3dd8934d	0.105749704
102	0x3e1b600f	0.15173362
103	0xbd97fdda	-0.07421465
104	0x3dba526d	0.09097753
105	0xbe31e57d	-0.17372699
106	0x3daf0003	0.08544924
107	0xbe02c7f2	-0.12771586
108	0x3af11679	0.0018393538
109	0xbd8d842d	-0.06909976
110	0xbca02174	-0.019547202
111	0xbe61a933	-0.220372
112	0x3e61e1f4	0.2205885
113	0xbe273c2f	-0.16331552
114	0x3d6c8898	0.057747453
115	0xbe2a57b9	-0.16635026
116	0x3da2f77a	0.07957359
117	0xbe12c3e9	-0.14332546
118	0x3e741477	0.23835932
119	0x3d76f414	0.060291365
120	0xb8931d3a	-7.01495e-05
121	0x3c465174	0.012104381
122	0x3d820583	0.063487075
123	0xbe1545af	-0.14577363
124	0x3d4c7212	0.049913473
125	0x3de6a853	0.11262574
126	0xbdd01a0b	-0.10161217
127	0xbe5a8433	-0.21339492
128	0x3e529df0	0.20568061
129	0xbe00b3b2	-0.12568548
130	0xbbb107c4	-0.005402537
131	0x3dcbe27a	0.09955306
132	0xbd9e30b3	-0.077241324
133	0xbe1398db	-0.14413778
134	0xbdd11830	-0.102096915
135	0xbe12ec48	-0.14347947
136	0x3d87a27c	0.06622788
137	0xbd7457aa	-0.059653915
138	0x3cb55b7e	0.022138353
139	0xbe01117f	-0.1260433
140	0x3e12990f	0.143162
141	0x3d5a4e7a	0.053297497
142	0x3d5e00db	0.054200035
143	0xbe59fc37	-0.21287619
144	0x3d54acbf	0.051922556
145	0xbcc0d09c	-0.023536973
146	0x3ca7d50f	0.020487336
147	0x3e6fae78	0.23406398
148	0x3e4e94ec	0.20173997
149	0x3d95cf36	0.07314913
150	0xbd85ee2e	-0.0653957
151	0xbe39d9fb	-0.18149559
152	0x3be5f6ab	0.0070179305
153	0x3dd2d244	0.10294011
154	0xbe140165	-0.14453657
155	0x3e39a043	0.18127541
156	0x3e562a0e	0.2091448
157	0x3e10bb71	0.14134003
158	0xbe5ce3ed	-0.21571322
159	0xbde429c1	-0.111407764
160	0xbdf50171	-0.119631656
161	0xbe526691	-0.20546938
162	0x3df77e49	0.12084634
163	0xbd3f1d3a	-0.046658732
164	0x3de414df	0.11136793
165	0xbc8cb8ec	-0.017178021
166	0xbdb9dd1b	-0.09075376
167	0x3e83e6e4	0.25762093
168	0xbe4547b6	-0.19265637
169	0x3e114a1a	0.14188424
170	0x3e32fb64	0.1747871
171	0xbe46b667	-0.19405518
172	0x3d80f0a1	0.06295896
173	0x3d5ae8a0	0.053444505
174	0xbe4353fd	-0.19075008
175	0x3dce0f96	0.100615665
176	0xbdcdb60e	-0.1004449
177	0xbdb90ddd	-0.09035847
178	0xbdc22b65	-0.09480933
179	0xbd35d5b1	-0.044393245
180	0x3e166a27	0.14688931
181	0x3e5fa406	0.21839914
182	0xbe4fa93b	-0.202794
183	0xbd178b0f	-0.03699785
184	0x3d28fb67	0.04125538
185	0x3dd376a5	0.10325364
186	0xbde310b2	-0.11087169
187	0x3e36926c	0.17829293
188	0x3e833934	0.2562958
189	0xbdca5386	-0.09879212
190	0x3dbaf61d	0.09128974
191	0xbd9e662b	-0.07734331
192	0xbdc377b7	-0.09544318
193	0xbc953fe0	-0.018218935
194	0xbd69b1dc	-0.057054386
195	0xbd12a88e	-0.035805278
196	0xbe1223e2	-0.142715
197	0xbc4ee093	-0.012626785
198	0xbd2581e8	-0.04040709
199	0xbd47e351	-0.04880077
200	0x3da1d906	0.07902722
201	0xbcabdb59	-0.020978617
202	0x3c05a596	0.008157155
203	0x3d2d1b72	0.042262502
204	0x3d98d921	0.07463289
205	0xbd0e34f5	-0.034718473
206	0x3e0db15b	0.13837187
207	0x3cca6474	0.024706103
208	0xbe402fb8	-0.18768203
209	0xbccdc09f	-0.025116263
210	0x3e5ecd63	0.21758036
211	0xbd9f2174	-0.077700526
212	0xbd2186a2	-0.039435036
213	0xbdc42cac	-0.09578833
214	0xbe0a5657	-0.13509499
215	0xbd921d6d	-0.07134519
216	0x3d3a08f1	0.045418683
217	0xb9f4493c	-0.0004659387
218	0xbe2431a9	-0.16034569
219	0xbe6f6644	-0.23378855
220	0x3e2d7a09	0.16941084
221	0xbda0142b	-0.07816347
222	0xbd7bba14	-0.061456755
223	0xbde17313	-0.11008277
224	0x3d0319bf	0.032006975
225	0x3e2da594	0.16957694
226	0x3e210364	0.1572395
227	0xbe182a18	-0.14859807
228	0x3dc9bb27	0.098501496
229	0xbdc39a3a	-0.09550901
230	0xbe71f41f	-0.23628281
231	0xbe7a7d8a	-0.24461952
232	0xbd89198c	-0.06694326
233	0xbe25dc7a	-0.16197386
234	0xbd196762	-0.03745211
235	0xbd148d02	-0.036267288
236	0xbd4e0d63	-0.050305735
237	0xbd8240cf	-0.063600175
238	0x3e86ea2c	0.26350534
239	0x3d00d642	0.031454332
240	0x3d877ad9	0.06615228
241	0xba6d7583	-0.0009058343
242	0x3dccab87	0.09993654
243	0x3dc39c5f	0.0955131
244	0x3e05181c	0.12997478
245	0xbe1f1394	-0.15534812
246	0xbcc8c388	-0.024507299
247	0xbe323bbb	-0.17405598
248	0x3e039dfe	0.12853238
249	0x3ddc5e52	0.10760178
250	0xbe2f4476	-0.1711596
251	0xbd54009a	-0.051758386
252	0xbdd50f43	-0.104033016
253	0x3e7b6fc0	0.24554348
254	0xbdcfad99	-0.10140533
255	0x3d6bbe11	0.05755431

resnet_embedding.node_embedding.bias f4 [32]
0	0x3e059963	0.13046794
1	0x3db410ba	0.08792253
2	0xbdf033f7	-0.117286615
3	0x3d2fefcd	0.0429533
4	0xbd9b6117	-0.07586878
5	0x3d747b66	0.059687994
6	0x3e28ea7d	0.164957
7	0xbcd4ee01	-0.025992395
8	0x3e48618e	0.19568464
9	0x3da85931	0.08220137
10	0x3d5d90fd	0.05409335
11	0x3ccda5f0	0.02510354
12	0xbe342689	-0.17592825
13	0x3c31b1a4	0.0108455755
14	0x3e47e5b2	0.19521216
15	0xbe233f8b	-0.15942208
16	0x3e03d5db	0.12874548
17	0x3dd1f72b	0.10252222
18	0xbdc9681d	-0.09834311
19	0x3d30a7d1	0.043128792
20	0x3e0382c9	0.1284286
21	0xbdc30983	-0.095232986
22	0x3da245b7	0.07923453
23	0x3df89f22	0.12139727
24	0xbd970c7d	-0.07375429
25	0x3e15f1c7	0.14643012
26	0xbe14e8fe	-0.14542004
27	0xbdac9fc6	-0.08428912
28	0xbdec94e7	-0.11551838
29	0xbe35a5c7	-0.1773902
30	0x3e2ae3e5	0.16688497
31	0x3e2a5108	0.16632473

resnet_embedding.bn_node.weight f4 [32]
0	0x3f76954c	0.9632156
1	0x3f7fe7e1	0.99963194
2	0x3f7bccb3	0.9835922
3	0x3f831d84	1.0243382
4	0x3f81250c	1.0089431
5	0x3f71b429	0.9441553
6	0x3f7343c4	0.9502528
7	0x3f758f86	0.95922124
8	0x3f830c72	1.0238173
9	0x3f879476	1.0592182
10	0x3f87b600	1.0602417
11	0x3f83d3d6	1.0299022
12	0x3f812902	1.009064
13	0x3f6613b8	0.8987384
14	0x3f840086	1.031266
15	0x3f789c4e	0.971135
16	0x3f83487d	1.0256497
17	0x3f702ae9	0.93815476
18	0x3f78ed32	0.9723693
19	0x3f838866	1.0276
20	0x3f82c044	1.0214925
21	0x3f80dd27	1.006749
22	0x3f7aed6b	0.9801852
23	0x3f84c4cd	1.0372559
24	0x3f73f919	0.9530197
25	0x3f819059	1.0122176
26	0x3f8077a3	1.003651
27	0x3f810247	1.007882
28	0x3f77e68a	0.9683615
29	0x3f797943	0.97450656
30	0x3f76c868	0.96399546
31	0x3f7f60c9	0.9975706

resnet_embedding.bn_node.bias f4 [32]
0	0xbd896224	-0.06708172
1	0x3bb85aee	0.005626074
2	0xbd3e25fe	-0.04642295
3	0x3c85d49a	0.016336728
4	0xbbd92a3c	-0.006627349
5	0xbd915909	-0.0709706
6	0x39fa5345	0.00047745756
7	0xbcc56cdb	-0.024099758
8	0xbbd20502	-0.0064092884
9	0x3d13c91e	0.036080472
10	0x3c3a0706	0.011354214
11	0xbd13b805	-0.036064167
12	0xbc45c81e	-0.012071637
13	0xbdae0379	-0.08496756
14	0x3baa1074	0.0051899496
15	0xbcd4649d	-0.025926882
16	0x3ccafe16	0.02477936
17	0xbdc21846	-0.09477286
18	0xbd78dfcb	-0.0607603
19	0xbca1d772	-0.019756053
20	0xbc805a64	-0.015668102
21	0xbd45dd83	-0.048306953
22	0xbce656af	-0.028117506
23	0xbbbcd7b7	-0.00576302
24	0xbd4ef416	-0.050525747
25	0xbc31200f	-0.010810866
26	0xbc915077	-0.017738564
27	0xbca32970	-0.01991722
28	0xbd65f99b	-0.056146245
29	0xbd97ddcd	-0.07415352
30	0xbd68f247	-0.05687168
31	0xbd302646	-0.04300525

resnet_embedding.bn_node.running_mean f4 [32]
0	0x3e0d9dae	0.13829681
1	0x3f74a017	0.9555678
2	0xbdf27e28	-0.11840469
3	0xbd2fe1fb	-0.04294012
4	0xbf1d0f0f	-0.613511
5	0xbe6af743	-0.22945885
6	0x3e0513b0	0.12995791
7	0xbe1e0ced	-0.15434618
8	0x3ea805d0	0.32816935
9	0x3d6ec08f	0.058289107
10	0xbe38a6c9	-0.18032373
11	0xbeb79abb	-0.35860237
12	0xbed8a8d0	-0.42316294
13	0x3e0a1dc8	0.13487923
14	0x3e888efa	0.26671582
15	0xbea6638e	-0.3249783
16	0xbe0d6c9f	-0.13810967
17	0x3e3a09b9	0.18167771
18	0xbe4c85fe	-0.19972989
19	0xbe2b0d2a	-0.1670424
20	0x3b8cfc67	0.0043025496
21	0xbe8f58f6	-0.2799756
22	0x3dca3bd7	0.09874695
23	0xbe2047fa	-0.15652457
24	0xbc1b1bb2	-0.009467052
25	0x3eb8d0c7	0.36096784
26	0x3e97339e	0.29531568
27	0x3ef19533	0.47184142
28	0x3e6bdd07	0.23033534
29	0xbeb3cae5	-0.35115734
30	0x3df8304b	0.12118586
31	0xbe9086a9	-0.28227738

resnet_embedding.bn_node.running_var f4 [32]
0	0x3d24e94b	0.040261548
1	0x3e157014	0.14593536
2	0x3c963f9d	0.01834088
3	0x3c2b9314	0.010472078
4	0x3d49902e	0.049209766
5	0x3c7f022f	0.015564485
6	0x3d002411	0.031284396
7	0x3cf4845a	0.029848266
8	0x3cd9405f	0.026519952
9	0x3cc9b667	0.024623109
10	0x3c884d90	0.016638547
11	0x3cde892e	0.027165022
12	0x3d4adfbe	0.049529783
13	0x3cb28caf	0.021795599
14	0x3d0351df	0.0320605
15	0x3cc89a8b	0.024487754
16	0x3d1bfa69	0.038080607
17	0x3ce63da7	0.02810557
18	0x3cde5203	0.027138716
19	0x3c7b7289	0.0153471315
20	0x3c8f3c7c	0.017484896
21	0x3ccd0a38	0.025029287
22	0x3c4c7d9e	0.012481121
23	0x3cf37f55	0.029723803
24	0x3c73fbf7	0.014891616
25	0x3cb69cb5	0.02229152
26	0x3d3e1899	0.046410177
27	0x3d189d8a	0.037259616
28	0x3d465005	0.048416156
29	0x3c3a366f	0.011365517
30	0x3cb25733	0.021770095
31	0x3ce74a3a	0.028233636

resnet_embedding.edge_embedding.weight f4 [32, 4]
0	0x3edb8544	0.4287511
1	0x3df5f39f	0.12009358
2	0xbecef9a7	-0.40424845
3	0xbdb5b5b7	-0.0887255
4	0xbe1334f2	-0.14375666
5	0xbeacb4d2	-0.33731705
6	0xbdfa26dc	-0.12214443
7	0x3ec50f91	0.3848844
8	0xbe8acea1	-0.2711077
9	0xbec98d90	-0.39365816
10	0x3ee90ecc	0.45519102
11	0x3db6c6df	0.089246504
12	0x3e60d766	0.21957168
13	0x3e8f1a7d	0.27949896
14	0xbed7a025	-0.42114368
15	0xbe45ad07	-0.19304286
16	0xbec2957a	-0.38004667
17	0xbe97cd7d	-0.29648963
18	0x3e7f2013	0.24914579
19	0xbdb772fb	-0.08957478
20	0x3e9ad237	0.30238506
21	0x3edfc969	0.4370835
22	0x3ddbc099	0.107300945
23	0xbea96ac5	-0.3308927
24	0x3ed3b778	0.41350913
25	0xbefecf04	-0.49767315
26	0xbe232933	-0.15933685
27	0x3eae9576	0.34098405
28	0x3e01667a	0.12636748
29	0x3e91c458	0.2847011
30	0xbd7857e0	-0.06063068
31	0xbf03392e	-0.51259124
32	0x3dce2214	0.10065094
33	0x3e2a3320	0.16621065
34	0x3d9d5d82	0.07683851
35	0x3e85037a	0.25979215
36	0xbee91c01	-0.45529178
37	0x3e880a0c	0.26570165
38	0xbbf125a4	-0.0073592234
39	0xbe443785	-0.19161804
40	0x3ecdc40c	0.40188634
41	0xbef3e4e9	-0.47635582
42	0xbe808106	-0.25098437
43	0x3ece5207	0.40296957
44	0xbd800cbc	-0.06252429
45	0xbe4c692b	-0.19961993
46	0xbeb1adc1	-0.34702876
47	0x3ee0f758	0.43938708
48	0xbeaf1226	-0.34193534
49	0xbe05163b	-0.12996762
50	0x3ee75a95	0.45186296
51	0x3e24f3f1	0.16108681
52	0x3db34e2b	0.08755144
53	0xbdb83099	-0.08993644
54	0xbeeb21d8	-0.45924258
55	0x3d9d5829	0.07682831
56	0x3d1bda9a	0.03805027
57	0x3b9ed4c4	0.004847141
58	0xbee80d72	-0.45322758
59	0x3ef7f8da	0.48432046
60	0xbece8ae8	-0.40340352
61	0x3f075709	0.5286718
62	0xbeb066ab	-0.3445333
63	0x3e72071f	0.23635529
64	0xbeb8894e	-0.36042255
65	0x3dce8834	0.100845724
66	0x3e06ea88	0.13175404
67	0xbb14cc99	-0.0022704958
68	0xbec6baa9	-0.38814285
69	0xbe9befb6	-0.30456322
70	0xbecb7792	-0.39739662
71	0xbebe4ccf	-0.37167975
72	0xbe849b4d	-0.25899735
73	0xbe4d922c	-0.20075291
74	0xbf000e00	-0.5002136
75	0x3ed581c4	0.41700566
76	0x3ebd0fab	0.36926016
77	0x3eb94f6d	0.3619341
78	0x3ec881da	0.3916157
79	0x3e256642	0.1615229
80	0x3d83f3ce	0.064429864
81	0xbdf64f0d	-0.120267965
82	0x3ef90546	0.48636836
83	0xbec35ce3	-0.38156804
84	0x3cb37332	0.021905515
85	0xbe44cbc7	-0.1921836
86	0x3e422eca	0.18963161
87	0xbedbfede	-0.42967886
88	0xbef410f0	-0.47669172
89	0xbe3f0b09	-0.18656553
90	0xbec1def1	-0.37865403
91	0xbe736569	-0.23769154
92	0x3e539925	0.20663889
93	0xbf028053	-0.5097706
94	0xbec8c704	-0.39214337
95	0x3ece8d0b	0.40341982
96	0xbeb081c9	-0.34474018
97	0x3e770e91	0.2412665
98	0xbee01b8b	-0.43771014
99	0x3dedd22d	0.116123535
100	0x3daf7981	0.08568097
101	0xbe98b6be	-0.2982692
102	0xbeee5375	-0.46548048
103	0xbeb2a609	-0.348923
104	0xbeb09d86	-0.3449518
105	0xbdcbca72	-0.09950723
106	0xbdf3c2d9	-0.119023986
107	0xbe7cc449	-0.24684252
108	0x3cfaa0c4	0.030594237
109	0x3d24116a	0.04005567
110	0x3eaa3e43	0.33250627
111	0x3e831d64	0.2560836
112	0x3e61c60c	0.22048205
113	0x3e908443	0.28225908
114	0x3eb53f08	0.35399652
115	0x3ec330fb	0.38123307
116	0x3eefbef2	0.46825367
117	0x3eaff134	0.3436371
118	0x3e38e70a	0.18056884
119	0xbe2079e4	-0.15671498
120	0x3ec70256	0.3886897
121	0xbed095b0	-0.40739202
122	0x3df9b6a0	0.12193036
123	0xbeb19d80	-0.34690475
124	0x3e6e9639	0.23299493
125	0x3f0189b7	0.5060076
126	0x3ec661b8	0.38746428
127	0x3e79eb7c	0.24406236

resnet_embedding.edge_embedding.bias f4 [32]
0	0xbe2cd1b9	-0.16876878
1	0x3da23885	0.079209365
2	0xbd160847	-0.036628988
3	0xbe816f34	-0.25280154
4	0x3d95c047	0.073120646
5	0x3e095f27	0.13415204
6	0x3d964911	0.07338155
7	0x3ed49344	0.41518605
8	0xbef9ae80	-0.48765945
9	0x3ee11adb	0.43965802
10	0x3ec8631b	0.3913811
11	0xbdd984b7	-0.106210165
12	0x3dbde3a7	0.09271937
13	0x3ddf5c8d	0.109063245
14	0xbead2aa8	-0.33821607
15	0x3e017bc3	0.12644868
16	0xbd8a2d64	-0.06746939
17	0x3eb6a5a9	0.35673264
18	0x3e38fadb	0.18064444
19	0x3de056f5	0.10954086
20	0xbee0e895	-0.43927446
21	0x3dd2a224	0.10284832
22	0xbcecc3b8	-0.02890192
23	0xbeaafa14	-0.3339392
24	0x3e98635e	0.2976331
25	0xbd7b71b3	-0.06138773
26	0x3ed513fe	0.41616815
27	0xbe7a7212	-0.24457577
28	0xbd17d814	-0.037071303
29	0xbed4348d	-0.41446343
30	0xbe83fd79	-0.25779322
31	0xbe242fee	-0.16033909

resnet_embedding.bn_edge.weight f4 [32]
0	0x3f83a65e	1.0285146
1	0x3f7e776e	0.99400985
2	0x3f7dc5d1	0.9912997
3	0x3f814c72	1.0101454
4	0x3f82d6d2	1.0221808
5	0x3f7a61d9	0.97805554
6	0x3f77d417	0.96808
7	0x3f736fa8	0.9509225
8	0x3f845438	1.0338202
9	0x3f83a651	1.0285131
10	0x3f7ea77c	0.9947431
11	0x3f7d3a30	0.9891691
12	0x3f8387fc	1.0275874
13	0x3f78a545	0.9712718
14	0x3f7ce9ce	0.9879426
15	0x3f82875d	1.019756
16	0x3f800526	1.0001571
17	0x3f809233	1.0044616
18	0x3f7b2912	0.98109543
19	0x3f78cd1c	0.9718797
20	0x3f7f018a	0.99611723
21	0x3f7a486b	0.9776675
22	0x3f7444f2	0.954177
23	0x3f836850	1.0266209
24	0x3f7f9a3a	0.99844706
25	0x3f83c784	1.0295262
26	0x3f739875	0.95154506
27	0x3f81e281	1.0147249
28	0x3f83c6b4	1.0295014
29	0x3f6d545c	0.9270685
30	0x3f81ce93	1.0141166
31	0x3f7f845e	0.9981135

resnet_embedding.bn_edge.bias f4 [32]
0	0x3ca0e889	0.019642131
1	0x3ce84108	0.028351322
2	0x3cb49bf6	0.022047024
3	0x3c6c5e47	0.014426774
4	0x3cdbb2fb	0.026818743
5	0x3c2eebec	0.010676365
6	0x3d568d7a	0.052381016
7	0xbbb8198f	-0.005618281
8	0x3ccd695b	0.025074651
9	0x3cae1fd8	0.021255419
10	0x36f2ced9	7.2362423e-06
11	0xbba9119b	-0.0051595694
12	0x3d5204ac	0.051273987
13	0xbd9704a9	-0.07373936
14	0xbc92664f	-0.01787105
15	0x3cf05bb0	0.029340595
16	0x3cd34fbf	0.025794862
17	0xbd3a74e4	-0.04552163
18	0xbd000b1a	-0.031260587
19	0x3c61e4df	0.013787477
20	0x3c1c0490	0.009522572
21	0xbb91296a	-0.004429986
22	0xbc92a707	-0.01790191
23	0x3c9f3229	0.019433098
24	0x3c52511b	0.01283672
25	0x3d29dbfb	0.041469555
26	0xbcea91cc	-0.028633974
27	0x3ce0a136	0.027420621
28	0x3cbf97c4	0.023387797
29	0xbd8ad78f	-0.06779396
30	0x3cc2a790	0.02376154
31	0x39bd9cc2	0.00036165683

resnet_embedding.bn_edge.running_mean f4 [32]
0	0xbdbd4c3b	-0.092430554
1	0xbe32c1d9	-0.1745676
2	0xbe0d7733	-0.13815002
3	0xbe766c50	-0.24064755
4	0xbe3a2350	-0.18177533
5	0x3f083dc1	0.5321923
6	0x3cdb3702	0.026759628
7	0x3f02eba2	0.511408
8	0xbe8327c1	-0.25616267
9	0x3e8f28b6	0.27960747
10	0x3e9f89a9	0.31159714
11	0xbeb42539	-0.3518465
12	0x3dcb17d5	0.09916655
13	0xbdf29051	-0.118439324
14	0xbeefd3b0	-0.46841192
15	0x3cf74cc8	0.03018798
16	0xbe1ab955	-0.15109761
17	0xbe9a79f3	-0.30171165
18	0xbe86d03a	-0.2633074
19	0x3f3f109a	0.74634707
20	0xbe8c97e8	-0.27459645
21	0x3d208d60	0.039197326
22	0xbf247cdc	-0.6425302
23	0xbf1e21a4	-0.6177008
24	0x3c66e2e8	0.014092185
25	0xbef4c629	-0.47807434
26	0x3d747efa	0.059691407
27	0x3c88fc33	0.01672182
28	0x3efc38d9	0.4926212
29	0x3dccaf37	0.09994357
30	0xbe7b0864	-0.2451492
31	0x3ef8efc5	0.4862043

resnet_embedding.bn_edge.running_var f4 [32]
0	0x3c510d3f	0.012759506
1	0x3d893ca7	0.06701022
2	0x3c817f83	0.015807873
3	0x3c4837b2	0.01222031
4	0x3cce68e2	0.025196496
5	0x3dc590f6	0.0964679
6	0x3d28a6ba	0.041174628
7	0x3d62a7b4	0.055335715
8	0x3c9de8c3	0.019276028
9	0x3c5b0b94	0.01336946
10	0x3d6f806c	0.058472082
11	0x3da84d63	0.08217885
12	0x3c4781dc	0.012176957
13	0x3d09e42f	0.03366488
14	0x3d93bdcb	0.072139345
15	0x3c9386db	0.01800864
16	0x3b99bcc2	0.004691691
17	0x3e03451b	0.1281933
18	0x3e0e2c68	0.13884127
19	0x3e01b2f4	0.12665921
20	0x3d680454	0.056644753
21	0x3cfa5866	0.03055973
22	0x3de115a0	0.10990453
23	0x3dd23e77	0.102658205
24	0x3d15054b	0.036382
25	0x3d7c419b	0.061586004
26	0x3d197be3	0.037471663
27	0x3cc517d9	0.024059223
28	0x3db015af	0.08597886
29	0x3dd80006	0.105468795
30	0x3c9ba0e7	0.018997623
31	0x3e06db8e	0.13169691

graph_transformer_layer.0.attention.Q.weight f4 [32, 32]
0	0x3e540211	0.20703913
1	0x3e22c7af	0.15896486
2	0xbe18e79a	-0.14932099
3	0x3bded591	0.0068003614
4	0xbb892aeb	-0.0041860244
5	0xbe04a809	-0.12954725
6	0x3da4dae3	0.08049562
7	0x3e3057ac	0.17220944
8	0x3e2ee688	0.17080128
9	0xbcce4a2f	-0.025181858
10	0x3e7a1e02	0.2442551
11	0x3dc175c1	0.09446288
12	0x3e2cf4b1	0.16890217
13	0x3c1a9aa2	0.009436281
14	0x3cf0c229	0.029389458
15	0x3e5b8bef	0.21440099
16	0x3d4879ea	0.04894439
17	0x3e5e8e3b	0.21733944
18	0xbcb05cf5	-0.0215287
19	0x3e3e7405	0.18598945
20	0x3d3a2421	0.04544461
21	0x3e057d7e	0.13036153
22	0xbde78dff	-0.113063805
23	0x3e329412	0.17439297
24	0x3d7ac32e	0.061221294
25	0xbc8c5592	-0.017130647
26	0x3d887882	0.0666361
27	0xbd4dea85	-0.050272483
28	0xbdeaa2af	-0.11456811
29	0x3d4608ee	0.04834836
30	0x3ba4eb9e	0.0050329706
31	0x3e314e7b	0.17315094
32	0x3d7afa1f	0.06127369
33	0xbe3c5936	-0.18393406
34	0x3e03c5bd	0.128684
35	0x3daced87	0.08443742
36	0x3d9aea6c	0.07564244
37	0xbde7d030	-0.113190055
38	0x3df7ac14	0.12093368
39	0x3dea953a	0.11454244
40	0x3d0e665e	0.034765594
41	0xbcfba958	-0.030720398
42	0x3d88f1f8	0.06686777
43	0x3e589240	0.2114954
44	0x3e1381c5	0.14404972
45	0x3e2020b3	0.15637474
46	0x3cfc1319	0.030770825
47	0xb8eb9d6d	-0.00011234996
48	0x3e6faf2b	0.23406665
49	0x3d1f0620	0.0388242
50	0xbd2b5e2c	-0.041837856
51	0x3e4f1f8b	0.20226876
52	0x3e27e0e0	0.16394377
53	0x3e52cc98	0.20585859
54	0xbc926044	-0.017868169
55	0xbd815e09	-0.06316764
56	0xbcd7f62a	-0.026362497
57	0x3e181b83	0.14854245
58	0x3de2211a	0.1104147
59	0x3d83f8ba	0.06443925
60	0x3dd17c9c	0.102288455
61	0x3e0d73f3	0.13813762
62	0x3c2faa4d	0.010721755
63	0x3e2b272a	0.16714159
64	0xbc3e5f66	-0.011619424
65	0xbe30cda0	-0.1726594
66	0x3c1f32d4	0.009716708
67	0xbe070078	-0.13183773
68	0x3d9da768	0.07697946
69	0x3e2a7c7b	0.16649048
70	0xbd994692	-0.07484163
71	0xbce6ff26	-0.028197836
72	0xbe5d1b4d	-0.21592446
73	0x3d05bc3c	0.032650217
74	0x3e5692ec	0.20954484
75	0xbca60bdf	-0.020269332
76	0x3e678433	0.22609024
77	0x3e343e7d	0.17601962
78	0x3d9efc4e	0.07762967
79	0xbdcbc945	-0.099504985
80	0x3df57813	0.11985793
81	0x3dda9f9a	0.10674973
82	0x3d19de69	0.037565622
83	0xbddba782	-0.10725309
84	0xbcbe281d	-0.023212487
85	0xbdb75434	-0.08951607
86	0x3e3f766a	0.18697515
87	0x3d4734fa	0.048634507
88	0xbe41b5af	-0.18916963
89	0x3d912263	0.07086637
90	0xbe738280	-0.2378025
91	0xbe09108f	-0.13385223
92	0x3d16e572	0.03683991
93	0xbdd45548	-0.103678286
94	0xbdee1088	-0.11624247
95	0xbc0a5b93	-0.008444685
96	0x3dc330dc	0.095308036
97	0xbe044470	-0.12916732
98	0xbe413414	-0.18867522
99	0xbcae6389	-0.021287696
100	0xbcef9c30	-0.02924928
101	0x3d12ab52	0.035807915
102	0xbd20fa2b	-0.03930108
103	0x3db58782	0.08863737
104	0xbdb01a67	-0.08598786
105	0xbde313af	-0.11087739
106	0xbe314401	-0.17311098
107	0xbe3a1821	-0.18173267
108	0xbd450230	-0.04809779
109	0xbe2939ef	-0.16526006
110	0xbcd98e9b	-0.026557257
111	0xbdcee76b	-0.10102733
112	0xbe495247	-0.19660293
113	0xbd1728cb	-0.036904138
114	0xbdb8550f	-0.09000599
115	0xbe15e8e5	-0.14639623
116	0xbda54e10	-0.0807153
117	0xbaf90f9b	-0.0019001843
118	0xbcd00854	-0.025394596
119	0xbdc1ef89	-0.09469516
120	0x3d8d60d0	0.06903231
121	0xbe1358e2	-0.14389375
122	0xbd04b954	-0.032403305
123	0x3b60038c	0.0034181802
124	0xbe6abfb1	-0.22924687
125	0xbd9a5ca2	-0.075371996
126	0x3e21e872	0.15811327
127	0xbe331bde	-0.17491099
128	0x3e3b4e64	0.18291622
129	0x3e4ddf10	0.20104623
130	0xbb1586cf	-0.0022815948
131	0xbd4308ba	-0.047615744
132	0x3cf2bd2b	0.029631218
133	0x3dd97be9	0.10619337
134	0x3d473b09	0.048640285
135	0x3d70865f	0.058721896
136	0x3df74c73	0.120751284
137	0x3e3ed95b	0.18637602
138	0x3db3ff60	0.08788943
139	0x3e2b3de9	0.16722836
140	0xbe01e967	-0.12686692
141	0x3b836f90	0.004011102
142	0x3e62fa4a	0.2216579
143	0x3e1aab38	0.15104377
144	0xbda0aafa	-0.07845111
145	0x3c8fe33b	0.017564407
146	0x3d7a4472	0.06110043
147	0x393698e7	0.00017413833
148	0xbe000a7a	-0.12503996
149	0x3e1432a3	0.14472441
150	0xbd0cbfa2	-0.034362443
151	0xbd060fd0	-0.032729924
152	0x3e12cf9a	0.14337006
153	0xbd8f5189	-0.069979735
154	0x3cce4b05	0.025182256
155	0x3bf1551e	0.007364883
156	0xbd857ec5	-0.0651832
157	0x3d13f6b7	0.036123957
158	0x3da99804	0.08280948
159	0xbd8b6770	-0.068068385
160	0x3d3c87d8	0.04602799
161	0x3d675026	0.05647292
162	0xbe842ff9	-0.2581785
163	0xbe1ba912	-0.15201214
164	0x3c2166c0	0.009851158
165	0xbd67dd7b	-0.056607705
166	0xbd997311	-0.0749265
167	0xbc94aff9	-0.018150317
168	0x3d1a53dd	0.037677635
169	0x3d168e34	0.03675671
170	0x3d1c0467	0.038090136
171	0x3de88004	0.11352542
172	0xbdb4fc53	-0.088371895
173	0xbe638cdd	-0.22221704
174	0xbe13e134	-0.14441377
175	0xbe1716c6	-0.14754781
176	0xbd30201c	-0.042999372
177	0x3d25937b	0.04042385
178	0xbe1edf24	-0.15514809
179	0x3d303811	0.04302222
180	0x3df848f9	0.121232934
181	0xbbb94ca9	-0.0056548906
182	0x3d998206	0.07495503
183	0x3c4e2ad9	0.012583458
184	0xbdefa995	-0.11702267
185	0xbdb76385	-0.08954529
186	0x3d0d3e45	0.034483213
187	0x3d82827f	0.063725464
188	0xbd486c6b	-0.04893152
189	0x3d46da48	0.048548013
190	0xbe3ae8ab	-0.18252818
191	0xbbb85a63	-0.0056260093
192	0xbe1ef7dc	-0.15524238
193	0xbe1d5b81	-0.15366937
194	0xbe394846	-0.18093976
195	0x3da88933	0.08229294
196	0x3e29f6d0	0.16598058
197	0x3ddad0ba	0.10684343
198	0x3dcfc43e	0.10144852
199	0xbde82f98	-0.11337203
200	0xbcdebd17	-0.027189774
201	0x3ddb069c	0.1069462
202	0x3d97960e	0.074016675
203	0x3e07b729	0.13253464
204	0x3e1c870d	0.15285893
205	0xbe0a6282	-0.1351414
206	0x3e1232cc	0.1427719
207	0xbd2d968a	-0.042379893
208	0x3c7748a0	0.015092999
209	0x3dc8ea2e	0.09810291
210	0x3e46a075	0.19397147
211	0xbd3caa21	-0.046060685
212	0xbdb25654	-0.08707872
213	0x3ae623cf	0.0017558279
214	0xbd5ac8d5	-0.053414185
215	0xbdac82b0	-0.08423364
216	0x3d66e3af	0.05636948
217	0xbc6e7ac7	-0.01455564
218	0xbd3c638f	-0.045993384
219	0xbe56c791	-0.20974566
220	0xbe348077	-0.1762713
221	0x3e185845	0.14877422
222	0x3cbf0fac	0.023322903
223	0x3e3def48	0.1854831
224	0x3e781189	0.24225439
225	0x3c42b351	0.011883573
226	0xbdab01f3	-0.08349981
227	0x3d004ada	0.031321384
228	0xbe164541	-0.14674856
229	0x3d5faa71	0.054605905
230	0xbdb60209	-0.08887107
231	0xbe0c8fbf	-0.1372671
232	0xbd93316d	-0.071871616
233	0x3d3ecde6	0.04658308
234	0xbd92f071	-0.07174767
235	0xbe226fa5	-0.15862902
236	0x3d7660a6	0.060150765
237	0x3db52065	0.088440694
238	0x3d98835f	0.07446932
239	0xbd870727	-0.06593161
240	0xbe368067	-0.17822419
241	0xbc0c8153	-0.008575755
242	0x3dc8a76d	0.09797559
243	0xbd1dc4c0	-0.038517714
244	0xbdf9c8f1	-0.1219653
245	0x3e24c96e	0.16092464
246	0xbd5a4b2f	-0.053294357
247	0x3bb02549	0.0053755385
248	0x3e2993b4	0.1656025
249	0x3ce3ad7a	0.027792681
250	0x3d9ad944	0.075609714
251	0xbd44e74e	-0.04807215
252	0x3df595de	0.119914755
253	0xbdf4cbc4	-0.11952928
254	0xbd5cdb3a	-0.05392001
255	0xbbe4fda3	-0.0069882437

graph_transformer_layer.0.attention.Q.bias f4 [32]
0	0xbdb2fa39	-0.087391324
1	0x3da38185	0.07983688
2	0x3c9c4e0b	0.019080183
3	0xbdc70d5e	-0.097193465
4	0x3dc82756	0.09773128
5	0xbd8a5112	-0.06753744
6	0xbde38ea5	-0.11111192
7	0x3de3a412	0.11115278
8	0xbda9d784	-0.082930595
9	0x3e482b6c	0.19547814
10	0xbd80f52f	-0.06296765
11	0x3e6e9e10	0.23302484
12	0xbd9dfe18	-0.0771448
13	0xbe0eb57f	-0.13936423
14	0x3dbc5cc9	0.09197385
15	0xbe2e04f7	-0.16994081
16	0xbbe185d5	-0.006882409
17	0xbe3fa057	-0.18713509
18	0x3b81f0cc	0.003965473
19	0x3d4242e1	0.047427062
20	0x3dc99ef2	0.098447695
21	0x3e770226	0.24121913
22	0xbe39dad7	-0.18149887
23	0xbdd3b2d5	-0.10336844
24	0x3d1d6a0f	0.038431223
25	0xbdc3bca3	-0.09557464
26	0xbdd427dd	-0.10359166
27	0xbc841884	-0.016124971
28	0xbd9f1a79	-0.07768721
29	0xbe20638a	-0.15662971
30	0x3d843def	0.064571254
31	0xbd60f3a2	-0.054919846

graph_transformer_layer.0.attention.K.weight f4 [32, 32]
0	0xbdb89146	-0.09012084
1	0x3de74f6a	0.11294444
2	0x3e199780	0.14999199
3	0x3d1a0e75	0.037611444
4	0xbe4f0329	-0.20216049
5	0xbe0198db	-0.12655966
6	0xbe61a9fe	-0.22037503
7	0x3dc149df	0.09437918
8	0x3ca484eb	0.020082911
9	0x3d0e04a4	0.034672394
10	0x3dc7b5a5	0.09751443
11	0xbe37d874	-0.17953664
12	0xbdbb0f2a	-0.09133752
13	0x3d1dfa49	0.03856877
14	0xbd156ac6	-0.03647878
15	0x3d3a7e92	0.045530863
16	0x3c95b4f0	0.018274754
17	0xbcb85978	-0.0225036
18	0xbe2c284f	-0.16812252
19	0xbe4cd0d7	-0.20001541
20	0x3e05127d	0.12995334
21	0x3d1757f5	0.036949117
22	0x3d9bd3ad	0.07608733
23	0xbd65e1ba	-0.056123473
24	0xbe50679a	-0.20352021
25	0xbe531eeb	-0.20617263
26	0xbe51e752	-0.20498398
27	0xbd33ddbf	-0.043912645
28	0x3d952c67	0.0728386
29	0xbe2359e9	-0.15952267
30	0x3d363754	0.04448636
31	0xbdc963d8	-0.09833497
32	0xbd065718	-0.032797903
33	0x3e38424c	0.1799404
34	0xbe234b53	-0.15946703
35	0xbe04d0ee	-0.12970325
36	0xbe2b9abd	-0.16758247
37	0xbe19f2b0	-0.15033984
38	0x3d9a4975	0.07533542
39	0x3c8c915e	0.01715916
40	0xbe1ff567	-0.15620957
41	0x3df6a6cd	0.120435335
42	0x3d9e0751	0.07716239
43	0x3d88a7fd	0.06672666
44	0xbdaca83e	-0.08430527
45	0xbda35e79	-0.079770036
46	0x3e31d369	0.17365803
47	0x3e0275b6	0.12740216
48	0x3d281dac	0.041043922
49	0xbdebcfbb	-0.11514231
50	0xbda5ba81	-0.080922134
51	0xbe0f474c	-0.13992041
52	0xbe2567a3	-0.16152816
53	0x3e0e42a2	0.13892606
54	0xbe03762d	-0.12838049
55	0x3d6520a6	0.05593934
56	0xbc8a62bb	-0.016892781
57	0xbe36cb65	-0.17851026
58	0xbd4e2051	-0.050323788
59	0x3d1438e3	0.036187064
60	0xbdfa9cf0	-0.12236965
61	0x3dc3c2ce	0.095586404
62	0x3db2661e	0.087108836
63	0xbe25f040	-0.1620493
64	0x3e50dc03	0.20396428
65	0xbdbad9c4	-0.09123567
66	0x3da95b17	0.08269327
67	0xbdb94464	-0.090462476
68	0xbe12deb3	-0.14342766
69	0xbd8e0e6b	-0.06936344
70	0x3e385087	0.17999469
71	0x3e4813da	0.19538823
72	0x3d8fc3db	0.07019778
73	0xbdcb7248	-0.09933907
74	0xbdeb2ff8	-0.11483759
75	0x3d8b90c8	0.06814724
76	0xbd5d38e1	-0.054009322
77	0x3de18844	0.11012319
78	0xbba5cacf	-0.005059577
79	0x3db8ebfa	0.09029384
80	0xbdfabce6	-0.12243061
81	0xbe11adcc	-0.14226454
82	0x3d903b29	0.07042534
83	0xbe032628	-0.12807524
84	0xbca804e5	-0.020510146
85	0x3d5a5839	0.053306792
86	0xbd002c02	-0.03129197
87	0x3cd5d972	0.026104663
88	0x3e791c2a	0.2432715
89	0xbe2eac00	-0.170578
90	0x3d94899a	0.07252808
91	0x3d6926cf	0.056921776
92	0x3e2c93fa	0.16853324
93	0xbc5f7616	-0.013638994
94	0x3e105eed	0.14098711
95	0x3d3f6de8	0.046735674
96	0x3ce5366f	0.027980058
97	0x3c7d6f71	0.015468464
98	0x3e525060	0.20538473
99	0xbd697b6f	-0.05700248
100	0xbd9bb5bf	-0.07603025
101	0xbd7d5695	-0.06185015
102	0x3cd264da	0.025682855
103	0x3dda9b17	0.10674112
104	0x3e151635	0.14559253
105	0xbe4e18b6	-0.20126614
106	0x3b1609bf	0.0022893993
107	0xbe4215f9	-0.18953694
108	0xbd8ae66f	-0.06782233
109	0x3dabdb70	0.08391464
110	0xbdbdbe90	-0.092648625
111	0xbdd174b4	-0.102273375
112	0xbe24fd7a	-0.16112319
113	0xbe3cae1d	-0.18425794
114	0xbbb26b3f	-0.0054449136
115	0x3dc5fffd	0.096679665
116	0xbe6c5c7a	-0.23082152
117	0x3dcc0d29	0.099634476
118	0xbdc997e2	-0.098434225
119	0xbd6f3f86	-0.05841019
120	0xbb97e2fb	-0.0046352125
121	0xbdf7a363	-0.120917104
122	0x3b95a363	0.0045665964
123	0x3e461aba	0.19346133
124	0xbc516bcb	-0.0127820475
125	0xbd993377	-0.07480519
126	0xbcdd7304	-0.027032383
127	0xbe6efa85	-0.23337753
128	0x3e20a89a	0.15689316
129	0x3e2dbced	0.169666
130	0x3db2d432	0.08731879
131	0xbce07955	-0.027401606
132	0xbd45c45d	-0.04828297
133	0xbd44b1a7	-0.048020985
134	0x3e2a82d9	0.16651477
135	0x3e42ab6c	0.19010705
136	0xbdb4f950	-0.08836615
137	0x3e4ca0f3	0.19983272
138	0x3e5f1bbe	0.21787927
139	0x3e43ab8a	0.19108406
140	0xbd21451b	-0.039372545
141	0xbdee827b	-0.11645981
142	0x3e5ba019	0.21447791
143	0x3e450811	0.19241358
144	0x3ab4387f	0.0013749747
145	0x3e15df80	0.1463604
146	0xbe20109e	-0.15631339
147	0x3e109279	0.14118375
148	0x3d9575b1	0.072978385
149	0xbda06870	-0.0783242
150	0xbd9a6aa4	-0.07539871
151	0xbe3ba947	-0.18326293
152	0xbd823bc5	-0.063590564
153	0x3e4604bc	0.19337744
154	0x3e045be8	0.12925684
155	0x3dca2c9c	0.0987179
156	0x3d103e1d	0.035215486
157	0x3e0e2d13	0.13884382
158	0x3d862ef7	0.065519266
159	0x3e3a581c	0.18197674
160	0xbe334ffd	-0.17510982
161	0x3db847f8	0.08998102
162	0x3dc922a8	0.09821063
163	0x3dc8b923	0.09800937
164	0xbc65d6d7	-0.014028273
165	0x3dc10f9a	0.09426804
166	0xbd57ce0d	-0.05268674
167	0xbbace641	-0.005276472
168	0xbdeac42e	-0.114631996
169	0x3e042400	0.12904358
170	0xbdf7cbab	-0.120993935
171	0x3c8c802c	0.01715096
172	0xbdea7458	-0.11447972
173	0xbd89c117	-0.06726282
174	0xbe1d43d6	-0.15357909
175	0xbcc6350b	-0.024195215
176	0xbd91a0c1	-0.071107395
177	0x3d95c2f4	0.07312575
178	0x3cc4b754	0.024013199
179	0x3e36cde7	0.17851983
180	0x3e3eb3c4	0.18623263
181	0x3d8a2127	0.067446046
182	0x3e0b4075	0.13598807
183	0x3df8e2c4	0.12152627
184	0xbe062e57	-0.13103615
185	0xbe2fe31d	-0.1717648
186	0xbd21792d	-0.039422203
187	0x3e20d5af	0.15706514
188	0x3ca95adb	0.020673206
189	0x3e00444d	0.12526055
190	0x3d6486ae	0.055792503
191	0xbc83444e	-0.016023781
192	0x3e274b1c	0.16337246
193	0xbc5ad696	-0.013356825
194	0xbcd049b1	-0.025425764
195	0x3de64a9e	0.11244701
196	0xba854380	-0.0010167211
197	0x3d2b7fbd	0.041869868
198	0xbddaa55b	-0.1067607
199	0xbdad09d3	-0.084491394
200	0xbe2d0519	-0.16896476
201	0xbe12274a	-0.142728
202	0xbd981750	-0.074263215
203	0xbda67d29	-0.08129341
204	0xbd03923b	-0.032121878
205	0x3cb5cfdc	0.022193842
206	0x3be98659	0.007126611
207	0x3e69235c	0.22767395
208	0x3dc88137	0.09790271
209	0x3e171522	0.14754155
210	0x3e6a59e9	0.2288586
211	0xbdda25b4	-0.106517226
212	0x3c33bfcc	0.010971021
213	0xbd52633b	-0.051364165
214	0xbd71bb8e	-0.059016757
215	0xbc9300cc	-0.017944716
216	0x3d409cea	0.047024645
217	0x3cebe746	0.028796803
218	0x3e2f6dab	0.17131679
219	0xbe4d5be4	-0.20054585
220	0xbcdb03ef	-0.026735274
221	0xbc2bbe4b	-0.010482381
222	0xbe06247a	-0.13099852
223	0x3de35f36	0.111021444
224	0x3e02ed6d	0.12785883
225	0xbd9235ce	-0.07139169
226	0x3e40675c	0.18789428
227	0xbe242947	-0.16031371
228	0xbda0605d	-0.0783088
229	0xbe2a3397	-0.16621242
230	0xbd6c7e32	-0.057737537
231	0xbd8f5c4a	-0.070000246
232	0x3dfdc63e	0.12391327
233	0x3e7b66c5	0.24550922
234	0x3dafa256	0.08575885
235	0xbdda33c6	-0.10654406
236	0x3d37d52a	0.044881023
237	0x3e732bb5	0.23747142
238	0x3e2e1bb7	0.1700276
239	0xbe314305	-0.17310722
240	0xbd6a3ebd	-0.05718874
241	0x3e5e4eda	0.21709767
242	0xbe7e3bd4	-0.2482751
243	0x3d4f844e	0.050663285
244	0x3e2687ec	0.16262788
245	0xbdb925ed	-0.09040437
246	0x3e121958	0.1426748
247	0xbd0c3313	-0.034228396
248	0xbd9c0820	-0.07618737
249	0x3e1b286d	0.1515214
250	0xbe3d33e2	-0.18476823
251	0x3d431b1b	0.04763327
252	0xba8c7dd6	-0.0010718654
253	0x3e2c632a	0.16834703
254	0xbd2255c4	-0.039632574
255	0x3e5d49a7	0.21610127

graph_transformer_layer.0.attention.K.bias f4 [32]
0	0xbc2dc102	-0.010605099
1	0x3d04c9dd	0.032419074
2	0x3e91a18a	0.28443557
3	0xbe4371e3	-0.19086413
4	0xbd8915bf	-0.06693601
5	0x3d6c7969	0.057732973
6	0x3e08f103	0.13373189
7	0xbd48fcba	-0.049069144
8	0x3a9f1b92	0.0012138954
9	0x3d03e752	0.032203026
10	0x3e2486ce	0.16067049
11	0xbd7cef11	-0.06175143
12	0xbd93935d	-0.07205842
13	0xbdad9c84	-0.084771186
14	0x3d8f95d7	0.070110016
15	0x3d775cb5	0.060391147
16	0x3e2fc321	0.1716428
17	0xbd7b4e66	-0.061354063
18	0x3d37c67c	0.044867024
19	0x3dfbe2bf	0.12299108
20	0xbb8d0d28	-0.004304547
21	0x3d849be1	0.06475044
22	0xbce51c5f	-0.02796763
23	0x3e2ac52b	0.16676776
24	0xbde0606d	-0.10955892
25	0xbdd9245b	-0.106026374
26	0xbd1395b4	-0.03603144
27	0xbe052f6e	-0.13006374
28	0x3e0af81a	0.13571206
29	0xbdb7105e	-0.08938669
30	0x3dffb898	0.1248638
31	0x3de18fa6	0.11013727

graph_transformer_layer.0.attention.V.weight f4 [32, 32]
0	0x3e12bac7	0.14329062
1	0x3e48a92a	0.19595781
2	0xbc24ce0b	-0.01005889
3	0x3d45ede1	0.048322562
4	0x3cf77997	0.030209346
5	0x3e0ebba5	0.13938768
6	0xbd9923ae	-0.074775085
7	0xbd9f33e2	-0.07773568
8	0xbe443130	-0.19159389
9	0xbd72e65e	-0.059301727
10	0xbdb83f3b	-0.08996435
11	0xbda09bea	-0.07842238
12	0xbe0ef7ef	-0.13961767
13	0xbddc1bd6	-0.10747497
14	0xbe1f0cd1	-0.15532233
15	0xbdc94d97	-0.09829252
16	0xbe1fe3e2	-0.15614274
17	0x3c630e7a	0.013858432
18	0x3dbc8872	0.092057124
19	0x3e0040f6	0.1252478
20	0xbe3456d7	-0.17611252
21	0x3da1f635	0.079082884
22	0x3e33ee7a	0.1757144
23	0x3e384777	0.17996012
24	0x3e53c4cf	0.20680545
25	0xbe0c2bcb	-0.1368858
26	0x3cc7dc14	0.024396934
27	0xbdff36b2	-0.12461604
28	0xbcec9451	-0.028879317
29	0xbe446985	-0.19180878
30	0xbd61aa8b	-0.055094283
31	0xbd54ed4d	-0.05198412
32	0xbd45dacd	-0.048304368
33	0x3e0a2ef5	0.13494475
34	0x3d5683cb	0.05237178
35	0xbde7274e	-0.11286794
36	0xbd846d0a	-0.0646611
37	0x3c8e00bb	0.017334333
38	0xbde83f87	-0.11340242
39	0x3dbc9808	0.09208685
40	0xbd949994	-0.07255855
41	0xbd2a59f3	-0.04158969
42	0x3db90fe6	0.090362355
43	0xbe667de9	-0.22508968
44	0x39ae3e08	0.00033234083
45	0x3d20ba36	0.039240085
46	0xbd964bf7	-0.07338708
47	0x3e2269d2	0.1586068
48	0x3da51c9d	0.08062098
49	0xbd31c0a8	-0.043396622
50	0xbc3de7cf	-0.011590912
51	0x3d992582	0.07477857
52	0xbdeeaec4	-0.11654428
53	0x3e38bae8	0.18040049
54	0x3e16b1f3	0.1471632
55	0xbde67b05	-0.11253933
56	0x3c13920c	0.009006988
57	0x3e4684c7	0.19386588
58	0xbc869cb0	-0.016432136
59	0xbdc36a2c	-0.09541735
60	0x3e0d8e1b	0.1382374
61	0x3d0652d4	0.032793835
62	0x3da2056a	0.07911189
63	0xbe5a2fae	-0.21307251
64	0x3d3ba51c	0.045811757
65	0x3e4bcaaa	0.19901529
66	0x3e15353c	0.14571089
67	0xbc93d284	-0.018044718
68	0xbde78252	-0.113041535
69	0xbdfc8535	-0.12330095
70	0x3e1b3968	0.15158617
71	0x3e1c00c9	0.15234675
72	0xbd0b3b48	-0.033992082
73	0xbe0d6912	-0.13809612
74	0xbcec6081	-0.02885461
75	0x3d23eb97	0.040019598
76	0xbe000a2f	-0.12503885
77	0x3d24ab37	0.040202346
78	0x3e226e5d	0.15862413
79	0x3dadf1b7	0.08493369
80	0xbe235b53	-0.15952806
81	0xbb6167b5	-0.003439409
82	0x3c7785d4	0.015107591
83	0xbe31e530	-0.17372584
84	0xbdb01cb8	-0.08599228
85	0xbddb175b	-0.10697814
86	0xbd31784f	-0.043327626
87	0x3d4a66ec	0.04941456
88	0x3e2137b8	0.15743911
89	0x3e0aab8d	0.13542004
90	0x3c447620	0.011991054
91	0xbc84f10a	-0.016228218
92	0x3ba4d1bc	0.005029885
93	0xbc363da0	-0.011123091
94	0xbda33605	-0.07969288
95	0xbd4ad774	-0.04952188
96	0x3e525dd7	0.2054361
97	0xbd67667e	-0.05649423
98	0x3dd902d1	0.1059624
99	0xbdc3ee19	-0.09566898
100	0xbe06ed53	-0.1317647
101	0xbde7c874	-0.1131753
102	0x3c606990	0.013697043
103	0x3e0cfec7	0.13769065
104	0xbe203139	-0.15643777
105	0xbd332de2	-0.04374493
106	0xbe0fcf10	-0.14043832
107	0xbda6009d	-0.08105586
108	0xbdd82f6a	-0.105559185
109	0x3c906b21	0.017629208
110	0x3d8a134e	0.06741963
111	0x3e083443	0.13301186
112	0x3e027ee5	0.12743719
113	0x3ddc13bc	0.107459515
114	0xbd365e86	-0.04452374
115	0x3c6037a8	0.0136851445
116	0x3d8d7dd2	0.06908764
117	0xbd9e8fd5	-0.077422775
118	0xbe18c379	-0.14918317
119	0xbe37333c	-0.17890638
120	0xbd33ad1c	-0.04386626
121	0x3b70d71c	0.003674931
122	0x3e00c5ee	0.12575504
123	0xbcc09387	-0.023507847
124	0x3d4f9e34	0.050687984
125	0x3d9d22a1	0.076726206
126	0x3dcdea17	0.10054415
127	0xbe515cbd	-0.20445533
128	0xbc9b9c9c	-0.018995576
129	0xbd64dc38	-0.05587408
130	0x3cb8266d	0.02247926
131	0x3d268894	0.040657595
132	0x3dda66ef	0.10664164
133	0xba982a48	-0.001160928
134	0x3e0df704	0.1386376
135	0xbe001b33	-0.12510376
136	0x3e290edb	0.16509573
137	0x3e6c2166	0.23059615
138	0x3d9c11eb	0.07620605
139	0xbd48e5c7	-0.049047258
140	0x3d3ad273	0.045610856
141	0x3dc911ff	0.098178856
142	0x3e06f0e9	0.13177837
143	0x3e0a21bf	0.13489436
144	0x3e0ed652	0.13948944
145	0xbbd0f25f	-0.006376549
146	0x3dc12fe0	0.094329596
147	0xbde2b15b	-0.11068984
148	0x3e5bd43b	0.21467678
149	0x3d832e20	0.06405282
150	0xbe522819	-0.20523109
151	0xbcfdf25e	-0.030999359
152	0xba40c523	-0.00073535944
153	0x3d976aef	0.07393443
154	0x3bc3f50e	0.0059801405
155	0xbde6f11f	-0.11276459
156	0xbc29aa07	-0.010355479
157	0x3d6b4db6	0.057447158
158	0x3e08537e	0.133131
159	0xbd23520d	-0.03987317
160	0x3d8f013c	0.06982657
161	0xbd1624a1	-0.036656026
162	0xbdd09382	-0.10184385
163	0x3d3902c7	0.045168664
164	0xbdd77a0c	-0.105213255
165	0xbd81cfb0	-0.06338441
166	0x3e0c0c3b	0.1367654
167	0xbd9e777c	-0.077376336
168	0xbddd8c46	-0.10817771
169	0x3e3fe8de	0.18741176
170	0x3e04cb4c	0.12968177
171	0xbd1b589d	-0.037926305
172	0xbd7cc5dd	-0.061712135
173	0x3daac6df	0.08338713
174	0x3db64f70	0.0890187
175	0x3cf8858e	0.030337121
176	0x3ccde112	0.025131736
177	0x3e3017f5	0.17196639
178	0xbd12ca99	-0.035837743
179	0xbd8cdf18	-0.06878489
180	0xbd917160	-0.07101703
181	0xbd1030bb	-0.035202723
182	0x3d96bc05	0.07360081
183	0x3ddce2ea	0.10785468
184	0xbde6b088	-0.112641394
185	0x3e5d23f1	0.21595742
186	0xbd236971	-0.03989548
187	0xbd29da83	-0.041468155
188	0xbdc15890	-0.0944072
189	0x3d9b78dc	0.075914115
190	0xbe2fb4ce	-0.17158815
191	0x3e84d565	0.25944057
192	0x3caf069b	0.021365454
193	0x3dba2c02	0.09090425
194	0xbcd0aaaf	-0.025472013
195	0x3e0ddc60	0.13853598
196	0xbdc108c0	-0.09425497
197	0x3dc48811	0.09596265
198	0x3d9f06d1	0.07764972
199	0x3d7585c2	0.059942015
200	0x3dd88ef3	0.105741404
201	0x3dcd36bf	0.100202076
202	0xbd439b2a	-0.047755398
203	0xbdd3feaf	-0.103513114
204	0x3db7d822	0.08976771
205	0x3bd48257	0.0064852643
206	0xbd814d4d	-0.06313572
207	0x3ba9b816	0.0051794155
208	0xbc595003	-0.013263705
209	0x3cb6ab9b	0.022298625
210	0xbe345120	-0.17609072
211	0xbdbfed4d	-0.093714334
212	0xbdfa96c3	-0.12235787
213	0xbcae57a7	-0.02128203
214	0x3d91512d	0.07095561
215	0xbd2872fc	-0.041125283
216	0x3de24e37	0.110500745
217	0xbd443ce1	-0.04790962
218	0xbc6343e0	-0.013871163
219	0x3dd2e04b	0.10296687
220	0xbe248c3c	-0.1606912
221	0x3e01b93f	0.12668322
222	0xbcaf2f7e	-0.02138495
223	0xbd86da38	-0.06584591
224	0xbda218d8	-0.07914895
225	0x3d86c69c	0.065808505
226	0x3d7fbbe0	0.06243503
227	0xbd96d1b3	-0.07364216
228	0x3db05d32	0.086115256
229	0x3d321057	0.043472614
230	0x3d02db49	0.031947408
231	0xbdad52be	-0.084630474
232	0xbce2ca2e	-0.027684297
233	0x3c21da61	0.009878726
234	0xbde84fe5	-0.11343364
235	0xbe1d65a3	-0.15370803
236	0xbe282ee5	-0.16424139
237	0xbc9bbe19	-0.019011544
238	0xbd22ec35	-0.039776046
239	0x3dc0c14d	0.09411869
240	0x3d2a2dfd	0.041547764
241	0xbc7096db	-0.014684404
242	0xbdf5f704	-0.12010005
243	0xbcd2accd	-0.025717163
244	0x3c078ca7	0.00827328
245	0xbbd11fcc	-0.0063819643
246	0xbb84ffb6	-0.0040588034
247	0x3de6413f	0.112429135
248	0x3e30328d	0.17206784
249	0x3e0fb851	0.14035155
250	0xbdf11860	-0.11772227
251	0x3e1e9f36	0.15490422
252	0x3e283866	0.16427764
253	0x3dee22d0	0.11627734
254	0x3d26dfb3	0.04074068
255	0xbe2dc35a	-0.16969052

graph_transformer_layer.0.attention.V.bias f4 [32]
0	0xbcad2ae8	-0.021138623
1	0xbe292112	-0.16516522
2	0xbdf52ad7	-0.11971062
3	0x3e020d17	0.12700306
4	0x3da2157f	0.07914256
5	0xbc709458	-0.014683805
6	0x3d938f6d	0.07205091
7	0x3dba12e3	0.090856336
8	0x3dc24e7d	0.09487627
9	0xbe355065	-0.1770645
10	0x3e17af13	0.1481288
11	0xbc02750c	-0.007962476
12	0xbdd9a18a	-0.10626514
13	0x3d14a610	0.036291182
14	0x3dd641be	0.10461758
15	0xbd88b671	-0.06675423
16	0x3e0b663e	0.13613221
17	0xbdde5769	-0.10856516
18	0x3db2773f	0.08714151
19	0x3df06573	0.117381
20	0x3e1b8b43	0.15189843
21	0x3d9f93c2	0.077918544
22	0x3dac840e	0.08423625
23	0xbd4236cd	-0.047415543
24	0x3da42445	0.0801473
25	0x3d1ef31f	0.038806077
26	0xbd4dfd0b	-0.05029015
27	0x3e3e982b	0.18612735
28	0xbda61d27	-0.08111029
29	0x3bae8f71	0.005327158
30	0xbdf84346	-0.121222064
31	0xbda842d0	-0.082158685

graph_transformer_layer.0.attention.proj_e.weight f4 [32, 32]
0	0xbd51c5a3	-0.05121387
1	0xbc81d270	-0.015847415
2	0xbe40f913	-0.18845014
3	0xbd198537	-0.03748056
4	0xbc085c7f	-0.008322834
5	0x3db75e56	0.0895354
6	0xbdb45369	-0.08804972
7	0x3e45f253	0.1933072
8	0xbd432376	-0.04764124
9	0xbe237440	-0.15962315
10	0x3c7848a9	0.015154042
11	0x3d2cc37f	0.042178627
12	0xbe405414	-0.18782073
13	0xbd9c23da	-0.07624026
14	0xbe139a96	-0.14414439
15	0x3debb681	0.11509419
16	0xbdb995d0	-0.090617776
17	0x3e1d4895	0.15359719
18	0xbe2cbadb	-0.16868155
19	0x3c9be8dd	0.019031936
20	0x3e390416	0.18067965
21	0x3d93d89e	0.07219051
22	0xbe3218a7	-0.17392217
23	0x3d87e573	0.06635561
24	0xbda4d089	-0.080475874
25	0x3d42c457	0.047550526
26	0x3cf206fc	0.029544346
27	0xbc242d01	-0.010020495
28	0xbd12d8da	-0.035851337
29	0x3e02334e	0.12714884
30	0xbded35d5	-0.11582533
31	0xbb531c58	-0.003221294
32	0xbd7283b0	-0.05920762
33	0xbd2b777a	-0.04186199
34	0x3d9c43e8	0.076301396
35	0xbe005fe0	-0.12536573
36	0x3ddde716	0.10835092
37	0x3d7c01c5	0.061525125
38	0x3dd66676	0.104687616
39	0x3c2ccbec	0.010546666
40	0x3e071357	0.13190971
41	0xbda17f05	-0.07885555
42	0xbe5e7217	-0.2172321
43	0xbe6cdabb	-0.23130314
44	0x3dfc3140	0.12314081
45	0x3cbafb1f	0.022824822
46	0xbe4f2fba	-0.2023305
47	0x38d504b5	0.00010157508
48	0xbe086d32	-0.13322905
49	0x3cf7b7d1	0.030239018
50	0xbe5c59f2	-0.21518686
51	0x3e4b9329	0.19880356
52	0xbd81d758	-0.06339902
53	0x3ca677ec	0.020320855
54	0x3d5dd534	0.054158404
55	0xbe76e22e	-0.24109718
56	0x3d3127da	0.043250896
57	0xbe49e350	-0.19715619
58	0x3d9f017d	0.07763956
59	0x3e5b4a50	0.21415067
60	0x3e2db884	0.16964918
61	0x3e2635a3	0.16231398
62	0x3d445330	0.047930896
63	0x3e565218	0.20929754
64	0x3e0bb72a	0.1364409
65	0xbe7df789	-0.24801458
66	0xbe0c5b8c	-0.13706797
67	0x3dfdf14d	0.1239954
68	0xbe12adf5	-0.14324172
69	0xbd728ad8	-0.059214443
70	0x3cb7ecfc	0.02245187
71	0x3e05fe9b	0.13085406
72	0xbe28e100	-0.1649208
73	0x3d478d1a	0.04871855
74	0xbd8e29e3	-0.06941583
75	0xb99630fe	-0.00028646732
76	0xbc1b2961	-0.009470315
77	0xbdd8a95a	-0.10579176
78	0xbe7f5b71	-0.24937226
79	0xbe852ee0	-0.26012325
80	0xbc288ea2	-0.010287913
81	0xbcc8d359	-0.02451484
82	0xbdd47b17	-0.1037504
83	0x3d670223	0.056398522
84	0x3dbdc62b	0.09266313
85	0x3d7493b2	0.059711166
86	0xbdf06eb6	-0.117398664
87	0xbcb9d9cd	-0.022686863
88	0xbe50bd41	-0.20384695
89	0xbe85bef9	-0.26122263
90	0x3cbaa243	0.02278245
91	0xbdb98e8e	-0.09060393
92	0xbe24be20	-0.16088152
93	0x3da97b7c	0.08275506
94	0xbd19bedd	-0.037535537
95	0x3de72d0c	0.11287889
96	0x3e2094a5	0.15681703
97	0xbdc89539	-0.09794087
98	0x3dd29064	0.102814466
99	0x3d0ee900	0.034890175
100	0x3a1b60d2	0.0005927208
101	0xbe03c57d	-0.12868305
102	0xbd9d5d95	-0.07683865
103	0xbdf47243	-0.11935856
104	0x3d4593c1	0.048236612
105	0x3cdf9df3	0.027296996
106	0x3d2ce353	0.04220898
107	0x3c820199	0.015869902
108	0xbe2f48fa	-0.17117682
109	0x3dde17d4	0.108443886
110	0x3e72025f	0.23633717
111	0x3e05d055	0.13067754
112	0x3bad4713	0.0052880137
113	0xbde2d663	-0.11076047
114	0x3d618a62	0.055063613
115	0xbd7846cc	-0.060614392
116	0xbc8db5c1	-0.017298581
117	0x389b82af	7.415318e-05
118	0xbdb3d0c4	-0.08780053
119	0x3e73b4a9	0.23799385
120	0x3e62d53c	0.22151655
121	0x3e542033	0.20715408
122	0x3e616f8c	0.22015208
123	0xbe4381a5	-0.19092424
124	0xba6cf6c1	-0.0009039455
125	0xbe4e2892	-0.20132664
126	0x3dd0609f	0.10174679
127	0xbe13fefa	-0.14452735
128	0x3d8ad9ee	0.06779848
129	0xbdc5567f	-0.096356384
130	0xbe0949d4	-0.1340707
131	0x3e2971dc	0.1654734
132	0xbe1b3235	-0.15155871
133	0x3e3845b2	0.17995337
134	0xbb28c588	-0.0025752503
135	0xbe12b5de	-0.1432719
136	0xbdb81bf2	-0.08989705
137	0x3deaacfa	0.11458774
138	0x3cff978c	0.031200193
139	0xbcc3438b	-0.023835918
140	0x3df2e413	0.11859908
141	0x3d41f4e8	0.0473527
142	0x3db29924	0.087206155
143	0x3e1500c4	0.14551073
144	0x3de2219b	0.11041566
145	0x3b9fef56	0.004880826
146	0x3d04d860	0.032432914
147	0xbe13d90c	-0.14438266
148	0xbd24312d	-0.04008596
149	0xbe08fec8	-0.13378441
150	0x3d01dce9	0.031704817
151	0xbd3d1a0c	-0.04616742
152	0xbdc3877d	-0.09547327
153	0x3e481c74	0.19542104
154	0xbda721fe	-0.0816078
155	0x3e2604a8	0.16212714
156	0x3e2b4e19	0.1672901
157	0x3e385ded	0.1800458
158	0xbd764626	-0.060125493
159	0x3ca26c3e	0.019827005
160	0xbd3ebe28	-0.046568066
161	0xbdfdd1f6	-0.123935625
162	0xbb954a89	-0.0045560044
163	0x3dee5444	0.11637166
164	0x3e60b5a1	0.21944286
165	0x3d2359dc	0.03988062
166	0x3d75b5b2	0.05998773
167	0x3df70553	0.120615624
168	0x3d8585a9	0.06519634
169	0x3e539872	0.20663622
170	0xbd7c180d	-0.061546374
171	0x3bd9ac25	0.0066428357
172	0x3e221ba8	0.15830863
173	0x3d4508bf	0.048104044
174	0x3e43349e	0.1906304
175	0x3d8d0c25	0.06887082
176	0x3d1eb753	0.03874905
177	0x3e3f0cc9	0.18657221
178	0xbd7eb8bd	-0.0621879
179	0xbcd63559	-0.026148485
180	0x3e0c5e3c	0.13707823
181	0x3e03eb0e	0.12882635
182	0x3c3806bd	0.011232075
183	0x3e012682	0.12612346
184	0xbcbfc0eb	-0.02340742
185	0x3dd5c3b7	0.1043772
186	0xbc5a1205	-0.01330996
187	0x3d90486c	0.070450634
188	0xb849a7ff	-4.8078593e-05
189	0x3deef1cb	0.11667212
190	0x3dbb5608	0.091472685
191	0x3d6aa6cb	0.057287972
192	0xbe159b70	-0.14610076
193	0x3df227c3	0.1182399
194	0x3ccbad88	0.02486302
195	0xbe294d0c	-0.16533297
196	0x3da1583c	0.078781575
197	0xbe0c8a21	-0.13724567
198	0xbe61d4e8	-0.22053874
199	0xbda5172f	-0.080610625
200	0x3cf17b5b	0.029477766
201	0xbdfec694	-0.124402195
202	0xbe5bc98f	-0.21463607
203	0xbe34b98e	-0.17648908
204	0x3cfe26cc	0.03102436
205	0xbe073850	-0.13205075
206	0xbd3e49de	-0.046457164
207	0xbe0c4b31	-0.13700558
208	0x3e2038c2	0.15646651
209	0xbe3d018e	-0.18457624
210	0xbd30ddb4	-0.043180183
211	0x3d0ef878	0.034904927
212	0x3dfcc064	0.12341383
213	0x3d9b3d40	0.07580042
214	0x3d9086a1	0.070569284
215	0xbe4efbb9	-0.20213212
216	0xbe3e9d9e	-0.18614814
217	0xbd44fd12	-0.04809291
218	0x3ce20a28	0.027592734
219	0xbd464a5c	-0.04841076
220	0xbdadc039	-0.08483929
221	0xbe441bb6	-0.19151196
222	0x3ce7d836	0.02830134
223	0xbe4e7904	-0.20163351
224	0xbdb276a2	-0.08714034
225	0x3d10e086	0.035370372
226	0xbc86127b	-0.016366234
227	0x3df23afc	0.118276566
228	0xbd8a4b1b	-0.067526065
229	0xbdaa38d3	-0.083116196
230	0xbe221f60	-0.15832281
231	0xbe0534b8	-0.13008392
232	0xbe4bd238	-0.19904411
233	0xbdd7ea8d	-0.10542784
234	0x3ca35d90	0.019942075
235	0xbe4b5690	-0.1985724
236	0xbdb6d893	-0.08928027
237	0x3d22a81e	0.03971111
238	0xbe805cdc	-0.25070846
239	0xbe088ab3	-0.1333416
240	0xbd933c4c	-0.07189235
241	0xbdce3a6e	-0.10069738
242	0xbdf09fd3	-0.11749234
243	0xbdd32e5a	-0.10311575
244	0xbe2f29db	-0.1710581
245	0xbc026b6e	-0.007960184
246	0xbb17036f	-0.0023042818
247	0xbe084737	-0.13308416
248	0x3db70757	0.08936947
249	0x3d273281	0.04081965
250	0x3e3c13c6	0.18366918
251	0xbe326dd5	-0.1742471
252	0xbdd2f5e6	-0.10300808
253	0xbdc5368f	-0.09629547
254	0xbbbfdc2a	-0.005855103
255	0xbd472a90	-0.048624575

graph_transformer_layer.0.attention.proj_e.bias f4 [32]
0	0xbe1874d5	-0.14888318
1	0xbdc763de	-0.09735845
2	0xbe4d33d8	-0.20039308
3	0xbca73c77	-0.020414574
4	0xbd3df7f5	-0.04637905
5	0x3df5528b	0.119786344
6	0xbdc2cb5c	-0.09511444
7	0xbe41aa50	-0.18912625
8	0x3e1cff0b	0.15331666
9	0xbd3ad875	-0.045616586
10	0xbe04b228	-0.12958586
11	0x3ca6458f	0.02029684
12	0xbcfe272b	-0.031024536
13	0x3e51e18e	0.20496199
14	0xbcb188b2	-0.021671627
15	0xbde0cbfc	-0.10976407
16	0x3e1be52f	0.15224145
17	0xbe64167f	-0.22274207
18	0x3dd3686a	0.1032265
19	0x3d0a2f61	0.03373659
20	0x3dbf1e44	0.093319446
21	0x3dde227a	0.1084642
22	0x3e1fe9d2	0.15616539
23	0xbe45b415	-0.19306977
24	0x3cfce40e	0.030870464
25	0x39d85fd8	0.0004127014
26	0x3d9a556f	0.075358264
27	0x3c50a7bb	0.012735303
28	0xbe2ce124	-0.1688276
29	0xbe1492cf	-0.14509128
30	0xbe2fc9d4	-0.17166835
31	0x3da2681e	0.07930015
