checkpoints/casp15_inhouse_full_v7_nogcpnet_fold1.ckpt (torch, 422503 bytes, 459 tensors)

resnet_embedding.node_embedding.weight f4 [16, 18]
00000000: 4a37 1c3e e779 393d 850e 3dbe d2c6 d63d
00000010: a680 f0bd 2b69 9cbd 67f3 fa3d 9870 89bd
00000020: d5d4 103e 8f97 98bd 61a2 1ebb f0f9 90bd
00000030: 2146 96bd 8008 3a3e 88e6 88bd 5781 993d
00000040: 466e 583e bc5f 93bc 74e7 0c3d 8a56 e5bd
00000050: a14d 0d3d 2f1c 3cbd 2aea 50bd 9f5a 5e3d
00000060: 0449 38be 108c c53d 4487 03be 82ac 86bd
00000070: 10bb e5bd 7aeb 09bc 4a23 14bc ca5a 7e3d
00000080: 986d 94bd 4c6d 6fbd 527c 3b3e 0b52 41be
00000090: 53eb 3ebe 5258 653e 2b35 f4bd 835d 9cbd
000000a0: c0ee 7dbe 621f 6cbe 77fc 9f3d 4221 43bd
000000b0: 563c 6abe a52a b13d f5cf 863c 5c6e 60bd
000000c0: 9556 853b 3436 1b3d fbdd 9c3c c731 563e
000000d0: 6782 a6bd a417 e53d aaea 003d ca9c 89be
000000e0: 3a38 393c 3e11 cdbb 6319 423e 8084 293d
000000f0: 2dbf f83d 8598 fbbd 28d5 b83d 3da8 013e
00000100: 2d9b 8abc 9447 b9bd 53b3 3d3e 2a83 3c3d
00000110: e94e 233e 7981 773c 5d5e 9e3d 2a9c 6fbd
00000120: 55fe 2f3e 8802 663e 8e36 f63d 5c29 40be
00000130: 6e0f 193d 6eb1 e43d 2fcb 203d 29aa 613e
00000140: 0c7b 36be 61a9 d0bd 9466 0bbe 0e12 8abd
00000150: 60f0 90bd f376 64be 546a df3d ca64 bdbd
00000160: 379f 803e 6394 90be f204 403e c43f 11be
00000170: f3c2 2bbe d140 de3a 8503 ce3b 4551 45bc
00000180: 3106 81be 1bf9 afbd 9b66 74be 8222 4ebd
00000190: c4d0 9a3d 1e31 84bd 39f1 cebc efa8 4e3c
000001a0: 899d 2bbd e05d b83b f6e0 cfbc 97c8 14be
000001b0: 93cb 91bd e539 433e 0640 2e3e 0fad 433e
000001c0: 6713 103e d063 1abe 0f4a 91be 3024 3dbe
000001d0: 9da8 a53c e270 9abd 5662 1bbd bfe8 0a3e
000001e0: 0a33 ae3c cddf 0f3d 25fb 193d 1b6a 973c
000001f0: 6bf8 c53c 7f0d 20be 5254 b93c 2b67 c3bd
00000200: 264c f7bd 6239 923c fb46 e8bc c63d 94be
00000210: d0c9 80bd 1966 a5be d04a ccbd 1885 44be
00000220: d6af f3bd 10e0 423e 690a 043d a725 c2bd
00000230: f415 0a3c 5937 a7bd f16b 603d 6878 edbc
00000240: e3c8 8dbd b969 1a3e 76c8 b3bd e504 ee3c
00000250: 673b 843e a977 4fbe e237 073d 0b3f 7f3d
00000260: 4631 f83c cad9 403c 692b 303e 9912 48be
00000270: c430 a4bd 73f5 513e a727 4abe 07ad dbbd
00000280: 9a36 fc3d a9a6 3ebc 7dc6 5b3e b9f5 153e
00000290: 80a7 98bd b493 583e 0e3c 153e 5bcf 813d
000002a0: e32b 0a3e 0b78 163e 1d18 103e a844 40bd
000002b0: 6bed d83d 33ec 91bd 29f2 ad3d 73e4 6b3d
000002c0: 97b0 72ba cfaf a6bd 0cb0 6bbd 1a65 193e
000002d0: 3d41 48bc fe9a 67be 5a05 773e edda e6bd
000002e0: 42d4 e6bd 3ad4 04be 90e3 043e 1439 6fbc
000002f0: 035a 85bd 0c33 de3d 168e 51bd 3b88 acbd
00000300: dfda f83d 2346 14be 32c3 e8bb 43cb 43b9
00000310: 16b0 ba3d f180 573e 4ce2 ad3d c0e7 b73d
00000320: 31c8 853e 1865 cfbd 11cf 083e f170 eb3d
00000330: d126 bebd 2969 34be 67cf 253e 8c26 fa3d
00000340: 3647 71bd fa46 4cbd d494 33bd cf5e 173d
00000350: a2d8 80bd 59f4 923d 46fe 863e bf58 36be
00000360: f654 b7bd 9bfb 6e3d 165e 19be 1f82 12be
00000370: 70e5 afbd b0cc 20be 08b2 1cbe a26e 64be
00000380: a940 2bbe c839 be3d de6a 62bd 08e8 0abe
00000390: 6298 74bd 578c c03d 1249 773d ecfe 3ebe
000003a0: ca75 2f3e 4cb6 8f3e 9d43 ea3c af46 703e
000003b0: 8d49 6bbe b3c7 adbd 2ad2 103e 631c 5a3b
000003c0: 71a2 08be 557f d9bd 6be4 27be 9c7d b9bc
000003d0: 6f42 9cbd cbb3 20be b544 8dbd 06ee f93d
000003e0: e492 a23d 1124 34bd 7d76 cabc da91 1e3e
000003f0: cb99 803d c5a7 02bd fde0 213e 7e11 933e
0.15255466 0.04528227 -0.1846257 0.10487141 -0.11743288 -0.07637247 0.122534566 -0.06710929
0.14143689 -0.074507825 -0.0024205672 -0.07078922 -0.07337595 0.18167305 -0.06684595 0.07495373
0.21135816 -0.017989986 0.03440042 -0.11198147 0.03449786 -0.045925315 -0.051004566 0.05428564
-0.17996603 0.096458554 -0.12844568 -0.06575872 -0.1121732 -0.008417958 -0.009041617 0.062098302
-0.07247466 -0.058453843 0.18309143 -0.18878953 -0.18644457 0.22396973 -0.119242035 -0.076350234
-0.24798107 -0.23058847 0.07811826 -0.04763914 -0.22874579 0.08650712 0.016456584 -0.054792747
0.0040691593 0.03789349 0.019148817 0.20917426 -0.08130341 0.1118615 0.031473793 -0.26877433
0.011304909 -0.006258159 0.18954997 0.041386127 0.12145839 -0.1228495 0.09025031 0.12661834
-0.016919697 -0.090468556 0.18525438 0.046023525 0.1594807 0.015106552 0.07732842 -0.05849854
0.17186864 0.22461903 0.12022124 -0.18765777 0.03736823 0.111666545 0.03925627 0.22037567
-0.17820376 -0.101885565 -0.13613349 -0.06741725 -0.07077098 -0.22311 0.10908952 -0.092477396
0.2512147 -0.2823821 0.18751886 -0.14184481 -0.16773586 0.0016956573 0.0062870407 -0.012043302
-0.25200036 -0.08592435 -0.23867266 -0.050325878 0.0755935 -0.06454681 -0.025261508 0.012613519
-0.041898284 0.005626425 -0.025375824 -0.14529644 -0.07118907 0.19065054 0.1701661 0.19108985
0.14069901 -0.15077138 -0.28376815 -0.18470836 0.020222003 -0.07541062 -0.037935577 0.13565348
0.021264572 0.035125542 0.037593026 0.018483212 0.024166306 -0.15630148 0.022623215 -0.09541162
-0.12075071 0.017849628 -0.028354159 -0.2895338 -0.06288493 -0.32304457 -0.09975207 -0.19191396
-0.118987724 0.19030786 0.03223649 -0.09479838 0.008428086 -0.081648536 0.05479044 -0.028988078
-0.06923082 0.15079392 -0.08778469 0.029055068 0.2582657 -0.2026049 0.03301228 0.06231598
0.030296933 0.011770675 0.1720406 -0.19538344 -0.08017114 0.20503788 -0.19741689 -0.10726362
0.12315102 -0.011636415 0.21462436 0.14644517 -0.07453823 0.21150094 0.1457369 0.06338378
0.13493304 0.1469423 0.14071698 -0.046940476 0.10592159 -0.071251296 0.08493454 0.057590913
-0.00092578813 -0.081390016 -0.05754094 0.14979973 -0.012222585 -0.22617719 0.24123135 -0.112722255
-0.11270954 -0.12971583 0.12977433 -0.014601011 -0.06511309 0.1084958 -0.051160894 -0.084244214
0.12151121 -0.1447988 -0.007103347 -0.0001867237 0.09115617 0.21045281 0.08490428 0.0897975
0.26129296 -0.10126704 0.1336024 0.11496151 -0.092847474 -0.1761824 0.16192399 0.122143835
-0.058905803 -0.049872376 -0.043843105 0.03695565 -0.062913194 0.07175512 0.2636587 -0.17807291
-0.08951752 0.05834542 -0.14977297 -0.1430745 -0.085886836 -0.15703082 -0.15302289 -0.22307828
-0.16723885 0.09288365 -0.055277698 -0.13565075 -0.059715636 0.09401768 0.06037242 -0.18651932
0.17134777 0.2806877 0.028596694 0.23464464 -0.22977276 -0.08485355 0.14142671 0.003328108
-0.13343216 -0.1061999 -0.16395728 -0.022642903 -0.07629859 -0.15693586 -0.068978705 0.122036025
0.079381734 -0.043979708 -0.024714703 0.15485325 0.06279334 -0.03189828 0.15808482 0.28724283

resnet_embedding.node_embedding.bias f4 [16]
00000000: 3a79 3fbe c3b6 183d 83a3 513d 714e 7d3e
00000010: ddd2 243e 54b2 20be c8e5 56bd 10f8 a03d
00000020: 3575 20be 39a9 363e 4ce1 233d 0d00 ec3d
00000030: c800 d7bd 5432 323e 88ba a63d 650e 1dbe
-0.18698588 0.03728367 0.051181328 0.24736954 0.16096063 -0.15693027 -0.05246523 0.07859814
-0.15669711 0.17837991 0.04000978 0.11523447 -0.10498196 0.17402011 0.08141047 -0.15337522

resnet_embedding.bn_node.weight f4 [16]
00000000: 88ed 833f 55d3 743f 61be 793f 48c1 833f
00000010: 0bc1 4c3f 2ce3 843f 2997 713f 2b74 863f
00000020: 2b10 7e3f a1a2 753f ee24 833f 1352 663f
00000030: 3578 863f 48b9 913f 63be 823f 3d6e 813f
1.0306864 0.9563497 0.9755612 1.029336 0.7998206 1.0381827 0.9437128 1.0504202
0.9924342 0.95951277 1.0245645 0.89968985 1.0505434 1.1384668 1.0214351 1.0111767

resnet_embedding.bn_node.bias f4 [16]
00000000: 2e68 20bd 531d 9abd adde a2bc ef48 933b
00000010: 9109 1cbe a67f 01bc fe05 cb3b 0ca9 f6bc
00000020: 8bdf d9bc 1ee7 84bd 8d95 33bd d985 96bd
00000030: f290 003d 91d9 523d 8965 26bd 9775 cdbd
-0.039161853 -0.075251244 -0.01988157 0.0044947783 -0.15238024 -0.007903969 0.0061957827 -0.030109905
-0.026595851 -0.064893946 -0.043843795 -0.07349748 0.03138823 0.05147702 -0.040624175 -0.10032194

resnet_embedding.bn_node.running_mean f4 [16]
00000000: f7de dabc bb3b afbe a6ca 69be 3319 003f
00000010: 4d57 9f3d 2d05 32bf c1d2 84be 95f6 4bbf
00000020: 3fea 3cbc ee98 733f dc4f 8fbd 7530 af3e
00000030: 7710 29bf d54d 0abd 9dae 913e 45fc 83be
-0.026717646 -0.34225258 -0.2283121 0.5003845 0.07780323 -0.6953915 -0.25942042 -0.7967313
-0.011530458 0.9515523 -0.06997654 0.34216657 -0.6604075 -0.033765633 0.28453532 -0.25778404

resnet_embedding.bn_node.running_var f4 [16]
00000000: f51e 673c 14b4 ff3c 6c9a f23c ad98 973c
00000010: ae5b 2d3d d9a7 543d cbc5 313d fb9e 023e
00000020: da62 bc3c 4c74 bc3d 2b3a 603c 9f79 1a3d
00000030: 11a5 893d 618e d93c f79d f03c 4d39 ba3c
0.014106502 0.031213798 0.02961465 0.018505419 0.04232376 0.051917884 0.04340152 0.12755959
0.022996355 0.09201869 0.013685743 0.037713643 0.06720937 0.02655715 0.029372199 0.022732401

resnet_embedding.edge_embedding.weight f4 [16, 4]
00000000: 40ad 843d 0d6f b6be 99a0 b3be cdd6 883e
00000010: ff1a ddbe fedd 37be 499d 2bbe 8496 afbe
00000020: 7123 0ebf f32e 253e 620d 92bd 2eaf 0bbe
00000030: 1fe9 81be a6ad 2a3d 295d b53e 682d 1cbe
00000040: 51ed bfbe 3c1e a6bd 6176 89be 691d 6e3e
00000050: 7a18 b4bd a463 cfbd 1f9e ad3c 916c a2be
00000060: 7029 3abe 4f38 023f 6d37 f33d f271 efbe
00000070: 72ef 74be 7bad 1b3e 7f12 1bbf 0e0b c53e
00000080: 2f9d 903c 442b c73e 5f6f 243e 5b47 473e
00000090: e5dd 55bd 8849 f8be 7ee9 9f3e 30af c23e
000000a0: 43f4 f5b9 7cc5 0a3e c634 07be d692 28bd
000000b0: a781 87be 84fb 9a3e 009c 9d3e d56e 903e
000000c0: 99f2 8cbe cda2 26bd f86c dd3e 1d85 1d3e
000000d0: 2723 b53e d313 ddbd 28db 8f3e 9a33 0d3e
000000e0: e6f3 c9be 2321 cc3e cb60 35be 4471 bfbe
000000f0: 0a86 cb3d 80ba b2be fde9 dabe 502a 7fbe
0.06478357 -0.356316 -0.35083464 0.2672638 -0.4318466 -0.17955777 -0.16759218 -0.34294522
-0.5552283 0.16131191 -0.07131459 -0.13641044 -0.2537317 0.04166951 0.35422638 -0.15251696
-0.37485746 -0.081112355 -0.26848128 0.23253407 -0.08793731 -0.10126427 0.021193562 -0.31723455
-0.1817987 0.5086717 0.11875806 -0.4676662 -0.23919466 0.15202896 -0.605751 0.38484997
0.017653076 0.38900197 0.1605811 0.19460814 -0.05221357 -0.484936 0.31232828 0.38024282
-0.0004691203 0.13551897 -0.13203725 -0.04115566 -0.26466104 0.30270016 0.3078308 0.28209558
-0.27528837 -0.040682603 0.432472 0.1538281 0.35378382 -0.10794797 0.2809689 0.13789216
-0.39443892 0.3986903 -0.17712705 -0.37391102 0.09937675 -0.34907913 -0.42756644 -0.24918485

resnet_embedding.edge_embedding.bias f4 [16]
00000000: b943 56be 74fc 12be 4141 43bd 8ec1 c63e
00000010: f2b4 9abe f866 4b3e 6568 ee3d 8184 5bbe
00000020: 1488 543e 9bf9 c23e fca2 70be 8b01 aebc
00000030: 73bb ee3e dc53 953e 29a3 543e ec9c 123e
-0.20924272 -0.14354116 -0.047669653 0.38819546 -0.30216175 0.19863498 0.116410054 -0.21437265
0.20755035 0.3808106 -0.23499674 -0.02124097 0.46627387 0.29165542 0.20765366 0.14317673

resnet_embedding.bn_edge.weight f4 [16]
00000000: 8e67 7c3f 4daa 833f 55a8 813f b548 903f
00000010: c4d9 703f dfbb 833f 7f90 8b3f 85ac 7c3f
00000020: 2469 8d3f c3fb 7a3f b4ab 8a3f 626e 8f3f
00000030: 85ef 873f d861 8a3f 00c1 7d3f 71d9 8c3f
0.9859551 1.0286347 1.0129496 1.1272188 0.94082284 1.0291709 1.0903472 0.98700744
1.1047711 0.9804041 1.083365 1.1205561 1.061997 1.081111 0.9912262 1.1003858

resnet_embedding.bn_edge.bias f4 [16]
00000000: 228a 433c dc8f 973d abae 913b 6fb8 063e
00000010: 1180 92bd 8b5d cf3d a5e4 263e 63f6 81bc
00000020: 1f8f b53d 4b75 093d 1417 4b3d 0da5 9c3d
00000030: 6dd1 bc3d b6cc 803d e3ad d7bc cefb c13d
0.011934789 0.07400486 0.004445871 0.13156293 -0.07153333 0.10125264 0.16298158 -0.015864557
0.08865189 0.033559125 0.049582556 0.076486684 0.09219632 0.062890455 -0.026328033 0.09471856

resnet_embedding.bn_edge.running_mean f4 [16]
00000000: aa82 fbbe f871 21bf 5af2 aebe 44f6 d83e
00000010: b3b2 27bf 74bf 4f3d a2ae 813e 5111 05bf
00000020: 1b7a 093f 0e33 ab3e 8990 78be ea36 493e
00000030: 8122 0b3f 45ff 1b3f b982 e83c 0e66 7ebe
-0.49123126 -0.6306453 -0.34169275 0.42375386 -0.6550705 0.050719693 0.25328547 -0.5197955
0.53701943 0.3343739 -0.24273886 0.19649854 0.54349524 0.60936385 0.028382646 -0.24843618

resnet_embedding.bn_edge.running_var f4 [16]
00000000: 749f 8c3d a5b5 913d b9a1 cd3c 5a9f 873c
00000010: db3a 843d 3a7e 8b3c 263a 8f3d 20e1 b83d
00000020: b9cc 143d 2d34 023d 7f09 603a c5c2 c53c
00000030: c171 3c3c ad4b ec3c 3f11 dd3c 21c1 653d
0.06866351 0.07114724 0.02510153 0.016555477 0.06456538 0.017027963 0.06993513 0.09027314
0.03632805 0.03178804 0.0008546337 0.024140725 0.01150173 0.028844679 0.026985763 0.056092385

graph_transformer_layer.0.attention.Q.weight f4 [16, 16]
00000000: 85ec 66be 9c1e 3dbc 1af2 96bd 36fc c6bd
00000010: 61df 443d 377a 553e 5bef 983e 07ab 5e3e
00000020: 2595 fabd 7bd8 ef3d db11 623e d9a5 ea3d
00000030: fe34 e1bd 57d1 0f3e f446 74bd bd9f 513e
00000040: ab76 b1be fca4 4ebe b6cd 8abd 1801 ebbd
00000050: 8b0f a53d 2858 08bc 2b9f 5e3c 7ff4 64be
00000060: 82dc 84be d637 013e 260f 723c df55 9abe
00000070: 51c6 05be 1637 e1bc 9cc7 47be cec2 71be
00000080: 5e45 aabe 62f1 fd3c 3987 af3d baf7 85be
00000090: 3f1f 80be 367a 9cbc 4aac 093d 0a40 e9bd
000000a0: 5509 d1bd c777 29be b2db 8fbe 5269 0bbe
000000b0: e87c 60bd 8f5f 2bbe a285 203e 74e8 9bbe
000000c0: 82e2 bc3c 026c 6abe 0bfc 7f3e e01d a73e
000000d0: 4cb7 9e3c 8fb3 29be 8a95 8b3d 49fb 07be
000000e0: 470e 823e 9a7f 80bc 1a01 ea3d b023 0bbe
000000f0: 658b 83bc b4ec eabd f55e a73d 6cf5 5bbe
00000100: 30b9 e43d 6864 a53d 61ec d13d a472 8dbe
00000110: fc44 8d3e a24a 3bbc e022 03be c860 84be
00000120: d028 bebe 4d58 853e 3eac f4bd f887 aa3c
00000130: c95b 38be 2ee1 0bbe 333f 4f3e cc3c 0c3e
00000140: 41f0 68be 9503 003d 3f4a efbc e18a 31bd
00000150: 80bc a2be 7e69 68be ad01 adbe 0125 14be
00000160: 6de4 963a 53ec ac3d 922e b9be 894e d9bd
00000170: 1dcf 20bd 4992 eabd 3d64 4ebe 5722 983d
00000180: a14d 5fbe fd3e 02be c674 4cbe 6dcc ca3d
00000190: 4d0f 6ebe d60e 10be 4bab 8dbe bfb8 5dbe
000001a0: d840 b23d 1036 7f3d 4b25 ef3b aa12 acbe
000001b0: d471 b13c 70a5 6ebe 9abf 91be eda4 36be
000001c0: e4ec 813e edd2 c03e e5bc 8d3e 479d 9e3d
000001d0: 802d b6bd 35bb 503e ad70 593e 8917 553c
000001e0: 3a90 aaba 5b49 20be 9d7b 5e3c b6d7 acbc
000001f0: cd8a 8f3e ca57 6f3e 058b 83bc f7b6 843c
00000200: e4c6 b4bb 0d1d 7d3d f32d 043e 8456 f13c
00000210: 935c 8b3e 5df3 203e c028 e3bb f2d0 6c3d
00000220: ca7c cd3e d0bb 703e ee35 463e e524 de3e
00000230: 08fe ad3e 1217 f63d 5eb4 953e 8030 c7bd
00000240: 53ec 92be 3f07 b0bb 5c1f 2cbe 8523 89be
00000250: 0ead bbbd c4c3 bebc 7708 f4bd e784 8cbe
00000260: 18e6 e73d 556e ba3d 0be7 113e bb28 c03d
00000270: 65a2 1d3e 2636 55bc b5f8 66bd c662 f0bd
00000280: 5816 5a3e e024 973e af08 ce3c 35c3 ab3d
00000290: d20c 623e 23dd 9c3e eef7 5bbe fed2 323e
000002a0: bae2 0b3e 4625 1abe dfae 373e 2ea2 cd3d
000002b0: 4fd2 5e3d 4b6e 833e 0e02 31be b7a6 83be
000002c0: eebd 843d eb75 35bd 745c 1fbc 9abe 603e
000002d0: 456a 6c3e 4eb4 df3d 93e2 913e fdb8 b6bd
000002e0: f9f9 503e 4258 fabd 4e35 70bd 58cf fbbb
000002f0: fdb3 09bd 8273 de3d 98f4 6b3e c971 bc3d
00000300: c7da 6cbe cf57 4b3e 0426 16be f781 323c
00000310: 4865 e8bd 67b8 63be 9e68 ba3d 342a 4dbe
00000320: d8fc e13c c672 b73c 3c76 173e 0014 893d
00000330: 9cd1 8cbe 6b39 0f3e 2070 b2be b697 32bd
00000340: dd48 4cbd 8ae7 1f3e 3d14 023d 4129 a93d
00000350: 28bc 12bd 31a2 443e e6d6 3c3e 40cc 9f3e
00000360: f8f0 143e 1f9d 5b3e 8d7c 3ebe 4535 4a3d
00000370: b041 e03d a05a 9c3e 21bd 973e 0823 143d
00000380: aa8a 9ebe d922 edbd 056d 7cbc d436 bcbe
00000390: 5814 6f3c 0b76 94bc 5603 40be 833b cf3d
000003a0: baff bfbc 306d b4be 4922 8cbd 0a53 77be
000003b0: 25ae b63d 0a22 673d ab30 73bc 07d5 9bbe
000003c0: 2a00 19be b03d d73d 8ec3 493e db56 77be
000003d0: 106d 84be ca00 0bbe b314 a03b b887 49be
000003e0: 2b0a 32be 9f9c 1ebe 1a3f 08be 96c3 1cbe
000003f0: b676 5bbe ff1a 233c 70a5 68be 54e4 1fbe
-0.22551163 -0.011542942 -0.07370396 -0.09716074 0.048064593 0.20847403 0.29870114 0.21744929
-0.12235478 0.11711212 0.22077124 0.11457414 -0.109964356 0.140447 -0.05963798 0.20471092
-0.3466085 -0.20180124 -0.067775175 -0.11474818 0.08059605 -0.008321799 0.013587753 -0.22358893
-0.25949484 0.12618956 0.0147741195 -0.3014364 -0.13063933 -0.027492087 -0.19509739 -0.23609468
-0.33256048 0.03099889 0.085707135 -0.26165563 -0.2502384 -0.019101243 0.033611573 -0.113891676
-0.10206858 -0.16549598 -0.28097302 -0.13614395 -0.05480662 -0.16735671 0.15675977 -0.30450785
0.023057226 -0.22892764 0.2499849 0.3263998 0.019374512 -0.16572402 0.06815632 -0.13279451
0.25401518 -0.015685845 0.11425991 -0.13587832 -0.01605768 -0.11470929 0.081724085 -0.2148034
0.11168134 0.080757916 0.10250164 -0.27626526 0.27591693 -0.011431368 -0.12806273 -0.25855088
-0.37140512 0.2604393 -0.11946915 0.020816788 -0.18003763 -0.13660118 0.20238952 0.13695067
-0.227479 0.031253416 -0.029210208 -0.043345336 -0.3178444 -0.22696492 -0.3379034 -0.14467241
0.0011512168 0.08443513 -0.36168343 -0.106106825 -0.03926002 -0.11453683 -0.20155425 0.07428425
-0.21806957 -0.1271934 -0.1996642 0.099022724 -0.23248024 -0.1406816 -0.2766975 -0.21652506
0.08703774 0.062307417 0.007298147 -0.3360799 0.021660723 -0.23305297 -0.28466493 -0.17836352
0.25376046 0.37660924 0.27683178 0.07744842 -0.08895397 0.20383914 0.21234389 0.0130060995
-0.0013012954 -0.15652983 0.013579276 -0.021098953 0.28035584 0.23373333 -0.0160575 0.016200526
-0.0055168737 0.061795283 0.12908153 0.0294602 0.27219066 0.15717836 -0.006932348 0.057816453
0.4013427 0.23509145 0.1935651 0.43387523 0.33982873 0.12016119 0.29239172 -0.097260475
-0.28695926 -0.0053719576 -0.16808838 -0.26784912 -0.09163867 -0.023286708 -0.11915677 -0.27445146
0.11323184 0.091030754 0.14248292 0.09382769 0.1539398 -0.013013398 -0.05638953 -0.117375895
0.21297586 0.2952032 0.025150625 0.08386842 0.22075203 0.30637464 -0.21481296 0.174633
0.13660708 -0.15053281 0.17937802 0.10040699 0.054399785 0.25670084 -0.1728594 -0.2571313
0.06481539 -0.04430191 -0.009726632 0.21947709 0.23087414 0.10923062 0.28493175 -0.089220025
0.20407857 -0.12223865 -0.058644585 -0.0076846294 -0.033618916 0.10861875 0.23042524 0.0920139
-0.23130332 0.19857715 -0.1466294 0.010895244 -0.11347443 -0.22238313 0.091019854 -0.2003563
0.027586386 0.022393595 0.14791197 0.06693268 -0.2750367 0.13986747 -0.3485117 -0.043601714
-0.049874175 0.15615669 0.031757582 0.08259822 -0.03582397 0.19202496 0.18441352 0.31210518
0.14545047 0.21446656 -0.186022 0.049367208 0.10950029 0.3053789 0.2963648 0.03616622
-0.30965167 -0.11578912 -0.015406852 -0.3676058 0.014592253 -0.018122694 -0.18751273 0.10118773
-0.02343737 -0.35239553 -0.06842477 -0.2415277 0.08919934 0.056428947 -0.014843146 -0.30435964
-0.14941469 0.10509813 0.19703504 -0.24154226 -0.25864458 -0.1357452 0.00488528 -0.19680679
-0.17386691 -0.15489434 -0.13305321 -0.15308985 -0.21432003 0.009955167 -0.2271936 -0.15614444

graph_transformer_layer.0.attention.Q.bias f4 [16]
00000000: cd74 b63c 3a9f 45be 0f89 b0bc 98dd 813e
00000010: d62f 15be 2794 d4be d419 98be 850d 0c3d
00000020: 8975 663d 8b28 95be d7a5 1d3d 5a95 853e
00000030: 6ae1 7abe 0a92 673e 7dbb 6abe 47d3 b6be
0.022272492 -0.19299021 -0.02154973 0.25364375 -0.14569029 -0.4151928 -0.29707205 0.03419258
0.056264434 -0.29132494 0.038488235 0.2609051 -0.24500051 0.22614303 -0.22923084 -0.35708067

graph_transformer_layer.0.attention.K.weight f4 [16, 16]
00000000: e6cc 523e 340b 74bd 299a 363e 95ba b33e
00000010: 227a 2d3d a887 9f3e 96f5 f03d 3f94 7a3e
00000020: a903 f13c 8a8f 1f3e 1e7b 543e 150f c0bb
00000030: a911 f4bd 2e54 543e 8099 4dbd d12b ff3c
00000040: 813c ba3e 6b12 f1bd a09b 88be 92f4 9bbc
00000050: 58c7 cfbd f480 7cbe 0b08 e13d 33b1 29bc
00000060: 7228 3e3e 0c98 ed3c 2eda 583e ecc6 ffbd
00000070: f43d 98be d98a 5fbd 4c31 83bd ffcc 7c3e
00000080: c7ef acbe c368 a03d 1c64 8d3e efcb 4dbe
00000090: 6e1d 30be 4d39 bfbd 8187 93bb 2659 153e
000000a0: 2e0f 823d c118 a93b fdba 91be a57c d43d
000000b0: fa45 203e 1baa 113e 74ba 81be 10c5 ec3d
000000c0: 7162 90bc e6f5 8bbe 75d5 16be 398c 7ebd
000000d0: da2c 833e 47b6 243d ceb2 c0bb 0571 02be
000000e0: 0510 7f3d 4a96 943e df90 a83d 51bd 103d
000000f0: 2ef1 13bd 3743 c0bd e404 853d 9030 cc3d
00000100: f73a 8fbd a8eb 7b3e 743f 743e 42fe 953e
00000110: 7343 b23d bf7d bdbd 5f31 b33d e25d 813e
00000120: 05db 25be 4832 4fbe a3d6 183e 67ba 6cbe
00000130: 2985 973e 2ff0 6fbe e462 8ebe c1d7 28bd
00000140: 2e38 35bd 4f9d 73bd 69c5 813c ca95 83bd
00000150: 3b9d 33be 5638 46bd f2e5 1dbe f608 3f3e
00000160: 49e7 043d 1ed0 38be 84a3 0f3e b212 183e
00000170: e47d 5cbe 4782 2a3d f6e9 39be 86e3 b5be
00000180: 2bfb 2f3d 1869 32be 19b7 0f3e 287d 29be
00000190: 24c1 ddbc 052b 60bc 2454 aa3c 36eb 773d
000001a0: 7c0f 993e 9b31 733d 4507 c6be eeea a2be
000001b0: 4041 32be 322d 503d 0819 0cbe 27f8 5bbe
000001c0: 3aaa 8a3e 78c6 a1be 38d3 71be 0619 9b3d
000001d0: f068 0ebe fe88 623d 873a 97bc 64be 14be
000001e0: fc2e 13bd 2d5f ba3e 8864 3e3c ac1d 26bc
000001f0: 0d00 b13d fde1 e7bd 55bd 543e b2b1 153e
00000200: 6c52 823e bcf5 253e b0be d33b 92cd 233e
00000210: ff92 203e 7682 b03d 6afd d93d 6de9 bb3d
00000220: 0b29 8bbd 0e90 d2bc fbe5 2f3e 5eb3 4dbe
00000230: 80d0 9abb a844 193e 3d9c 303e c393 653e
00000240: 2161 8cbd c1c6 673e 4453 11be 508d 32be
00000250: ed55 d63d ae41 d13d 765b 493e e84c 5d3e
00000260: 05af 113e 1087 0a3e b034 4bbd 94e9 5d3e
00000270: 417f 353e 0441 553c 2096 2e3d 5896 62be
00000280: bc00 8ebe 7789 85bb d94d bebe 373e 3d3d
00000290: fe51 cfbc d280 80be 8d40 8ebc e235 e03b
000002a0: 2d73 333d 1b51 5fbe a774 3bbd b5a3 8ebe
000002b0: ad28 0f3d 519f 82bd 31ad b7be 15e9 82be
000002c0: c573 6dbd 4a06 623e e116 dc3d 078f 1dbe
000002d0: a8b4 e2bd 3b60 333e 2675 cf3c 0068 2c3e
000002e0: 6f91 cdbd dd8a 613d bbe4 39be e6e1 85be
000002f0: f1d3 b4bd e0bf bf3d 6883 5dbe 9f12 80be
00000300: 286d 943e 4192 82bb 6cef 313e 7be2 363c
00000310: 150f 283e 635b 28be 6c5d 123e 7eb0 0ebe
00000320: 62dd bcbc c699 373e 5007 e03d 2d0c 273e
00000330: d693 cf3a 34a0 69be c61c 153e dc1f 0bbe
00000340: 6154 8abc 343c 5e3e 5ff7 3dbe a2c0 4a3e
00000350: 9272 88be 7641 8d3e 4f51 09be 968a b5bd
00000360: dbab febd b99f 9b3d 8926 403c 33c5 913d
00000370: f3a3 963e 7afb 8f3e 8771 663e af24 863e
00000380: 0bab 8e3e 5334 07be 049f 743e 4b6b f63d
00000390: 13a8 f53d 9aa1 873d d451 4d3d 9b88 c63c
000003a0: d8d2 293e 6a89 a0be 3238 283d c9fe 5d3e
000003b0: 5b0d d43d e485 763e 8430 7b3e 59ff 3d3b
000003c0: c12e a2bd 95b7 6e3d 1833 7c3e ba40 b4bd
000003d0: 75d4 1fbe 60da 413e 10b2 593c 5298 223e
000003e0: 61e9 683e acc5 2cbe 89a5 8abe 8b51 cdbd
000003f0: a4d6 20be 2f2d 95be 051c 9bbe b8d3 f6bc
0.20585975 -0.059580997 0.17832245 0.35103288 0.042352803 0.31158185 0.11765592 0.24470614
0.02942069 0.155821 0.2075009 -0.005861173 -0.11917431 0.20735237 -0.050195217 0.031148823
0.36374286 -0.11771091 -0.26681232 -0.019037519 -0.10145444 -0.24658567 0.10987862 -0.010357189
0.18570116 0.029003166 0.21176979 -0.12489113 -0.29734766 -0.054575775 -0.06405887 0.24687575
-0.33776686 0.07832482 0.2761544 -0.20097326 -0.17198727 -0.09337101 -0.0045022373 0.14584789
0.063505515 0.0051604216 -0.28462973 0.103753366 0.15651694 0.14225046 -0.25337565 0.11561024
-0.017625066 -0.27336043 -0.14729865 -0.062145445 0.25620157 0.040212896 -0.00588069 -0.12738426
0.062271137 0.2902091 0.08230757 0.035336796 -0.03611868 -0.0938782 0.064950734 0.099702
-0.069936685 0.24601614 0.2385233 0.29295546 0.08704271 -0.092525 0.08749651 0.2526694
-0.1619683 -0.20234025 0.14925627 -0.23117982 0.2959378 -0.23431467 -0.27809823 -0.041221384
-0.04424303 -0.059476193 0.015841203 -0.06425054 -0.17540447 -0.04839357 -0.15419748 0.18655762
0.032447133 -0.1804814 0.1402722 0.14850882 -0.21532398 0.04162815 -0.18155655 -0.3552515
0.04296414 -0.17422903 0.1403469 -0.1655165 -0.027069636 -0.013682132 0.020792075 0.06052705
0.29894626 0.05937348 -0.3867742 -0.31819862 -0.17407703 0.05082435 -0.13681424 -0.21481381
0.27082998 -0.31596732 -0.2361573 0.07573132 -0.13907218 0.055306427 -0.018460525 -0.14525753
-0.03593348 0.36400738 0.011620648 -0.01013891 0.08642588 -0.11322401 0.2077535 0.14618567
0.25453508 0.16207021 0.0064619407 0.15996388 0.15681075 0.086186334 0.10644038 0.09175382
-0.06794938 -0.025703456 0.17177574 -0.20087954 -0.004724562 0.14967597 0.172471 0.22419648
-0.06854463 0.22634412 -0.1419192 -0.17436719 0.10465608 0.102176055 0.19663796 0.21611369
0.14226921 0.13528085 -0.049610794 0.21671134 0.17724325 0.013015989 0.04262364 -0.22127664
-0.27734935 -0.004075225 -0.37168768 0.04620191 -0.025307652 -0.25098282 -0.017364765 0.006842361
0.043811012 -0.21808283 -0.045765545 -0.27859274 0.0349509 -0.063780434 -0.35874322 -0.25568452
-0.057971735 0.22072712 0.10746551 -0.15386592 -0.11069614 0.17517178 0.025324415 0.16836548
-0.10037505 0.05506407 -0.1815366 -0.2614891 -0.08829487 0.09362769 -0.21632159 -0.25014207
0.2898953 -0.00398472 0.17376488 0.011162396 0.16412003 -0.16441111 0.1429345 -0.13934514
-0.023054782 0.17929754 0.10938895 0.16313238 0.0015836905 -0.22815019 0.14561757 -0.13586372
-0.016885938 0.21702653 -0.18551396 0.19800046 -0.2664991 0.27589005 -0.13409923 -0.08864324
-0.124351226 0.07598824 0.0117279375 0.07117691 0.29421958 0.2812155 0.22504245 0.26199862
0.2786487 -0.13203554 0.23888785 0.12032183 0.11994948 0.0662262 0.050126866 0.02423506
0.16584337 -0.3135484 0.041069217 0.21679224 0.1035411 0.24074513 0.24530226 0.002899131
-0.07919074 0.058280546 0.24628866 -0.08801408 -0.1560839 0.1893096 0.013287082 0.15878418
0.22745277 -0.16872281 -0.27079418 -0.10025319 -0.15706879 -0.29136035 -0.30294815 -0.030130252

graph_transformer_layer.0.attention.K.bias f4 [16]
00000000: a05c 983e ef73 093e 9836 363e 1009 1a3e
00000010: bfe3 2fbe 49a7 8dbe 5e76 233e ac47 1a3e
00000020: e3cc 83bd 029a 46be 512c 31bd b777 513e
00000030: 5154 2b3d 8334 e7bd ca35 2b3d ed88 21be
0.29758167 0.13423131 0.17794263 0.1504252 -0.17176722 -0.2766669 0.15963122 0.15066403
-0.064355634 -0.19394687 -0.043255154 0.20455824 0.041828457 -0.11289313 0.041799344 -0.1577489

graph_transformer_layer.0.attention.V.weight f4 [16, 16]
00000000: 5c4d a53d 5df4 943d 208c c3bd 4989 38be
00000010: fa24 99bc 5101 833d 2419 7c3a 5a95 2ebc
00000020: bb98 53bd 7f7a 03be 586b 91be dbcf fd3c
00000030: 354c 0cbe 6665 7d3d 7329 3cbe 1dfe 703e
00000040: e7b5 793d 4823 53be f500 233e 294b 9fbe
00000050: 80df a83d b3f7 9bbd 48b9 5a3e c427 783e
00000060: e7a4 14be 61ea 0dbd 0913 ff3d d43b 5dbe
00000070: e8ef 16bc 8a5f 1b3e 0cdf 533d 831f 06be
00000080: 2bf6 66be 1192 38be 9f06 2bbe 9aca 45be
00000090: e020 d63c 6595 c0bd 3dfc cd3d 27f4 243e
000000a0: f53d 213e f43d 95be 4270 d9bd 9efe c03c
000000b0: 39ea 023e 86a7 323e 3612 ad3c e162 383d
000000c0: e384 8a3e c35b 96ba 9472 83bd 0817 6fbe
000000d0: 53ba 373e 83a7 503e 5bba bf3d 8880 1abe
000000e0: 4e78 2c3e da52 363e a9ed 673e 01f0 02be
000000f0: 0042 5d3e e6a2 03be bced 1fbe b005 403e
00000100: 0166 72be 0950 94bb 6634 383e b8cb 013e
00000110: 9a41 843e edf3 443e f8b6 1a3d a77e 453e
00000120: fa50 533e bea9 dfbd 278b 6d3e e37c cfbd
00000130: 04b1 883e 9c89 c5bd a3dc 0bbd 05ac 9cbe
00000140: a298 a33d f599 2b3d 706a 2fbe 6c84 413d
00000150: b7de 1e3d 4eb8 eb3d 8ee3 883e 9d40 393e
00000160: 649e e13d 4e65 c4bb e356 853c bfc3 823e
00000170: 076a 40be 8017 813e 307c 09be 1703 5abe
00000180: 6460 0ebe d637 4abe 7828 02be cccc b73d
00000190: 86ef 39be 1c11 f0bd a8f4 8b3d 6032 3e3c
000001a0: 58db 42bb a9a8 7f3e 2ca1 8d3e d559 85be
000001b0: ed96 803c 9884 e03d fa75 b63e a317 1ebc
000001c0: 604a ddbd 7ad7 f73c 6a98 203d fd48 753c
000001d0: 19a8 243e fc66 0f3e a245 8f3d 07ea 563c
000001e0: 5981 863e c2bc d7bd 8a9c 943d 9921 14be
000001f0: d645 3abd 48ca b3bd 5b24 4cbe 0759 44be
00000200: 6cba 8cbe 5767 12be 5502 e03d 958b 2fbe
00000210: 30c1 fe3c 691c 22bd d3cc 3dbd a072 54be
00000220: c30e 0dbe 5812 563e 6fd3 a73d 11b0 d63d
00000230: 1939 7cbe 27fc 693e efc4 c8bd 811b 36be
00000240: ee5b 503e 5bfe 913c 7f3d 24be b5a9 f33d
00000250: aae7 a2bd da00 b73d 4bf1 393d e179 203e
00000260: 63ab 6c3e cf21 4ebe fe29 05be 3284 bf3d
00000270: 2cd7 cc3c 995a 91bd c4de 1d3e 03b2 62bc
00000280: 8547 b5bd 6369 bcbd 20e7 90be ac93 58be
00000290: 298c dcbd 080e d53d e6d7 6a3e 5145 123e
000002a0: d7b3 7dbe d957 3b3e f40a 793d 78f2 58be
000002b0: 8221 bbbd 52c7 dabd 5f6b 6a3e 7f99 883d
000002c0: 5b2c 3bbe 817b a43c 8e61 8e3e ad34 cf3d
000002d0: c8bc ff3d 929d 34be 072b 513d 71da 40bd
000002e0: 238c 1fbe 203a ad3d 9706 0bbe 61fa 12be
000002f0: 08b3 9bbd 428f 043e fc25 1b3d 3ccd 03be
00000300: 9680 0fbe 4fdf 493d 9dfe 063d 40a9 90be
00000310: 3f29 08be e887 8b3d 0168 8fbc e208 213e
00000320: 6195 a8bd e048 223b 972b cabd fea0 bebd
00000330: d225 003e e6d5 bebd 9fbc 123d 1270 2abd
00000340: f42b 8abe 5fa6 e8bd e1ea 49be 22c1 bdbe
00000350: 2b1f 62be 879f 03bc 0ee5 143e 6366 2b3e
00000360: 2619 bb3c 9d66 68be 1b40 603e b26d 13bd
00000370: 1dd7 873e d4ab 443e 1b84 cabd 32e6 063e
00000380: 9613 093d 887a a43c 7bf0 a9be 24d5 2a3b
00000390: ac25 023e 6a8f bebd d9de 683d 5871 71bd
000003a0: 693a 2e3e d874 21be 6a1d fb3c 0d02 73bd
000003b0: e49f 1c3e 7498 f9bd 319d 50be 3682 23bd
000003c0: c2b1 6a3e 811e b53c aa6f 143e 3227 4dbd
000003d0: a9e1 67be e87d 1dbe 7049 a9bd b1e5 19be
000003e0: c60a 79be ffa0 5abd a587 30bd eb45 02bd
000003f0: ccd6 7fbe ec5e 8cbe 6626 3d3e 502e ea3d
0.08071396 0.07273171 -0.09548211 -0.1802112 -0.01869439 0.063967355 0.00096167834 -0.010655725
-0.051659327 -0.12839697 -0.2840221 0.030982902 -0.13700946 0.06186428 -0.18375187 0.23534437
0.06096449 -0.20618927 0.15918334 -0.3111203 0.08245754 -0.07615604 0.21359742 0.2423392
-0.1451603 -0.03464735 0.124548025 -0.21604854 -0.009212472 0.15173164 0.051726386 -0.13097958
-0.22554843 -0.1802447 -0.16701744 -0.19315568 0.026138723 -0.09403495 0.10057876 0.16108762
0.15746291 -0.2914883 -0.106171146 0.023558911 0.12784661 0.17446718 0.021126848 0.045016173
0.2705451 -0.0011471439 -0.064183384 -0.2334863 0.17942171 0.203764 0.09361716 -0.15088093
0.16842768 0.17805043 0.22649254 -0.12786867 0.21607208 -0.1285511 -0.15618032 0.1875217
-0.23671724 -0.0045261425 0.17988738 0.12675369 0.258313 0.19233675 0.03777215 0.19286595
0.20636359 -0.10921048 0.23197614 -0.10131242 0.26697552 -0.096453875 -0.034145962 -0.3059999
0.07988097 0.04189487 -0.17130446 0.047245428 0.038786616 0.11509763 0.2673611 0.18091054
0.11016539 -0.005993522 0.016276782 0.25539967 -0.18790446 0.25213242 -0.1342628 -0.21290241
-0.13903958 -0.19747862 -0.1271075 0.08974609 -0.18157777 -0.11722013 0.06833774 0.01160869
-0.002973279 0.24966682 0.27662027 -0.260451 0.015696967 0.1096279 0.35636884 -0.00964919
-0.108052015 0.030254114 0.039207853 0.014971015 0.16079749 0.14004129 0.06995703 0.01311732
0.2627056 -0.105340496 0.0725642 -0.14465941 -0.045476757 -0.087788165 -0.19935744 -0.19174586
-0.2748598 -0.14297234 0.10937945 -0.1714309 0.031097978 -0.039577875 -0.046337914 -0.20746851
-0.13775162 0.20905435 0.08194625 0.10482801 -0.24631156 0.22850095 -0.09803187 -0.1778393
0.20347568 0.017821481 -0.16039084 0.118976034 -0.07954343 0.08935709 0.04539613 0.15671493
0.23112254 -0.20130084 -0.130043 0.09351386 0.025004946 -0.07097358 0.1541701 -0.013836387
-0.08851532 -0.091997884 -0.28301334 -0.21150082 -0.10768921 0.10403067 0.22933921 0.14284255
-0.24775635 0.1829523 0.06080146 -0.21186244 -0.091372505 -0.106825486 0.22892521 0.06669902
-0.18278639 0.020078423 0.27808803 0.10117469 0.12487179 -0.17638233 0.051066425 -0.047083322
-0.15580802 0.08458352 -0.13576733 -0.14353324 -0.07602507 0.12945274 0.03787802 -0.1287126
-0.14013895 0.04928523 0.032957662 -0.28254128 -0.13296984 0.068130314 -0.017505648 0.15726045
-0.08231617 0.0024762675 -0.09871595 -0.093080506 0.12514427 -0.09318142 0.035824414 -0.041610785
-0.2698666 -0.11359858 -0.19718505 -0.3706141 -0.22082202 -0.00803364 0.14540502 0.16738276
0.02283914 -0.22695394 0.21899454 -0.035993285 0.26531306 0.19206172 -0.09888478 0.1317375
0.033465944 0.020077959 -0.33191285 0.0026066983 0.12709683 -0.09304698 0.05685315 -0.058945984
0.17014469 -0.15767229 0.030653674 -0.059328128 0.15295368 -0.12187281 -0.20372464 -0.0399191
0.22919372 0.022109272 0.14495721 -0.050086208 -0.22644676 -0.1538006 -0.0826596 -0.15029027
-0.24320516 -0.053376194 -0.04309811 -0.03180496 -0.24984282 -0.2741617 0.18471679 0.11434615

graph_transformer_layer.0.attention.V.bias f4 [16]
00000000: faf1 32be 7300 bb3d 46bc 983d 8e9f 57be
00000010: 6d15 3cbe e387 2abd 520f e63c db3c 0cbe
00000020: 89ce 663e 7e73 d43d c0c0 34bc e659 443d
00000030: e7bb 0fbe fff9 073d 5894 57bc 4155 48bd
-0.17475119 0.09130945 0.07457785 -0.21056959 -0.18367548 -0.041633498 0.028083477 -0.1369509
0.22539724 0.10373591 -0.011032283 0.047937296 -0.14036523 0.0331974 -0.0131579265 -0.04890943

graph_transformer_layer.0.attention.proj_e.weight f4 [16, 16]
00000000: f454 d03c 6751 a83d 359b 07be f03e 06be
00000010: dad1 413e ef64 f83d bbe7 57be 31a6 2f3e
00000020: b7d7 03be d0b0 2f3d a4a5 4e3e 9f0e 37bd
00000030: 0a0c a3be 4ac6 85be 6650 823d e4ba e6bc
00000040: 7d22 2bbd deab 86be 886e 9bbe 0142 f7bd
00000050: a061 653d 300a b2be 7958 a23d b59c 383e
00000060: 60bf c7bd 916e 33be 6c81 093e 86b7 033e
00000070: c217 1e3d 5d39 92bd d396 8bbe 02bc 64be
00000080: 8431 59be 0b59 393e fc30 b23e cb2c 8c3e
00000090: 29a8 9f3e 5291 febb 2bd0 84bd ef49 a6bd
000000a0: e252 25be 949e 753d 53f7 683c 20f3 9b3d
000000b0: 8e00 d73d f4bb b1bd 34f2 cb3d 9fc6 fe3d
000000c0: 4155 e43d def4 f0bc 0880 51bd efb8 58be
000000d0: 1525 773d def5 f23d ca0c 81be ca07 263e
000000e0: 21a2 52be f7b3 3f3e 98e4 4c3e 815a 9e3b
000000f0: 35b0 033e 9eec 2b3c bbf4 bd3e 73f5 783e
00000100: 539b bd3c 066f 9d3e 8227 893e 98d8 013d
00000110: 800b 8bbe ff7e 253e 0a6b d63e a0ab 7ebe
00000120: 67e2 8c3e 32f9 cf3d bd59 2d3e 81ac 1d3e
00000130: 7fe7 7a3e 932a ae3e 1453 ccbd e676 8c3d
00000140: 256e b9bd 8daa b7be 1525 2ebe 90e6 1cbe
00000150: fe62 713c b3b5 d3be eebc af3d b035 33be
00000160: 0ae3 a03e 874c 5d3e 053e 76bd 50f0 893e
00000170: 53a2 4ebd ea77 713e 5ab3 733b 3a2c 7cbe
00000180: c267 563e 0932 30be 15e1 d5bd 15fd 8e3e
00000190: beb1 e83c bef0 a63c be77 ab3e 1f59 f6bd
000001a0: 8ad6 4a3e c59e f6bd e1b0 b83e 9b78 6a3e
000001b0: 2012 9b3d 6afb d93c 1f38 1b3e ab29 573e
000001c0: 1d4a 80be ae9c d4bd 4372 58be 7762 013e
000001d0: 817c 17be 74b1 9cbe 3ac4 33bd e9ba 41be
000001e0: 36c7 e73d c799 b6be 00eb a63d db67 aabd
000001f0: f17c 29be 5de0 cf3d 0d1d c4bd 0bca 66be
00000200: 6e42 233d 7d4d 85be d03c ed3d b6dc 263e
00000210: fb4e e4bc 902c 5fbe 9b35 ca3d 84fa 51be
00000220: 00d2 763e 5e10 363e 85f5 9f3e 2ceb 7b3e
00000230: bc8d 013c b692 1e3e abff e13d 375a a1be
00000240: 6aa4 e23d beff 21be e1d8 683d 7dbc ea3d
00000250: c1e1 2e3e 827f 213e c51d 873e c6a6 843e
00000260: 6865 b33e 839c 723e addf e8bc f6eb 6ebd
00000270: 9d51 2d3e 14b5 703e 081d c23d da04 2f3e
00000280: 9456 e03c 4d35 7a3e 6b6d 9dbc 5665 923e
00000290: 6a6a 0f3e c25f 543e 4a56 f0bd 079a 17be
000002a0: cf1d 793e ab61 8dbe 2904 9bbe e20f 953e
000002b0: 22b7 9f3d afe5 153c 6f4a 6ebe 9b2f ffbd
000002c0: 8be3 733e 7c59 3fbe 54f3 283e e0b4 7c3e
000002d0: a950 743e 0eed f9bd 560c 69be 2adb 833e
000002e0: 8b68 57bd 327a 9dbd cec9 433d 3115 f8bd
000002f0: f6f3 4fbd 36ca 8bbe 0e96 0ebe 2025 6d3d
00000300: 24f7 913e 1c70 363d 1e20 463c 8d89 683c
00000310: aaf6 0e3e a1f4 793d 91c6 8d3c b409 6e3e
00000320: f1a1 28be 1c14 63bd feb6 153d 520e c2bd
00000330: 0eab 103e 6009 d0bd 4d0d b2bd 507d 103e
00000340: 08b8 19be e3c5 003e 298b 62be 31a8 a5bd
00000350: 7c2b b23c 0256 583e 2178 35be ebac 6d3e
00000360: 8ba1 81bd 0a11 34bd 85d4 943e aeb3 70be
00000370: e004 e9be 657c 913e d090 58be 2374 fd3d
00000380: 7744 49be fca6 c73d 55e5 d63d 9aba 33be
00000390: 4cb1 823e 2595 633c cd76 a3bd abff 263c
000003a0: d14b 75bd b55c ef3d a9d6 d2bc 9078 fa3d
000003b0: c99c 32bc b962 87be 3812 89bc 1c05 7cbe
000003c0: ade1 443e ebe5 81be b4c3 ed3d c3d0 df3d
000003d0: f1d5 af3c 0c14 48bc f438 4b3e cc83 053e
000003e0: a0ed 3fbd 0699 84bd 67f1 a23e 6386 513e
000003f0: 6a8b 09be 803c a03e 87f4 6d3d c3c0 183e
0.025431134 0.08218651 -0.132428 -0.13109946 0.18927708 0.121286266 -0.21084492 0.1715324
-0.12875257 0.04289323 0.20180374 -0.044691678 -0.31845123 -0.26127845 0.06362991 -0.028165288
-0.041780937 -0.26303 -0.30357766 -0.12073136 0.056001306 -0.34773397 0.07927031 0.18028529
-0.09753299 -0.17522646 0.13428277 0.12862977 0.038596876 -0.071398474 -0.27263507 -0.22337344
-0.21210295 0.18100373 0.34802997 0.27377924 0.31182984 -0.0077687884 -0.064850174 -0.081195705
-0.16144899 0.059965685 0.014219123 0.07614732 0.10498153 -0.08678427 0.09958306 0.12440228
0.111490734 -0.029413637 -0.05114749 -0.21164297 0.0603381 0.11863302 -0.2520507 0.16213909
-0.2056966 0.18720995 0.20009077 0.0048325663 0.12860186 0.010493426 0.37100777 0.24312381
0.023145353 0.30748767 0.26787955 0.0317007 -0.2715721 0.16161726 0.4187854 -0.24870157
0.2751648 0.10154952 0.16928764 0.15397836 0.24502371 0.34016857 -0.099767834 0.068586156
-0.090542115 -0.35872307 -0.17006333 -0.15322328 0.014733074 -0.41349563 0.08580957 -0.17500949
0.31423217 0.21611224 -0.06011774 0.26941156 -0.050447773 0.235809 0.003718576 -0.24626246
0.20938018 -0.17206587 -0.104433216 0.2792746 0.028405067 0.020378467 0.33489794 -0.12028717
0.19808403 -0.12042002 0.36072448 0.2289757 0.075718164 0.026609141 0.15158127 0.21011989
-0.25056544 -0.10381447 -0.21137337 0.12635218 -0.14793588 -0.30604136 -0.043888308 -0.18918957
0.11317293 -0.35664198 0.081502914 -0.0832059 -0.16551568 0.10150216 -0.095758535 -0.22538011
0.039858274 -0.2603568 0.11583865 0.16295132 -0.027869692 -0.21794343 0.09873506 -0.2050572
0.24103546 0.17779681 0.31242004 0.2460143 0.007907327 0.15485653 0.11035093 -0.3151414
0.11066516 -0.15820214 0.056847457 0.114617325 0.17078306 0.15771297 0.263899 0.25908488
0.35038304 0.23692517 -0.02842697 -0.0583305 0.16925664 0.23506576 0.094781935 0.17091694
0.027385034 0.24434395 -0.019217214 0.28592938 0.14005437 0.20739654 -0.11735208 -0.1480485
0.24327777 -0.27613577 -0.3027661 0.2911368 0.07798602 0.009148999 -0.23270582 -0.12460252
0.2381727 -0.1868648 0.16499072 0.24678373 0.23858894 -0.12203418 -0.22758612 0.25753146
-0.052589934 -0.076893225 0.047799878 -0.12113417 -0.05076977 -0.27302712 -0.13924429 0.057896733
0.28508866 0.04454051 0.012092618 0.014192951 0.13961282 0.061024312 0.017306598 0.23245889
-0.16468026 -0.0554391 0.036551468 -0.09475388 0.14127752 -0.10158038 -0.08693943 0.14110303
-0.15011609 0.12575488 -0.22123398 -0.080887206 0.02174925 0.2112656 -0.17721607 0.23210494
-0.0632964 -0.043961562 0.2906839 -0.23506042 -0.45511532 0.28415218 -0.21148992 0.12375667
-0.19655024 0.097486466 0.1049296 -0.17551652 0.25525892 0.013890539 -0.07981644 0.010192792
-0.059886757 0.11687604 -0.025737124 0.12230027 -0.010901638 -0.26442507 -0.01673232 -0.24611324
0.19226713 -0.25370726 0.11609593 0.1092849 0.02146432 -0.012211811 0.19845945 0.13038558
-0.046857476 -0.064744994 0.318248 0.2046142 -0.13432088 0.31296158 0.058094528 0.14917283

graph_transformer_layer.0.attention.proj_e.bias f4 [16]
00000000: 7ddf 4e3e 4b15 0f3e 3b57 bebc 0622 903e
00000010: 0ae6 c7bb 01e8 04be 1c1d a6bd 5398 4bbe
00000020: 24f4 f63d 4a22 69bd c8ca 103e 1799 81be
00000030: a971 eebd 0e81 dd3c 67dd 44be 374f 2a3e
0.20202442 0.13972966 -0.023234954 0.28150958 -0.006100421 -0.12979127 -0.08111021 -0.19882326
0.12058285 -0.056917466 0.14139855 -0.2531211 -0.11642773 0.027039077 -0.19225083 0.1663178

graph_transformer_layer.0.O_h.weight f4 [16, 16]
00000000: 35f2 37be 1a46 043e 22a1 15be 74b6 423e
00000010: 4341 92be 5749 5abe 5e52 eebd 8391 10be
00000020: c65f 74be 7976 2cbe eda6 703d 1fc9 b83d
00000030: b428 dabd f549 69be bee4 193e 3f57 a33d
00000040: d39d 253e b175 a7be fcca 76be 92f5 643e
00000050: 944f d73d 7559 db3d 97c9 6fbe 1c69 66bd
00000060: 8796 98bd 79b6 fdbd c502 bebe ce38 a7be
00000070: 84f2 0abe f3a6 8dbd 3fd1 893e 0913 2cbe
00000080: 4f47 d83d e670 ef3d cfd0 1fbe dc26 483e
00000090: 52dd 4dbd f3b3 36be e783 8d3e 5a2f ab3c
000000a0: 7d9f 22be 18fa 37be d267 2bbd 07ff a1bd
000000b0: 8363 3fbe c270 563c d11e f7bc 5b9e 1a3e
000000c0: df92 dbbd a054 cd3d 4feb 4e3e 2a7a f43d
000000d0: c7a6 3c3e 025d 213d b69a 273d 903a 8a3d
000000e0: 23a4 2d3e d320 6f3d 7f0c 1ebe 40f5 503e
000000f0: ef41 27be 0843 18be bdaf 44be 5762 11be
00000100: b967 c6bd 1987 993c 2562 21be 6f86 863c
00000110: 2de3 96be 470c c3bd 460f fb3d 6716 88bd
00000120: 9ba7 08be c610 613e 3fb4 4dbd eb21 a13c
00000130: c15b c5bd ccf6 80be 928e 81bd df30 833e
00000140: 3630 5fbe f44d 9cbd 249d babc ded7 803d
00000150: 571a 0c3e 63d2 8dbc 5eb0 44be ad0e 9e3d
00000160: b1c8 623e 6e34 2abe baaf 2bbe 8d44 7cbd
00000170: eb63 213d f881 90bd b9d2 dd3c a037 223b
00000180: 4aae 4bbd 7828 4dbe b584 1cbe 85f8 87bd
00000190: a711 043d 60a0 02be 8fad 133d f8fc 9cbd
000001a0: 1667 06be f1d7 39be bdd8 523e 3334 d6bd
000001b0: 139f b43d 79b0 81be e213 9c3d 76a1 c7bd
000001c0: d800 603e 0806 353d 8124 773d cacb fa3b
000001d0: 631b 4c3e 8900 4ebe e018 8a3e a614 3e3e
000001e0: a817 8a3e 7d8e 54be e29e 733e 1997 4a3e
000001f0: 0c73 003e 7119 5c3e 2686 4d3e 1af0 fabd
00000200: fcce c23d 565e a53d 2c71 18be 3cb5 a9bd
00000210: 81de 233e 7e6a 4cbe b0e3 a43d 3253 19be
00000220: 7b1d 343e 4a11 98be 066f 1dbd 8446 b23b
00000230: e5c9 5cbd c362 563e 0415 0bbe 19d5 37be
00000240: 7489 723e b957 91be fb0f 1d3e 13f0 94be
00000250: 58c3 a5be acc8 27bc fa05 6fbd a7fb 0bbe
00000260: 193b 69be dd4f 673d 3539 5c3e d3b2 26be
00000270: 750d 2fbe 2762 afbe d36f 10bc aca9 383e
00000280: ebf6 ee3d 00c2 71bd d997 8d3d 5fb5 a8bd
00000290: eb0b 36be 40c6 62be b44d a4bc a479 293d
000002a0: 42df 8d3d de0d 4bbe e26f 053d 0e13 b33d
000002b0: e70d 773e dd93 fa3d 19f5 a53d e3c9 923d
000002c0: 7d8f 08be 4b64 953d 74c3 1fbe 3ae8 a03e
000002d0: e3e3 a93c 1dbf 9a3e c062 8abd 85fb 2dbd
000002e0: 8597 a2bd c690 d83d 8032 66be 3953 41be
000002f0: bc22 8abd 6373 aabd 72c2 1e3d db63 92be
00000300: 38f4 febd 36ee 1f3e 3a26 b0bd 42c8 093e
00000310: aa49 89bd 835c 363e fbf2 aabd 7671 a5bd
00000320: 001d 79bb b78a 1cbe fad3 26bc ab4e b4bd
00000330: 0a8f 0f3e a6d3 303c d1cb 43be 0804 133d
00000340: a1d6 38be 0f59 0dbe 05a2 293e 73ad 273e
00000350: 4551 6d3e 2f28 863e f303 f7bc 1ed6 3a3c
00000360: 9a39 163e 5b59 703e 474c 02bd 60b8 f93d
00000370: 8ab3 10be 67ae cbbd ddac 413e c25e cf3a
00000380: 9219 e3bd 4343 f63d 8d64 973d 7adc 0c3e
00000390: de52 48be 9c73 3cbd c633 623e 039c 7c3d
000003a0: 855d f03d 44e8 1c3e 2728 413e bc6d 593c
000003b0: e7ee 7c3e b2d9 983d cf5b d73c e21f 36be
000003c0: 7844 afbd 98d1 11be 5e0f 8a3d 9eee 66be
000003d0: 92bf 7bbe a33b 6c3e 606d aebd 0a7d 84be
000003e0: bea5 62be b979 25be cbdd 29be 8a66 5ebc
000003f0: f15c b8bd cb3b 9d3e 1b02 3f3e eb0e 813d
-0.17963488 0.12917367 -0.14612249 0.19014913 -0.28565416 -0.2131704 -0.11636804 -0.14118008
-0.2386466 -0.16842069 0.058752943 0.09022736 -0.10652295 -0.22782119 0.15028664 0.07975625
0.16173486 -0.3270698 -0.2410087 0.22359303 0.10513225 0.10710422 -0.23416744 -0.056252584
-0.07450586 -0.123883195 -0.37111488 -0.32660526 -0.13569075 -0.06916609 0.26917455 -0.16804136
0.10560476 0.116914555 -0.15606998 0.19546074 -0.050259896 -0.17842083 0.27639696 0.020896602
-0.15881152 -0.17966497 -0.041847058 -0.07909971 -0.18690304 0.013088407 -0.030166062 0.1509947
-0.10721373 0.100259066 0.2020695 0.119373634 0.18422996 0.03939534 0.04091903 0.06749451
0.16957144 0.058380913 -0.15434454 0.20406055 -0.16333745 -0.1486932 -0.19207664 -0.1419767
-0.09687752 0.018741177 -0.15760095 0.016421525 -0.29470196 -0.09523826 0.122587726 -0.06644898
-0.13345186 0.21979055 -0.050220724 0.019669494 -0.09636641 -0.2518829 -0.06326021 0.25623223
-0.21795735 -0.07632056 -0.022780009 0.062911734 0.13681923 -0.017312234 -0.19207904 0.07717643
0.2214687 -0.16621563 -0.16766253 -0.061588813 0.03940193 -0.070560396 0.02707802 0.0024752393
-0.049726762 -0.20034969 -0.15284999 -0.06639198 0.032243397 -0.1275649 0.03605419 -0.076654375
-0.13125262 -0.18148781 0.20590492 -0.10459175 0.088194035 -0.2532995 0.0762098 -0.09747593
0.21875322 0.044195205 0.060337547 0.007653688 0.19932322 -0.20117392 0.26972103 0.18562564
0.26971173 -0.2075748 0.23791078 0.19784202 0.12543887 0.2149408 0.20070705 -0.12252827
0.095121354 0.08074634 -0.14886922 -0.08286521 0.16002847 -0.19962499 0.080512404 -0.14973143
0.17589371 -0.2970069 -0.03843596 0.005440535 -0.05390348 0.20936112 -0.13582236 -0.17952384
0.23685247 -0.2838724 0.15338127 -0.29089412 -0.32375598 -0.010240715 -0.05835531 -0.13670217
-0.2277645 0.056472648 0.21506198 -0.16279154 -0.17094977 -0.34254572 -0.0088157235 0.18033475
0.116681896 -0.059022903 0.06913728 -0.08237719 -0.17777984 -0.22145939 -0.020056583 0.04137577
0.06927349 -0.19829509 0.032577403 0.08743869 0.24126397 0.12235234 0.08103389 0.07167413
-0.13335986 0.0729452 -0.15601903 0.31427175 0.020738548 0.30223933 -0.06757116 -0.042476196
-0.07939056 0.10574488 -0.22480202 -0.18879403 -0.06744906 -0.083227895 0.038759656 -0.2859181
-0.12448925 0.15618214 -0.08601041 0.13455299 -0.067035034 0.17808728 -0.08347126 -0.080782816
-0.003801167 -0.1528729 -0.010182375 -0.08804067 0.14019409 0.010792648 -0.19120719 0.035892516
-0.18050624 -0.13803504 0.16565712 0.1637476 0.23175533 0.26202533 -0.03015325 0.011403589
0.14670411 0.23471586 -0.031811025 0.1219337 -0.14130989 -0.09945374 0.18913598 0.0015821087
-0.110888615 0.12024548 0.073922254 0.1375598 -0.19562861 -0.04600869 0.22090062 0.061672222
0.117365874 0.15322977 0.18862973 0.013270792 0.24700509 0.07463397 0.026288895 -0.177856
-0.08557981 -0.1424011 0.06741212 -0.22551963 -0.24584797 0.23069625 -0.085169554 -0.25876647
-0.22133538 -0.16159715 -0.16588514 -0.013574252 -0.09002102 0.3070968 0.18653147 0.063016735

graph_transformer_layer.0.O_h.bias f4 [16]
00000000: 78e2 693e 4163 aebd ec93 443e 900d 22be
00000010: 5d19 203d 3aa4 6c3c 4dca cdbd 132f 413d
00000020: c081 863d 7c22 42be b822 a5bc 4003 973e
00000030: fa94 00bd ebda e53d b38a 21be e7f1 babd
0.22840297 -0.08515025 0.19197053 -0.15825486 0.03908669 0.014443452 -0.100483514 0.047164034
0.065677166 -0.18958467 -0.020158157 0.29494667 -0.031392075 0.11223396 -0.15775566 -0.091281705
