checkpoints/casp15_inhouse_full_v7_gcpnet_fold7.ckpt (torch, 275423 bytes, 315 tensors)

resnet_embedding.node_embedding.weight f4 [16, 19]
00000000: b34d 7b3d c05b 13be ff93 823e d730 46bc
00000010: b11b 6fbe ea66 743e 080b 2fbe 2e69 3cbe
00000020: c03e 57bd fdda e13d 990b bd3d be1d 173d
00000030: c530 20be 52bc bdbc 1bde cfba 4668 bebd
00000040: f0f4 e93d d3a2 3cbd 6b57 883b 02db 04be
00000050: 1e5a c13c 6bbe e9ba b46b 0bbe a82d c03b
00000060: b0a3 94bc 750b 6f39 865d 92bd 2beb c8bd
00000070: f36d e0bd 774b bf3d 4829 e238 28c7 423e
00000080: 780c 1ebe 2921 ea3b 502e 963d 7e9e 0d3e
00000090: 73b5 343e 0382 09be fee5 b2bd 654a 83bd
000000a0: 098a 8f3c ae9b 7d3d e11d edbd 4f0a 91bd
000000b0: a472 f2bc ab26 2dbd 0bd2 33be 6773 6c3c
000000c0: 2b24 03be dbca 4a3e a48d 1dbe b368 543e
000000d0: 6e6f 90bd 2891 8ebd 058d b53b cf4d 063e
000000e0: 51da 42bd 0545 d2bc 72c1 98bd 6f84 9a3d
000000f0: adaa dd3d 32a9 36be e463 26be 2468 1b3d
00000100: a908 3cbe f564 8dbd f573 1cbd 35aa 0b3d
00000110: 9d5a 76be 3ac2 aebd 10e5 5dbd e3c7 803c
00000120: 84e1 0bbe 39b4 34be 2a25 b5bd 781a 88bd
00000130: 0224 123d 9218 693e 1df2 c2bd 38dc efbd
00000140: c78b f13d 4341 143e 002b b23e 740b 4a3e
00000150: b2f5 e83c 298b 7f3d 94aa 21be eb33 17be
00000160: abb0 c73d ff3f 993d 8841 6f3d 3eac f5bd
00000170: 60fc 45bd 1c76 9f3d cfef 9ebd fd6f 36ba
00000180: 5e4a ec3d 419d 4bbd 7ed3 a73d 7fa3 503e
00000190: 7c3c 0d3e 15d5 fd39 2efb a9bd 953a a23c
000001a0: 2bfd 05bc 8ed0 713d 42de 28be a6f6 3a3c
000001b0: 3363 78bd f723 6c3e 8096 fdbd efce 1a3e
000001c0: 8080 003e f555 033c bb93 83bc bb41 45be
000001d0: 2c38 9bbe 6eea 16be a235 353e a30e 59be
000001e0: 4935 403e 7709 a7bd ff1f e0bd 28c9 9cbd
000001f0: 1b12 3c3e 83f4 103d 2808 163b 720b 51bb
00000200: 4b98 55bd 8b23 28be 4b15 9a3d 412a cb3d
00000210: 47b8 953c 6694 303e cb8e 4d3e a2eb a8be
00000220: dee8 d8bd 06a3 03bc ecb7 acbd b67e 70be
00000230: 0187 6c3d 10e1 8f3c 12a5 97bc 5eab a2bd
00000240: f9b0 46bd 2ec2 713c c342 5fbd 79bd 1abd
00000250: 23b0 67bb e6cf 9f3d 71b1 893c 4cd9 12be
00000260: 14ac 993d eceb 9fbd 1bd2 553d de2e 583a
00000270: acf0 493c d81e 773d 8d2e 9b3e d391 033e
00000280: dc02 05bd 83d8 e23d c083 2abe ee61 83bb
00000290: 8088 70bd 6915 30be 9adc 9e3c 99dc 21be
000002a0: 3b36 b9bd 804d c93b 9403 0b3c 9d75 a63c
000002b0: bfe4 63bc 7061 d6bd 25c3 7c3a d06d 98bd
000002c0: a978 fb3d 1974 9dbd 542c 59bc 184b 1e3b
000002d0: 9224 5fbe 228d 66be 333d 243e f93a cfbd
000002e0: 23e8 2ebd 21c0 86be dfa9 7c3d b38a 403e
000002f0: 4d72 123e 5e5b 463d ecf9 c0bc 4744 0f3d
00000300: 0880 a93c 2bb5 7dbd cf85 373d 1124 2fbd
00000310: 7138 1cbe 32f4 443e 4c00 5bbd 4da2 b1bb
00000320: 42e4 52be 7c37 7cbd 7c61 f13c 9f8c 87bc
00000330: 1a93 65be 335e 31be 49b1 753d 304f 00be
00000340: 5d70 4f3e 64d4 f2bd addd 50bd 407b 8bbd
00000350: 65ab 7bbd 3927 c8bd 682d fa3d c8f1 0bbe
00000360: 9ffa 64be d94a b2bd b58f c2bd 33b0 d43d
00000370: 9216 bebd 2821 06be 0575 e73d ece5 083d
00000380: ffd3 8ebd 7d00 313e 361c 053e 9dae 79be
00000390: 2c99 72be aa14 883e 4951 593c 1d11 a8bd
000003a0: e6be 3b3e dbb5 93bc 2169 1fbd e832 09be
000003b0: 22c6 61be c1d3 8abd e025 503e 88a4 38be
000003c0: 5fd9 0ebe fec1 093e 3a03 f83d f07c 27bd
000003d0: e330 9fbe 93bd 1d3e 0177 39bc 12c4 05be
000003e0: d56f b5bc ae96 0cbe 771f 4c3e 697a 0fbe
000003f0: 7121 26bd 7633 31be 16f6 38be 9ade cb3d
0.061353397 -0.14390469 0.25503537 -0.012096605 -0.23350407 0.23867384 -0.17094052 -0.18399498
-0.052550077 0.11028097 0.09230728 0.0368936 -0.15643604 -0.023161087 -0.0015859039 -0.09297232
0.11423671 -0.04605372 0.0041608117 -0.1297417 0.023602542 -0.0017833238 -0.13615304 0.0058648176
-0.018144459 0.00022797084 -0.071467444 -0.0981048 -0.10958471 0.09340566 0.00010784209 0.19021285
-0.15434444 0.0071450663 0.07333052 0.13829991 0.17647342 -0.13428502 -0.08735274 -0.06410674
0.017521875 0.061916046 -0.115779646 -0.07082044 -0.02959568 -0.042273205 -0.17560594 0.014431811
-0.12806766 0.19803946 -0.15386063 0.20743065 -0.070525035 -0.0696128 0.0055404925 0.13115619
-0.047571484 -0.025667677 -0.07458772 0.07544791 0.108235694 -0.1783798 -0.16249043 0.037941113
-0.18362679 -0.06904022 -0.038196523 0.03409787 -0.24058004 -0.085331395 -0.05417353 0.015720313
-0.13660246 -0.17646874 -0.08844979 -0.066456735 0.03567887 0.22763279 -0.09518836 -0.11711925
0.117942385 0.1447802 0.3479843 0.19730932 0.02843747 0.062388573 -0.15787727 -0.14765899
0.097504936 0.074829094 0.058412105 -0.11995743 -0.048336387 0.077861995 -0.077605836 -0.00069594366
0.11537622 -0.049710516 0.08194636 0.20374869 0.13792604 0.0004841468 -0.08299862 0.019803325
-0.008178036 0.059036784 -0.16491035 0.011411345 -0.06064148 0.23060594 -0.12382221 0.15118001
0.12549019 0.008016099 -0.016061654 -0.19263355 -0.30316293 -0.14737865 0.1769624 -0.2119699
0.18770327 -0.08156102 -0.10943603 -0.07655555 0.18366282 0.035389435 0.0022893045 -0.003189769
-0.05214719 -0.16419809 0.075235926 0.09920169 0.018276347 0.1724411 0.20074002 -0.32992274
-0.10591291 -0.008034473 -0.08433518 -0.23485836 0.057745937 0.017563373 -0.018511329 -0.07942842
-0.048508618 0.014755769 -0.05450703 -0.03777835 -0.0035352788 0.07803325 0.016808243 -0.14340705
0.075035244 -0.078086704 0.052202325 0.000824673 0.012325447 0.06033215 0.30308953 0.12848596
-0.03247343 0.110764526 -0.16651821 -0.004009477 -0.058723927 -0.17195667 0.0193923 -0.15806808
-0.09043547 0.006143272 0.00848474 0.020319754 -0.013909518 -0.104678035 0.0009642116 -0.0744282
0.122788735 -0.076881595 -0.013255198 0.0024153646 -0.21791294 -0.22514775 0.1603897 -0.1011867
-0.04270185 -0.26318458 0.06168544 0.1880291 0.14301415 0.04842698 -0.023556672 0.034977224
0.020690933 -0.061940353 0.044805344 -0.042759005 -0.15255906 0.19233778 -0.05346708 -0.005420959
-0.20594886 -0.06157635 0.02946543 -0.016546546 -0.22419396 -0.1732109 0.059983525 -0.12530208
0.20257707 -0.118569165 -0.050992656 -0.068106174 -0.06144275 -0.09773106 0.12215692 -0.13666451
-0.2236123 -0.08705682 -0.09500066 0.1038517 -0.09281649 -0.13098586 0.113016166 0.033422396
-0.06974029 0.17285343 0.12999043 -0.24383016 -0.23691243 0.26578265 0.013264009 -0.08206389
0.1833454 -0.018031051 -0.038918618 -0.13398325 -0.22048238 -0.0677867 0.20326948 -0.18031514
-0.13950108 0.13452908 0.121099904 -0.040890634 -0.31091985 0.15404348 -0.011319877 -0.13063076
-0.022148052 -0.13729355 0.19933878 -0.1401154 -0.040559236 -0.17304787 -0.18062624 0.09954567

resnet_embedding.node_embedding.bias f4 [16]
00000000: 205e 42be 2e8c 173e 2268 b3bb 17e8 1ebe
00000010: eaa3 30be 22c7 333e 324f 0b3e f983 4a3d
00000020: 9501 6d3e df46 01be ce51 a0bc 1aa2 f53d
00000030: ef5d f83d 74ca ed3d 4e4c 22bd 8a98 543d
-0.18981218 0.14799568 -0.00547506 -0.15518223 -0.17250028 0.17556432 0.1360443 0.049442265
0.23145135 -0.12624691 -0.019570258 0.11993809 0.121272914 0.116108805 -0.03962355 0.051903285

resnet_embedding.bn_node.weight f4 [16]
00000000: 6604 8b3f 3035 813f 97e6 783f 8f37 753f
00000010: ed8e 843f 0aa3 943f 8043 843f e4d3 773f
00000020: 8bf6 8b3f a22f 733f fb6a 7b3f b6b8 803f
00000030: 47c4 713f e1a7 813f e5e1 803f 4f1d 843f
1.0860717 1.0094357 0.9722685 0.957879 1.0356117 1.1612256 1.0333099 0.96807694
1.0934614 0.94994557 0.98210114 1.0056369 0.9444012 1.0129358 1.0068938 1.0321444

resnet_embedding.bn_node.bias f4 [16]
00000000: c072 5cbc 0799 9e3c 097a 9dbd 751d 84bc
00000010: 42f8 11bc 8bba 07bd acd9 7bbd 225b 0fbe
00000020: 4b37 39bd f7da 74be b4f0 b3bd 3cbb a23d
00000030: dcfd 14be 1d30 4b3c 3c1a 43bd 5ac0 01bc
-0.013455093 0.019360078 -0.07689292 -0.016127327 -0.008909287 -0.033136886 -0.061486885 -0.13999608
-0.045218747 -0.23911653 -0.08786145 0.079458684 -0.14549965 0.012401608 -0.04763244 -0.007919395

resnet_embedding.bn_node.running_mean f4 [16]
00000000: f649 a3be 4090 7dbd 64ac 9fbe e6d2 4ebf
00000010: 06e5 b33e 42e5 fb3e a122 2bbe e512 8dbe
00000020: 4fb1 b73e ef51 d0be 5828 a1be 06a6 bbbe
00000030: 8c6b 4ebd 6a6f 863d 2dcc f9be b489 bb3e
-0.31892365 -0.061905146 -0.3118621 -0.80790555 0.3513567 0.49198347 -0.16712429 -0.27553478
0.35877463 -0.4068751 -0.31476092 -0.36650103 -0.050395533 0.06564219 -0.48788586 0.36628497

resnet_embedding.bn_node.running_var f4 [16]
00000000: fd7e 883c 0112 4b3c f0a6 1e3d a2fc 333d
00000010: 9fc1 303d eca5 4a3d d5ca 1b3d 01c7 963c
00000020: 863f e33c 89cf db3c 9a4a 893c 3178 293d
00000030: e201 d23c 9518 ef3c 4574 9c3d 0803 163d
0.016662115 0.012394429 0.038733423 0.0439421 0.0431534 0.04947464 0.038035233 0.01840544
0.027740251 0.026832359 0.016759206 0.04137439 0.025635663 0.029186526 0.07639364 0.036623985

resnet_embedding.edge_embedding.weight f4 [16, 4]
00000000: 48f6 b6be 1da6 1e3d f7f9 d23b 237c e93d
00000010: 3be0 e2bd 4898 9c3e 5e9e 553e 1bb4 c8be
00000020: 6e38 c63d 9cda 4a3e 851f adbe 19bd 17be
00000030: c2b2 7c3e 334f de3d 160c 3e3d c213 353d
00000040: a579 b63e 568e bfbe f372 4fbd af67 ce3e
00000050: 86dc 903e ca71 2abd cb48 e43e 8b7d 0bbe
00000060: 65e4 00bf 5041 113e 86c8 dd3e bd8b cc3e
00000070: fd2d 9a3e fa9d 613e 03bc f1bd 5fec 223e
00000080: bc0a c03e d464 ab3e 1ee7 f83d f28f 10be
00000090: 7cb1 d6bd 0fbc 6abd 4850 8abe a7da 683e
000000a0: 406a 913e fd46 a03d 9d9e 03be 9938 3cbe
000000b0: 36ff 033e d12a 493e f5a5 803e 280c f0be
000000c0: 9c1e 003f 3c34 acbe f1bc a73e e32a b8be
000000d0: 38fe 033e a456 123e 8699 9b3e 2608 c73d
000000e0: ff09 5c3e 028d 12bf 67d1 dc3e 4979 df3e
000000f0: acfb c5bd 7b07 3d3e eb96 a4bd 46f6 12bc
-0.35734773 0.038732637 0.0064384895 0.1140063 -0.11077925 0.3058493 0.20861194 -0.3919991
0.09678732 0.19809955 -0.3381311 -0.14818229 0.24677566 0.1085495 0.046398245 0.044208296
0.35639682 -0.3741328 -0.050646733 0.4031348 0.28293246 -0.041612424 0.44586787 -0.1362211
-0.503485 0.14185071 0.4331705 0.39950362 0.3011321 0.2203292 -0.118034385 0.15910481
0.3750819 0.33475363 0.12153457 -0.14117411 -0.10483071 -0.057308253 -0.27014375 0.22739659
0.28401375 0.0782604 -0.12853475 -0.18380965 0.12890324 0.1964524 0.25126615 -0.46884274
0.50046706 -0.33633602 0.32761338 -0.3597022 0.12889946 0.14290863 0.30390567 0.09718351
0.21488188 -0.5724641 0.4312851 0.4364722 -0.09667143 0.18459885 -0.08036598 -0.008969849

resnet_embedding.edge_embedding.bias f4 [16]
00000000: a9fc 7fbd 3daa d9be a186 69bc 94cc dc3e
00000010: b25a ccbe 3434 18be 49fe e33e d2af acbd
00000020: dc8d 923e 4860 89be 5c93 debe fab5 a23e
00000030: 8897 c1be 6fdf ad3e 8b5c 5f3e ac42 143e
-0.062496815 -0.42512694 -0.014253289 0.4312483 -0.39912945 -0.14863664 0.44529942 -0.084319726
0.28623855 -0.2683127 -0.434718 0.31779462 -0.37810922 0.3395953 0.21812646 0.14478558

resnet_embedding.bn_edge.weight f4 [16]
00000000: 280c 963f 84c5 903f 6f3c 7e3f 0875 853f
00000010: 9cff 8b3f e68b 833f e7cf 953f 9ae2 913f
00000020: 2f0c 913f bb6e 843f 4dc5 923f 94f0 603f
00000030: b18a 893f 073f 863f 955e 733f c377 973f
1.172246 1.1310277 0.99310964 1.042634 1.0937381 1.0277069 1.1704072 1.1397278
1.1331843 1.0346292 1.1466461 0.87867093 1.074545 1.0487984 0.95066196 1.1833423

resnet_embedding.bn_edge.bias f4 [16]
00000000: df96 933d 3779 0d3e 07d2 2abd 3c73 e8bd
00000010: 348b f83d 8ca0 07bd 025e dc3d e538 013e
00000020: 9f89 3dbc 6e1c fa3d 170b f03d 559d e2bd
00000030: 8118 bb3d 13f5 3c3d bda4 003d 3e1a 623d
0.07206511 0.13815771 -0.041704204 -0.11350104 0.12135926 -0.033112094 0.10760118 0.1261936
-0.011568456 0.12212454 0.11720865 -0.11065165 0.09135533 0.04613216 0.031407107 0.055200808

resnet_embedding.bn_edge.running_mean f4 [16]
00000000: 4bd4 66be ee6a 8dbe da6a 80bd c1f5 283f
00000010: 9824 b6be 0445 593e 4b3e 073f 5f89 253e
00000020: fdc6 373f 966a f0be c544 a9be f7a7 0e3f
00000030: 0393 13be d8cf 2a3f 8f78 b03e 0872 0f3e
-0.22541921 -0.27620643 -0.0627038 0.6599999 -0.35574794 0.21217734 0.52829427 0.16165684
0.7178801 -0.4695632 -0.3306028 0.55725044 -0.1441155 0.66723394 0.3446698 0.14008343

resnet_embedding.bn_edge.running_var f4 [16]
00000000: 8974 413c 1844 463d 3086 cc3b 2064 713c
00000010: b452 023d fa10 4f3d 9b4d ca3c 7056 ab3c
00000020: 0f89 903d 22c3 f13c f61e 3b3c 527b 933d
00000030: 5e96 353d ba8b f53c 2a6b f53c 436f 263a
0.011807569 0.048404783 0.0062415823 0.014733344 0.031817153 0.0505533 0.024695208 0.02091524
0.07057392 0.029511992 0.011420956 0.07201256 0.044332854 0.029973853 0.029958326 0.0006348977

graph_transformer_layer.0.attention.Q.weight f4 [16, 16]
00000000: e8e3 03be 18f3 a9bd c8ce bebd c203 5cbe
00000010: 3dbd b9bd 50d2 26be cace 5fbe 6ba7 73be
00000020: 71df 3abe a9d1 3e3e 2f3c 0f3e 04ba 38be
00000030: 4c6b 5ebe 453e 05be eb93 b93d 6437 23be
00000040: e781 34be b02c 69be b19e 6fbe f8cb c2bd
00000050: 18d9 1a3d a82f 353e cff2 93be 7b02 fc3d
00000060: 00db 9abd 8549 383e 1731 cdbd f38c 5fbe
00000070: ac77 983e 0a42 3ebd 3b9b 90be a08a 6a3e
00000080: 1a33 8ebd d3a6 14be 471f a4bd c40b 60be
00000090: 1f8e 09be 6cf5 1dbd 7843 3abe a707 f03d
000000a0: cce3 97be 08c9 8f3d 7934 9bbe 6e15 41be
000000b0: a0cf 8fbc ac8e 9c3d bd50 3abd 968a 93be
000000c0: 40c5 053d 1579 98be 7563 80bd 5358 e8bc
000000d0: 2876 8fbe 8bd3 57be 1a0e 7bbe 960e 903d
000000e0: 3c3f 9dbd bff6 4dbe 2c21 023e 70b8 84be
000000f0: ba07 b93d 98fe 8abe 588e 09be 95ed 7fbe
00000100: 4dca 19bd fef0 1f3e 10ce 04bd 45e0 6e3e
00000110: a89c 423e 399b 393e 3a92 4d3e d80c f5bb
00000120: 9f13 19be 318c 793e febc bd3d b6c1 933e
00000130: 4ec8 5f3d e18c 123e 8789 55bc b58d 833d
00000140: 7dcd 6f3e 3632 87be 2141 1fba f832 4abe
00000150: c6f4 973d e192 9bbd bc26 c13d 7fdc 14be
00000160: 4b6e 323e af7e 0d3e 5d94 29be c0c7 67be
00000170: 6654 0abe 8857 6cbe f441 6bbe 385b 353e
00000180: 9324 53be a109 acbe 2703 823d 0d44 dcbd
00000190: 73ae 5d3d f0f8 8abe 38a4 e5bd d2e2 27bb
000001a0: 6e7b 1fbe 8411 793c eb9a 8ebe c581 0e3d
000001b0: 8929 acbe d74d 36be cc05 87be 59cf d2bd
000001c0: 38a1 293e 35ce 76be b728 34be e247 44be
000001d0: 1b5c 8e3e 76fd c2bd e6e6 a33c 16b8 9fbe
000001e0: d8ff a6bd 5c44 2fbd fe38 99be 074b 19be
000001f0: a06c 7cbe fbc7 213e 4afc b2be 1097 8a3e
00000200: 719e 0b3e 1c04 b33e 9b79 3ebe 5a10 fa3d
00000210: 689c 863e a887 023d 6e86 c5bb 735c 29be
00000220: 5aa9 563e f73d 39bd edf1 513d ebf1 36be
00000230: cc3c 81be bdc6 223e 543a 2c3c 309e df3d
00000240: 4c02 573d 2bd3 493e d7ca a7bd bd5b 233e
00000250: 9ba8 013e 271e f2bd eb46 103e 1d05 b63d
00000260: 0948 983e edf4 183e ce7a 8cbd b4bc d1bc
00000270: 3fd1 5e3e 48ac ac3d 8abb b23c 7147 7f3e
00000280: 7cc0 aebe 1a49 c4be ec00 95be aec3 8b3d
00000290: 7ed4 c63d c030 06bc 60bb a23c 708d fd3a
000002a0: a44c e3bd 3ae4 e23d 23df 9cbe 7d43 193c
000002b0: 06c7 51be ca0c b6bd a06f 8dbe e396 d5bd
000002c0: 9121 4ebb 24e6 b63d fb07 a63d 1dd1 793d
000002d0: ed3b 063d bb00 93be 3b8b 1abe 16e6 ddbd
000002e0: 092f aebe 9bdc 7abc 3a19 edbd 13b4 7ebd
000002f0: f680 a23d cb46 acbe a0cb 313e 766f d1bc
00000300: 9a9b 473d 5bde fb3d 8832 ac3d b1dc 8a3e
00000310: 3b13 03bd fddc fcbd d92b 5b3e 8f01 a03d
00000320: 68ac 8d3d 3e8f d63e 30d6 a4bc 7c97 2bbe
00000330: 81eb 0bbe 6537 53be 071b 673e 355f 5ebe
00000340: da1a 463e 7f59 283e 59e7 d1bd 88ce a93c
00000350: 538f 0e3e 6b58 c93e adcd 4e3d d619 133e
00000360: ef8e 9b3e da19 25bd 1090 9a3e 4010 4fbe
00000370: 1345 aebc d3fc 883d 16ad 5dbe 37a1 bb3c
00000380: 0b02 51be 258a 8f3e 6a72 23be ab35 473e
00000390: 7257 1fbe c213 39bd babe a4bd ed13 bcbd
000003a0: bc2b 8ebe 671e c33d 2eb1 003e 5fc8 763d
000003b0: 9588 cebd fb09 32be c4cc a13e 0d78 97be
000003c0: 4767 563d e96e 2f3e 18da 233e 8a61 023e
000003d0: 3618 0d3e 1ba0 953e 9aba 0f3c 0d85 8b3d
000003e0: 6018 5d3e 8f62 1ebe f442 70bd c15c 933e
000003f0: 326b d0bd 1c45 373e 1840 343e 98f0 973d
-0.12879908 -0.082983196 -0.09316784 -0.21485808 -0.090692975 -0.16291165 -0.21856228 -0.23794334
-0.18249299 0.18634667 0.13987802 -0.1803971 -0.21720618 -0.13012035 0.09061416 -0.15939099
-0.17627679 -0.22770953 -0.2340038 -0.0951156 0.037804693 0.1769396 -0.28896186 0.123051606
-0.07561302 0.17996795 -0.10019129 -0.21831112 0.29778802 -0.0464497 -0.2824343 0.22904444
-0.069433406 -0.14516763 -0.08013778 -0.21879488 -0.13433121 -0.03856413 -0.181898 0.117202096
-0.29665983 0.070207655 -0.3031347 -0.18855831 -0.017555058 0.076444 -0.045487154 -0.2881667
0.032658815 -0.29779878 -0.0626897 -0.028362429 -0.28019834 -0.21076791 -0.24517098 0.07034032
-0.076780766 -0.20113657 0.12707967 -0.25921965 0.09034677 -0.27147365 -0.13433206 -0.24992974
-0.037546445 0.15619275 -0.03242308 0.2332774 0.19005072 0.18125619 0.20075312 -0.0074783377
-0.14948891 0.24369885 0.09264563 0.28858727 0.054634385 0.14311554 -0.013033277 0.06423513
0.23418231 -0.26405495 -0.00060750736 -0.19746006 0.07419734 -0.07596374 0.09431216 -0.14537238
0.17424886 0.13817857 -0.16560502 -0.22634792 -0.13508758 -0.23080266 -0.22974378 0.17710578
-0.2061942 -0.33601096 0.063482575 -0.10755167 0.054121446 -0.2714305 -0.11212963 -0.0025617373
-0.15574428 0.01520193 -0.27852568 0.034791727 -0.3362544 -0.17803131 -0.2637161 -0.10293455
0.16565406 -0.24102099 -0.17593656 -0.19168046 0.27804646 -0.09521 0.020007562 -0.31195134
-0.08154267 -0.042789802 -0.29926294 -0.14970027 -0.24650812 0.15798943 -0.34958106 0.27068377
0.1363466 0.34964073 -0.18601076 0.1221015 0.26291203 0.031867653 -0.006027988 -0.16539173
0.2096304 -0.04522511 0.05125611 -0.17865722 -0.25241697 0.15896125 0.010511953 0.10918844
0.052492425 0.1970946 -0.081929855 0.15952964 0.12661974 -0.11822157 0.14089553 0.08887694
0.29742458 0.14937182 -0.06859361 -0.025602676 0.21759509 0.084312975 0.021817941 0.24929596
-0.3413123 -0.38337022 -0.29102266 0.06824432 0.097084984 -0.008190334 0.019864738 0.001934452
-0.110986024 0.11078687 -0.3063899 0.009354469 -0.20486078 -0.08889158 -0.27624226 -0.1042917
-0.0031453113 0.089306146 0.08106991 0.06099044 0.032771993 -0.28711495 -0.15092175 -0.10834901
-0.3402026 -0.0153113855 -0.11577077 -0.06218345 0.079347536 -0.3364776 0.17362833 -0.025565844
0.048732378 0.1229827 0.084080756 0.271215 -0.03200076 -0.12346838 0.21403445 0.07812797
0.069176495 0.4190616 -0.020121664 -0.16757005 -0.13664056 -0.206266 0.22568904 -0.21716006
0.1934618 0.1644039 -0.10249204 0.020728365 0.13921861 0.3932527 0.050489116 0.14365324
0.30382487 -0.040307857 0.30188036 -0.20221043 -0.021273172 0.066888474 -0.21648058 0.022904022
-0.20410936 0.28035083 -0.15961614 0.19454066 -0.15560701 -0.04518486 -0.08044191 -0.09183488
-0.27767742 0.09527283 0.12567589 0.060249683 -0.10084645 -0.1738662 0.31601536 -0.2958378
0.052344587 0.17132153 0.16001165 0.1273252 0.13778767 0.29223713 0.008772517 0.06812487
0.2159133 -0.15467285 -0.0586576 0.28781703 -0.10176696 0.17897457 0.17602575 0.074189365

graph_transformer_layer.0.attention.Q.bias f4 [16]
00000000: e3bb 7bbc 823c 72be 7582 2dbd 82c4 b3be
00000010: 2917 903e f07a 2ebe 4668 d03c 23f5 95be
00000020: 31a1 8a3c 2988 283e 7897 8fbe 9124 093e
00000030: 97af 553e f9dc 9d3e 3279 d83c 5913 813e
-0.01536462 -0.23655894 -0.04236074 -0.3511086 0.2814267 -0.17039084 0.025440346 -0.29288587
0.016922565 0.16458191 -0.2804525 0.13392855 0.20867763 0.3083265 0.026424978 0.25210074

graph_transformer_layer.0.attention.K.weight f4 [16, 16]
00000000: 43ec 373e 1361 cf3c 9478 38be 8777 a8bd
00000010: dd07 bb3e 4298 dd3d b950 a93d 0795 a7bd
00000020: 9eef b83e 9e59 ec3d f829 b2bd e9b9 67be
00000030: e967 3a3d bb1d 80be 8404 e3ba d0aa 393c
00000040: 0576 acbd 9485 b0bd 49df 4bbe b24f 81bd
00000050: 18f7 543d 6bf1 d1bd 3a9d aabe 2e2f 7cbe
00000060: 6f42 8d3e 977d 2bbd 7f94 0f3d 2366 8cbd
00000070: 5394 dcbd 0abc 0d3e dbf7 fabd b453 a83d
00000080: dac0 a3be 07c8 0bbe 295f 83be e33f 7bbe
00000090: 46f6 a13e a732 a8bd 0dc5 0dba 3039 09be
000000a0: fa93 c2bd 87a3 bdbd a132 1dbd 9950 a6be
000000b0: 32ed 76be 8026 a33d eada f03d d9b3 a8bc
000000c0: c6ec 393d 11ae 8cbe f1a8 c1bd ff38 033d
000000d0: b1ec 9dbe 9ff5 cbbe 3fe1 28bd c500 8b3d
000000e0: c9b4 73bd 9bed 863e d681 1c3e f391 33be
000000f0: ddad a13e 0591 303e a1bc 243e 54a4 0ebe
00000100: d5b8 d93d acca 5a3d 90c0 1a3e d87a a43e
00000110: ddaa 0f3e a5fb cabd ad99 34be 5f5c 7f3d
00000120: d030 893e ecef 3fbe 2fbd 33be 7df7 113e
00000130: 8328 d33d 19d6 613e 3466 a03d e507 b5bd
00000140: d368 553e 9d51 b23e 6fae 5a3e 5513 d0bd
00000150: 2cbc 5c3e 0512 903e 4e8b 00bd 9d87 f6bd
00000160: a59c 113e 1501 243e a800 833c aa53 24be
00000170: 298e 1dbe 31eb 04be f5de 943d 8452 ad3e
00000180: 5385 6b3e 1eb3 98be 0b48 9a3d 918c e93d
00000190: 4673 60be 2fdf 053c abcb 96be 21cc bfbc
000001a0: f916 26bd 91ee 983d b521 ba3d ad3d 46bc
000001b0: 19b5 a33e f4f5 47be 2ebe 74be e88b d2bd
000001c0: 0211 21be 65e5 bdbe 7558 823d 3fe5 6cbe
000001d0: bceb 2bbe a5a0 3c3d 896a 2c3d 8cc6 05bd
000001e0: 8b27 003e bbdb 15be fabb 8bbe 598f 3d3d
000001f0: 9634 dabd 80ba 99bc 2843 6bbe 8f72 70be
00000200: 0a4f 623c 1948 86bd 8797 b9bc d38d 91bd
00000210: 1e22 84be ae09 3fbe 4a04 b33e 2c76 743e
00000220: bbbd 97be 7cbb 833d 2bae 833e 41f6 53bd
00000230: 1366 253e d009 4d3c a2de 1a3e fbad 203e
00000240: 8d35 fd3d 9c93 6bbe 8a51 37be 7262 f1bb
00000250: 7e89 683e ef3b 9a3e 110b 6abd 21e5 d93c
00000260: 494e 113e e857 20be 13e0 43be ed3e 943d
00000270: 48ba 17be a94a 5fbe 113c 80be 726c 943e
00000280: bbb8 153d d658 a9be 9003 25be cda1 153d
00000290: acc9 c13e 2bb6 b33e 121f 55be 547a 57be
000002a0: b2e7 e33e e228 1d3c 62e3 7a3c bd2e 34be
000002b0: 5568 d9bd 3917 313e d6c8 583d efa0 233e
000002c0: c4e9 0bbe 4c1a 24bb dfb2 683d 3ecc 223e
000002d0: f31c bcbd e352 083e 1d10 64be eebc 93be
000002e0: 6c52 8c3e 8ff2 77be 348b 9cbe 7f12 3b3e
000002f0: 0d6a 763e 0529 02be 3bf3 89be e6d4 503e
00000300: 398b c8be 1092 303c eb46 e13c 461b c0bd
00000310: 6729 123e cead 13be 8c46 0abd e115 ecbd
00000320: 1bfb 53be c98b 48be 224b d83d 4ba5 bc3d
00000330: 5f5c 413e aa7f 26bc 63f4 1f3e d4cf 563d
00000340: 91a5 d03e 426e 8a3e 24c9 493e 2631 933d
00000350: c31d d1bd 58b4 823e 6083 4bbd b693 2a3e
00000360: 15d6 5fbe 3826 753e 1e8a 863e 5cc3 ac3e
00000370: fd2b c6bd c0e1 05bd 0b4b 3cbe 21fb 5b3e
00000380: f096 3c3e a0a8 303e 41f9 71bc ccb4 283e
00000390: fcaf 2b3e 39c0 1b3e 44d9 1cbd 9d06 6a3e
000003a0: 0dfe 9bbc 201d 0ebd c5fd 5ebd abfd 7c3e
000003b0: b6e3 5dbe f1f5 40be 8ff0 ae3d 3f66 9f3c
000003c0: 402b 783e b7a7 45be 6811 83be 104a 493e
000003d0: d4d9 a23c 2671 893d 1e9a 19be a838 6a3e
000003e0: 9211 503e 0dc2 d5bd dae4 04be 7eda 1b3e
000003f0: 1f8f 0b3e a61c a23c f771 6dbc 3246 56be
0.1796122 0.025314843 -0.18014747 -0.08225923 0.36529437 0.108200565 0.0826735 -0.081827216
0.36120313 0.115405306 -0.08699411 -0.22629513 0.045509253 -0.25022683 -0.0017320071 0.011332229
-0.08420948 -0.08619228 -0.19909395 -0.06314029 0.05199346 -0.10251125 -0.3332308 -0.24627373
0.27589747 -0.04186782 0.035053726 -0.068554185 -0.10770478 0.13841262 -0.12254306 0.0821909
-0.31983072 -0.13650523 -0.2565854 -0.2453609 0.31633204 -0.08212786 -0.0005408086 -0.13400722
-0.095008805 -0.09259706 -0.03837836 -0.32483366 -0.2411392 0.07966328 0.117605045 -0.02059357
0.04539182 -0.27476552 -0.09456051 0.032036778 -0.30844644 -0.39835832 -0.041230436 0.06787256
-0.059498582 0.26353154 0.15283903 -0.17536144 0.3157796 0.1724282 0.16087581 -0.13929874
0.10630957 0.05341594 0.1511252 0.32124972 0.14030023 -0.09911279 -0.17636748 0.06234395
0.26795053 -0.18743867 -0.17552637 0.14254566 0.10310461 0.22054328 0.07831994 -0.088393964
0.20840769 0.3482789 0.21355604 -0.10159937 0.21556157 0.28138748 -0.03138285 -0.12037585
0.14219911 0.16016038 0.015991524 -0.1604754 -0.15386261 -0.12980343 0.07269088 0.33852017
0.23000078 -0.29824156 0.07533272 0.11403764 -0.21918973 0.008170887 -0.2945226 -0.023412766
-0.040549252 0.07467378 0.0908846 -0.012099666 0.31974104 -0.19527417 -0.23900673 -0.10280591
-0.15729144 -0.37089077 0.06364528 -0.23134325 -0.16789144 0.04605164 0.042093787 -0.032660052
0.12515084 -0.14634602 -0.27291852 0.046279285 -0.10654561 -0.018765688 -0.22974837 -0.234812
0.01381279 -0.0655672 -0.022655262 -0.07107129 -0.2580728 -0.18656036 0.3496421 0.23873204
-0.2963694 0.06432244 0.25718817 -0.051748518 0.1615222 0.0125145465 0.1512399 0.15691368
0.123637296 -0.23005527 -0.17902198 -0.007366472 0.22708699 0.3012385 -0.05713946 0.026598515
0.1419002 -0.15658534 -0.19128446 0.07238565 -0.14817154 -0.21805824 -0.25045827 0.28988987
0.036553126 -0.3307559 -0.1611464 0.03653126 0.37849176 0.3509992 -0.20812634 -0.21042758
0.44512707 0.009592267 0.015313001 -0.17595954 -0.10615603 0.17294015 0.052925907 0.1597936
-0.13663393 -0.0025040088 0.05681121 0.15898225 -0.09185209 0.13312869 -0.22271772 -0.2885508
0.27406633 -0.24213623 -0.30574954 0.18268774 0.24063893 -0.1271096 -0.26943383 0.20393714
-0.39168718 0.0107770115 0.027499637 -0.09380202 0.14273606 -0.1442177 -0.033758685 -0.115276106
-0.20701258 -0.19584574 0.105612054 0.09211215 0.18882893 -0.010162273 0.1562057 0.052444294
0.40751317 0.27037245 0.19705635 0.07187109 -0.10210755 0.25528216 -0.049685836 0.1665791
-0.2185901 0.2394036 0.2627725 0.33742797 -0.09676359 -0.032685995 -0.18388002 0.21482517
0.18416953 0.17251825 -0.014768899 0.16475219 0.16766351 0.15210046 -0.03829314 0.22854085
-0.01904204 -0.034695745 -0.054441232 0.24706142 -0.21668896 -0.18843819 0.08541977 0.019457934
0.24235249 -0.1930226 -0.25599217 0.19657159 0.01987926 0.067110345 -0.15000197 0.22873175
0.20319203 -0.10437403 -0.12977925 0.15220067 0.13628815 0.019789051 -0.014492503 -0.20925215

graph_transformer_layer.0.attention.K.bias f4 [16]
00000000: a82d 46bd a7b1 54be dab2 503e 2035 6dbd
00000010: bbf9 38be 5491 823e 1db4 ab3b e0ac 153e
00000020: d4a7 06be 7285 5fbe 0b83 c4bb 5508 bf3d
00000030: 5cba 0b3e 2f53 e73e a0b0 c63e f974 4fbe
-0.048383385 -0.20770894 0.20380726 -0.057911992 -0.18064015 0.25501502 0.005239977 0.14616728
-0.13149959 -0.21828249 -0.005997067 0.09327761 0.13645309 0.45180652 0.3880663 -0.20259465

graph_transformer_layer.0.attention.V.weight f4 [16, 16]
00000000: 57eb a13d 674d e1bd ee97 1ebe 6a4a 2f3e
00000010: 30bf 223e a252 03be 2413 883e b87d 493e
00000020: aa47 a4bd 0358 a03d 9bab 73be 2b6d 893d
00000030: 4d77 793e 7da0 c03d 3bf7 30bc 9d99 eabd
00000040: 38cd e9bd 4711 8ebc 5eca 46bc 053a cdbd
00000050: e3bc 7d3e 8e17 0a3c cdec 4cbe d2d2 0abe
00000060: f6ed d6bd d8bd 9fbd 0da6 a13c 1dc7 39be
00000070: 0592 24be d200 fb3c 9d5c 63be 4d07 cbbc
00000080: 4922 883e 7d5b e63d 620c 28be 9e2c 62be
00000090: 2224 40be 3e1e 0e3e ffe5 b6be 775d 42be
000000a0: 531b b83d 6d7e 103e 2647 0b3e 2c4b 82bd
000000b0: 60c8 bbbd 1cf1 10be 3da3 1e3e 7cf0 58be
000000c0: b892 43be 5407 26be a7d3 84bd 7a6f 6e3e
000000d0: 433e 1abe a07b 82be 78af 143c 935a 6a3e
000000e0: 917a 17be 73de 4c3e af48 553e 0f38 313d
000000f0: b5c7 713e 9496 393e f8f8 463e a10f 86be
00000100: 9356 63be df06 5b3e 1960 1bbd 11d2 cdbd
00000110: c88e b73d 70c7 603e 7b69 74be 3e80 10bd
00000120: 7c3d fc3d 9628 1abe 1160 003c dffe b13d
00000130: bc2d 343d d784 1fbe c613 263e 2ef6 febd
00000140: e1c2 a4be 90cb b7bd 127c 6b3e fb9a 01be
00000150: 3cb1 f0bd bfea d53d 19ea 123e 7d77 623e
00000160: 644c 723d 9600 453e 34fa d13a a245 aabd
00000170: 62e0 113e 0d97 093c 2090 da3d 4214 d2bc
00000180: 8fa6 d7be ee4f f8bc fe3d 883e 5016 57be
00000190: 0f91 9a3d 00a9 4f3e c533 ac3d 56ac 913e
000001a0: 1ce3 a2be 398e eebd 1e4b 013d 97a5 9bbd
000001b0: 6ae9 a83b 0f5c da3d baa6 dc3d d898 6fbe
000001c0: 2f20 c13e 2a61 2fbe 1c2f 103e 5121 5bbe
000001d0: 5249 08bd 66e3 053e 2605 03be 7427 debd
000001e0: 24cb fbbd 3924 57be db0e 47be fe5b 92bc
000001f0: 78be 723e 52aa 09be 9e80 a2bd 131d 0dba
00000200: 4daf 973e 89c9 bd3d b871 3e3e ca59 c43d
00000210: 27a4 1d3c e509 e33d 179f f53d 065c 4b3e
00000220: e7b8 9abe 4149 22bd a421 683e 3774 89bc
00000230: 96f4 0dbe 3427 eb3c f184 87bd 02ab 6b3d
00000240: 268c 1bbd 7be2 ca3d 557e 023e f70d 39be
00000250: 9080 50be 6a29 efbc a941 35be 3996 0d3d
00000260: 4eec 6c3e 4cb2 9ebe b267 fe3d 382f cc3d
00000270: 6aaf 0cbe b63b 9c3d cddc 423e 8096 88bd
00000280: 2161 6fbe dfe3 1b3d c92f 4bbe 5615 2cbe
00000290: 2533 cc3d 860f 123e d21e 223d 423a 28be
000002a0: 90e9 453d 2d85 acbe c510 0a3e be42 5e3e
000002b0: 3ca6 943e f750 16be 2eae 09be 482c 323e
000002c0: c17a 29be db76 ebbc 8d4d 38be 2701 2c3e
000002d0: c03b d6bd d97b 8c3e cb40 c2bd e18f a1bd
000002e0: 33b2 3cbd 0ad2 73be 598c f63c dd65 833d
000002f0: 392f b63d b3c0 0b3e 8b91 b6bc de84 133e
00000300: caac 3d3e ebf8 9dbd 204f c93d 24da 373e
00000310: 3e32 b5bc abfc 603c 25dd 653e 9dff 5cbb
00000320: e833 323e 3fa3 31bc 05e3 803e e3af d2bd
00000330: d2ae 39bd 1e6b 4e3e e854 cb3b ccf8 46be
00000340: 4f20 4e3e ac4a 7b3e 6449 debd 0af8 78bd
00000350: 4fd6 5ebe ed74 0a3d 9901 0abe 4246 2f3d
00000360: ee46 b1be b241 52bd 5062 573e bef9 1c3e
00000370: 2193 043d ddb8 033e d0a4 c3bb c41a b5bd
00000380: 1caa afbd 606f 85be 32fb 27bc d8f8 23be
00000390: 08e6 793d 9449 3c3d 6a52 eebc 9e5f 14be
000003a0: fb18 1c3e fdcd e03d b22b 2cbe 92e6 45bd
000003b0: 8785 36be 09c5 653e e65c 783e c106 263d
000003c0: 4063 653e af26 143e f65a f6bc 12c0 013e
000003d0: 6797 42bd 202a 4dbe 0596 c6bd a1ce 2dbe
000003e0: a290 0ebe 6b23 f73d 3f93 4cbd c653 303e
000003f0: 986c f73d 92b8 2b3b c0f5 893e d80e d43d
0.07906216 -0.110010915 -0.15487644 0.1711823 0.15893245 -0.1282449 0.26577103 0.19676864
-0.08021481 0.07829287 -0.23795931 0.06710275 0.24361916 0.09405611 -0.010801132 -0.11455081
-0.114160955 -0.017342223 -0.012133209 -0.10020832 0.24779086 0.008428467 -0.20012207 -0.13556984
-0.10494606 -0.07799882 0.0197325 -0.18142362 -0.16071327 0.03064004 -0.22203298 -0.024783755
0.26588657 0.11247919 -0.16410974 -0.22087333 -0.18763784 0.13878724 -0.35722348 -0.18980967
0.08989587 0.14110728 0.1360136 -0.06361994 -0.09169078 -0.14154476 0.15491958 -0.21185488
-0.19098938 -0.16213733 -0.06485682 0.23284712 -0.15062813 -0.25484943 0.009075038 0.22886114
-0.14792849 0.20006733 0.20828508 0.043266352 0.23611338 0.18123847 0.19430912 -0.261838
-0.22200994 0.2138934 -0.037933443 -0.100498326 0.0896278 0.2195108 -0.23868363 -0.03527855
0.12316415 -0.15054545 0.007835404 0.08691191 0.04398893 -0.15578018 0.1621848 -0.12449299
-0.3217993 -0.08974373 0.22996548 -0.12656777 -0.11752555 0.10445165 0.14347114 0.22115894
0.059154883 0.19238505 0.0016020001 -0.08314063 0.14245752 0.00839783 0.10672021 -0.025644425
-0.42119262 -0.030311551 0.26609796 -0.21004605 0.07547199 0.20279312 0.08408312 0.28451794
-0.31813896 -0.116482206 0.031565778 -0.07599943 0.0051547782 0.1066209 0.10773988 -0.23398149
0.37719867 -0.17126909 0.14080471 -0.21399428 -0.03327305 0.13075027 -0.12794933 -0.10847369
-0.122946054 -0.21009912 -0.1943926 -0.01786613 0.2370547 -0.13443878 -0.07934688 -0.00053830555
0.2962593 0.092669554 0.18598068 0.095874384 0.0096216565 0.110858716 0.119932346 0.19859323
-0.30219194 -0.03962064 0.22669083 -0.016779048 -0.13862833 0.028705217 -0.066171534 0.057536133
-0.037975453 0.09906479 0.12743504 -0.18071733 -0.20361543 -0.029194552 -0.17700829 0.03456709
0.23137018 -0.30995405 0.12422122 0.09969944 -0.1373879 0.076285765 0.19029541 -0.066693306
-0.23376895 0.03805911 -0.19842447 -0.16805014 0.099706925 0.14263734 0.039580174 -0.16428474
0.048318446 -0.33695355 0.1348296 0.21705148 0.29033077 -0.14679323 -0.1344535 0.17399704
-0.16550733 -0.028743198 -0.17998333 0.16797315 -0.10460615 0.27438238 -0.094850145 -0.07888771
-0.04606838 -0.23810592 0.03009622 0.06415913 0.08895726 0.13647728 -0.022286197 0.14406154
0.18522945 -0.07713493 0.09829545 0.17954308 -0.022118684 0.013732116 0.22447641 -0.0033721693
0.17402613 -0.010842144 0.25173202 -0.10287454 -0.045332737 0.2015805 0.00620519 -0.19430846
0.20129512 0.24540204 -0.10853842 -0.060783423 -0.2176144 0.033802915 -0.13477172 0.042791612
-0.34624428 -0.051332183 0.21033597 0.15329644 0.032366876 0.12863488 -0.005970575 -0.08842996
-0.08577368 -0.26061535 -0.010252761 -0.16012895 0.06101039 0.045968607 -0.029092032 -0.144896
0.15243904 0.10976789 -0.16813543 -0.048315592 -0.17824374 0.22438444 0.24254188 0.040533785
0.22401142 0.14467882 -0.03007267 0.12670925 -0.04750767 -0.200356 -0.09696583 -0.16973354
-0.1392236 0.12067302 -0.049945112 0.17219457 0.120812595 0.0026202542 0.26945305 0.10354394

graph_transformer_layer.0.attention.V.bias f4 [16]
00000000: 51aa 42be 7539 963e f97e 3d3e 386d b4bd
00000010: f421 e53d 1d0e c4bd b360 1f3e 54b3 003e
00000020: 7331 30be 8d82 843d ed4c f8bd 5a59 203d
00000030: 873e 50be 15c1 793d 79c7 cb3d b484 21be
-0.19010283 0.2934071 0.18505467 -0.08809894 0.11188117 -0.095730044 0.15564232 0.12568408
-0.17206363 0.06470213 -0.121240474 0.039147712 -0.20336352 0.060975153 0.09950156 -0.15773278

graph_transformer_layer.0.attention.proj_e.weight f4 [16, 16]
00000000: 04d5 7cbe d60d bf3e 3a4e a03c 1bae 203d
00000010: 1603 f5bd a2a2 353e 09df edbd 82c4 f8bd
00000020: c0ac bb3e 9314 4d3d 396f 063d 3f12 aebc
00000030: 3930 d6bd 1488 593e ac07 ae3c a164 3e3e
00000040: edbb b53d e2e0 42bd b7da 83bc 52cd 23be
00000050: a60e 0dbe 36d2 bb3d decc ed3d 2b62 153d
00000060: d409 aa3e 271e 3b3e f643 853d c4a5 bf3d
00000070: c731 6a3d 0868 6f3d ec6b 453e 6a74 8c3e
00000080: e411 9d3c a3f6 6f3e de03 3c3e 32eb 9bbd
00000090: fab6 6fbe 8f8c 283d 56ae 643e 9b1c 333e
000000a0: 995d 643e 6e51 48be 4cc2 713e 19d1 923e
000000b0: 3ad7 af3e cd67 973e 443e e4bd bf53 963d
000000c0: de0b 613e 4f02 4abd 61e9 403d 5709 38be
000000d0: 769c 9d3e 09c9 8dbe edc5 453e b5e9 b6be
000000e0: cd9e 9cbe 3e34 4e3e 138e ecbd 76c5 673d
000000f0: 9af9 b63d e687 433e 3625 dc3d f2a5 a8be
00000100: a6d6 373c c54c 1b3e 0cd1 0abc cf6b 78be
00000110: 34cd 32be 9124 12bd 39da c6bd aa31 68be
00000120: 0fcb 163e e584 b63d 570c 1dbe 5d0d e83d
00000130: 908f afbd e2fd 05be 8ab3 4bbd 97d4 8d3e
00000140: 5c0e b9be da8a 4c3e 9cea 4d3e ff90 86be
00000150: 04ef cb3c 0566 fbbd e82b 793d ea70 74bd
00000160: 9b7f e3bd a07f 893c 5e5a 43be abd7 16be
00000170: 8b72 533c 7e6f 89be e4af 64be 6c7c 773e
00000180: 1746 5d3d b653 883e d39c 053d 1d76 a53e
00000190: b73a fa3d f3f5 88bd 4d9f a8bc 81a1 983e
000001a0: 6633 c83d 371d 3b3d 8fab ab3e a652 843d
000001b0: 6791 f63d 516c 253b 5157 153e 0148 98bd
000001c0: 8c37 793e 23ac 90bd 8458 e7bd e958 923c
000001d0: 79e3 a53b 5c7d 0d3e 8c12 a83d cc6c c03d
000001e0: 665e 8e3e ef81 3bbd 246c 7a3e 745b 97bd
000001f0: 1ef2 413e 69fe 6c3d fd69 113e a617 223e
00000200: 610a 203d 274a 5bbe 621b 5dbe c374 0abd
00000210: 1684 ebbd 0b29 25be ebb2 abbe 1cac 6ebe
00000220: d035 353d ed39 a2be 79c7 e8bd 084c 33be
00000230: 8458 08be 7a54 abbe 004c d93c 468d e8bd
00000240: ecc5 f93d 76ce cebd 9b39 853d e4e4 98bd
00000250: 45e7 d8bd 73da 193e a80a bd3e 9e69 483d
00000260: ee4f 373e 4eef 683e 677d bfbd 4c00 bdbd
00000270: 210b bdbd c276 15bc 2139 3fbe c8b8 533e
00000280: 9985 9abe c787 40be 25ee c8be 6d6d 17bc
00000290: 3020 4cbd 15f6 923c 289d 8ebe 7168 82bd
000002a0: 59f8 0abe 54b1 5cbe 4c97 5d3d 0761 563d
000002b0: 13be 12be 9842 f0bd 2b8f 283e ac8e a5be
000002c0: f0cc 2dbe 990c 08be 9fbf 333e c0dc 4abe
000002d0: e11d 993e d9f2 2fbe 98fe 4abe cf05 16bd
000002e0: b7d4 343d 365d 0fbd fbbb a3be 7b10 6dbe
000002f0: cd66 d2bd 1114 50be 506c 5abc cbae 16be
00000300: a9f9 9c3e da1e 8bbe 39d3 d3bd ec03 19be
00000310: 7a1b 3a3e ac74 f2bd 982c 73bc 9035 8abe
00000320: 277a 97be 7a09 a03e 0706 a3be 9755 ef3d
00000330: 6c67 0abe e4fd 233d a9d8 78b9 1474 85be
00000340: 150a bebd c6cb 70be e521 91bd 8abc 04bd
00000350: 2ee9 22be 11db 19bd 4543 a2be 9965 06bc
00000360: 9a09 99be 84ae 5f3d cf98 a2bd 4d1f 4cbe
00000370: 84d5 073e d2e5 4f3d d4ab 02be 5c94 73be
00000380: ba26 533e 610f 853e d7d3 773e d4ac 26be
00000390: 54e4 143e 8495 b73d d6d1 cb3c f01a 4b3e
000003a0: 6582 55be d9ed 473b 722f 01be 32b9 94bd
000003b0: f3b3 87be 2708 7fbe 687c 86bd 6444 aa3e
000003c0: 5ddc 3a3e 8f3d 90be b5a0 7b3e 60b5 0ebe
000003d0: edf8 5f3e 4102 c23c 8f0f 9abd 57ce 983e
000003e0: a880 8bbc a5df 8d3e 46e1 0f3e 529e 29be
000003f0: 7e8e 0fbe 931e aabe b970 d6bc 8bd7 bb3d
-0.24690634 0.37315243 0.019568551 0.03922854 -0.11963479 0.1773782 -0.11614806 -0.12146856
0.36655235 0.05006845 0.032820914 -0.021248935 -0.104584165 0.21243316 0.021243893 0.18593074
0.088737346 -0.047577746 -0.016095502 -0.15996292 -0.13775119 0.09170954 0.11611341 0.036470573
0.33210623 0.18273221 0.06507103 0.09357789 0.057176378 0.05844882 0.1927945 0.27432567
0.01917357 0.23433928 0.1836085 -0.07613219 -0.23409644 0.041149672 0.22332129 0.17491381
0.2230133 -0.19562313 0.23609275 0.28675154 0.34343892 0.2957138 -0.11144689 0.07340192
0.21977183 -0.049318608 0.047097567 -0.17972313 0.30783433 -0.2769244 0.19313784 -0.3572518
-0.30589905 0.20137116 -0.11550536 0.056584798 0.089343265 0.1909481 0.10749285 -0.32939106
0.01122061 0.15166004 -0.008472692 -0.24259876 -0.17461091 -0.035679404 -0.097095914 -0.22675195
0.14725898 0.08912066 -0.15336739 0.11330674 -0.08572304 -0.1308513 -0.04973177 0.27701256
-0.36143768 0.19974843 0.20109028 -0.26282498 0.024894245 -0.12275318 0.060832888 -0.059677996
-0.11108323 0.01678449 -0.19077441 -0.14730708 0.012905727 -0.26842874 -0.22332722 0.24168557
0.05402192 0.26626366 0.032620262 0.32316676 0.1221823 -0.06687536 -0.020583773 0.29810718
0.097754285 0.04568216 0.33529326 0.064610764 0.12039452 0.0025241564 0.1458409 -0.07435609
0.24337596 -0.070640825 -0.1129618 0.017864661 0.0050625172 0.13817352 0.082066625 0.09395751
0.27806395 -0.04577821 0.24455315 -0.0739049 0.18940017 0.057859812 0.14200588 0.15829334
0.039072398 -0.21415006 -0.21592477 -0.03380276 -0.11499803 -0.16128938 -0.3353494 -0.23307842
0.044240773 -0.3168482 -0.113661714 -0.17509472 -0.13315016 -0.33462888 0.026525497 -0.11355071
0.12195954 -0.10097973 0.06505128 -0.074655324 -0.10590986 0.15024738 0.36922193 0.04892885
0.17901585 0.22747537 -0.093500905 -0.09228572 -0.09230638 -0.009122552 -0.18674137 0.20675957
-0.30180052 -0.18801795 -0.3924419 -0.009242398 -0.049835384 0.017939607 -0.27854276 -0.06367577
-0.135713 -0.2155202 0.054099366 0.052338626 -0.1433032 -0.11731452 0.16460864 -0.32335413
-0.16972709 -0.13286056 0.17553566 -0.19810772 0.29905608 -0.17182483 -0.19823682 -0.036626633
0.044148173 -0.035001002 -0.31979355 -0.23150818 -0.10273514 -0.20320155 -0.013331488 -0.14715116
0.30659226 -0.27171975 -0.10343022 -0.14942902 0.18174544 -0.1183866 -0.014842175 -0.2699399
-0.29585382 0.3125723 -0.31840536 0.11686247 -0.13516015 0.04003705 -0.00023731835 -0.26065123
-0.09279267 -0.23515233 -0.07086543 -0.032406367 -0.15909263 -0.037562434 -0.31691948 -0.008202934
-0.29890138 0.05460979 -0.07939302 -0.19933815 0.13265043 0.050756283 -0.1276086 -0.23787063
0.20620242 0.25988296 0.24201904 -0.16276866 0.14540225 0.08964065 0.024880331 0.19834495
-0.20850523 0.0030506758 -0.12615755 -0.07261886 -0.26504478 -0.24905454 -0.06566697 0.33255303
0.18248124 -0.28171965 0.24573024 -0.13936377 0.21872301 0.023682715 -0.07522499 0.29844925
-0.017029122 0.2770969 0.14050779 -0.165643 -0.140192 -0.3322645 -0.026176797 0.09171971

graph_transformer_layer.0.attention.proj_e.bias f4 [16]
00000000: 80e8 493e 0f50 863e d27a f2bb 606d 21be
00000010: 6f4d 8ebe 5cec 92be 7909 0b3e 5f8a 2d3d
00000020: 1eef 20be 7a6b 873e f745 b83d 1c2d 95be
00000030: a06a 973d 7d00 043e 1d28 983d 5db4 7ebe
0.19717598 0.26232955 -0.007399895 -0.1576438 -0.27793452 -0.28695953 0.13577832 0.04236829
-0.15716216 0.26449186 0.0899772 -0.29135978 0.07393384 0.12890811 0.07429526 -0.2487349

graph_transformer_layer.0.O_h.weight f4 [16, 16]
00000000: 8ac9 70be 8b29 2d3e eda8 b73d 31b6 7fbd
00000010: 3c50 44be 9838 8dbe 5e41 8fbe 7adb 953e
00000020: 0024 c6bc e538 7a3e 0ae1 35bd dbbc 04be
00000030: ba1b bf3d ece8 a83c 185f 70bd a255 813e
00000040: 18dd 7cbd 5fe0 353e b2fe 3abe 7b39 57be
00000050: ab77 593e c9bc 223e eec2 b6bd e0cf 2bbe
00000060: 8f31 32bd 2658 6d3b 4bbd 81bd a662 273d
00000070: d42e 103e 2d55 1dbe 75d3 713e d5fa 25be
00000080: b7bf c0bd de29 823d 1b6b 0f3e 3d5c 5f3c
00000090: b08e 57be 549a 69be e5ce 723d 3be9 193e
000000a0: 9640 8a3e 3c12 89bb 38d6 42be f32a 26be
000000b0: 3f3f 33be 1f4a 663e 9b27 443d dbbd edbd
000000c0: cc5e 9d3e 7152 33be e628 823b ee73 2cbe
000000d0: 798d 9bbe 4d81 5abe bd70 85be 86e1 2c3e
000000e0: ba1b 64be 0fe2 733e 2fd1 173d fd89 17be
000000f0: fcc4 de3d a02d 33be 0631 76be 801f 7e3e
00000100: 56e9 0dbe 4ee5 c03b d877 e9bb 072f 9d3e
00000110: 13c5 74be 72b6 733d 53ee 443e d602 58be
00000120: 4236 88bc 0e48 34be 0664 5a3c 70f6 95bd
00000130: cade 553e f96d 223e 5973 2e3e ea2d 61be
00000140: a8e3 8ebe ab6f 5dbe 435c 32bc db9b fbbd
00000150: 92a8 653e f5d7 423e 6edf 09be 6c46 323e
00000160: 5cb7 783e aef5 063d 9ef6 883d 0dd6 583e
00000170: 4072 40bd 4a41 513e 6ab1 86be 72e5 3bbe
00000180: 2369 e6bd 86ec 1a3d 9a99 323a 3852 46be
00000190: 9445 49be 3073 6bbd 0ecc 63bd d9fd f93d
000001a0: bbcf a33e 19bc 91bc b2f3 573c 1e14 5cbd
000001b0: 7f02 cebd 8033 0e3e ce2f febd c48f f73d
000001c0: 7b72 b3bd dfa2 1f3e a7b1 523e 2f30 0abc
000001d0: caf4 153e d65a 97be 5399 f93d 0c68 dfbd
000001e0: 1147 38be 4b67 cc3c 105d 08be 5ff8 bf3d
000001f0: 7f45 02be 305e 283e 3870 1e3d 69d2 243d
00000200: 0696 22be 7024 183e e3dd 603e 64f9 0a3e
00000210: 5e16 1cbe 37a3 5a3e 952f f1bd cf6d 313e
00000220: 3b04 78bd bee1 40be 9f08 c8bd f469 f9bd
00000230: 4c4a 563c 652e 4cbe 0b11 623e 49d1 90bb
00000240: acd3 673c 74b2 8c3d 565b d03e 43ef 42be
00000250: d583 8a3c 15d2 95be 9cb1 e7be ac91 8c3e
00000260: 2a02 64bd 115b 193e 58f8 d93d 1757 a5bd
00000270: 7b84 d5bd 70f0 a2bb d6b4 3d3d 028c 8cbe
00000280: 4879 09bc cac3 133e 2aba 97bc 1377 8cbe
00000290: 9bf4 8cbd 7130 533d 5efb aebd cf2e 223e
000002a0: e457 0939 360e 953e 4f3a 103e 4bc7 f2bd
000002b0: 6ccf 7bbe a725 b3bd b859 a4bc 5cf3 173e
000002c0: f307 493e a9dc 393c ca02 bcbd a07c 7b3e
000002d0: be0c 2b3e 30ea 823e 1616 72bd 06d1 dfbc
000002e0: 1e6b 00bd 2126 b8bd 58a7 07be 3067 38bd
000002f0: b678 5b3e a592 7abd 1803 2c3e dc51 843d
00000300: d1fd b03e 9fbf a9be 0bd8 f4bd 2484 a03e
00000310: 142d ecbd 9a9c 093d 91ae 3e3e 1a53 43be
00000320: 55b3 89be 5de8 61be 92e3 153c 6c98 933d
00000330: 6e8a 65be 3a8c 2ebe 31e9 dc3d 0e9c d5bd
00000340: 567c 38bd b3e7 2e3e 550c 043e 5cfb 843d
00000350: c780 ebbd 9a61 0dbe 002f fd3d bda4 00bc
00000360: 9e12 4ebe c07f 093e adcf c0bd 8f74 713e
00000370: 0b08 cbbd b3b2 1dbe 1db3 9e3e cc9b 7ebe
00000380: 3283 66bd 125b 5a3e b59b 66be 186d 17be
00000390: a670 12bd 8544 f8bd fc81 50bd d5a6 5d3e
000003a0: 1c71 363e 052d edbd 3490 823e f363 2d3c
000003b0: 530c d4bd e699 ff3d a304 10be 2e32 85bd
000003c0: 4085 e73d 455e 063e 0c19 1fbe 2ea8 c2bd
000003d0: 7869 673e 7859 7b3d 8db8 ff3d ddad 0fbe
000003e0: 8f87 92ba 7e46 913b 6e62 6f3e a084 37bd
000003f0: 54a5 b63d e8d8 a2bd 8fed 62bc b370 393d
-0.23514381 0.16910379 0.08967767 -0.06242961 -0.19171232 -0.2758224 -0.2797956 0.2926901
-0.024187088 0.24435766 -0.044404067 -0.12962668 0.0933146 0.020618878 -0.05868444 0.25260645
-0.06173429 0.17761372 -0.18261221 -0.21018021 0.21237056 0.15892328 -0.08923899 -0.16778517
-0.043504294 0.003621587 -0.06334933 0.040865563 0.14080364 -0.15364523 0.2361582 -0.16208966
-0.09411567 0.06355642 0.14005701 0.013632831 -0.21050525 -0.22812778 0.05927934 0.15030377
0.270024 -0.004183082 -0.1902703 -0.16227321 -0.17504595 0.22489212 0.047889333 -0.11608478
0.30736387 -0.17511918 0.0039721606 -0.16841099 -0.30381373 -0.21338387 -0.26062575 0.16882905
-0.22276202 0.23816703 0.037064727 -0.14798732 0.108774155 -0.17497873 -0.24042138 0.24816704
-0.13858542 0.0058867102 -0.007124882 0.30699942 -0.23903303 0.059500165 0.19231538 -0.21094832
-0.016627435 -0.17605612 0.0133295115 -0.07322395 0.20885769 0.15862264 0.17036189 -0.21990171
-0.27908063 -0.21624629 -0.010886255 -0.122855864 0.22427586 0.19027694 -0.13464138 0.17409676
0.24288696 0.032949142 0.066876635 0.21175404 -0.046983957 0.20435062 -0.2630723 -0.18349245
-0.11250522 0.037823223 0.00068130495 -0.19367301 -0.19655448 -0.0574829 -0.055614524 0.12206621
0.31994423 -0.017789887 0.01318066 -0.053730123 -0.1005907 0.13886833 -0.12411462 0.12087968
-0.0876207 0.15589474 0.20575581 -0.008434339 0.14644161 -0.2956149 0.121874474 -0.10908517
-0.1799586 0.024951598 -0.1331675 0.09373545 -0.12721823 0.1644218 0.03868124 0.040239725
-0.15877542 0.1485765 0.21959643 0.13571697 -0.15242907 0.21351324 -0.11776654 0.17327045
-0.06055091 -0.18836114 -0.09767269 -0.12178412 0.013079237 -0.19939573 0.22076814 -0.00441948
0.014149588 0.06869975 0.40694684 -0.19036584 0.016908566 -0.29261842 -0.45252693 0.2745489
-0.055666126 0.14976145 0.10643071 -0.08073252 -0.10425659 -0.00497251 0.046315037 -0.27450567
-0.008390732 0.14430156 -0.018521387 -0.27434596 -0.06882592 0.05155987 -0.08544038 0.15838169
0.0001309808 0.29112405 0.14084743 -0.11854418 -0.24590844 -0.08747416 -0.020062312 0.14838928
0.19631939 0.011344113 -0.091802195 0.2455926 0.1670408 0.25569296 -0.059103094 -0.02732135
-0.031352155 -0.089916475 -0.1324743 -0.045020282 0.21432766 -0.061175007 0.16798055 0.06460926
0.34568647 -0.33154008 -0.119552694 0.31350815 -0.115320355 0.033596613 0.1862128 -0.1907467
-0.26894632 -0.22061296 0.009148495 0.072068065 -0.22416088 -0.1704568 0.10786665 -0.10430156
-0.04504045 0.17080574 0.1289533 0.064932555 -0.11499172 -0.13806763 0.1236248 -0.007851777
-0.2012429 0.13427639 -0.09414611 0.2357962 -0.099136434 -0.154002 0.30996028 -0.2486412
-0.05627746 0.21323803 -0.22520335 -0.1478771 -0.03575196 -0.12122444 -0.050905213 0.21645673
0.17816585 -0.115808524 0.25500643 0.010582912 -0.10353913 0.12480526 -0.14064269 -0.06503712
0.11304712 0.13121898 -0.15536898 -0.09504734 0.22598827 0.06136462 0.12486372 -0.14031167
-0.0011179316 0.004433452 0.23377392 -0.044804215 0.089182526 -0.07951528 -0.013850584 0.045273494

graph_transformer_layer.0.O_h.bias f4 [16]
00000000: bd8e bfbc 740b cdbd 38bd 4cbd 5a1b 38bc
00000010: 3043 9bbd 7696 9dbd 362b 423e 7228 68be
00000020: 25c5 743d e499 41be aeca a2bd 47fe 5cbe
00000030: feb1 133e 418a c6bd 8f34 7a3c ad59 05bd
-0.023383493 -0.1001195 -0.04998514 -0.01123699 -0.075811744 -0.07694714 0.18961796 -0.22671679
0.059758324 -0.18906361 -0.07948814 -0.21581374 0.14423367 -0.096943386 0.01527132 -0.032556225
