checkpoints/casp15_inhouse_full_v7_nogcpnet_fold9.ckpt (torch, 441167 bytes, 224 tensors)

resnet_embedding.node_embedding.weight f4 [32, 18]
0.08410529 0.09041565 -0.072982326 0.13050684 -0.07155639 -0.02833943 0.060704414 0.011179728
0.0933772 -0.020749189 0.0355375 -0.07546466 -0.08756397 0.10618545 -0.06598693 0.027290095
0.07081977 -0.0084772585 0.029018253 -0.06523386 0.055495955 -0.017204594 -0.040313523 0.08947305
-0.010931732 0.07400766 -0.019481234 -0.06013187 -0.06100001 -0.06939358 -0.11893373 -0.03555414
0.08237448 -0.08112851 0.037733737 -0.07881344 -0.10995211 0.14028884 -0.09178427 -0.044731338
-0.1331226 -0.11998203 0.11310721 -0.0042075044 -0.07013711 0.078416765 0.06833869 -0.07382302
-0.0042090947 0.037390675 0.021135725 0.102786094 -0.045701813 0.06727887 0.08071422 -0.102275796
0.02380678 0.04869395 0.10180513 0.061947886 0.08571375 -0.0048927907 0.103455886 0.046292994
-0.053572644 -0.03388315 0.13374339 0.05692492 0.010166981 0.11665491 0.012759502 -0.030320095
0.11245552 0.13207163 0.09009917 -0.113874115 -0.01282095 0.068060115 0.026547758 0.11589022
-0.11690244 -0.09962022 -0.098172486 -0.032900415 0.031092566 -0.0999657 0.0962007 -0.13149707
0.10473941 -0.12936929 0.09280171 -0.10201526 -0.092513956 -0.009428638 0.03660111 0.005966687
-0.03920931 -0.09936765 -0.08669798 -0.0732296 0.066733606 -0.09833642 -0.04758611 -0.047967773
-0.01543513 0.014296281 -0.051259212 -0.12619027 0.028593337 0.06494866 0.12747495 0.0672682
0.085401535 -0.08302154 -0.1361447 -0.1314734 0.021823078 -0.069708936 -0.028642619 0.10760584
0.023898255 0.05137999 0.055883273 0.027160184 0.0760058 -0.0071799974 -0.07998005 -0.106399626
-0.08963597 -0.02529908 -0.015194714 -0.08432547 0.0934944 -0.13246822 0.037112486 -0.075096965
-0.025890147 0.13886206 0.08145823 -0.05089977 0.029456083 -0.04976644 0.0025142522 -0.1292108
-0.008410201 0.13690194 -0.073304094 0.055982087 0.14240706 -0.10750369 -0.005712019 0.066272445
0.013663874 0.049815726 0.11601129 -0.057900827 -0.0472394 0.11152942 -0.07974321 -0.07736462
0.09249125 -0.032724828 0.041435372 0.038577363 -0.048477754 0.096909285 0.08956386 -0.015838927
-0.03357411 0.0350526 -0.047208186 -0.018317478 0.06230005 -0.036515158 0.099794865 0.0795601
-0.07599101 -0.062441066 -0.0367204 0.10256983 -0.023326473 -0.14124021 0.11047506 -0.073779814
-0.07885716 -0.12559946 0.06234458 -0.03496972 -0.03257816 0.06551495 -0.01584365 -0.05520013
0.0368888 -0.085849755 -0.036882237 0.06730429 0.045551423 0.096198276 0.103532076 0.057618354
0.08296542 -0.059861977 0.03679559 0.051067498 -0.13368735 -0.09261423 0.0476403 0.033138253
-0.11129121 -0.050224133 -0.03970565 0.03893208 -0.083487175 0.11960742 0.13239585 -0.12782343
-0.12381734 0.0133499205 -0.04194867 -0.10456303 -0.017240817 -0.07722208 0.0012826896 -0.123747505
-0.007894463 0.10732518 0.039517924 -0.058049906 0.08112226 0.10147206 0.09829148 -0.12393848
0.13148384 0.09315731 -0.011999308 0.10697317 -0.06950487 -0.08925531 0.09269028 -0.020192668
-0.040018823 -0.09925238 -0.05904961 -0.052841257 -0.07158567 -0.062432796 0.013425158 0.12630309
0.089968 0.06325275 0.087203346 0.051642306 0.13482557 -0.0540839 0.11610231 0.13640761
00000000: 653f ac3d d72b b93d c277 95bd 96a3 053e
00000010: 288c 92bd 1828 e8bc 31a5 783d 2e2b 373c
00000020: 8c3c bf3d 34fa a9bc c58f 113d 378d 9abd
00000030: bd54 b3bd c277 d93d 2824 87bd 7a8f df3c
00000040: f509 913d 33e4 0abc b0b7 ed3c 5499 85bd
00000050: ba4f 633d a6f0 8cbc cb1f 25bd a53d b73d
00000060: 021b 33bc 5491 973d 1c97 9fbc d64c 76bd
00000070: 26db 79bd 391e 8ebd 8793 f3bd 38a1 11bd
00000080: f4b3 a83d b426 a6bd b18e 1a3d f168 a1bd
00000090: 922e e1bd e1a7 0f3e 64f9 bbbd 3538 37bd
000000a0: 4a51 08be 23b9 f5bd c1a4 e73d 1bdf 89bb
000000b0: 0ca4 8fbd f898 a03d 28f5 8b3d 8630 97bd
000000c0: 72ec 89bb f726 193d d424 ad3c 8481 d23d
000000d0: d331 3bbd 81c9 893d 7f4d a53d f975 d1bd
000000e0: 7006 c33c 4f73 473d 357f d03d 11bd 7d3d
000000f0: b18a af3d b453 a0bb aee0 d33d b99d 3d3d
00000100: fd6e 5bbd 0fc9 0abd 07f4 083e 1b2a 693d
00000110: 6993 263c c5e8 ee3d 3b0d 513c d961 f8bc
00000120: 144f e63d c93d 073e ea85 b83d d536 e9bd
00000130: f60e 52bc 1a63 8b3d af7a d93c da57 ed3d
00000140: 8c6a efbd b005 ccbd a80e c9bd 96c2 06bd
00000150: d6b5 fe3c d1ba ccbd df04 c53d 2ba7 06be
00000160: 9e81 d63d 6279 04be d30e be3d 60ed d0bd
00000170: f577 bdbd 937a 1abc 0ceb 153d 3384 c33b
00000180: f199 20bd 4481 cbbd b68e b1bd 67f9 95bd
00000190: a1ab 883d 9b64 c9bd a7e9 42bd db79 44bd
000001a0: a1e3 7cbc f33a 6a3c 2ef5 51bd 0638 01be
000001b0: 933c ea3c ce03 853d cb88 023e e9c3 893d
000001c0: 00e7 ae3d 3207 aabd 8469 0bbe f7a0 06be
000001d0: 50c6 b23c 8fc3 8ebd eda3 eabc 7360 dc3d
000001e0: 46c6 c33c d373 523d dce5 643d 097f de3c
000001f0: eea8 9b3d 2f46 ebbb 95cc a3bd 0ce8 d9bd
00000200: 1093 b7bd 0440 cfbc 40f3 78bc d5b2 acbd
00000210: fe79 bf3d c0a5 07be 4303 183d 70cc 99bd
00000220: 9317 d4bc db31 0e3e 93d3 a63d 477c 50bd
00000230: e24d f13c e5d7 4bbd 27c6 243b d64f 04be
00000240: f1ca 09bc 0630 0c3e 7520 96bd 794d 653d
00000250: 28d3 113e e52a dcbd e32b bbbb d9b9 873d
00000260: 71de 5f3c 930b 4c3d 5497 ed3d 6b29 6dbd
00000270: 1a7e 41bd 8969 e43d 6850 a3bd 5871 9ebd
00000280: 0d6c bd3d 780a 06bd 23b8 293d 4c03 1e3d
00000290: 9c90 46bd 6078 c63d 426d b73d a3c0 81bc
000002a0: 0285 09bd 5193 0f3d 5f5d 41bd 890e 96bc
000002b0: 562e 7f3d eb90 15bd 4061 cc3d 68f0 a23d
000002c0: 2da1 9bbd 34c2 7fbd 2168 16bd 2210 d23d
000002d0: 2917 bfbc 46a1 10be c040 e23d df19 97bd
000002e0: dd7f a1bd 259d 00be 085d 7f3d 693c 0fbd
000002f0: ad70 05bd b42c 863d 8bca 81bc 8819 62bd
00000300: b618 173d ffd1 afbd d411 17bd d5d6 893d
00000310: 2194 3a3d 9a03 c53d a008 d43d 3901 6c3d
00000320: c6e9 a93d d531 75bd f9b6 163d 272c 513d
00000330: 56e5 08be 88ac bdbd 7a22 433d fabb 073d
00000340: a5ec e3bd d2b7 4dbd 64a2 22bd 3f77 1f3d
00000350: 53fb aabd bcf4 f43d c792 073e 25e4 02be
00000360: f293 fdbd a0b9 5a3c 5ed2 2bbd 2425 d6bd
00000370: 9d3c 8dbc 9c26 9ebd ec1f a83a 556f fdbd
00000380: c757 01bc 4ecd db3d 8cdd 213d bdc5 6dbd
00000390: 6d23 a63d 95d0 cf3d 0b4d c93d 75d3 fdbd
000003a0: b3a3 063e 42c9 be3d bf98 44bc c014 db3d
000003b0: 9258 8ebd 7dcb b6bd 67d4 bd3d 186b a5bc
000003c0: c7ea 23bd d544 cbbd 01de 71bd 1370 58bd
000003d0: 829b 92bd 88b9 7fbd 32f5 5b3c 9955 013e
000003e0: 2541 b83d a88a 813d ab97 b23d e286 533d
000003f0: b70f 0a3e 1487 5dbd 0cc7 ed3d 70ae 0b3e

resnet_embedding.node_embedding.bias f4 [32]
-0.008199463 0.13227119 -0.0031585186 0.104135364 -0.035800137 -0.11134755 0.084332906 -0.085668616
0.11954222 0.07133421 0.0899759 0.07722851 -0.121600956 0.120262586 -0.13074385 -0.0017412503
-0.073671445 0.0658459 -0.03331512 0.027029555 -0.10896813 0.022774266 0.07790978 0.09254974
0.09696021 0.0507141 -0.10710304 0.028428925 -0.015704382 0.07442629 0.13835685 -0.050356884
00000000: 0a57 06bc 1972 073e 26ff 4ebb ec44 d53d
00000010: 2aa3 12bd 2f0a e4bd bbb6 ac3d 0773 afbd
00000020: 8dd2 f43d ac17 923d 4945 b83d fb29 9e3d
00000030: ec09 f9bd 3b4c f63d b7e1 05be aa3a e4ba
00000040: 0ee1 96bd 37da 863d 6f75 08bd 166d dd3c
00000050: af2a dfbd 1991 ba3c 2a8f 9f3d b88a bd3d
00000060: 1393 c63d 97b9 4f3d d758 dbbd c7e3 e83c
00000070: 7aa6 80bc d06c 983d 6bad 0d3e 0543 4ebd

resnet_embedding.bn_node.weight f4 [32]
0.5925502 0.5934688 0.5934696 0.59382033 0.59377074 0.5942986 0.59368086 0.5936565
0.5933888 0.59281397 0.593858 0.59375715 0.59382564 0.5934082 0.5937663 0.59299695
0.59379333 0.59317595 0.59497815 0.5936199 0.5921552 0.59400064 0.5936261 0.5946051
0.5936302 0.5935065 0.59349614 0.5933359 0.5942677 0.59427595 0.5939772 0.5933145
00000000: 5fb1 173f 92ed 173f a0ed 173f 9c04 183f
00000010: 5c01 183f f423 183f 78fb 173f dff9 173f
00000020: 54e8 173f a8c2 173f 1407 183f 7800 183f
00000030: f504 183f 9ae9 173f 1101 183f a6ce 173f
00000040: d702 183f 61da 173f 7d50 183f 79f7 173f
00000050: 7c97 173f 6d10 183f e1f7 173f 0a38 183f
00000060: 26f8 173f 0bf0 173f 5def 173f dde4 173f
00000070: ee21 183f 7822 183f e40e 183f 76e3 173f

resnet_embedding.bn_node.bias f4 [32]
0.00049976417 0.00061149127 -0.0002801035 -0.0003527036 0.0008226594 0.0017045162 -0.0005346758 8.081466e-05
-0.00043113445 -0.00033103506 0.000110190005 -0.00043179616 0.0005896936 0.00041830307 0.0006961656 -0.0013694109
0.0011388407 -0.0007813244 0.0008774618 -0.00024802212 0.00017767033 0.00052504725 0.00042993683 -0.00026510787
0.0009796293 9.907221e-05 0.0002076664 -0.00032908842 0.0043650293 0.0007812535 0.00090134464 0.001500345
00000000: 9b02 033a 7c4c 203a dbda 92b9 13eb b8b9
00000010: bda7 573a 136a df3a 7c29 0cba 0a7b a938
00000020: e309 e2b9 c68e adb9 cf15 e738 b362 e2b9
00000030: ab95 1a3a b04f db39 e27e 363a ce7d b3ba
00000040: 2745 953a cbd1 4cba 7705 663a f708 82b9
00000050: 044d 3a39 53a3 093a 2569 e139 2dfe 8ab9
00000060: e866 803a fdc4 cf38 06c1 5939 8089 acb9
00000070: 8508 8f3b 09cd 4c3a 3748 6c3a 39a7 c43a

resnet_embedding.bn_node.running_mean f4 [32]
0.18917337 0.005584874 -0.0048704073 0.45340055 -0.12041468 -0.43531105 0.06589277 -0.39593345
0.32829118 0.22150782 -0.07160067 0.018080803 -0.18412195 0.057344873 -0.12134007 0.0870971
0.032503564 -0.29723817 -0.14279714 0.2551395 -0.38459542 0.11023476 0.20025674 -0.053289562
0.20933557 -0.11693394 -0.2787692 -0.016902141 -0.19940948 0.04699449 0.48852763 0.07982284
00000000: aab6 413e 5201 b73b f097 9fbb 1e24 e83e
00000010: f99b f6bd 17e1 debe caf2 863d cab7 cabe
00000020: c815 a83e f2d2 623e 5fa3 92bd 311e 943c
00000030: 778a 3cbe 75e2 6a3d 2581 f8bd f75f b23d
00000040: 7522 053d 9a2f 98be 6a39 12be a5a1 823e
00000050: b1e9 c4be c3c2 e13d 1a10 4d3e 2846 5abd
00000060: 105c 563e 107b efbd d6ba 8ebe 5c76 8abc
00000070: 0032 4cbe 4b7d 403d 4b20 fa3e 287a a33d

resnet_embedding.bn_node.running_var f4 [32]
0.00990389 0.007964066 0.005180087 0.012352118 0.00720312 0.014266688 0.017697224 0.024727076
0.012674598 0.007877238 0.008156469 0.008817139 0.013443688 0.014525634 0.015378942 0.018716872
0.008006179 0.022302827 0.021141684 0.010172536 0.020267896 0.0132539375 0.012270647 0.009848897
0.010536652 0.018300343 0.012609875 0.010826964 0.014475057 0.033734858 0.018965567 0.015826544
00000000: ed43 223c b77b 023c b8bd a93b 8a60 4a3c
00000010: 2608 ec3b d4be 693c c5f9 903c 7090 ca3c
00000020: 1ea9 4f3c 880f 013c b6a2 053c c375 103c
00000030: ea42 5c3c edfc 6d3c f5f7 7b3c 2054 993c
00000040: 592c 033c 6bb4 b63c 5331 ad3c b5aa 263c
00000050: dc08 a63c 0b27 593c d30a 493c 455d 213c
00000060: eca1 2c3c 9aea 953c a699 4e3c 9463 313c
00000070: ca28 6d3c 902d 0a3d ad5d 9b3c aba6 813c

resnet_embedding.edge_embedding.weight f4 [32, 4]
-0.23586906 -0.098047234 0.069917455 -0.29623806 0.1946185 -0.04517709 -0.13306594 0.12974685
0.18754174 -0.2708182 -0.0050467285 -0.12318582 0.26033145 0.1990476 0.22864236 -0.279494
-0.075669125 0.10317459 0.25497895 -0.13679548 -0.21856752 -0.1703318 -0.0022371896 -0.19757193
-0.15671575 -0.20848621 -0.14817405 -0.15321794 -0.18217848 0.014713204 -0.2772974 -0.27643812
0.04562047 0.014995218 0.19169685 0.18269075 -0.102487355 -0.2687498 -0.20127395 -0.16931875
-0.20956145 -0.25637865 -0.09867033 0.23606358 -0.033566143 0.17082083 -0.013447706 -0.2518412
0.10883409 -0.22341901 0.14831932 0.14647982 0.118092455 0.2917054 0.20855571 0.2035731
0.021421533 0.17559035 0.20351528 -0.14932626 -0.2117388 0.18639497 0.014456474 0.12882599
0.2697854 -0.09094392 -0.1913786 0.046945922 -0.09721753 -0.20186462 0.17598599 0.06551894
0.27171123 0.020183047 0.18767266 -0.09028379 -0.2877297 -0.021937087 -0.14686595 0.27374426
-0.29361925 0.0030782558 0.2939958 -0.20614137 -0.17706543 -0.22442402 -0.005345581 0.16616422
0.14344327 0.2121322 -0.27625576 0.096520066 0.1497057 0.13809639 -0.15481934 0.20750059
0.0847874 -0.2911222 -0.2254799 -0.07081514 0.17616509 0.15384592 0.008754719 -0.114545606
0.035828386 0.24329261 0.11214701 -0.009101397 0.022880487 -0.027907245 0.0041314755 0.006510447
-0.20095217 0.24446788 0.19332351 0.2958158 -0.006328908 -0.2812282 0.14549708 0.15295695
-0.09873092 -0.19865339 0.13666925 -0.16857421 0.1762752 -0.119589634 -0.194678 0.0075043137
00000000: a987 71be fdcc c8bd e230 8f3d 84ac 97be
00000010: 124a 473e 9d0b 39bd 7042 08be 5cdc 043e
00000020: f10a 403e afa8 8abe 075f a5bb d948 fcbd
00000030: 2a4a 853e 22d3 4b3e 3921 6a3e d619 8fbe
00000040: 6af8 9abd 334d d33d 9a8c 823e 1d14 0cbe
00000050: 2ad0 5fbe 766b 2ebe d09d 12bb 4c50 4abe
00000060: 187a 20be 697d 55be f0ba 17be 2ae5 1cbe
00000070: ff8c 3abe a60f 713c edf9 8dbe 4c89 8dbe
00000080: 88dc 3a3d 81ae 753c 2e4c 443e 4913 3b3e
00000090: e4e4 d1bd 9399 89be c21a 4ebe e561 2dbe
000000a0: 4797 56be 1044 83be ac13 cabd a7ba 713e
000000b0: a77c 09bd a8eb 2e3e c453 5cbc 54f1 80be
000000c0: 68e4 de3d f4c7 64be 05e1 173e cefe 153e
000000d0: 75da f13d 695a 953e a18f 553e 7775 503e
000000e0: 367c af3c f5cd 333e 4f66 503e fce8 18be
000000f0: 0ed2 58be 53de 3e3e d9da 6c3c f6ea 033e
00000100: 5021 8a3e ce40 babd c0f8 43be 5e4a 403d
00000110: fc19 c7bd 99b5 4ebe ac35 343e cb2e 863d
00000120: bc1d 8b3e eb56 a53c 432d 403e b5e6 b8bd
00000130: 4f51 93be 68b5 b3bc 0764 16be 3528 8c3e
00000140: 4355 96be 90bc 493b 9e86 963e b916 53be
00000150: a450 35be 69cf 65be fc29 afbb f426 2a3e
00000160: cbe2 123e 2f39 593e 6571 8dbe 50ac c53d
00000170: 734c 193e 2469 0d3e f688 1ebe 097b 543e
00000180: 04a5 ad3d f80d 95be 34e4 66be 8707 91bd
00000190: 9f64 343e c989 1d3e f46f 0f3c e396 eabd
000001a0: c9c0 123d b321 793e 55ad e53d 071e 15bc
000001b0: dc6f bb3c bc9d e4bc 5461 873b 9655 d53b
000001c0: 68c6 4dbe ca55 7a3e 99f6 453e 2b75 973e
000001d0: ba62 cfbb 25fd 8fbe 30fd 143e bfa0 1c3e
000001e0: 7033 cabd cb6b 4bbe 06f3 0b3e b89e 2cbe
000001f0: 7c81 343e 69eb f4bd ab59 47be bfe6 f53b

resnet_embedding.edge_embedding.bias f4 [32]
0.1858501 0.041708227 0.117149815 0.01862427 -0.117554605 -0.00029467064 -0.1679261 0.26987597
-0.025172034 -0.09874627 0.17361704 0.24431461 -0.21402216 0.06466078 -0.13499841 -0.16499348
0.28164348 -0.029735675 0.24027285 -0.08829659 0.021746319 0.060481347 0.12423812 0.11218876
0.29174653 0.05344426 -0.16858035 -0.2941397 -0.07399964 0.16631177 -0.10800795 0.0031796375
00000000: 7d4f 3e3e 3fd6 2a3d 3eec ef3d ed91 983c
00000010: 78c0 f0bd 067e 9ab9 d2f4 2bbe 2f2d 8a3e
00000020: 9535 cebc 7c3b cabd aac8 313e 9c2d 7a3e
00000030: a028 5bbe df6c 843d 063d 0abe 0df4 28be
00000040: 9333 903e 3b98 f3bc 160a 763e d8d4 b4bd
00000050: 5625 b23c 4abb 773d 8e70 fe3d 38c3 e53d
00000060: cd5f 953e 5ee8 5a3d 54a0 2cbe 7b99 96be
00000070: 208d 97bd a24d 2a3e 4633 ddbd 7761 503b

resnet_embedding.bn_edge.weight f4 [32]
0.5936351 0.593621 0.5936369 0.5936315 0.59363604 0.59362626 0.59362745 0.59363264
0.59362966 0.59363055 0.5936242 0.59363425 0.5936322 0.59362644 0.5936306 0.59363675
0.5936391 0.5936267 0.59363014 0.5936271 0.5936289 0.59363246 0.59362817 0.59363097
0.59363794 0.59363246 0.59362984 0.5936254 0.5936351 0.5936313 0.5936305 0.59362304
00000000: 78f8 173f 8cf7 173f 96f8 173f 3cf8 173f
00000010: 88f8 173f e4f7 173f f8f7 173f 4ff8 173f
00000020: 1df8 173f 2cf8 173f c1f7 173f 6af8 173f
00000030: 48f8 173f e7f7 173f 2df8 173f 94f8 173f
00000040: bbf8 173f ebf7 173f 25f8 173f f2f7 173f
00000050: 10f8 173f 4cf8 173f 04f8 173f 33f8 173f
00000060: a8f8 173f 4cf8 173f 20f8 173f d6f7 173f
00000070: 78f8 173f 39f8 173f 2bf8 173f aef7 173f

resnet_embedding.bn_edge.bias f4 [32]
1.03232105e-05 -5.377556e-06 -7.3808733e-06 -1.9258293e-06 6.9370735e-06 -5.5031055e-06 -3.8416474e-06 3.1993256e-06
-1.8100284e-06 3.658352e-06 -1.0028331e-05 -3.4559054e-07 9.4592633e-07 -4.576022e-06 -1.2066174e-06 3.6856559e-06
2.7960625e-06 -1.3829829e-06 5.7338593e-06 -1.0787022e-05 -1.1831944e-05 -1.978568e-06 2.3624566e-06 2.4681372e-06
3.2887715e-06 3.1411287e-06 -4.732378e-06 -5.3793206e-06 6.726136e-06 -3.0083481e-06 9.554122e-07 -2.6311045e-06
00000000: da31 2d37 db70 b4b6 38a9 f7b6 7f3d 01b6
00000010: 02c5 e836 51a7 b8b6 80e7 80b6 ffb3 5636
00000020: 1af0 f2b5 0282 7536 5b3f 28b7 9a89 b9b4
00000030: 90eb 7d35 bb8b 99b6 0ff3 a1b5 1657 7736
00000040: fda3 3b36 ee9e b9b5 7a65 c036 e8f9 34b7
00000050: d081 46b7 8ac7 04b6 b28a 1e36 46a2 2536
00000060: aab4 5c36 2ecc 5236 d1ca 9eb6 0380 b4b6
00000070: 11b1 e136 07e3 49b6 b73b 8035 0892 30b6

resnet_embedding.bn_edge.running_mean f4 [32]
-0.02515217 0.08485372 0.053647593 0.3343596 0.0016138391 -0.25709578 -0.47886646 -0.03513622
0.1513549 -0.4423508 -0.08206776 0.25318608 -0.1571264 0.4403776 0.046704493 -0.15302242
0.29458568 -0.08121636 0.48771456 -0.284341 -0.029073419 -0.12462769 0.18795727 0.23026873
0.05131698 0.2141935 0.037269074 -0.29218468 0.10688925 0.1275443 -0.23011233 -0.062429365
00000000: ec0b cebc cac7 ad3d 94bd 5b3d 2e31 ab3e
00000010: 7487 d33a 0fa2 83be fc2d f5be ffea 0fbd
00000020: c7fc 1a3e ce7b e2be 2413 a8bd 9ba1 813e
00000030: bee5 20be 2c79 e13e 364d 3f3d e9b1 1cbe
00000040: efd3 963e c354 a6bd b9b5 f93e 2595 91be
00000050: 612b eebc cd3c ffbd df77 403e 91cb 6b3e
00000060: c131 523d 8a55 5b3e 75a7 183d 3b99 95be
00000070: c0e8 da3d f99a 023e 91a2 6bbe efb5 7fbd

resnet_embedding.bn_edge.running_var f4 [32]
0.022729272 0.00545022 0.0040279026 0.059837136 0.015027325 0.020453552 0.02684506 0.028594464
0.010697771 0.033771455 0.040705815 0.013138036 0.0044956617 0.040402744 0.021590116 0.0031807711
0.0042959475 0.003970952 0.022655845 0.03272447 0.016002635 0.020935077 0.0074375165 0.011705611
0.020129943 0.0132302055 0.015016336 2.382597e-05 0.019429727 0.0074651577 0.009215047 0.004544085
00000000: bd32 ba3c c297 b23b 7ffc 833b c917 753d
00000010: 2b35 763c 358e a73c 2cea db3c f03e ea3c
00000020: b445 2f3c f053 0a3d 24bb 263d eb40 573c
00000030: 5850 933b 597d 253d c1dd b03c 7c74 503b
00000040: 05c5 8c3b c21e 823b c098 b93c 180a 063d
00000050: f517 833c 0a80 ab3c 69b6 f33b e4c8 3f3c
00000060: 8de7 a43c 81c3 583c 1407 763c e2dd c737
00000070: 172b 9f3c 489e f43b b5fa 163c 8ce6 943b

graph_transformer_layer.0.attention.Q.weight f4 [32, 32]
0.048390854 -0.09615548 -0.09373264 0.009313281 -0.012295442 0.10090702 0.012434743 -0.000160291
0.02713073 0.085828446 0.04711342 0.046375155 0.07076054 -0.015523971 0.037410416 0.02692443
0.07852062 0.044935565 0.01578979 0.04140635 0.10101817 -0.0064574447 -0.011039424 -0.0015902459
-0.0055184783 0.04594982 0.050503395 -0.0596617 0.003460515 0.035153054 0.051820535 0.060488295
-0.015203697 0.09994363 -0.016162861 -0.0992265 0.041215047 0.009710829 0.09861046 0.036497783
0.00017041492 0.040670328 0.027718194 0.09321669 0.035567947 0.046183504 0.026557462 -0.05732305
-0.038718387 0.02401343 -0.10412734 -0.013789995 0.0419891 -0.100916356 0.046940785 0.0075605353
0.041390505 -0.07202409 -0.03856471 -0.07637593 0.012657045 -0.008946774 -0.09830913 -0.07475436
-0.013783327 0.08443867 -0.025227183 -0.051041827 -0.061329335 0.06196044 0.084228866 0.05822783
-0.04115634 -0.050429646 -0.08868629 -0.099910714 -0.042483415 0.05162037 -0.04427785 -0.039946236
0.09500601 0.020051068 0.10158387 0.004789544 0.081518315 -0.03961906 0.07388264 -0.027653571
-0.04327941 0.07396293 0.05135707 0.061703272 0.02580875 -0.06291062 0.07226497 -0.044982597
-0.012931314 0.0626112 -0.100714 0.104332715 -0.10407841 0.08338096 -0.096804306 -0.07638059
-0.05485839 0.041921634 -0.00890408 0.027391013 0.09673491 0.059793822 0.093543954 0.06988137
0.07270752 -0.084578626 0.10342774 0.02555285 0.049130883 -0.010627468 0.019753458 -0.034744952
0.07640549 -0.07276831 -0.09104171 0.03268749 0.010992158 0.053268783 0.10304008 -0.019140158
0.027397089 0.025381457 0.10134039 -0.026305526 -0.03311351 0.098109655 -0.00625834 0.064508565
0.09233022 -0.09759057 -0.0826589 -0.0007296028 -0.07332974 -0.10275884 -0.08689448 0.026833786
0.073795244 0.09263383 0.06275314 0.10396843 -0.06632122 -0.072297975 0.10298885 0.05907106
-0.044208143 -0.09926126 0.0054204003 0.08845353 0.030119691 -0.061381202 0.0129669355 -0.09708897
0.06157642 0.032897815 -0.011726009 -0.085701816 -0.010664096 0.049528882 0.01303232 0.008949994
-0.030257234 -0.059946924 -0.103147134 0.0027080504 -0.04156769 0.05107718 -0.09361614 0.100187264
0.010635513 -0.09245242 0.039794248 -0.0954114 -0.0025973918 -0.04806777 0.05967011 0.08599712
-0.03818847 -0.04346128 0.019297536 -0.10127962 -0.010316978 0.04269718 -0.006520838 -0.083274126
-0.016018715 -0.025538433 -0.053564917 -0.047638953 0.026652325 -0.017705297 0.031158658 0.09711924
0.09163604 -0.09570885 -0.074103974 0.041276783 0.0874101 0.09971426 0.037110865 0.048784684
0.08872208 0.006823054 -0.06338778 -0.064005055 0.04995987 0.09080866 0.010506775 -0.06419602
0.07816653 0.06519188 0.06362024 -0.08174554 0.09297257 -0.06989779 -0.07578186 0.072723806
-0.09448428 -0.009985319 0.0521179 0.06707121 0.09504554 0.06917744 0.0054901266 0.06533227
0.06968568 -0.056499027 0.059937295 -0.041824516 0.09599571 -0.0740391 0.017614909 -0.088866346
0.008217025 -0.016262952 -0.10098202 -0.014245095 0.028451191 0.009273313 0.100330405 0.06768306
0.026553046 0.031159554 -0.03573211 0.10477503 -0.09931497 0.07808304 -0.016393498 -0.041808542
00000000: 7d35 463d 2aed c4bd e6f6 bfbd bb96 183c
00000010: d272 49bc 57a8 ce3d 18bb 4b3c ca13 28b9
00000020: 4441 de3c d3c6 af3d 00fa 403d e0f3 3d3d
00000030: e7ea 903d 4158 7ebc aa3b 193d 9f90 dc3c
00000040: 6bcf a03d 5b0e 383d 9759 813c b499 293d
00000050: 9de2 ce3d f998 d3bb b3de 34bc cc6f d0ba
00000060: 5ad4 b4bb e135 3c3d a6dc 4e3d d45f 74bd
00000070: cfc9 623b a6fc 0f3d c541 543d 93c2 773d
00000080: ed18 79bc 3faf cc3d fa67 84bc 4337 cbbd
00000090: 1cd1 283d 2b1a 1f3c 48f4 c93d b37e 153d
000000a0: 68b1 3239 ee95 263d 4411 e33c 64e8 be3d
000000b0: b2af 113d ea2a 3d3d 098f d93c 93cb 6abd
000000c0: 2c97 1ebd d0b7 c43c b740 d5bd 6eef 61bc
000000d0: c3fc 2b3d 3cad cebd fb44 403d 5ebe f73b
000000e0: 1789 293d 5e81 93bd 08f6 1dbd fc6a 9cbd
000000f0: 7f5f 4f3c 7d95 12bc 4c56 c9bd d018 99bd
00000100: 77d3 61bc 2eee ac3d 3da9 cebc 3c11 51bd
00000110: 7834 7bbd 3bca 7d3d 2f80 ac3d 4e80 6e3d
00000120: 8d93 28bd 518f 4ebd 28a1 b5bd fd9d ccbd
00000130: 1703 2ebd e26f 533d b15c 35bd aa9e 23bd
00000140: 8392 c23d 2342 a43c 340b d03d 9bf1 9c3b
00000150: 13f3 a63d 9847 22bd c84f 973d be89 e2bc
00000160: c045 31bd e079 973d cb5b 523d 92bc 7c3d
00000170: df6c d33c 48d7 80bd a8ff 933d ac3f 38bd
00000180: dddd 53bc 4d3a 803d 2443 cebd 64ac d53d
00000190: 1027 d5bd a3c3 aa3d 5641 c6bd 6d6d 9cbd
000001a0: 31b3 60bd 05b6 2b3d 6be2 11bc 1e63 e03c
000001b0: f41c c63d 5eea 743d f993 bf3d f71d 8f3d
000001c0: aee7 943d 8f37 adbd ecd1 d33d 3654 d13c
000001d0: 773d 493d d51e 2ebc 01d2 a13c b950 0ebd
000001e0: 7b7a 9c3d 8d07 95bd 1374 babd 51e3 053d
000001f0: 7418 343c 5e30 5a3d ad06 d33d d2cb 9cbc
00000200: dc6f e03c c6ec cf3c 8d8b cf3d b07e d7bc
00000210: 08a2 07bd b7ed c83d c312 cdbb 111d 843d
00000220: a017 bd3d 91dd c7bd 1249 a9bd d142 3fba
00000230: e72d 96bd 3a73 d2bd bcf5 b1bd 87d2 db3c
00000240: f621 973d ceb6 bd3d b884 803d 66ed d43d
00000250: 6bd3 87bd f610 94bd d1eb d23d 7ff4 713d
00000260: 9913 35bd 7d49 cbbd 9d9d b13b 2027 b53d
00000270: 92bd f63c db6a 7bbd 4573 543c 95d6 c6bd
00000280: 8e37 7c3d dcbf 063d 721e 40bc 6f84 afbd
00000290: 76b8 2ebc ccde 4a3d 8385 553c ffa2 123c
000002a0: 05de f7bc e88a 75bd ce3e d3bd 8c79 313b
000002b0: e242 2abd 4e36 513d d2b9 bfbd fb2e cd3d
000002c0: 9340 2e3c b257 bdbd 4bff 223d 0d67 c3bd
000002d0: 0139 2abb b6e2 44bd a568 743d 421f b03d
000002e0: 836b 1cbd 7504 32bd de15 9e3c b06b cfbd
000002f0: 8b08 29bc 3de3 2e3d c1ac d5bb a08b aabd
00000300: ae39 83bc fa35 d1bc e366 5bbd 1021 43bd
00000310: fa55 da3c b30a 91bc 7140 ff3c 74e6 c63d
00000320: adab bb3d 0003 c4bd d3c3 97bd d811 293d
00000330: 1104 b33d fd36 cc3d 9001 183d 73d2 473d
00000340: ecb3 b53d ed93 df3b 74d1 81bd 1515 83bd
00000350: b8a2 4c3d e4f9 b93d 9c24 2c3c 3479 83bd
00000360: c615 a03d 5283 853d 544b 823d 356a a7bd
00000370: 6768 be3d 9326 8fbd 8533 9bbd 38f0 943d
00000380: f980 c1bd 7799 23bc 9479 553d a15c 893d
00000390: 3ca7 c23d e7ac 8d3d 85e6 b33b edcc 853d
000003a0: 5eb7 8e3d 866b 67bd cf80 753d 2f50 2bbd
000003b0: 6699 c43d d0a1 97bd 244d 903c 8fff b5bd
000003c0: b3a0 063c e239 85bc a9cf cebd 4264 69bc
000003d0: 7912 e93c 18ef 173c 077a cd3d 6b9d 8a3d
000003e0: c685 d93c 5242 ff3c d55b 12bd 4a94 d63d
000003f0: a665 cbbd 00ea 9f3d a84b 86bc 6f3f 2bbd

graph_transformer_layer.0.attention.Q.bias f4 [32]
-0.016612517 -0.0017285749 0.09224055 -0.08946892 -0.007897847 0.042261314 -0.043404426 -0.021648891
0.10005595 -0.037457116 -0.008994105 0.03291194 -0.079333514 0.06837889 -0.08771327 -0.0027105152
0.0275651 0.009382693 -0.02386923 0.015028108 -0.052779023 0.09219118 0.03123098 0.021912444
-0.04662333 0.03699985 0.048460234 -0.08837079 0.08158815 0.10387122 -0.035352726 -0.01859196
00000000: f916 88bc 5991 e2ba 9de8 bc3d 7b3b b7bd
00000010: f965 01bc 331a 2d3d d7c8 31bd 0459 b1bc
00000020: 22ea cc3d a26c 19bd 035c 13bc acce 063d
00000030: 9c79 a2bd 3b0a 8c3d 04a3 b3bd e6a2 31bb
00000040: 34d0 e13c deb9 193c 6789 c3bc 7438 763c
00000050: d12e 58bd bbce bc3d 1dd8 ff3c ba81 b33c
00000060: 1bf8 3ebd 288d 173d 3d7e 463d bffb b4bd
00000070: b017 a73d 6fba d43d 05ce 10bd 2b4e 98bc

graph_transformer_layer.0.attention.K.weight f4 [32, 32]
-0.085190654 0.047365114 0.022267664 -0.091819294 -0.036881622 -0.058654975 -0.09273244 -0.023813851
-0.030065248 -0.087088786 -0.029400608 -0.04699832 0.05936272 0.023602525 -0.01987437 0.028846892
0.005115846 -0.020317467 -0.09633961 0.06811591 0.08879598 0.103678785 0.036070403 0.025424615
0.018867016 -0.06274488 0.040757626 0.038866885 0.101887435 -0.05853846 -0.02684112 -0.09937378
0.010239511 -0.071438275 0.04129281 0.05927096 0.04843512 -0.03089588 0.084559396 0.005369197
-0.09748922 0.10419507 -0.09898285 0.061670337 -0.09989152 -0.10353512 0.029538522 -0.07416887
-0.08917168 -0.005802209 0.0027869886 -0.09936151 -0.010285621 -0.069386534 0.03288707 0.1031117
0.06090089 0.04625712 -0.020700317 0.013624285 -0.10020151 0.068403885 -0.02440784 -0.010072078
0.0055603567 0.020748513 -0.054776795 -0.005382557 -0.04024292 -0.057509065 -0.040484108 0.101949014
-0.005956765 -0.047158737 0.012383339 0.033358388 -0.09067811 -0.014165407 -0.022152897 -0.05065806
0.04672385 0.075879514 0.029074786 0.047749136 0.064419985 -0.016849956 0.034393977 -0.02957288
-0.014806218 -0.008762219 0.08715489 0.08453223 0.01646815 0.059727915 0.06506265 -0.09258587
-0.04062074 -0.09134543 -0.05838001 -0.10022868 -0.038555793 0.06974485 -0.049774785 -0.06434248
0.09176455 0.027995635 0.007697318 -0.018052218 0.0030561036 -0.09538021 -0.04759292 0.063234314
0.019035913 0.09036957 0.034828193 -0.03125592 -0.097808376 0.10303295 0.030560413 0.03492461
0.07553918 -0.043524653 -0.003103172 -0.018377919 0.08563896 -0.0078636035 -0.05901014 -0.09615804
0.042816263 0.08902441 -0.09876612 -0.032381527 0.030396711 -0.031013977 -0.07862938 -0.035337694
-0.032175094 -0.024719726 0.09642683 0.08663928 0.09782883 -0.0109757325 -0.027652523 -0.07069964
-0.0836392 0.09350854 0.0010416639 -0.10423301 -0.008288052 -0.10062501 0.048281584 0.08943295
0.037911486 0.04318829 0.04766033 0.009780428 0.08610244 -0.029949427 -0.10005374 0.035937432
-0.068633825 0.07168423 0.02381356 0.034064148 -0.08922702 -0.03310607 -0.014462023 -0.011697331
0.0370807 0.090436384 0.08124667 -0.042329077 -0.032709606 -0.076929785 -0.026689963 0.04185841
-0.03750537 -0.0098711485 -0.04157038 -0.04528502 -0.07405266 -0.013806107 -0.02419506 -0.06881526
0.017323544 0.026900124 0.028254779 -0.08395529 0.092943855 0.09752521 -0.10166047 -0.079895765
-0.042094752 -0.0399279 9.485579e-05 0.032891452 0.003471974 -0.024046525 0.006156728 0.10238516
0.0070974627 -0.06572833 -0.044018578 0.03455762 0.055450846 0.08413148 -0.040876392 0.03933036
0.001544805 0.036664404 0.03203287 -0.004210354 0.012596605 -0.07390809 -0.056476414 0.061019566
-0.022860514 0.006303094 0.03026732 -0.09217467 0.014826064 0.09156018 0.0105190845 0.04210054
-0.10416441 -0.09804019 -0.050060228 -0.03563476 0.03864514 0.010006751 -0.09250194 0.062733755
-0.059754074 -0.09279854 -0.035868358 0.024278194 0.08936749 -0.028439732 -0.025574766 -0.02967955
0.023858985 -0.08277715 0.038398363 -0.10400154 -0.016781868 0.1004717 0.0149322925 0.07921678
0.081784725 0.02526224 -0.06946667 -0.014135673 0.0505942 -0.102639146 0.028876884 -0.036059994
00000000: 7078 aebd ec01 423d ad6a b63c c10b bcbd
00000010: 2f11 17bd 3340 70bd 81ea bdbd 4415 c3bc
00000020: 654b f6bc 9b5b b2bd 8bd9 f0bc 4f81 40bd
00000030: 5326 733d 155a c13c 93cf a2bc 5150 ec3c
00000040: d4a2 a73b d170 a6bc b44d c5bd 5b80 8b3d
00000050: abda b53d 8b55 d43d 8fbe 133d 4847 d03c
00000060: 008f 9a3c 6380 80bd 78f1 263d e232 1f3d
00000070: 5caa d03d 06c6 6fbd e9e1 dbbc 7b84 cbbd
00000080: 9fc3 273c 3b4e 92bd a622 293d 1bc6 723d
00000090: e863 463d 5b19 fdbc 7a2d ad3d 17f0 af3b
000000a0: 6ea8 c7bd 3a64 d53d 85b7 cabd 099a 7c3d
000000b0: ed93 ccbd 390a d4bd c5fa f13c d9e5 97bd
000000c0: a49f b6bd 7520 bebb e9a5 363b 0c7e cbbd
000000d0: 0585 28bc 871a 8ebd 98b4 063d 3a2c d33d
000000e0: 3673 793d 1b78 3d3d b693 a9bc 6538 5f3c
000000f0: 7336 cdbd 5617 8c3d f3f2 c7bc 5b05 25bc
00000100: a733 b63b c9f8 a93c a25d 60bd 2960 b0bb
00000110: c3d5 24bd a08e 6bbd aad2 25bd a5ca d03d
00000120: f730 c3bb 8529 41bd 7de3 4a3c cea2 083d
00000130: 72b5 b9bd 0616 68bc fe79 b5bc d37e 4fbd
00000140: 8261 3f3d b866 9b3d 3f2e ee3c 9994 433d
00000150: a0ee 833d eb08 8abc b3e0 0c3d d342 f2bc
00000160: c895 72bc 698f 0fbc 437e b23d 3c1f ad3d
00000170: 37e8 863c 42a5 743d 913f 853d a99d bdbd
00000180: ef61 26bd 5013 bbbd e11f 6fbd b244 cdbd
00000190: aeec 1dbd 63d6 8e3d a5e0 4bbd fdc5 83bd
000001a0: 0def bb3d 1a57 e53c c939 fc3b 3fe2 93bc
000001b0: e948 483b b356 c3bd cbf0 42bd fe80 813d
000001c0: 34f1 9b3c ae13 b93d 02a8 0e3d 3506 00bd
000001d0: c24f c8bd f002 d33d d559 fa3c 1c0d 0f3d
000001e0: 49b4 9a3d e846 32bd 965e 4bbb 4a8d 96bc
000001f0: 7b63 af3d 58d6 00bc 9eb4 71bd 82ee c4bd
00000200: 1b60 2f3d 6e52 b63d e445 cabd 7ea2 04bd
00000210: 8602 f93c 0611 febc 7108 a1bd 42be 10bd
00000220: 08ca 03bd 0681 cabc 6e7b c53d ef6f b13d
00000230: 7b5a c83d 8fd3 33bc 8b87 e2bc f9ca 90bd
00000240: 074b abbd 6881 bf3d 7188 883a 1e78 d5bd
00000250: 9cca 07bc 7c14 cebd e9c2 453d 9f28 b73d
00000260: 1349 1b3d 34e6 303d 7a37 433d 173e 203c
00000270: 7a56 b03d 8058 f5bc fae8 ccbd 2133 133d
00000280: e48f 8cbd 2ecf 923d a814 c33c d986 0b3d
00000290: a8bc b6bd 3b9a 07bd 1ff2 6cbc 2aa6 3fbc
000002a0: efe1 173d b636 b93d a764 a63d 4161 2dbd
000002b0: 82fa 05bd 5d8d 9dbd e9a4 dabc b973 2b3d
000002c0: 3b9f 19bd 99ba 21bc b445 2abd c97c 39bd
000002d0: eca8 97bd 0333 62bc b834 c6bc 04ef 8cbd
000002e0: 1bea 8d3c a65d dc3c 9176 e73c c0f0 abbd
000002f0: 5959 be3d 4cbb c73d 5d33 d0bd 64a0 a3bd
00000300: 8c6b 2cbd 708b 23bd 51ed c638 30b9 063d
00000310: 0f8a 633b 38fd c4bc 61be c93b 50af d13d
00000320: d591 e83b 939c 86bd d34c 34bd 4a8c 0d3d
00000330: 6d20 633d 204d ac3d 016e 27bd df18 213d
00000340: 0e7b ca3a 6a2d 163d e634 033d 02f7 89bb
00000350: fe61 4e3c 205d 97bd d053 67bd a7ef 793d
00000360: f945 bbbc 2f8a ce3b 2cf3 f73c 13c6 bcbd
00000370: 05e9 723c e783 bb3d 3d58 2c3c 9e71 2c3d
00000380: 2654 d5bd 4cc9 c8bd f40b 4dbd c1f5 11bd
00000390: 5e4a 1e3d 5bf3 233c a871 bdbd 8e7a 803d
000003a0: b0c0 74bd 290d bebd b3ea 12bd 10e3 c63c
000003b0: 4d06 b73d 71fa e8bc 2c82 d1bc 8722 f3bc
000003c0: eb73 c33c 1187 a9bd 9a47 1d3d c2fe d4bd
000003d0: 217a 89bc 1bc4 cd3d 93a6 743c 683c a23d
000003e0: c07e a73d c2f2 ce3c 8b44 8ebd 4f99 67bc
000003f0: dd3b 4f3d 7934 d2bd 378f ec3c a5b3 13bd

graph_transformer_layer.0.attention.K.bias f4 [32]
0.010527707 0.104757845 -0.045415614 0.047810964 0.0008427283 -0.023290051 -0.065988146 0.096274234
-0.09693807 -0.025470356 0.104072824 -0.06089248 0.08132272 0.023896037 -0.012156653 0.08179032
0.06651647 0.074655965 0.08863206 0.0064098574 0.061991815 0.07185702 0.00869563 0.041414812
0.07715674 0.009684673 0.04953195 -0.064926125 0.098495916 -0.04595115 -0.030096108 -0.072473854
00000000: 677c 2c3c 488b d63d b905 3abd 6ed5 433d
00000010: 8aea 5c3a c7ca bebc cb24 87bd 6d2b c53d
00000020: 7887 c6bd 35a7 d0bc 2224 d53d 656a 79bd
00000030: 878c a63d 9fc1 c33c b32c 47bc af81 a73d
00000040: c939 883d 3ae5 983d ba84 b53d c809 d23b
00000050: 21eb 7d3d c629 933d 1e78 0e3c 94a2 293d
00000060: 5a04 9e3d 76ac 1e3c 04e2 4a3d fdf7 84bd
00000070: 3ab8 c93d 4637 3cbd 1d8c f6bc 2c6d 94bd

graph_transformer_layer.0.attention.V.weight f4 [32, 32]
0.050189696 -0.011926376 0.07784092 -0.0016553252 -0.054158926 -0.09574047 0.08048868 -0.06905647
0.05477885 -0.09300424 -0.041440498 0.094014704 0.010753894 -0.06201101 -0.046908684 -0.023283359
0.043797683 -0.0446239 -0.095793374 0.038700543 -0.087082885 0.0057737543 0.09406574 -0.084197424
-0.09463069 0.045911867 -0.07032773 -0.033752706 -0.10532442 0.028535232 0.097678974 0.01500275
0.025760159 0.09291694 0.072993256 0.0601965 0.0978468 0.02109859 -0.08559395 0.05109398
-0.03926387 0.03903278 0.02030766 0.007044612 0.070341624 -0.080671154 -0.073316224 0.018861134
0.041637003 -0.09625951 -0.059605982 0.024886644 0.07948253 0.06550168 0.03191175 0.051885776
-0.059106983 -0.092730775 0.06796996 0.040183388 0.050455697 -0.09896277 0.05718531 0.032869205
-0.02518159 0.023131523 0.08688421 -0.014129879 -0.053716548 -0.0008802533 0.06304938 0.023177493
0.01205751 -0.0784119 0.08600222 0.09231889 0.08560297 0.01141028 0.076545455 -0.044906214
-0.033424903 -0.046110403 0.07695222 -0.018349424 0.043038353 0.040535863 0.025840234 0.056210525
0.052890804 -0.067566514 -0.081041016 0.10272998 -0.0023871895 0.027517632 -0.06990042 -0.0961017
-0.044060655 -0.037633263 0.056302074 -0.024298305 -0.016120028 0.022849753 0.05067794 0.10605218
-0.04279285 0.019014971 -0.03169663 0.004829721 -0.08288156 -0.09289045 -0.07657044 0.039261844
-0.05968038 -0.029415844 0.0818245 0.05415957 -0.09157432 -0.02467753 0.03107162 -0.051655293
0.051134065 0.042364303 0.030533046 -0.07251551 -0.0294883 0.0276134 -0.03566434 -0.03440706
-0.07893695 0.023704905 -0.09273713 -0.06358011 0.022675999 -0.099463336 0.048941106 -0.036568236
-0.078530826 -0.034833986 0.0035651915 0.008313997 -0.021224916 -0.027995903 -0.074511066 0.04978628
0.06132175 -0.095822066 0.09675208 -0.04569871 -0.09553766 0.07127279 -0.073631026 0.09585867
-0.007684128 0.02040966 0.10469508 0.059558332 0.032076545 -0.0871932 -0.017350541 -0.018736279
0.07321767 -0.06658629 0.0867865 -0.020991264 0.032375503 0.0940584 0.0022494842 -0.04113607
0.08138607 -0.028969321 -0.04901449 -0.048572484 -0.0681702 -0.06753777 0.034218926 -0.07181025
0.07144453 0.10018282 0.080498576 -0.051813796 0.08544412 -0.004848558 -0.09270351 0.06260943
0.06552773 0.089616574 0.008195792 -0.0032058163 -0.06884412 0.045750257 -0.021878181 0.056240752
0.059125137 -0.077137806 -0.08935921 -0.09318022 0.03777345 0.04140562 0.042498104 -0.08207167
0.028477821 0.09558464 -0.07179702 0.006979334 0.018569846 0.005994529 -0.07030551 0.049317617
0.0027342916 -0.03497138 -0.03910911 -0.09195987 0.07759396 0.009878078 -0.044049162 0.050430767
0.08581226 0.03348327 0.066920035 0.022963293 -0.005526263 -0.07732335 -0.025591442 -0.052938297
0.024502968 -0.026296895 0.08017937 0.01545697 0.09444341 -0.071428664 -0.039819337 0.02352738
0.06014151 0.09853532 0.08573279 -0.028252138 -0.066054754 0.0012944487 0.07979168 0.00602745
-0.036395796 -0.043883048 -0.053702787 -0.030172614 0.09002846 -0.07942082 0.08451331 -0.08399834
-0.020029915 0.08371001 -0.060788956 -0.025820104 0.09325096 0.10191422 0.06969898 0.08114813
00000000: b693 4d3d d966 43bc 0f6b 9f3d 7ff7 d8ba
00000010: c0d5 5dbd 9413 c4bd 40d7 a43d 7b6d 8dbd
00000020: ca5f 603d 0279 bebd 83bd 29bd c88a c03d
00000030: 1a31 303c 42ff 7dbd 5223 40bd bebc bebc
00000040: 3365 333d 8dc7 36bd 512f c4bd 7684 1e3d
00000050: 8358 b2bd c331 bd3b 8aa5 c03d b36f acbd
00000060: bccd c1bd 150e 3c3d fc07 90bd 4740 0abd
00000070: 54b4 d7bd b8c2 e93c ea0b c83d 18ce 753c
00000080: f806 d33c 3d4b be3d 7d7d 953d 9b90 763d
00000090: e763 c83d f3d6 ac3c e14b afbd ec47 513d
000000a0: 27d3 20bd d6e0 1f3d 405c a63c 7dd6 e63b
000000b0: 450f 903d eb36 a5bd d126 96bd aa82 9a3c
000000c0: 908b 2a3d b523 c5bd 6725 74bd 13df cb3c
000000d0: bdc7 a23d bf25 863d e5b5 023d 2e86 543d
000000e0: 2a1a 72bd a2e9 bdbd d633 8b3d 5697 243d
000000f0: a2aa 4e3d feac cabd 253b 6a3d dca1 063d
00000100: 9f49 cebc 527e bd3c 59f0 b13d 0281 67bc
00000110: e205 5cbd cdc0 66ba 0920 813d bade bd3c
00000120: dd8c 453c 6b96 a0bd ef21 b03d b011 bd3d
00000130: 9c50 af3d 2ff2 3a3c ddc3 9c3d 94ef 37bd
00000140: 8de8 08bd 43de 3cbd 2099 9d3d 8851 96bc
00000150: fc48 303d ef08 263d e6ae d33c 023d 663d
00000160: 07a4 583d 5060 8abd d5f8 a5bd 1964 d23d
00000170: 6572 1cbb a86c e13c f427 8fbd f8d0 c4bd
00000180: f278 34bd 5625 1abd 019d 663d 3d0d c7bc
00000190: 260e 84bc 682f bb3c ac93 4f3d e331 d93d
000001a0: 8e47 2fbd 49c5 9b3c 53d4 01bd a342 9e3b
000001b0: cfbd a9bd 593d bebd f6d0 9cbd 07d1 203d
000001c0: 6a73 74bd 7ff9 f0bc 9a93 a73d 6dd6 5d3d
000001d0: 518b bbbd 8828 cabc e989 fe3c 8094 53bd
000001e0: f471 513d 3186 2d3d 7020 fa3c 0383 94bd
000001f0: 7391 f1bc 7f35 e23c c514 12bd 6bee 0cbd
00000200: b2a9 a1bd ca30 c23c f7ec bdbd 4a36 82bd
00000210: 04c3 b93c 6fb3 cbbd 7876 483d 93c8 15bd
00000220: c5d4 a0bd 15ae 0ebd fda5 693b 6e37 083c
00000230: e0df adbc aa57 e5bc 4299 98bd b3ec 4b3d
00000240: 842c 7b3d 5c3e c4bd f425 c63d 922e 3bbd
00000250: 40a9 c3bd 78f7 913d ddcb 96bd 8d51 c43d
00000260: 23cb fbbb 2932 a73c 606a d63d 70f3 733d
00000270: b262 033d 5992 b2bd b922 8ebc d37c 99bc
00000280: 25f3 953d 655e 88bd 1fbd b13d dff5 abbc
00000290: 2d9c 043d b1a1 c03d 156c 133b 4c7e 28bd
000002a0: bdad a63d 1251 edbc 6bc3 48bd f1f3 46bd
000002b0: d19c 8bbd 3e51 8abd 2529 0c3d 4111 93bd
000002c0: 8251 923d a62c cd3d 70dc a43d b43a 54bd
000002d0: 54fd ae3d a7e0 9ebb 56db bdbd 5f39 803d
000002e0: 6733 863d e588 b73d a547 063c ac18 52bb
000002f0: 25fe 8cbd 9f64 3b3d df39 b3bc b45c 663d
00000300: 332d 723d 6dfa 9dbd f601 b7bd 45d5 bebd
00000310: 55b8 1a3d f098 293d 7e12 2e3d 3115 a8bd
00000320: 524a e93c e1c1 c33d 510a 93bd e6b2 e43b
00000330: ca1f 983c c16d c43b 56fc 8fbd 4501 4a3d
00000340: cd31 333b 263e 0fbd e030 20bd 7555 bcbd
00000350: 95e9 9e3d a9d7 213c e56c 34bd 7e90 4e3d
00000360: 57be af3d c125 093d 5f0d 893d 841d bc3c
00000370: a715 b5bb b45b 9ebd 25a5 d1bc d4d5 58bd
00000380: 73ba c83c 966c d7bc 1535 a43d 3b3f 7d3c
00000390: 8c6b c13d 3149 92bd 9a19 23bd 7ebc c03c
000003a0: f256 763d e3cc c93d ac94 af3d 0771 e7bc
000003b0: b747 87bd 7eaa a93a d269 a33d ea81 c53b
000003c0: c213 15bd b6be 33bd 74f7 5bbd 8f2c f7bc
000003d0: d760 b83d 62a7 a2bd 5015 ad3d 5207 acbd
000003e0: c715 a4bc 2770 ab3d d7fd 78bd af84 d3bc
000003f0: 5cfa be3d 67b8 d03d 57be 8e3d fe30 a63d

graph_transformer_layer.0.attention.V.bias f4 [32]
0.10079358 -0.0019390217 -0.10037358 -0.008668612 -0.06488842 0.043730125 0.029276794 0.04659723
0.010751444 0.053423185 -0.037764393 -0.0978193 0.0038557725 -0.09896293 -0.027684722 -0.0211675
0.024108524 0.05848805 -0.071339145 0.019337347 0.030179126 -0.061422653 -0.008130966 0.090056434
0.00751416 -0.0653269 -0.02957593 -0.070939936 -0.10080461 -0.10257771 0.09644696 0.068502255
00000000: dd6c ce3d c626 feba aa90 cdbd cb06 0ebc
00000010: 38e4 84bd 5c1e 333d e3d5 ef3c bddc 3e3d
00000020: d326 303c 45d2 5a3d d6ae 1abd 7c55 c8bd
00000030: 21b1 7c3b 14ad cabd 12cb e2bc 7767 adbc
00000040: 3d7f c53c 2a91 6f3d 421a 92bd 5b69 9e3c
00000050: 373a f73c 5296 7bbd be37 05bc 826f b83d
00000060: 5839 f63b 1cca 85bd 3949 f2bc f548 91bd
00000070: a672 cebd 4314 d2bd fc85 c53d e94a 8c3d

graph_transformer_layer.0.attention.proj_e.weight f4 [32, 32]
-0.074428394 -0.09083862 0.04169519 -0.050844062 0.05487514 0.075982474 -0.026109409 -0.063772336
-0.054140355 -0.02560153 -0.057832055 -0.05636757 0.043285556 0.067779906 -0.022105075 -0.080519654
0.017946718 -0.05743688 0.029248333 0.0674888 0.05260544 -0.06571356 0.018392507 0.011677362
-0.047752727 -0.06291808 -0.06364498 -0.10028341 0.018350769 -0.04317793 0.039213296 0.06276
0.10467117 -0.066431955 -0.045230143 0.011802487 -0.0035172403 0.09108791 0.0023108176 0.0042043873
0.0035323312 -0.08408247 -0.004643111 0.05804357 0.0097213965 -0.006556691 -0.057426814 0.029602496
-0.05619596 -0.009130415 -0.06305925 0.08800744 0.06422025 -0.075345695 -0.10188483 -0.07701813
0.015989276 0.06728649 -0.024097782 0.051349077 -0.0806907 -0.061240125 0.100380965 0.09049144
0.011646499 -0.06590174 0.102335304 -0.05636537 0.08093319 -0.08238514 -0.1009534 -0.0016849394
-0.074666955 -0.001972097 -0.0062933164 0.07795248 0.07439266 0.03081076 0.06357648 0.10463647
0.029658213 -0.072278164 0.096518815 -0.0062585454 -0.08371981 -0.04684546 -0.046648882 0.016890392
0.032898277 0.0076702214 -0.07437347 -0.035301425 -0.005385223 0.059794266 0.078821234 -0.009915828
-0.08634797 0.101082504 0.012415085 0.07378076 -0.09561975 -0.02088395 -0.0977617 -0.0122887045
0.03677514 -0.011462245 -0.10003648 -0.0056464663 0.0534512 0.07749124 0.074493155 -0.05636144
-0.025485821 -0.042599775 0.057248548 0.08197518 -0.009313112 -0.064146936 0.09280631 -0.08571601
-0.08153141 0.05047882 0.022810016 0.083722726 -0.082489155 0.07402822 0.005107188 -0.063206635
-0.10061343 -0.011437547 -0.07571935 0.045887925 0.03619066 -0.06476183 -0.04691139 -0.03166011
0.102841154 0.075794846 -0.0090083 -0.040483 -0.026397716 -0.030016674 0.039885 -0.058354005
0.009410704 -0.067925125 -0.034580447 0.04078662 -0.011139098 -0.10388923 0.017618874 -0.030642174
0.085074395 0.010103381 -0.0657678 0.07920832 -0.0731012 0.047956325 -0.058939323 -0.0852577
0.07608297 -0.017509691 -0.016141644 0.08915447 0.009332442 -0.023675168 -0.0076280665 -0.10230295
-0.008614239 -0.08919667 -0.033757564 0.08286169 0.08511698 0.02790795 0.022279318 -0.036247477
-0.039049555 0.037534166 -0.0863005 -0.101679415 0.02100924 0.033665545 -0.020628 0.08954755
0.0018942988 -0.033549592 -0.02449199 -0.02647073 0.05032787 -0.070161864 -0.094682805 0.021051202
0.057997514 0.09185102 -0.042008568 -0.06400418 0.012470863 0.048554007 0.103741914 0.056938592
-0.019534983 0.038388286 0.06349324 0.004751662 -0.003303093 -0.025729092 0.10059027 -0.0152801005
-0.030513197 -0.09080448 -0.0038611942 0.08544748 -0.023033325 -0.09156219 0.06555915 -0.024259636
0.07379196 0.07845464 -0.05789435 -0.10447292 -0.07789372 0.057929464 0.050553218 0.087155454
0.030619849 0.09899983 0.08412187 -0.023231627 0.004869214 0.010216764 0.052955177 0.041777372
0.065170504 0.03865786 -0.032205842 -0.024146434 0.07746042 -0.0402061 -0.01696548 0.08116376
0.06820457 -0.09118683 0.032918256 -0.04128442 -0.067095846 -0.0069320365 -0.032985833 -0.04344381
-0.09091264 -0.064408205 0.08330241 0.06387119 0.0768555 -0.015802 -0.02084456 -0.026253298
00000000: ea6d 98bd 9909 babd 93c8 2a3d dd41 50bd
00000010: c1c4 603d b39c 9b3d 66e3 d5bc 129b 82bd
00000020: 47c2 5dbd 4dba d1bc 4ee1 6cbd aee1 66bd
00000030: 324c 313d 31d0 8a3d b415 b5bc 7de7 a4bd
00000040: ff04 933c ef42 6bbd 339a ef3c 9137 8a3d
00000050: cd78 573d d594 86bd e2ab 963c 6852 3f3c
00000060: 5d98 43bd 32db 80bd 4d58 82bd 6361 cdbd
00000070: 5a54 963c 57db 30bd 1f9e 203d 5188 803d
00000080: d75d d63d 7a0d 88bd 3e43 39bd 385f 413c
00000090: 8081 66bb 4c8c ba3d 1671 173b f5c4 893b
000000a0: af7e 673b 6e33 acbd 3d25 98bb 18bf 6d3d
000000b0: 7e46 1f3c 83d9 d6bb 6138 6bbd ef80 f23c
000000c0: bc2d 66bd bc97 15bc 3525 81bd 3f3d b43d
000000d0: e885 833d d84e 9abd fea8 d0bd aebb 9dbd
000000e0: f1fb 823c 80cd 893d b668 c5bc 6953 523d
000000f0: 2a41 a5bd edd6 7abd 8994 cd3d 9353 b93d
00000100: f5d0 3e3c 7ef7 86bd 2c95 d13d 60df 66bd
00000110: 4dc0 a53d 8ab9 a8bd a8c0 cebd 2fd9 dcba
00000120: fdea 98bd 4c3e 01bb 2a38 cebb 8da5 9f3d
00000130: 2e5b 983d d966 fc3c 6334 823d a54b d63d
00000140: c8f5 f23c 9306 94bd a8ab c53d 7c14 cdbb
00000150: 4b75 abbd 06e1 3fbd e612 3fbd b85d 8a3c
00000160: 58c0 063d 7b56 fb3b 1e51 98bd 3a98 10bd
00000170: 8676 b0bb d5ea 743d 076d a13d ff75 22bc
00000180: 34d7 b0bd 5804 cf3d a468 4b3c 5e1a 973d
00000190: 4ad4 c3bd d114 abbc 4937 c8bd 9056 49bc
000001a0: 87a1 163d 24cc 3bbc eddf ccbd fe05 b9bb
000001b0: a5ef 5a3d bab3 9e3d de8f 983d 41db 66bd
000001c0: a4c7 d0bc 1a7d 2ebd 747d 6a3d 9ae2 a73d
000001d0: 0696 18bc 785f 83bd 3c11 be3d e08b afbd
000001e0: f1f9 a6bd e1c2 4e3d 12dc ba3c d276 ab3d
000001f0: 13f0 a8bd 1b9c 973d 335a a73b 7b72 81bd
00000200: 6a0e cebd 8d64 3bbc bf12 9bbd faf4 3b3d
00000210: a83c 143d daa1 84bd 2826 40bd 08ae 01bd
00000220: 629e d23d 543a 9b3d 8c97 13bc 81d1 25bd
00000230: 0640 d8bc 87e5 f5bc 745e 233d 9c04 6fbd
00000240: 5a2f 1a3c 541c 8bbd 3aa4 0dbd df0f 273d
00000250: c380 36bc e0c3 d4bd 7555 903c 4c05 fbbc
00000260: 7c3b ae3d a788 253c 45b1 86bd f937 a23d
00000270: 15b6 95bd da6d 443d 5c6a 71bd 979b aebd
00000280: 63d1 9b3d 7c70 8fbc 7b3b 84bc 9e96 b63d
00000290: 19e7 183c 6df2 c1bc dcf4 f9bb 3684 d1bd
000002a0: bd22 0dbc beac b6bd 5f45 0abd 64b3 a93d
000002b0: d051 ae3d 379f e43c 1e83 b63c 3c78 14bd
000002c0: 6df2 1fbd 6dbd 193d 51be b0bd 4c3d d0bd
000002d0: 921b ac3c e2e4 093d 0dfc a8bc b564 b73d
000002e0: 1f4a f83a 4c6b 09bd 6da3 c8bc 25d9 d8bc
000002f0: 9924 4e3d 06b1 8fbd 0fe9 c1bd 9273 ac3c
00000300: cd8e 6d3d 631c bc3d 2d11 2cbd a014 83bd
00000310: 9752 4c3c 91e0 463d a476 d43d 7138 693d
00000320: d407 a0bc 093d 1d3d be08 823d d4b3 9b3b
00000330: b478 58bb d1c5 d2bc 4502 ce3d 6359 7abc
00000340: d0f6 f9bc b3f7 b9bd 170c 7dbb 17ff ae3d
00000350: 62b0 bcbc f584 bbbd e043 863d 25bc c6bc
00000360: 3d20 973d d4ac a03d a022 6dbd e6f5 d5bd
00000370: be86 9fbd 7247 6d3d e410 4f3d 8f7e b23d
00000380: 7ad6 fa3c 6cc0 ca3d 1648 ac3d 4150 bebc
00000390: ed8d 9f3b 3764 273c 87e7 583d c01e 2b3d
000003a0: 1d78 853d b457 1e3d 46ea 03bd bece c5bc
000003b0: 92a3 9e3d 27af 24bd 31fb 8abc 2f39 a63d
000003c0: d6ae 8b3d 29c0 babd 4bd5 063d da19 29bd
000003d0: 8c69 89bd 2326 e3bb 271c 07bd 23f2 31bd
000003e0: 6830 babd 73e8 83bd 749a aa3d e6ce 823d
000003f0: 6b66 9d3d 3273 81bc 36c2 aabc 2811 d7bc

graph_transformer_layer.0.attention.proj_e.bias f4 [32]
-0.023827037 0.002803932 -0.018460862 -0.01266648 -0.09225916 0.038603194 0.028071903 -0.09047541
-0.0008397252 0.021957813 0.024989346 0.014850123 -0.09627006 0.09292614 0.00512666 0.06444336
0.09384055 0.049205802 -0.07069213 -0.06630054 -0.0027976672 0.050541766 -0.005313335 0.019281864
0.0011625758 -0.08050342 -0.055283323 0.015959693 0.0070276875 0.05113268 0.10270853 0.084369205
00000000: eb30 c3bc 2cc2 373b 3c3b 97bc 1187 4fbc
00000010: 5ff2 bcbd 621e 1e3d 0cf7 e53c 2c4b b9bd
00000020: 0121 5cba dfe0 b33c 75b6 cc3c ee4d 733c
00000030: 3d29 c5bd 0f50 be3d 8bfd a73b e1fa 833d
00000040: 792f c03d 068c 493d 09c7 90bd 94c8 87bd
00000050: 1159 37bb e204 4f3d 7c1b aebb 00f5 9d3c
00000060: 9261 983a fade a4bd c470 62bd e7bd 823c
00000070: 8448 e63b 8070 513d da58 d23d c3c9 ac3d
