checkpoints/casp15_inhouse_full_v7_nogcpnet_fold6.ckpt (torch, 289983 bytes, 352 tensors)

resnet_embedding.node_embedding.weight f4 [16, 18]
-0.09493572 0.13063188 0.016906863 0.036534254 0.036834054 -0.11792975 -0.09189395 -0.16848505
-0.10713215 0.14801344 0.024497725 -0.0062776306 -0.11422323 0.13230239 0.14040044 -0.123575725
-0.0770203 -0.18905193 -0.095303915 0.1007836 -0.026206393 -0.07397274 -0.14871922 -0.07181621
0.07983524 -0.16859108 -0.044994082 -0.031947006 -0.0050413674 0.110774964 -0.13256103 0.12132523
-0.078705765 -0.044703707 0.091769435 0.0059086527 -0.03742253 0.12008439 -0.14375816 -0.010976188
-0.06089104 0.09038394 -0.03874681 0.052110188 -0.06333706 0.13632028 0.10518322 -0.10283483
-0.0706248 0.045555267 -0.11386806 -0.07206554 -0.17301878 0.016507411 -0.1492711 -0.045668684
-0.063541286 0.19840072 0.07820568 0.13874668 0.07183659 0.07187771 -0.0070977104 0.124423414
-0.17842934 0.16677526 -0.09546582 -0.0408329 0.12218154 0.007317016 -0.030840646 0.06597611
-0.11625115 0.049960423 0.037540384 0.13403195 -0.017539302 -0.045971088 0.03897765 -0.18566777
0.010003204 -0.15678872 -0.022723507 0.1469515 -0.07242352 -0.06966562 -0.115164414 0.10103885
0.10549223 -0.13282962 -0.06951909 -0.086969145 -0.052871965 0.021746729 -0.1585321 0.047057696
0.15825869 -0.020658508 0.06853937 0.118802965 0.046401978 0.02697114 0.09694071 0.011624787
-0.09192267 -0.07840337 0.0616804 -0.06388845 -0.01882432 -0.09907046 0.015888706 0.13680653
0.056698237 -0.08240342 -0.009911979 -0.020375974 0.023818584 0.03451865 0.12780192 0.12270208
-0.13576454 -0.15551542 0.008633574 -0.07719614 -0.00721223 0.044757567 -0.149129 0.14330678
0.07185656 0.17582038 -0.031508602 -0.0026854728 0.09928781 0.11068252 0.157234 0.020238725
-0.09015291 -0.15682308 0.029564489 0.0972796 0.16498914 0.044500034 0.045977306 -0.08014461
0.008570676 -0.049588196 0.078883775 -0.15790313 0.023134071 -0.04542308 -0.08485686 0.0119602475
-0.0107997125 -0.05907565 0.049053766 -0.050972525 -0.05446369 0.13005678 0.105302274 0.13608687
0.15626295 -0.14540441 0.176957 0.14289545 -0.16290496 0.03677959 0.024957705 -0.009465377
0.1824175 -0.06382937 0.00020455419 -0.016597785 -0.02821463 0.03986395 -0.08404459 0.16249472
-0.14053246 0.13935678 0.09464844 0.08559431 0.15066952 0.09242422 0.035852548 0.15757379
-0.13745715 -0.057600796 0.06316426 -0.023961604 0.14145577 -0.0049488074 0.10110732 0.03631942
0.05005413 0.023140008 -0.09317398 0.03208455 -0.101360075 -0.07343989 -0.048356984 0.090291336
-0.008481293 -0.0010359031 0.10147083 -0.018675793 -0.036865298 0.037905596 0.037696593 0.12836859
0.04109095 -0.10237882 0.12111709 0.119094394 0.12421764 0.008843812 0.13220683 0.15515663
0.054175105 -0.054931197 -0.017884867 0.05348636 -0.13913466 0.09514745 0.09177987 0.0618796
0.031358883 0.009628149 0.09693445 -0.14906326 0.032852445 -0.09630253 0.036786366 -0.09932281
-0.11247476 0.12848572 0.10350691 0.12452233 -0.07843365 -0.14136532 0.12006333 -0.04651371
0.020468108 -0.024526557 0.04870251 0.16767566 0.043874152 0.057262715 -0.004105642 -0.09185907
-0.13805467 0.014801441 -0.039470382 -0.14361499 0.12166599 0.021068249 0.10210275 0.07431712
00000000: a96d c2bd 5dc4 053e 4380 8a3c f1a4 153d
00000010: 4edf 163d 2785 f1bd e532 bcbd 5887 2cbe
00000020: 1a68 dbbd d690 173e 74af c83c 95b4 cdbb
00000030: deed e9bd 477a 073e 22c5 0f3e 4515 fdbd
00000040: d2bc 9dbd d496 41be b32e c3bd a267 ce3d
00000050: caae d6bc 057f 97bd da49 18be 6114 93bd
00000060: a980 a33d 24a3 2cbe b74b 38bd ddda 02bd
00000070: 0e32 a5bb fcdd e23d 14be 07be 5d79 f83d
00000080: 7d30 a1bd 3c1b 37bd 9df1 bb3d 5f9d c13b
00000090: 5e48 19bd ceee f53d 5735 13be 78d5 33bc
000000a0: e268 79bd 371b b93d fab4 1ebd 7e71 553d
000000b0: dcb6 81bd 8b97 0b3e 4d6a d73d 119b d2bd
000000c0: bca3 90bd 2998 3a3d a833 e9bd 1997 93bd
000000d0: d62b 31be 8d3a 873c 86da 18be 160f 3bbd
000000e0: ef21 82bd 8f29 4b3e 4d2a a03d 9c13 0e3e
000000f0: 101f 933d 9f34 933d e993 e8bb b4d1 fe3d
00000100: 2eb6 36be 22c7 2a3e 9583 c3bd 6640 27bd
00000110: 513a fa3d 94c3 ef3b 86a5 fcbc 7c1e 873d
00000120: 1515 eebd 4da3 4c3d f2c3 193d ac3f 093e
00000130: 95ae 8fbc 2e4c 3cbd 07a7 1f3d b11f 3ebe
00000140: 7be4 233c 398d 20be a626 babc 747a 163e
00000150: c852 94bd d9ac 8ebd 52db ebbd 75ed ce3d
00000160: 4f0c d83d 7d04 08be 0660 8ebd e11c b2bd
00000170: 4690 58bd 3226 b23c 3d56 22be 92bf 403d
00000180: 910e 223e 083c a9bc 5f5e 8c3d f84e f33d
00000190: 0010 3e3d 95f2 dc3c da88 c63d e475 3e3c
000001a0: f441 bcbd f291 a0bd 96a4 7c3d f3d7 82bd
000001b0: 7635 9abc 74e5 cabd 0829 823c 0317 0c3e
000001c0: 693c 683d 20c3 a8bd da65 22bc 84eb a6bc
000001d0: 311f c33c 6e63 0d3d 82de 023e 3a4b fb3d
000001e0: dc05 0bbe 6f3f 1fbe d573 0d3c 0319 9ebd
000001f0: 9254 ecbb b653 373d 46b5 18be 03bf 123e
00000200: 8829 933d 420a 343e 2a0f 01bd c2fe 2fbb
00000210: 6857 cb3d 84ad e23d f301 213e afcb a53c
00000220: 17a2 b8bd 3b96 20be 3a31 f23c 873a c73d
00000230: eaf2 283e ab45 363d b352 3c3d db22 a4bd
00000240: 056c 0c3c fe1c 4bbd d18d a13d 5cb1 21be
00000250: aa83 bd3c 8d0d 3abd 6fc9 adbd eaf4 433c
00000260: 47f1 30bc 4ff9 71bd 9aec 483d 91c8 50bd
00000270: 5115 5fbd 9b2d 053e b8a8 d73d 5b5a 0b3e
00000280: 6503 203e e5e4 14be 3734 353e 2f53 123e
00000290: 8fd0 26be 32a6 163d 1a74 cc3c ab14 1bbc
000002a0: a7cb 3a3e f9b8 82bd 997d 5639 14f8 87bc
000002b0: 5e22 e7bc 6248 233d 921f acbd 0465 263e
000002c0: bee7 0fbe 8bb3 0e3e 0bd7 c13d 124c af3d
000002d0: 1c49 1a3e e948 bd3d 1fda 123d 065b 213e
000002e0: 91c1 0cbe d0ee 6bbd 435c 813d 204b c4bc
000002f0: c8d9 103e 9b29 a2bb 5b11 cf3d acc3 143d
00000300: 8f05 4d3d 1d90 bd3c 00d2 bebd 176b 033d
00000310: df95 cfbd a767 96bd f911 46bd aaea b83d
00000320: 1ff5 0abc 24c7 87ba f0cf cf3d fafd 98bc
00000330: 1100 17bd e642 1b3d be67 1a3d 0e73 033e
00000340: fc4e 283d fdab d1bd 3d0c f83d c3e7 f33d
00000350: d165 fe3d a3e5 103c 3a61 073e 61e1 1e3e
00000360: b7e6 5d3d 89ff 60bd 4983 92bc 8314 5b3d
00000370: 5179 0ebe abdc c23d 16f7 bb3d 7775 7d3d
00000380: 2c72 003d 62bf 1d3c 9285 c63d 0aa4 18be
00000390: 4990 063d 433a c5bd 4dad 163d c269 cbbd
000003a0: 2b59 e6bd c391 033e 6efb d33d 9005 ff3d
000003b0: d2a1 a0bd 12c2 10be c3e3 f53d 2985 3ebd
000003c0: bcac a73c ebeb c8bc 487c 473d 2bb3 2b3e
000003d0: 62b5 333d 4f8c 6a3d 9f88 86bb 9c20 bcbd
000003e0: 345e 0dbe be81 723c b2ab 21bd cf0f 13be
000003f0: 052c f93d 5297 ac3c 3f1b d13d 9333 983d

resnet_embedding.node_embedding.bias f4 [16]
0.10571909 -0.0115618035 0.028280849 0.007909471 0.042117752 0.17279592 -0.015942547 0.08503935
0.13333556 0.15250403 -0.026575679 -0.073702104 -0.02516521 0.06950518 0.14695717 0.0016051342
00000000: 4083 d83d b86d 3dbc 3dad e73c ba96 013c
00000010: aa83 2c3d 6af1 303e f299 82bc 1c29 ae3d
00000020: 1e89 083e 042a 1c3e 3db5 d9bc 21f1 96bd
00000030: 4527 cebc bb58 8e3d f17b 163e 5e63 d23a

resnet_embedding.bn_node.weight f4 [16]
0.7409766 0.74624157 0.74050486 0.73695797 0.7414626 0.73815316 0.7511546 0.74746084
0.7388326 0.7436463 0.7397411 0.7382828 0.73816586 0.74115217 0.74354756 0.7484779
00000000: a4b0 3d3f b009 3f3f ba91 3d3f 47a9 3c3f
00000010: 7ed0 3d3f 9bf7 3c3f ab4b 403f 9859 3f3f
00000020: 2224 3d3f 9b5f 3e3f ac5f 3d3f 1a00 3d3f
00000030: 70f8 3c3f 26bc 3d3f 2259 3e3f 3f9c 3f3f

resnet_embedding.bn_node.bias f4 [16]
-0.0001743826 0.0047570085 -0.0026142318 -0.010239266 -0.0009189699 -0.005745953 0.002050853 0.00017940359
0.00050592335 -0.0007902086 -0.0050107064 -0.0058572465 -0.0060617942 0.002069851 0.0010394865 0.008495488
00000000: 79da 36b9 aee0 9b3b 8853 2bbb 98c2 27bc
00000010: 07e7 70ba 8c48 bcbb 9b67 063b 491e 3c39
00000020: f19f 043a 0026 4fba da30 a4bb 25ee bfbb
00000030: 04a2 c6bb 56a6 073b 613f 883a a930 0b3c

resnet_embedding.bn_node.running_mean f4 [16]
-0.14739941 -0.27260008 0.047698542 0.26494712 -0.22209199 0.2771147 -0.017719878 0.45889568
0.069256365 0.4878342 0.24425186 0.3573359 0.11747118 0.14932927 0.14396149 -0.17751355
00000000: dfef 16be 3d92 8bbe 8c5f 433d 26a7 873e
00000010: 156c 63be fae1 8d3e 4729 91bc 60f4 ea3e
00000020: 48d6 8d3d 67c5 f93e 291d 7a3e bbf4 b63e
00000030: bb94 f03d c6e9 183e a46a 133e 1dc6 35be

resnet_embedding.bn_node.running_var f4 [16]
0.019482344 0.018313235 0.016066467 0.01199153 0.012651314 0.017472262 0.014794054 0.026228389
0.017008014 0.014894211 0.023464158 0.020583438 0.023373539 0.008882564 0.014255726 0.013881547
00000000: 7099 9f3c a305 963c d39d 833c 1f78 443c
00000010: 7547 4f3c fd21 8f3c c362 723c ebdc d63c
00000020: 6454 8b3c d906 743c e837 c03c 999e a83c
00000030: dd79 bf3c 2c88 113c d990 693c 6e6f 633c

resnet_embedding.edge_embedding.weight f4 [16, 4]
0.010445471 0.32824734 -0.015761912 0.35601285 0.007815977 -0.2411648 -0.07771572 -0.23925786
-0.3001339 -0.32119763 0.17784299 -0.121967755 0.26259014 -0.17224702 -0.36603463 0.0029611764
0.35493276 -0.11713844 0.32401928 0.10522316 -0.33014008 -0.2518846 0.32625845 -0.36903837
-0.34931418 -0.35746038 0.30214968 -0.108188845 -0.12560333 -0.20838003 -0.3483091 -0.28421676
0.051576838 -0.29607466 0.3490921 0.021493515 0.19171694 0.102180414 -0.07869752 -0.28965327
-0.29544938 0.32005537 0.082878076 0.0710996 0.15895467 -0.14668949 0.33477288 -0.33478966
-0.33205765 -0.16887258 0.119518474 0.080591455 -0.2821586 -0.026566245 -0.12743305 0.29646778
0.10855474 0.09791762 -0.113066025 -0.037222028 -0.24911678 -0.10520154 0.062059097 -0.11062267
00000000: 7b23 2b3c 0910 a83e 201f 81bc 5147 b63e
00000010: 950e 003c e8f3 76be 6b29 9fbd 0300 75be
00000020: 27ab 99be 0474 a4be 791c 363e 3bca f9bd
00000030: 3772 863e 8661 30be e468 bbbe 4c10 423b
00000040: bfb9 b53e 47e6 efbd dbe5 a53e 3d7f d73d
00000050: 1f08 a9be 05f7 80be 590b a73e 99f2 bcbe
00000060: 4fd9 b2be 0c05 b7be 5db3 9a3e 1d92 ddbd
00000070: 299e 00be 9361 55be 9255 b2be dc84 91be
00000080: 3c42 533d 1997 97be 33bc b23e 2b13 b03c
00000090: 7251 443e f743 d13d 2a2c a1bd 6f4d 94be
000000a0: 2445 97be 4cde a33e fbbb a93d ab9c 913d
000000b0: 03c5 223e c535 16be 5a67 ab3e 8d69 abbe
000000c0: 7603 aabe efec 2cbe 1ac6 f43d 220d a53d
000000d0: 1877 90be 74a1 d9bc cf7d 02be a0ca 973e
000000e0: f351 de3d 0889 c83d 298f e7bd 2076 18bd
000000f0: 7818 7fbe e873 d7bd ae31 7e3d 238e e2bd

resnet_embedding.edge_embedding.bias f4 [16]
0.043120522 0.048281055 0.0860803 0.30300972 0.11455145 -0.084022224 0.22861987 0.19463794
-0.097582415 0.018347949 0.3459746 -0.28695118 -0.28747624 -0.21193844 -0.13543335 -0.31259266
00000000: 259f 303d 5bc2 453d de4a b03d 1724 9b3e
00000010: f399 ea3d d813 acbd 541b 6a3e 2b4f 473e
00000020: 4ad9 c7bd 704e 963c 9523 b13e 44eb 92be
00000030: 1630 93be 6406 59be 0aaf 0abe 250c a0be

resnet_embedding.bn_edge.weight f4 [16]
0.7421907 0.7420966 0.74212706 0.7421533 0.7421432 0.74206597 0.74211806 0.74202466
0.7421837 0.74222434 0.74217504 0.74218684 0.7420847 0.7420612 0.7421243 0.74215615
00000000: 3600 3e3f 0bfa 3d3f 0afc 3d3f c2fd 3d3f
00000010: 19fd 3d3f 09f8 3d3f 73fb 3d3f 54f5 3d3f
00000020: c0ff 3d3f 6a02 3e3f 2fff 3d3f f5ff 3d3f
00000030: 43f9 3d3f b9f7 3d3f dcfb 3d3f f2fd 3d3f

resnet_embedding.bn_edge.bias f4 [16]
-4.4629058e-05 -0.00011268863 -2.7551841e-05 -1.5149407e-05 -9.004118e-05 -5.0630937e-05 1.1192848e-05 -9.24465e-05
-2.2662838e-05 -5.9252916e-06 2.5396492e-05 3.4428227e-05 -7.8393394e-05 -6.597503e-05 -4.8401515e-05 3.57846e-05
00000000: 1630 3bb8 3f53 ecb8 211f e7b7 352a 7eb7
00000010: 7ed4 bcb8 8e5c 54b8 ebc8 3b37 d6df c1b8
00000020: 131c beb7 ded1 c6b6 8d0a d537 0767 1038
00000030: 2267 a4b8 135c 8ab8 bb02 4bb8 6c17 1638

resnet_embedding.bn_edge.running_mean f4 [16]
0.2829758 -0.16326053 -0.18271089 0.1652355 0.45506397 -0.30159217 -0.01712241 -0.23293504
-0.02876676 0.082564466 0.40268964 -0.15585162 -0.48659986 -0.3996011 -0.090383396 -0.49946734
00000000: 34e2 903e c52d 27be 9018 3bbe 7f33 293e
00000010: 25fe e83e 4a6a 9abe 4c44 8cbc 8686 6ebe
00000020: 45a8 ebbc 8f17 a93d 562d ce3e 9197 1fbe
00000030: 9e23 f9be 8498 ccbe ee1a b9bd 2fba ffbe

resnet_embedding.bn_edge.running_var f4 [16]
0.027254025 0.015445746 0.024626378 0.014976983 0.026917672 0.039530374 0.026199386 0.046892185
0.005040587 0.018569004 0.0044575264 0.036271054 0.017038511 0.03394746 0.0019291086 0.0104865
00000000: d543 df3c 2710 7d3c 42bd c93c 0562 753c
00000010: 7382 dc3c 9aea 213d 18a0 d63c 0512 403d
00000020: 822b a53b 061e 983c 7110 923b f590 143d
00000030: 5994 8b3c 7e0c 0b3d 25da fc3a 92cf 2b3c

graph_transformer_layer.0.attention.Q.weight f4 [16, 16]
0.027885208 -0.1412904 0.16149282 0.16245064 -0.10138183 0.12080247 0.07118321 0.09863987
-0.020749805 -0.16228384 -0.061037317 -0.08970472 -0.16035764 -0.17232892 0.16418095 0.05474688
0.17010611 0.1635711 -0.045483798 -0.07970484 0.07393581 -0.028537486 -0.16927604 0.100566715
-0.047196668 -0.10035321 0.14005004 -0.015994892 -0.13883878 0.07184817 0.09851099 0.16163069
-0.039369818 0.08586862 -0.08457259 0.16596395 -0.13525207 -0.13839415 0.16531073 0.13457668
-0.015616637 0.042400178 0.17016661 -0.06360551 -0.07973742 -0.1002247 -0.17123166 0.081844874
-0.056255173 0.14503871 0.03405106 -0.08058284 -0.008869952 0.103773244 0.1109516 0.0020036637
-0.0031612883 -0.06743182 -0.1482357 -0.11113844 -0.13906553 -0.15706424 0.027914383 -0.07715892
-0.07508025 -0.11612478 -0.042886402 -0.11433291 -0.1070555 -0.15844706 -0.13037415 0.047133718
-0.110337935 -0.11458432 -0.10276454 -0.050700314 -0.098754086 0.08329919 0.108211085 0.11120117
-0.13395296 0.12113581 -0.024231164 -0.1730992 0.12050871 -0.0021453947 -0.046960257 -0.026823195
-0.12384228 0.14596622 0.017797925 0.15311699 0.019980552 0.074585095 0.15126309 0.06874668
-0.08894437 0.09322345 -0.10266109 -0.14894973 0.021200646 0.13123988 0.0062706177 0.17555092
0.1286051 -0.064608745 -0.0024543155 -0.16667953 0.05960384 -0.1429999 0.1847023 -0.16066548
0.13390495 0.08157667 -0.048042748 -0.15683347 -0.093327105 0.10471028 0.08644982 0.1558629
0.07371787 -0.058031883 0.06798709 0.022516975 0.026448183 -0.13156773 -0.15578674 -0.06978312
0.106801495 0.16820766 -0.09388112 -0.0065883137 -0.119850256 0.1135114 -0.004126015 0.0009478041
0.0017897265 -0.04421352 0.03354758 0.053831235 -0.13936166 -0.13439424 0.012571098 0.12587178
0.07243113 -0.14128397 0.16428511 -0.12652557 0.08061189 -0.17985468 0.059448887 -0.17575884
0.070781946 -0.11237157 -0.17959091 0.18062563 -0.14813642 0.10716417 -0.08788943 -0.014506827
-0.07250374 0.060317837 0.06914996 -0.1395193 0.071056426 -0.059308313 -0.18432163 0.16863388
0.029711906 -0.10550657 0.13666111 0.058782384 0.16096017 0.10456492 -0.1161963 0.11722721
-0.09327547 0.12426924 0.020553933 0.11524038 0.08396864 -0.09853271 0.021540562 -0.1293889
-0.09927951 -0.12902407 0.16266514 -0.14663984 0.005338022 0.15308699 0.17212905 -0.13378777
0.14508708 0.13149324 -0.15775613 0.12990598 -0.11017058 -0.03655669 0.024102725 0.064620055
-0.045573708 0.18533291 0.07976718 -0.08706752 0.14749478 0.058980163 0.14532143 0.13272406
0.1563497 0.13630086 0.13084935 0.13891633 0.14944533 -0.09986787 -0.13326988 0.107080035
0.073030666 -0.1416864 -0.16542289 -0.09385858 0.11704181 -0.04487701 0.109496586 -0.13496168
-0.14622782 -0.019067636 -0.009796586 -0.039642483 0.053462822 -0.06229952 0.018664204 0.013567012
-0.06718074 -0.16471274 -0.05087844 -0.090594135 0.07057675 0.17381378 0.17426166 0.07051688
-0.14176215 -0.018257456 0.06884305 -0.056225702 0.14826243 0.036467455 0.08155969 0.0021868034
-0.0038544366 -0.17352453 0.17326619 -0.11985797 -0.05847848 -0.18452808 -0.06077913 0.09924594
00000000: 856f e43c 6eae 10be 605e 253e 7659 263e
00000010: 47a1 cfbd 4967 f73d 81c8 913d b303 ca3d
00000020: 7ffb a9bc bc2d 26be 4402 7abd 1cb7 b7bd
00000030: cb34 24be fe76 30be 0d1f 283e 443e 603d
00000040: 4c30 2e3e 2f7f 273e 384d 3abd 4b3c a3bd
00000050: a86b 973d 72c7 e9bc b356 2dbe ecf5 cd3d
00000060: 4b51 41bd fc85 cdbd 4769 0f3e b807 83bc
00000070: c12b 0ebe 2225 933d 21c0 c93d 8482 253e
00000080: 3f42 21bd e3db af3d 6534 adbd 74f2 293e
00000090: 857f 0abe 32b7 0dbe 3747 293e 78ce 093e
000000a0: ecdc 7fbc cfab 2d3d 2840 2e3e 9b43 82bd
000000b0: 5f4d a3bd 9c42 cdbd 5a57 2fbe 499e a73d
000000c0: d36b 66bd 0785 143e 2079 0b3d 9e08 a5bd
000000d0: 4653 11bc 1187 d43d 983a e33d e64f 033b
000000e0: 9e2d 4fbb b219 8abd 19cb 17be 8d9c e3bd
000000f0: 3267 0ebe 73d5 20be b4ac e43c 7f05 9ebd
00000100: adc3 99bd d4d2 edbd a7a9 2fbd 5f27 eabd
00000110: ea3f dbbd f23f 22be cd80 05be 490f 413d
00000120: dbf8 e1bd 2fab eabd 3776 d2bd 22ab 4fbd
00000130: 953f cabd c498 aa3d c69d dd3d 70bd e33d
00000140: f72a 09be 0d16 f83d 6f80 c6bc eb40 31be
00000150: 45cd f63d c099 0cbb 6659 40bd 51bc dbbc
00000160: 05a1 fdbd 2b78 153e f4cc 913c b3ca 1c3e
00000170: 41ae a33c 12c0 983d b6e4 1a3e 0fcb 8c3d
00000180: 7728 b6bd f0eb be3d fa3f d2bd 4786 18be
00000190: faac ad3c bf63 063e c179 cd3b 9fc3 333e
000001a0: 0eb1 033e 9751 84bd 95d8 20bb 0aae 2abe
000001b0: 2823 743d 916e 12be 9a22 3d3e 7e85 24be
000001c0: 611e 093e ab11 a73d 79c8 44bd f498 20be
000001d0: 4822 bfbd 5872 d63d 9a0c b13d 869a 1f3e
000001e0: 65f9 963d d7b2 6dbd d13c 8b3d 8575 b83c
000001f0: dca9 d83c b1b9 06be 8f86 1fbe 74ea 8ebd
00000200: beba da3d a13e 2c3e bf44 c0bd c8e2 d7bb
00000210: 0d74 f5bd aa78 e83d 8633 87bb 0e76 783a
00000220: 4295 ea3a 3c19 35bd 3069 093d 247e 5c3d
00000230: d3b4 0ebe a59e 09be 02f7 4d3c 88e4 003e
00000240: c656 943d bfac 10be 5b3a 283e eb8f 01be
00000250: d917 a53d d32b 38be ad80 733d 20fa 33be
00000260: 20f6 903d 1123 e6bd aee6 37be edf5 383e
00000270: 13b1 17be e378 db3d 60ff b3bd 0bae 6dbc
00000280: d77c 94bd d60f 773d 7f9e 8d3d 26de 0ebe
00000290: 0886 913d 46ed 72bd cfbe 3cbe 5cae 2c3e
000002a0: 6266 f33c d413 d8bd e4f0 0b3e ccc5 703d
000002b0: bed2 243e 2226 d63d 53f8 edbd d214 f03d
000002c0: 3607 bfbd df80 fe3d b960 a83c 2603 ec3d
000002d0: c0f7 ab3d 84cb c9bd d575 b03c 867e 04be
000002e0: 0e53 cbbd e31e 04be b191 263e c128 16be
000002f0: 93ea ae3b d6c2 1c3e 9942 303e a9ff 08be
00000300: b591 143e 2aa6 063e d38a 21be 1306 053e
00000310: 1da1 e1bd 78bc 15bd 1473 c53c 8557 843d
00000320: 7fab 3abd e9c7 3d3e fa5c a33d 7550 b2bd
00000330: df08 173e 2f95 713d 24cf 143e d1e8 073e
00000340: 231a 203e 7492 0b3e 5ffd 053e 1540 0e3e
00000350: 3208 193e 8787 ccbd e677 08be c74c db3d
00000360: 1a91 953d 3d16 11be 9e64 29be ed38 c0bd
00000370: 9eb3 ef3d f5d0 37bd bf3f e03d 6533 0abe
00000380: bfbc 15be bb33 9cbc dc81 20bc 2860 22bd
00000390: d5fb 5a3d c82d 7fbd ace5 983c 2c48 5e3c
000003a0: 0e96 89bd 75aa 28be e965 50bd 6b89 b9bd
000003b0: 8b8a 903d 3dfc 313e a671 323e 276b 903d
000003c0: 192a 11be a990 95bc 96fd 8c3d ec4c 66bd
000003d0: 1bd2 173e e65e 153d c408 a73d 7950 0f3b
000003e0: b79a 7cbb 6ab0 31be b16c 313e 1878 f5bd
000003f0: 2187 6fbd eef4 3cbe 89f3 78bd 7541 cb3d

graph_transformer_layer.0.attention.Q.bias f4 [16]
0.116129056 -0.008666036 -0.0020881223 0.06577024 -0.14024399 0.14391148 -0.101878606 0.012938231
-0.033324674 0.08913892 -0.009699265 0.14036366 0.12667555 -0.090423934 -0.032129984 0.13162936
00000000: 12d5 ed3d fdfb 0dbc e1d8 08bb 8cb2 863d
00000010: 1f9c 0fbe 885d 133e bba5 d0bd e0fa 533c
00000020: 747f 08bd 778e b63d aae9 1ebc 7ebb 0f3e
00000030: 3cb7 013e 2f30 b9bd bb9a 03bd d9c9 063e

graph_transformer_layer.0.attention.K.weight f4 [16, 16]
0.1516161 -0.014681567 -0.15599588 0.1746277 0.12320451 -0.15215632 0.17281209 -0.046816185
-0.18008497 0.1511989 0.0068863495 -0.16577433 -0.13050863 0.12085736 -0.1144426 -0.006561057
0.15851457 0.100239955 0.012382338 -0.117196634 -0.089370884 -0.11380805 0.0311005 -0.08150586
0.00279672 -0.16778545 0.17452239 0.08174781 -0.10776248 -0.06798822 -0.13209942 0.16413711
0.009742587 0.14598663 0.08357742 0.07802375 0.14904487 -0.08994547 -0.13031185 0.18431906
-0.07393792 -0.063127674 -0.11475775 0.18485667 0.1302835 0.18442541 -0.07653401 -0.004500274
0.06499119 -0.023118518 -0.005863538 0.11310299 0.082041055 0.11826085 -0.14708924 0.056818876
0.1090925 -0.07025803 0.11093571 0.15480556 0.044054404 -0.012359803 -0.11766661 -0.0993681
0.14140941 -0.1551195 -0.051797338 -0.12552999 -0.020041447 0.1237216 -0.096524924 -0.10235961
0.12064604 -0.090697706 0.014393761 0.09410468 -0.1129458 -0.041227426 0.095951214 0.11622372
0.15234862 0.0767272 -0.015422884 -0.019168647 -0.044987284 0.09470085 -0.14771657 0.13460036
-0.017767455 -0.1569018 0.04288606 0.023591522 0.14589977 0.13410394 0.13817886 -0.17948322
-0.14342363 -0.104382806 -0.1655072 0.16440456 0.0061801667 0.09110095 0.048406858 -0.11137865
0.08269948 0.1519846 0.102478385 -0.12992746 0.021567155 -0.03757686 -0.115232885 -0.09704048
-0.07189533 -0.12495898 -0.16918272 0.143612 -0.10171321 -0.13138603 0.1468182 0.13371654
-0.17359518 -0.065936156 -0.016993696 0.15997386 0.08490628 -0.04542838 -0.08982184 -0.10738972
0.11338443 0.051810354 0.013082502 -0.08050846 0.1649966 -0.090948835 -0.14425935 -0.16078985
-0.095202915 0.0980542 0.12137408 0.12820911 0.08301088 -0.118049555 -0.095432095 0.042035334
-0.004212563 -0.15011673 0.03097138 0.038254492 -0.014992042 -0.18543187 0.017613655 -0.13957138
-0.13091911 0.09192109 0.07389932 -0.08540913 -0.114089794 0.018518057 -0.13152619 -0.0226768
0.04386241 0.008117756 0.12220165 0.015373733 -0.13432841 -0.17399111 -0.11369533 -0.08761315
0.13043283 0.03109416 0.08796471 -0.0657036 0.12914437 -0.1396151 -0.0029654421 0.065667585
0.00056331005 -0.17054096 -0.16581559 -0.16144933 -0.08725133 0.118766144 0.04390964 0.043250382
-0.16464686 -0.090376996 -0.07467628 -0.15704016 -0.112926684 0.14580502 -0.06693621 0.06850082
-0.07242613 0.08797394 -0.1426457 -0.027638877 -0.07021322 0.021185508 0.07941163 -0.069989786
-0.052478425 0.01987649 -0.05701791 -0.0003335957 -0.08111287 -0.119787104 -0.15664458 -0.095150985
-0.0104326 -0.051705513 -0.039221942 -0.17847785 0.035773292 0.09198249 -0.13446991 -0.11002334
-0.030628623 -0.14910153 -0.05879097 -0.13413201 -0.07506541 -0.1599295 0.046963077 0.07211045
-0.17622544 -0.1010527 0.052415095 -0.114553034 -0.027211085 0.050032154 0.1805456 -0.11015064
-0.124639854 0.09241278 0.11656364 0.12818246 0.09426437 0.16278636 -0.019850375 0.044005524
0.11098771 0.020639492 -0.10255896 0.042384252 -0.112370044 0.14871897 -0.08336131 0.065675735
0.06520557 -0.09834134 0.09145142 -0.08858888 -0.10857735 0.1587597 0.12075635 0.08770757
00000000: 4041 1b3e f58a 70bc 62bd 1fbe 9bd1 323e
00000010: a552 fc3d dece 1bbe a7f5 303e 54c2 3fbd
00000020: 3268 38be e2d3 1a3e e3a6 e13b bfc0 29be
00000030: 0ea4 05be 1084 f73d e260 eabd 23fe d6bb
00000040: a551 223e 9b4a cd3d 4adf 4a3c ca04 f0bd
00000050: 1508 b7bd 3214 e9bd 7ac6 fe3c 8bec a6bd
00000060: 2d49 373b f3cf 2bbe ffb5 323e 656b a73d
00000070: 93b2 dcbd 683d 8bbd 1245 07be 8f13 283e
00000080: 5f9f 1f3c 857d 153e a32a ab3d eaca 9f3d
00000090: 389f 183e 5535 b8bd 7870 05be 23be 3c3e
000000a0: c46c 97bd 1549 81bd 1c06 ebbd 114b 3d3e
000000b0: 0a69 053e 04da 3c3e ddbd 9cbd 0977 93bb
000000c0: 1a1a 853d 0c63 bdbc ec22 c0bb 8aa2 e73d
000000d0: 2405 a83d bf32 f23d 909e 16be e9ba 683d
000000e0: e36b df3d 71e3 8fbd 4332 e33d 5985 1e3e
000000f0: 6472 343d c580 4abc 31fb f0bd 8181 cbbd
00000100: a1cd 103e a5d7 1ebe 7229 54bd ef8a 00be
00000110: f62d a4bc c061 fd3d dcae c5bd eaa1 d1bd
00000120: 4515 f73d b8bf b9bd cfd3 6b3c f4b9 c03d
00000130: 2150 e7bd 17de 28bd 1282 c43d b406 ee3d
00000140: 4701 1c3e 2623 9d3d 44b0 7cbc 9107 9dbc
00000150: 9644 38bd 85f2 c13d 0343 17be add4 093e
00000160: 0e8d 91bc deaa 20be 4ba9 2f3d 0243 c13c
00000170: c066 153e 8b52 093e c27e 0d3e 73ca 37be
00000180: a5dd 12be a7c6 d5bd b87a 29be ab59 283e
00000190: ff82 ca3b 2393 ba3d 4546 463d 7d1a e4bd
000001a0: 585e a93d daa1 1b3e 30e0 d13d b40b 05be
000001b0: 9aad b03c 32ea 19bd 38ff ebbd 29bd c6bd
000001c0: dc3d 93bd 7eea ffbd 3c3e 2dbe 060f 133e
000001d0: 044f d0bd 0f8a 06be 8357 163e fdec 083e
000001e0: efc2 31be 8909 87bd 5d36 8bbc 30d0 233e
000001f0: 58e3 ad3d 1c13 3abd 83f4 b7bd 24ef dbbd
00000200: 1936 e83d 1837 543d fe57 563c 9fe1 a4bd
00000210: def4 283e 6243 babd b9b8 13be 18a6 24be
00000220: bff9 c2bd a4d0 c83d f992 f83d 4049 033e
00000230: 9c01 aa3d f7c3 f1bd e771 c3bd 3e2d 2c3d
00000240: 8a09 8abb 33b8 19be b1b7 fd3c beb0 1c3d
00000250: 2fa1 75bc dae1 3dbe 834a 903c cdeb 0ebe
00000260: a90f 06be 2041 bc3d 8758 973d fbea aebd
00000270: e9a7 e9bd 2eb3 973c cdae 06be b2c4 b9bc
00000280: 12a9 333d 5600 053c dc44 fa3d 1ce2 7b3c
00000290: 638d 09be ba2a 32be 19d9 e8bd 866e b3bd
000002a0: 2f90 053e 2eb9 fe3c d826 b43d 9c8f 86bd
000002b0: 6c3e 043e 43f7 0ebe dd57 42bb ba7c 863d
000002c0: 19ab 133a 4aa2 2ebe 90cb 29be f952 25be
000002d0: d3b0 b2bd aa3b f33d 98da 333d 5027 313d
000002e0: 3099 28be 9317 b9bd e1ef 98bd 23cf 20be
000002f0: 1b46 e7bd e94d 153e da15 89bd 284a 8c3d
00000300: 2754 94bd ae2b b43d b711 12be ed6a e2bc
00000310: f3cb 8fbd 3b8d ad3c 91a2 a23d ce56 8fbd
00000320: 9ef3 56bd 05d4 a23c 9d8b 69bd 75e6 aeb9
00000330: 811e a6bd f152 f5bd 7067 20be 85de c2bd
00000340: 7fed 2abc 29c9 53bd 30a7 20bd e6c2 36be
00000350: 0487 123d 5161 bc3d 7bb2 09be eb53 e1bd
00000360: e1e8 fabc 12ae 18be cdce 70bd e759 09be
00000370: e5bb 99bd 8fc4 23be 5b5c 403d a5ae 933d
00000380: 7174 34be b8f4 cebd 36b1 563d c89a eabd
00000390: c8e9 debc 84ee 4c3d f2e0 383e a996 e1bd
000003a0: 2e43 ffbd e942 bd3d ebb8 ee3d 4342 033e
000003b0: ae0d c13d 78b1 263e 419d a2bc 233f 343d
000003c0: 864d e33d 2714 a93c 6f0a d2bd 1c9b 2d3d
000003d0: 4422 e6bd c949 183e 56b9 aabd 0081 863d
000003e0: 7f8a 853d 2f67 c9bd e24a bb3d 166e b5bd
000003f0: cd5d debd e791 223e 1b4f f73d 07a0 b33d

graph_transformer_layer.0.attention.K.bias f4 [16]
-0.17522958 -0.14242929 -0.08850405 -0.074796915 0.019972939 0.04517774 -0.11354716 0.14729084
-0.033491556 -0.06235166 -0.038345203 0.12173572 -0.1714791 -0.059570692 -0.0022704012 -0.12277477
00000000: 626f 33be fcd8 11be 9d41 b5bd 202f 99bd
00000010: 4a9e a33c 4b0c 393d 6a8b e8bd 69d3 163e
00000020: 712e 09bd 7464 7fbd dc0f 1dbd 9450 f93d
00000030: 3898 2fbe 6600 74bd 03cb 14bb 5771 fbbd

graph_transformer_layer.0.attention.V.weight f4 [16, 16]
0.010349945 -0.07445584 -0.010818031 -0.13309965 -0.08741407 -0.15616539 0.14748539 -0.017365685
-0.009405934 0.14435674 -0.07284465 0.05526477 0.15981974 0.10641981 0.14793113 -0.17894386
-0.17302398 -0.047272317 0.13002254 0.16650344 0.04247956 0.17248864 0.07730116 -0.013040695
0.13628125 0.15204623 -0.015724452 -0.10166904 -0.029760279 0.06978896 -0.13681716 -0.08466619
-0.03333118 -0.15206409 0.14997427 0.08701114 0.16773167 -0.16794787 -0.14333026 -0.09917898
-0.15330932 0.094484404 0.05109277 0.15144323 -0.010723084 -0.17494483 0.12374971 0.008404369
-0.034281213 0.008211896 -0.13052788 0.09005526 -0.11787261 -0.046923883 0.114539854 -0.14731167
-0.15993777 0.030407058 -0.03075785 -0.08604031 -0.052647 -0.147187 -0.01415031 0.098919265
0.14057763 -0.13607877 -0.124872915 -0.12507156 0.01482483 -0.15289555 -0.17851724 -0.11335301
0.085253134 0.04200508 0.07917086 -0.06625433 0.07496738 -0.1289005 -0.17905693 0.18156007
0.08022007 -0.08016797 0.07761493 0.15077598 -0.092942506 0.0062147016 -0.123001404 -0.01647726
0.00656452 0.009522611 -0.04304094 0.0914612 0.12954493 0.08332973 0.0165243 -0.008639236
0.17281172 0.17239565 0.115332834 0.09658641 -0.017640904 -0.13930042 0.17237265 0.04972481
0.054233346 -0.1338029 -0.023977352 0.008980092 -0.089273445 -0.10149379 -0.066860795 0.04608063
0.020221777 0.12165359 0.17105009 0.095233805 -0.10076404 -0.042917836 0.12296438 -0.030781562
0.15595391 -0.09648946 -0.1151527 -0.08019748 0.032180637 -0.122561455 0.043614496 0.022757182
0.15133034 0.064427845 0.011834745 0.068341166 -0.11025248 0.035192307 0.07153644 -0.028879719
0.10184641 0.016383167 -0.1304926 -0.14081538 -0.094177835 0.06308705 0.12966155 -0.16472785
-0.1275873 0.07334971 -0.049565654 0.036661927 -0.09721788 0.115636006 -0.1676035 0.12207907
-0.0848358 0.009946584 0.09008181 0.16198938 -0.08251655 -0.088986225 0.0071824435 -0.120027155
-0.13617855 0.122481585 0.14684 -0.14387937 -0.08934898 -0.05776624 0.10120166 0.14400423
0.10747866 0.12727256 0.0064947745 0.059618793 -0.05997418 -0.11313407 -0.18256955 -0.06259277
-0.06846513 0.0042824014 -0.11100166 -0.14392757 -0.04886712 -0.02205096 0.15900943 -0.0107415775
-0.16080336 0.1676464 0.041245647 -0.06838989 -0.038674455 -0.0022696587 -0.03491273 -0.18432401
-0.18377487 0.1425276 0.028916087 0.024753807 0.16456845 -0.16447888 0.10679729 0.012645338
0.053107716 -0.1018326 -0.021679992 0.06756844 -0.11004598 -0.08068274 -0.10261936 -0.098719314
0.16867544 -0.15752679 -0.08637312 0.14769727 0.091154456 -0.055335376 0.100219086 0.017696086
-0.1752125 0.06384946 0.13622159 0.06009362 0.05304404 0.07137723 0.031892974 -0.020083627
0.11856773 -0.13075176 0.10609702 0.13100511 0.031143187 0.131923 -0.118106306 -0.095545195
0.118224815 -0.17096351 0.08962784 0.10888833 -0.028754342 -0.025123762 -0.018036867 -0.03864696
-0.120570846 -0.03156128 0.006698205 -0.10918776 -0.08478029 -0.042712588 -0.02465041 0.05466655
0.05910406 -0.011635641 0.077655025 -0.047279645 -0.05154804 0.12683126 -0.036246363 0.14310572
00000000: d192 293c 4e7c 98bd 1c3e 31bc 464b 08be
00000010: 2606 b3bd d2e9 1fbe 6906 173e 7b42 8ebc
00000020: 591b 1abc 41d2 133e 932f 95bd 505d 623d
00000030: c9a7 233e a1f2 d93d 427b 173e 0f3d 37be
00000040: 332d 31be 9ea0 41bd a124 053e e17f 2a3e
00000050: 0cff 2d3d dda0 303e 1250 9e3d a4a8 55bc
00000060: 508d 0b3e 02b2 1b3e 91d0 80bc dc37 d0bd
00000070: d4cb f3bc 84ed 8e3d cc19 0cbe 7865 adbd
00000080: 4786 08bd b0b6 1bbe db92 193e e632 b23d
00000090: dac1 2b3e 87fa 2bbe 2bc5 12be 591e cbbd
000000a0: 1efd 1cbe 0a81 c13d a746 513d ef13 1b3e
000000b0: e0af 2fbc bd24 33be 7d70 fd3d 7ab2 093c
000000c0: 756a 0cbd 308b 063c 1aa9 05be e46e b83d
000000d0: 3267 f1bd 4233 40bd df93 ea3d dfd8 16be
000000e0: bac6 23be 3918 f93c e3f7 fbbc e735 b0bd
000000f0: 61a4 57bd 30b8 16be b4d6 67bc 2f96 ca3d
00000100: 95f3 0f3e 3c58 0bbe 5fbd ffbd c212 00be
00000110: d8e3 723c a790 1cbe 39cd 36be 9f25 e8bd
00000120: 3299 ae3d 850d 2c3d 5524 a23d 5ab0 87bd
00000130: 7f88 993d 7efe 03be b35a 37be e2ea 393e
00000140: 6c4a a43d 1b2f a4bd 94f4 9e3d 0565 1a3e
00000150: a458 bebd b2a4 cb3b 29e8 fbbd 52fb 86bc
00000160: 2f1b d73b ba04 1c3c b24b 30bd 0250 bb3d
00000170: 6da7 043e c7a8 aa3d f85d 873c 958b 0dbc
00000180: 8ef5 303e 7c88 303e 9f33 ec3d 19cf c53d
00000190: a883 90bc c5a4 0ebe 7582 303e 3eac 4b3d
000001a0: c923 5e3d a103 09be 276c c4bc 3c21 133c
000001b0: ffd4 b6bd fadb cfbd 50ee 88bd 0bbf 3c3d
000001c0: 24a8 a53c 8425 f93d c127 2f3e f109 c33d
000001d0: 615d cebd 9dca 2fbd c0d4 fb3d 9d29 fcbc
000001e0: 62b2 1f3e 449c c5bd 2ed5 ebbd 943e a4bd
000001f0: d8cf 033d 8001 fbbd 1da5 323d 456d ba3c
00000200: 57f6 1a3e bff2 833d 85e6 413c 74f6 8b3d
00000210: 0dcc e1bd cf25 103d b281 923d 2995 ecbc
00000220: da94 d03d fe35 863c da9f 05be e831 10be
00000230: 4fe0 c0bd c933 813d ffc5 043e 6bae 28be
00000240: 3fa6 02be 5f38 963d 5b05 4bbd d12a 163d
00000250: 2b1a c7bd 92d2 ec3d 40a0 2bbe 9704 fa3d
00000260: 64be adbd fff6 223c d07c b83d 8be0 253e
00000270: 70fe a8bd 693e b6bd b45a eb3b ccd0 f5bd
00000280: 6472 0bbe a0d7 fa3d 3a5d 163e 1d55 13be
00000290: 99fc b6bd 4b9c 6cbd d142 cf3d d875 133e
000002a0: c61d dc3d bd53 023e 1ed2 d43b d632 743d
000002b0: 7ca7 75bd d6b2 e7bd 83f3 3abe a330 80bd
000002c0: 7237 8cbd 6353 8c3b d754 e3bd c061 13be
000002d0: e428 48bd 37a4 b4bc 5ed3 223e 71fd 2fbc
000002e0: a3a9 24be 7fab 2b3e 32f1 283d 0010 8cbd
000002f0: 1b69 1ebd 8ebe 14bb a700 0fbd 6fbf 3cbe
00000300: 7b2f 3cbe c1f2 113e 6ee1 ec3c 7fc8 ca3c
00000310: a284 283e 276d 28be 8ab8 da3d 642e 4f3c
00000320: 7a87 593d 9c8d d0bd 3d9a b1bc 5361 8a3d
00000330: c95f e1bd fe3c a5bd 192a d2bd 5a2d cabd
00000340: 41b9 2c3e b44e 21be 64e4 b0bd f43d 173e
00000350: 30af ba3d 59a7 62bd aa3f cd3d 62f7 903c
00000360: e86a 33be 81c3 823d ac7d 0b3e ba24 763d
00000370: b544 593d 3a2e 923d 35a2 023d 6b86 a4bc
00000380: a3d3 f23d cae3 05be 6549 d93d 3426 063e
00000390: ff1f ff3c d316 073e b8e1 f1bd 33ad c3bd
000003a0: da1f f23d 0f11 2fbe cd8e b73d d800 df3d
000003b0: 3a8e ebbc 59d0 cdbc 0dc2 93bc 464c 1ebd
000003c0: d9ed f6bd 6746 01bd 9e7c db3b d59d dfbd
000003d0: 4aa1 adbd 65f3 2ebd a8ef c9bc 08ea 5f3d
000003e0: 1917 723d 6aa3 3ebc 9909 9f3d 4da8 41bd
000003f0: 0a24 53bd 0ee0 013e 1177 14bd 4e8a 123e

graph_transformer_layer.0.attention.V.bias f4 [16]
-0.04662303 0.15133367 -0.13523684 0.09007355 -2.4420859e-05 0.03516239 -0.10123785 -0.049299564
-0.070463374 -0.15313649 -0.11914872 -0.100975946 0.0585595 0.1218228 0.0023775336 0.103006095
00000000: caf7 3ebd 37f7 1a3e 877b 0abe 7b78 b83d
00000010: 65db ccb7 7006 103d ca55 cfbd 57ee 49bd
00000020: 1a4f 90bd d0cf 1cbe 3e04 f4bd 7acc cebd
00000030: 16dc 6f3d 3b7e f93d 65d0 1b3b dcf4 d23d

graph_transformer_layer.0.attention.proj_e.weight f4 [16, 16]
0.12319986 0.011091899 -0.034494422 -0.075954765 0.024615431 0.084204845 -0.049789198 -0.086286575
-0.16718273 0.11366052 0.090163335 -0.16826913 -0.1210113 -0.05665457 -0.023651993 -0.024486966
-0.033905193 -0.052137844 0.174832 -0.111769915 0.11065405 -0.085532375 0.1540121 -0.12589732
-0.13405296 0.17706169 -0.11642612 0.15916887 -0.09578746 -0.015980221 -0.12697949 0.04457817
0.041180287 -0.107143715 0.09867282 0.15184358 0.05900048 -0.13324413 0.039948963 0.014888568
0.18476975 0.10551922 -0.14025714 0.027072892 0.035887256 -0.06669044 0.092729084 -0.17438424
-0.14667518 -0.100289196 -0.13762082 0.08652776 0.08178265 -0.13474458 0.10254199 0.17505644
-0.16564603 0.109631084 -0.14834219 0.1737515 0.13430633 0.053538077 0.08162523 -0.025903571
0.16961218 0.08152269 -0.032355763 -0.12821501 -0.14372684 -0.07799703 -0.10781889 0.1535372
-0.118926615 -0.16487093 -0.013912474 0.17628895 0.07531387 0.08462403 -0.029646197 -0.14843395
0.0036194145 -0.04853046 0.058543988 0.023444017 0.03352046 0.16522695 0.057008106 -0.001730147
-0.049348067 -0.14919943 0.04483344 -0.1252357 0.14632799 0.17980811 -0.11266644 -0.11706491
0.031007381 0.16458191 -0.14524981 -0.15833525 0.07997741 0.07195101 0.11494635 -0.03532149
-0.18049124 -0.15443423 -0.021445757 0.14252107 0.10173622 -0.16765794 0.17758381 -0.17184646
0.12531301 -0.028555138 0.011827747 -0.07555919 -0.015375154 -0.093074165 0.1021993 -0.15066452
-0.13410401 -0.06033022 -0.0917467 0.16184023 0.04999333 0.15031785 0.08240692 0.116492145
-0.11400391 0.010304171 0.10356887 0.13354509 0.13588478 0.043330885 0.08185877 -0.10794787
-0.1429706 0.027090177 -0.04860787 0.034957517 -0.0021809293 -0.17907912 -0.07358876 -0.06545606
0.1670311 0.08885473 0.10429309 -0.07736849 0.09371421 -0.028861804 -0.119287595 -0.10561813
-0.101356894 -0.005642889 0.0718221 0.092716366 -0.16684619 -0.10209698 0.051779527 -0.057545424
-0.14597708 -0.019032208 0.12499075 0.121518776 0.02995552 0.085555874 0.16517004 0.09634561
-0.10941244 0.13955106 0.05573903 -0.16475494 -0.0032145258 0.087386124 -0.16463725 -0.1263122
0.10730569 -0.06529101 -0.042542536 -0.00089889514 0.08870556 -0.13669358 0.034812722 -0.12609261
0.037274383 -0.1414288 0.089131646 -0.07422529 -0.11524009 0.06491618 -0.12859881 0.09376214
0.09711114 -0.095797725 -0.112987824 0.009421759 -0.028474437 0.11202173 -0.062195204 -0.117357284
0.0024333152 -0.14230126 -0.052641954 -0.17676196 0.028714612 -0.074265145 0.003936617 0.012215374
-0.15318188 -0.016654927 -0.14612535 -0.17840257 -0.13172293 -0.013652266 0.12326399 -0.07478574
-0.087785855 -0.114534296 0.019067807 -0.030103078 0.063341014 -0.15482621 -0.08876565 0.117196605
-0.14277922 0.012254395 -0.16046752 0.15868981 0.028232595 -0.032431193 -0.025079053 0.1012364
-0.089000545 0.013664978 -0.098582715 -0.10615145 -0.14599669 0.17336038 0.05484064 0.047531072
-0.10718921 0.14354227 -0.035512805 0.16363959 0.11585944 -0.09543845 -0.057798434 0.019945553
-0.09854379 0.037300874 -0.085953906 0.003215216 -0.101108864 0.067376815 0.05953717 -0.0595695
00000000: 3550 fc3d ccba 353c 064a 0dbd 2c8e 9bbd
00000010: 4da6 c93c 9773 ac3d c2ef 4bbd 04b7 b0bd
00000020: f331 2bbe d9c6 e83d 8ea7 b83d be4e 2cbe
00000030: c6d4 f7bd 9f0e 68bd d3c1 c1bc e498 c8bc
00000040: 2ce0 0abd 7e8e 55bd 2907 333e a0e7 e4bd
00000050: 979e e23d 992b afbd 59b5 1d3e 3aeb 00be
00000060: 2e45 09be a94f 353e d170 eebd 2afd 223e
00000070: 372c c4bd f4e8 82bc e906 02be 9997 363d
00000080: a9ac 283d 2a6e dbbd fa14 ca3d e27c 1b3e
00000090: 7daa 713d 2671 08be 86a1 233d 2eef 733c
000000a0: 4834 3d3e 761a d83d 919f 0fbe f8c7 dd3c
000000b0: 84fe 123d ff94 88bd bfe8 bd3d c891 32be
000000c0: 0532 16be 6c64 cdbd 79ec 0cbe 7735 b13d
000000d0: a97d a73d 7cfa 09be 8901 d23d ff41 333e
000000e0: 1d9f 29be 4386 e03d 04e7 17be eaeb 313e
000000f0: 9987 093e be4a 5b3d 212b a73d ba33 d4bc
00000100: d1ae 2d3e 5ef5 a63d 7a87 04bd cc4a 03be
00000110: 212d 13be e8bc 9fbd 26d0 dcbd db38 1d3e
00000120: cc8f f3bd edd3 28be 25f1 63bc 1785 343e
00000130: 293e 9a3d 5d4f ad3d 95dc f2bc 12ff 17be
00000140: b333 6d3b e0c7 46bd d2cb 6f3d ab0d c03c
00000150: c04c 093d 4131 293e 5581 693d 1ac6 e2ba
00000160: 3321 4abd bcc7 18be 45a3 373d ca3d 00be
00000170: 01d7 153e 9e1f 383e aabd e6bd babf efbd
00000180: 3103 fe3c 2988 283e 5ebc 14be a322 22be
00000190: 32cb a33d 0d5b 933d fe68 eb3d 44ad 10bd
000001a0: b2d2 38be 0224 1ebe 03af afbc 0bf1 113e
000001b0: 145b d03d 86ae 2bbe 88d8 353e 85f8 2fbe
000001c0: 0e52 003e 77ec e9bc 2bc9 413c c7be 9abd
000001d0: 12e8 7bbc ab9d bebd de4d d13d cd47 1abe
000001e0: 9052 09be d21c 77bd b2e5 bbbd 72b9 253e
000001f0: cec5 4c3d ecec 193e f6c4 a83d 6f93 ee3d
00000200: e27a e9bd d3d2 283c ea1b d43d 0bc0 083e
00000210: 6125 0b3e ba7b 313d 92a5 a73d c613 ddbd
00000220: e366 12be 38ec dd3c 0c19 47bd 9d2f 0f3d
00000230: eced 0ebb 8460 37be b4b5 96bd d40d 86bd
00000240: 330a 2b3e 78f9 b53d 9e97 d53d 5f73 9ebd
00000250: 3ced bf3d 976f ecbc 0e4d f4bd 514e d8bd
00000260: 3494 cfbd fce7 b8bb 7717 933d 14e2 bd3d
00000270: bad9 2abe 3918 d1bd c516 543d c0b4 6bbd
00000280: 047b 15be 6fe9 9bbc 26fb ff3d d6de f83d
00000290: 4765 f53c eb37 af3d 5622 293e d950 c53d
000002a0: a113 e0bd 79e6 0e3e 9c4e 643d 85b5 28be
000002b0: cbaa 52bb 7ff7 b23d ab96 28be fc57 01be
000002c0: 16c3 db3d 4bb7 85bd 1541 2ebd d5a3 6bba
000002d0: 43ab b53d 67f9 0bbe c997 0e3d 6c1e 01be
000002e0: 06ad 183d b6d2 10be a78a b63d 6e03 98bd
000002f0: ff02 ecbd c6f2 843d 68af 03be 5d06 c03d
00000300: 35e2 c63d 9931 c4bd 2966 e7bd b95d 1a3c
00000310: 3943 e9bc a66b e53d 66c0 7ebd 0459 f0bd
00000320: 4178 1f3b 6cb7 11be 179f 57bd 1601 35be
00000330: e83a eb3c 5318 98bd bdfe 803b fe22 483c
00000340: b6db 1cbe ea6f 88bc e2a1 15be 2aaf 36be
00000350: 60e2 06be c1ad 5fbc d571 fc3d 4429 99bd
00000360: 12c9 b3bd f590 eabd 1734 9c3c bb9a f6bc
00000370: efb8 813d c38a 1ebe c4ca b5bd c604 f03d
00000380: b734 12be a8c6 483c 9951 24be 957f 223e
00000390: 0b48 e73c 92d6 04bd 9672 cdbc 0855 cf3d
000003a0: eb45 b6bd 12e3 5f3c bce5 c9bd ee65 d9bd
000003b0: 2880 15be 6285 313e 94a0 603d f1af 423d
000003c0: 0486 dbbd bffc 123e e075 11bd 2391 273e
000003d0: b747 ed3d 3c75 c3bd 0dbe 6cbd db64 a33c
000003e0: 54d1 c9bd cdc8 183d 9a08 b0bd 60b6 523b
000003f0: 2a12 cfbd dbfc 893d 3fdd 733d 26ff 73bd

graph_transformer_layer.0.attention.proj_e.bias f4 [16]
-0.171473 -0.04061579 -0.0072474326 -0.16138564 -0.053709753 -0.1664995 0.14474845 0.14778073
0.06445123 -0.16505763 -0.08699393 -0.12074902 -0.16247725 0.113174945 0.06289802 0.029719865
00000000: 9e96 2fbe be5c 26bd df7b edbb 4742 25be
00000010: c2fe 5bbd d87e 2abe f038 143e d553 173e
00000020: 02ff 833d de04 29be e029 b2bd 434b f7bd
00000030: 7060 26be 44c8 e73d add0 803d 1377 f33c

graph_transformer_layer.0.O_h.weight f4 [16, 16]
-0.11018725 -0.08719538 0.16876863 0.16759951 0.17435092 0.061295845 -0.15242507 0.14509167
0.080246866 0.17907315 -0.0017778547 -0.11143068 0.016806513 -0.1594594 0.118711874 0.072522186
0.14869827 -0.09845445 0.042008527 0.17177673 0.14918253 0.096132405 0.06299274 0.1178517
-0.111584574 -0.08254545 -0.111720674 -0.11109268 -0.07484983 0.11957355 -0.007905338 -0.118609264
0.17993005 -0.05197025 -0.15736686 -0.15059522 -0.0021227584 0.064011425 -0.16168603 0.16670895
-0.15501083 0.15794136 -0.15035932 0.0899023 -0.0957931 0.1869999 0.09287989 -0.15249987
-0.12634525 0.023879673 -0.12004251 -0.12061961 -0.02965111 -0.037215278 0.048179146 0.032888506
0.13207962 0.11179212 -0.12279509 0.1711404 -0.05174489 0.105249405 0.008373426 -0.17834452
0.08953904 -0.010560848 -0.13735674 0.09243477 -0.022274977 -0.10489895 -0.09456363 -0.1381514
-0.12449376 0.09255306 -0.17504755 -0.10501569 -0.0368754 -0.05242857 -0.010637425 -0.09143099
0.14438248 0.15038168 -0.0042644693 -0.0019574612 -0.07045021 -0.1429094 0.0929009 0.017186541
0.07704964 -0.029478313 0.08872726 0.109590426 -0.054049164 0.16843814 -0.017334856 0.0572711
-0.055459276 -0.04851181 -0.06330375 0.12625183 -0.15742567 0.044904172 -0.08666512 -0.12579682
0.12978882 0.04301898 0.0169469 0.18412252 0.06733939 -0.08970593 -0.12017025 0.031567864
0.0613132 0.16521606 0.07047881 -0.03304841 0.0222278 -0.025079915 -0.051505093 -0.12727307
-0.087962896 -0.034447964 -0.041782722 -0.13545592 -0.11330374 -0.09092068 -0.06560611 -0.06940161
-0.043811027 -0.18339884 0.01926798 0.13394481 0.06166493 0.027732952 0.0045312447 -0.08644138
-0.061660152 0.07664526 -0.032297004 -0.03198996 0.17937154 0.019709216 -0.11094813 0.057526097
0.05076498 0.1127311 -0.13064803 -0.054273743 -0.0012279974 -0.052184198 0.06184654 0.024079524
0.018050767 0.14630763 -0.07813063 -0.0626419 0.11225763 0.0084354 0.029703133 -0.13428609
-0.14308415 0.12017934 0.1267034 -0.0019734332 -0.14193305 0.0041195643 0.06320321 0.010619551
0.16514014 0.05129558 0.048773814 0.0037123985 0.11494621 -0.112646945 0.08980325 -0.13657527
0.052613307 0.1161909 0.15878867 -0.04698798 -0.11007574 -0.12279083 0.04768478 -0.022865633
-0.057016216 0.1609257 0.096129954 0.106853925 0.11702749 -0.16352725 -0.05250014 -0.13010176
0.0021040344 -0.06695401 -0.0018128263 0.011173688 -0.04107771 -0.120420754 0.03913373 0.028623765
-0.0071516507 -0.087360434 -0.12099125 0.042173687 0.1491233 -0.070411354 -0.008246491 0.15088415
-0.18157917 -0.14943817 0.16935906 0.16851938 -0.1397417 0.1461937 -0.17805324 0.09567122
-0.11826486 0.14669864 0.04538284 -0.08649621 0.13460168 0.0025043136 0.15477926 -0.17022684
-0.0513536 -0.05894674 0.047309138 -0.16615206 0.0027985813 -0.0019798125 -0.05374579 0.18085125
0.05416229 -0.0415855 0.14411093 0.04955028 -0.1638121 -0.040978987 -0.005731553 -0.0040749423
-0.15679067 0.116795376 -0.023651723 0.0069569447 -0.13385929 0.10360719 -0.053356245 0.0054906653
-0.109948285 0.10267819 -0.016499618 0.08673309 0.17733268 -0.16659556 0.0634388 0.011746922
00000000: daa9 e1bd 7e93 b2bd afd1 2c3e 359f 2b3e
00000010: 0c89 323e 5a11 7b3d 5115 1cbe e992 143e
00000020: 7858 a43d f45e 373e e806 e9ba c535 e4bd
00000030: d0ad 893c 5349 23be 361f f33d 8386 943d
00000040: 5c44 183e 7da2 c9bd 2211 2c3d 3de6 2f3e
00000050: 4ec3 183e 11e1 c43d 5602 813d 3b5c f13d
00000060: 7486 e4bd 970d a9bd cfcd e4bd 8f84 e3bd
00000070: de4a 99bd fae2 f43d 6485 01bc 6ae9 f2bd
00000080: 953f 383e c2de 54bd c724 21be a235 1abe
00000090: fa1d 0bbb 6c18 833d 0691 25be c0b5 2a3e
000000a0: 29bb 1ebe 61bb 213e cbf7 19be b21e b83d
000000b0: 2c2f c4bd e77c 3f3e d037 be3d ed28 1cbe
000000c0: a660 01be 4e9f c33c d9d8 f5bd 6a07 f7bd
000000d0: e2e6 f2bc 0c6f 18bd 7f57 453d 19b6 063d
000000e0: e13f 073e 44f3 e43d fe7b fbbd 6e3f 2f3e
000000f0: 73f2 53bd 008d d73d b230 093c f29f 36be
00000100: 3f60 b73d 6807 2dbc 3fa7 0cbe 714e bd3d
00000110: 037a b6bc 43d5 d6bd 94aa c1bd 9077 0dbe
00000120: 96f6 febd 758c bd3d aa3f 33be 7712 d7bd
00000130: a90a 17bd 57bf 56bd 9848 2ebc 2c40 bbbd
00000140: 00d9 133e a8fd 193e f6bc 8bbb c048 00bb
00000150: 3348 90bd d756 12be d442 be3d caca 8c3c
00000160: 34cc 9d3d 817c f1bc a3b6 b53d f270 e03d
00000170: a862 5dbd 0c7b 2c3e d401 8ebc 1a95 6a3d
00000180: 4429 63bd 52b4 46bd 65a5 81bd 2948 013e
00000190: 3234 21be 70ed 373d 7c7d b1bd e2d0 00be
000001a0: 5ce7 043e ac34 303d 3ad4 8a3c 9d8a 3c3e
000001b0: 3ce9 893d beb7 b7bd d21b f6bd 4e4d 013d
000001c0: 8d23 7b3d 662e 293e 3257 903d c55d 07bd
000001d0: 1317 b63c 6574 cdbc 01f7 52bd df53 02be
000001e0: e425 b4bd 4f19 0dbd 5c24 2bbd f5b4 0abe
000001f0: cb0b e8bd 9f34 babd 7f5c 86bd 6e22 8ebd
00000200: 3173 33bd e8cc 3bbe e2d7 9d3c d428 093e
00000210: 5e94 7c3d 3730 e33c d67a 943b 2e08 b1bd
00000220: 5b8f 7cbd 31f8 9c3d dd49 04bd e807 03bd
00000230: 2cad 373e 3975 a13c c638 e3bd 7ca0 6b3d
00000240: f1ee 4f3d 90df e63d 99c8 05be 254e 5ebd
00000250: c1f4 a0ba 19bf 55bd cc52 7d3d 6c42 c53c
00000260: 34df 933c abd1 153e f402 a0bd 654a 80bd
00000270: 54e7 e53d a234 0a3c fc53 f33c 4b82 09be
00000280: a784 12be 9620 f63d 89be 013e b754 01bb
00000290: e656 11be 69fd 863b af70 813d a0fd 2d3c
000002a0: 7f1a 293e 501b 523d 0dc7 473d b64b 733b
000002b0: eb68 eb3d 71b3 e6bd c4ea b73d 63da 0bbe
000002c0: 0d81 573d 7ff5 ed3d 7f99 223e 7876 40bd
000002d0: 646f e1bd c279 fbbd 1e51 433d b550 bbbc
000002e0: d689 69bd b5c9 243e c8df c43d 3bd6 da3d
000002f0: 1cac ef3d b073 27be 630a 57bd 6539 05be
00000300: d7e3 093b 2f1f 89bd 5b9c edba d811 373c
00000310: 1a41 28bd 289f f6bd b14a 203d 637c ea3c
00000320: 6558 eabb 07ea b2bd 43ca f7bd 51be 2c3d
00000330: c7b3 183e d433 90bd 4a1c 07bc 6081 1a3e
00000340: e4ef 39be 5206 19be 766c 2d3e 5890 2c3e
00000350: 7318 0fbe cdb3 153e 9753 36be 46ef c33d
00000360: d934 f2bd 2b38 163e 5be3 393d ed24 b1bd
00000370: 06d5 093e 691f 243b 747e 1e3e f24f 2ebe
00000380: 2758 52bd 2372 71bd 3ac7 413d c423 2abe
00000390: 6768 373b bebf 01bb 8c24 5cbd 1231 393e
000003a0: 47d9 5d3d 8f55 2abd d191 133e 3cf5 4a3d
000003b0: 5cbe 27be 95d9 27bd c0cf bbbb 1887 85bb
000003c0: bc8d 20be 6a32 ef3d 42c1 c1bc 15f7 e33b
000003d0: 6912 09be 0230 d43d 148c 5abd 0aeb b33b
000003e0: 912c e1bd f148 d23d 352a 87bc 1ea1 b13d
000003f0: b396 353e 0798 2abe 34ec 813d 2976 403c

graph_transformer_layer.0.O_h.bias f4 [16]
-0.015493396 -0.13880928 0.13917136 -0.061888553 0.03425649 -0.11876324 -0.12350397 0.021919152
-0.13769795 0.14677589 -0.03937839 -0.15342751 0.048256937 -0.03968347 -0.06835427 -0.13384248
00000000: 03d8 7dbc 0524 0ebe f082 0e3e da7e 7dbd
00000010: 8950 0c3d 243a f3bd a6ef fcbd cb8f b33c
00000020: b100 0dbe 6b4c 163e 3c4b 21bd 1a1c 1dbe
00000030: 11a9 453d 228b 22bd 53fd 8bbd 010e 09be
