checkpoints/casp15_official_v7_nogcpnet_fold3.ckpt (torch, 180487 bytes, 207 tensors)

resnet_embedding.node_embedding.weight f4 [16, 14]
0	0x3e92738e	0.28603786
1	0xbb9a0561	-0.0047003482
2	0xbe99b6bd	-0.3002223
3	0xbe0bf258	-0.13666666
4	0x3ea17969	0.3153794
5	0xbc8d47f7	-0.01724623
6	0x3d8203ac	0.063483566
7	0xbb2cc338	-0.0026361477
8	0x3bf22116	0.007389198
9	0xbe5233fb	-0.20527641
10	0x3dba9156	0.09109752
11	0x3cbae050	0.022812039
12	0x3eaba272	0.33522373
13	0xbe24265e	-0.16030261
14	0xbdcb9197	-0.099398784
15	0x3c9325b8	0.017962322
16	0x3e801cb9	0.25021914
17	0x3da3b859	0.07994146
18	0xbe3ab265	-0.18232115
19	0xbdb93c36	-0.090446874
20	0xbe9cdcd9	-0.30637243
21	0xbb5cf0b3	-0.0033712804
22	0x3e364bd4	0.17802364
23	0x3dd2411b	0.10266324
24	0x3e2ec676	0.17067894
25	0x3d926c19	0.07149524
26	0x3e4f24f7	0.20228945
27	0x3cbc70b7	0.023002965
28	0xbcdf5e51	-0.027266653
29	0x3e0ca8a2	0.13736203
30	0xbec3f8d6	-0.38275784
31	0xbdfc5156	-0.12320201
32	0xbd8701f2	-0.06592168
33	0xbe1942c6	-0.14966878
34	0xbc5da7dc	-0.01352879
35	0xbd4d26d8	-0.050085872
36	0xbd6e2c65	-0.058147807
37	0x3e949d31	0.29026178
38	0xbd9f0c26	-0.07765989
39	0x3e7ec630	0.2488029
40	0xbcfce9b7	-0.030873163
41	0x3e3bb248	0.18329728
42	0x3d9f587a	0.077805474
43	0x3df2e4f7	0.11860078
44	0x3ebdc8f7	0.37067387
45	0xbe43c4f9	-0.19118108
46	0x3e3c5c5e	0.1839461
47	0xbe13ccff	-0.14433669
48	0x3e10c0e0	0.14136076
49	0x3dc145e0	0.09437156
50	0x3e231e2a	0.15929475
51	0xbdfc1048	-0.12307793
52	0x3d15a1a9	0.036531124
53	0xbdad8ec9	-0.084745
54	0x3e0d44d0	0.13795781
55	0xbdda7fba	-0.10668893
56	0xbd4956d8	-0.049155086
57	0xbe37f310	-0.17963815
58	0xbe969953	-0.29413852
59	0x3e3d29a2	0.18472913
60	0xbdd5312a	-0.10409768
61	0x3bcfb96c	0.0063392427
62	0x3df68864	0.12037733
63	0xbda0f19d	-0.07858584
64	0x3e43f193	0.19135122
65	0xbe39456c	-0.18092889
66	0xbe80f89d	-0.25189677
67	0x3cd667df	0.026172576
68	0x3def89a7	0.11696177
69	0x3d567aea	0.052363314
70	0xbccf88fb	-0.025333872
71	0xbd78c526	-0.06073489
72	0x3efc5d81	0.49290088
73	0xbe51b9a9	-0.2048098
74	0x3e9971a3	0.2996951
75	0xbd9d87c4	-0.07691911
76	0xbe003f82	-0.12524226
77	0x3d556de5	0.052106757
78	0xbdfcab68	-0.12337381
79	0x3db97443	0.09055378
80	0x3d54ab1c	0.051920995
81	0xbd9642d4	-0.07336965
82	0x3e023100	0.12714005
83	0x3dbda396	0.09259717
84	0x3c09d629	0.008412876
85	0x3dd474fa	0.10373874
86	0x3d9a6002	0.07537843
87	0xbbcec464	-0.0063100327
88	0xbd66c219	-0.05633745
89	0xbd4fa216	-0.050691687
90	0x386dd5ae	5.6704208e-05
91	0xbec3f77e	-0.3827476
92	0x3e90fda1	0.28318503
93	0xbe4ec3e9	-0.20191921
94	0xbe03d96c	-0.12875909
95	0xbdc44f11	-0.09585393
96	0x3e194e5d	0.149713
97	0x3e8d0bd2	0.2754808
98	0x3ddb3a1e	0.10704444
99	0x3df5fbf9	0.120109506
100	0xbe2df636	-0.16988453
101	0x3db6bf11	0.08923162
102	0xbe9da623	-0.30790815
103	0xbcb2afb5	-0.0218123
104	0x3e90a77a	0.28252774
105	0xbb3756db	-0.0027975354
106	0xbd9109c9	-0.070819445
107	0x3bb52032	0.0055275196
108	0x3e54cc83	0.2078114
109	0x3d1f5265	0.038896937
110	0xbd990e4f	-0.07473432
111	0x3e17e8ab	0.1483485
112	0xbe2d3b35	-0.16917117
113	0x3ca2a4c6	0.01985396
114	0x3e59b921	0.21262027
115	0xbe6bb189	-0.23016943
116	0x3e1fef30	0.15618587
117	0xbd2ed7fa	-0.04268644
118	0x3db8e4ec	0.090280384
119	0xbdb5cc46	-0.08876853
120	0x3da2c84f	0.07948362
121	0x3b40204f	0.0029316132
122	0xbedc7b2d	-0.43062726
123	0x3dfc9d80	0.12334728
124	0xbdb632ce	-0.08896409
125	0x3c935208	0.017983451
126	0xbcd37b12	-0.02581552
127	0xbe22f81a	-0.15914956
128	0xbe2a880b	-0.16653459
129	0x3dafb1a4	0.08578804
130	0xbe864dda	-0.2623127
131	0x3d7da0d7	0.061920967
132	0x3e2dc469	0.16969456
133	0x3de9f443	0.11423542
134	0xbe3b5c8f	-0.18297027
135	0xbc7a1a7c	-0.015265103
136	0xbd02d087	-0.03193715
137	0x3d769d82	0.060208805
138	0x3dfdd674	0.12394419
139	0xbd863ec4	-0.0655494
140	0xbcc0ca07	-0.023533834
141	0xbc7a384d	-0.015272212
142	0xbe70c39a	-0.23512116
143	0x3db1cb4d	0.08681355
144	0x3e579569	0.21053089
145	0x3e978590	0.29594088
146	0xbf0d2e30	-0.551486
147	0xbc942ce1	-0.018087806
148	0xbdb94a1e	-0.0904734
149	0xbbbe4598	-0.005806636
150	0xbdbbc22d	-0.091678955
151	0xbd855749	-0.06510789
152	0x3c801b9e	0.015638169
153	0x3d8c1a6f	0.06840979
154	0xba8288d7	-0.0009958994
155	0x3e54e2e9	0.20789684
156	0x3f057baa	0.5214182
157	0xbe105a87	-0.14097033
158	0x3e8447fc	0.2583617
159	0xbdd8ceea	-0.10586341
160	0xbdd5f418	-0.10446948
161	0xbb7de6ef	-0.0038742383
162	0x3d62163f	0.055196997
163	0xbb1601d3	-0.002288927
164	0xbc9b9887	-0.01899363
165	0x3e1e9da5	0.15489824
166	0x3db1463d	0.08655975
167	0x3d3724f8	0.04471299
168	0xbdac27d4	-0.08406034
169	0xbd72adcf	-0.059247788
170	0x3cad106b	0.021125993
171	0xbe02f193	-0.12787466
172	0x3e1ef88b	0.15524499
173	0xbe3cfe56	-0.18456396
174	0x3caaff5b	0.020873716
175	0xbcbec4c2	-0.02328718
176	0xbe1645a6	-0.14675006
177	0x3dfeb351	0.12436546
178	0x3df90802	0.121597305
179	0xbd09f08f	-0.03367668
180	0x3e4cd831	0.20004345
181	0xbe01f6a3	-0.1269174
182	0xbd6e6ead	-0.058211017
183	0xbe4b0452	-0.19825867
184	0xbea688b8	-0.32526183
185	0x3e1ec45c	0.15504593
186	0x3c17911e	0.009250907
187	0xbda3744e	-0.07981168
188	0x3e267232	0.162545
189	0x3eb0848c	0.34476125
190	0xbe817532	-0.25284725
191	0x3da1c887	0.07899576
192	0xbe6dddb4	-0.23229104
193	0x3d849818	0.06474322
194	0x3e27001c	0.16308635
195	0x3e127f55	0.14306386
196	0xbd12d681	-0.035849098
197	0xbe8af374	-0.27138865
198	0x3cb5602a	0.022140581
199	0x3ea64be1	0.32479766
200	0x3eb332e9	0.3499978
201	0x3e2c0131	0.1679733
202	0x3e8df78f	0.27727935
203	0x3d71053a	0.058842875
204	0x3ddf75e2	0.10911156
205	0xbd476b0d	-0.048686076
206	0x3d109552	0.035298653
207	0x3d5725db	0.052526336
208	0xbe3dfd8e	-0.18553755
209	0x3e206552	0.1566365
210	0x3e97ef11	0.2967458
211	0x3d0a90af	0.033829387
212	0x3db11186	0.086459205
213	0x3df70bff	0.12062835
214	0x3e59231b	0.21204798
215	0x3e5069d9	0.20352878
216	0x3ea9186e	0.3302645
217	0xbddaf5b3	-0.10691395
218	0xbe4bd18c	-0.19904155
219	0x3dadc371	0.08484543
220	0xbde0b189	-0.10971362
221	0xbe0b7dcc	-0.13622206
222	0x3d422142	0.047395
223	0xbe9f4bd9	-0.31112555

resnet_embedding.node_embedding.bias f4 [16]
0	0x3dcad997	0.09904783
1	0x3e70d367	0.23518144
2	0xbc81ae55	-0.015830198
3	0xbaa3de24	-0.0012502116
4	0x3cb16cf8	0.021658406
5	0x3e2c65ab	0.16835658
6	0x3d4df0e3	0.050278556
7	0x3e1a529d	0.15070577
8	0x3c62831e	0.013825206
9	0x3dc18465	0.094490804
10	0xbe4b3409	-0.19844069
11	0x3e574609	0.2102281
12	0xbc7b35fe	-0.015332697
13	0x3da27dea	0.079341725
14	0x3e7691df	0.24079083
15	0x3cea4e08	0.028601661

resnet_embedding.bn_node.weight f4 [16]
0	0x3f857930	1.0427608
1	0x3fa4e03f	1.2880934
2	0x3f9b63ed	1.213987
3	0x3f83599e	1.0261724
4	0x3f6b9be8	0.9203477
5	0x3f9e679c	1.2375369
6	0x3f903f1b	1.1269258
7	0x3f8842ba	1.0645363
8	0x3f7f7d0d	0.9980019
9	0x3f5d8627	0.86532825
10	0x3f72fe6d	0.9491947
11	0x3f665892	0.899789
12	0x3f7ea23e	0.9946631
13	0x3f778168	0.96681833
14	0x3f68afee	0.9089345
15	0x3f8da114	1.1064782

resnet_embedding.bn_node.bias f4 [16]
0	0xbe854180	-0.26026535
1	0x3e150e59	0.14556254
2	0xbd29dc50	-0.041469872
3	0xbe3f1c8b	-0.18663232
4	0xbd96f801	-0.07371522
5	0xbce2bec9	-0.027678864
6	0xbe602d94	-0.21892387
7	0xbecae699	-0.39629057
8	0xbe9eb517	-0.30997536
9	0xbee96420	-0.45584202
10	0xbeda2329	-0.4260495
11	0xbe482b32	-0.19547728
12	0xbe2fb1b7	-0.17157637
13	0xbe639d5a	-0.22227994
14	0xbe514147	-0.20435058
15	0xbea9c872	-0.3316074

resnet_embedding.bn_node.running_mean f4 [16]
0	0x3e3214ca	0.17390743
1	0x3e99ed5d	0.30063906
2	0xbe171052	-0.1475232
3	0x3ebd0b1e	0.36922544
4	0xbe8e17d8	-0.27752566
5	0x3efc4162	0.49268633
6	0x3d482d82	0.048871525
7	0x3ea11f10	0.3146901
8	0xbd78aa7d	-0.060709465
9	0xbe12de2b	-0.14342563
10	0xbec4ba81	-0.3842354
11	0x3f4dd5a7	0.8040413
12	0xbe3992e2	-0.18122438
13	0x3cd41930	0.025890917
14	0x3f61a7a1	0.88146406
15	0x3f0fb03f	0.56128305

resnet_embedding.bn_node.running_var f4 [16]
0	0x3d17f767	0.037101176
1	0x3cf7b5b7	0.030238016
2	0x3d3fa4c3	0.04678799
3	0x3d141274	0.03615041
4	0x3c9709d2	0.0184373
5	0x3c9c76eb	0.019099673
6	0x3cb31bf4	0.021863915
7	0x3c7137eb	0.014722805
8	0x3caa545d	0.02079218
9	0x3c7f6cd7	0.015589914
10	0x3c770715	0.015077372
11	0x3d88a2ad	0.06671653
12	0x3c420728	0.0118425265
13	0x3c8a34f4	0.016870953
14	0x3dd1823f	0.102299206
15	0x3dd6b8a6	0.10484438

resnet_embedding.edge_embedding.weight f4 [16, 4]
0	0xbdbc8939	-0.09205861
1	0xbe33ee78	-0.17571437
2	0x3e67eff6	0.22650132
3	0x3ca71e16	0.020400088
4	0xbefcbaf0	-0.49361372
5	0x3e5d7fa2	0.2163072
6	0x3e1e7cd0	0.154773
7	0x3de15cf9	0.11004061
8	0xbe8cced4	-0.27501547
9	0x3e5a7b23	0.21336035
10	0xbe896881	-0.26837543
11	0xbe65514b	-0.22394292
12	0x3f2a4c62	0.665228
13	0xbd827601	-0.06370164
14	0x3e2bcc63	0.16777186
15	0x3c2be536	0.01049166
16	0xbeeef242	-0.46669203
17	0xbe87a6c4	-0.2649442
18	0xbe5c1d05	-0.21495445
19	0x3c102de0	0.0088
20	0xbdf804e5	-0.121103086
21	0xbddf592b	-0.10905679
22	0x3ea32a72	0.3186832
23	0xbd9daef4	-0.07699385
24	0xbca2509e	-0.019813832
25	0xbe42e6e2	-0.19033387
26	0xbe8c8954	-0.27448523
27	0x3eceb891	0.40375188
28	0x3ea870ca	0.3289855
29	0xbe9e5a57	-0.309283
30	0x3c88dadd	0.016705925
31	0xbf0b61b2	-0.54445946
32	0x3f030c85	0.5119098
33	0x3e993313	0.2992178
34	0xbdfbd430	-0.12296331
35	0xbd6c7723	-0.057730805
36	0xbf168969	-0.5880342
37	0xbe6f242a	-0.23353639
38	0xbeb5add8	-0.35484195
39	0x3d9f9b0c	0.07793245
40	0xbe626a79	-0.22110929
41	0xbe59d7c4	-0.21273714
42	0x3ea21bc6	0.31661814
43	0xbea7f177	-0.3280141
44	0x3dcc6647	0.09980445
45	0x3f5c1942	0.8597604
46	0x3d3a6869	0.04550973
47	0xbbd8fd2a	-0.0066219764
48	0x3efa8f65	0.48937526
49	0xbdd16865	-0.1022499
50	0x3ef2b84b	0.4740623
51	0xbda416a7	-0.08012133
52	0x3ea83fe9	0.3286126
53	0xbeff05a8	-0.49809003
54	0xbdb79f17	-0.08965891
55	0x3d024b49	0.03181008
56	0x3e820b40	0.25399208
57	0x3e9c9a0e	0.30586284
58	0xbdcc880d	-0.09986887
59	0x3e28c981	0.16483118
60	0xbda0753a	-0.07834859
61	0x3f05a3a0	0.52202797
62	0xbed7f853	-0.42181644
63	0xbe519402	-0.20466617

resnet_embedding.edge_embedding.bias f4 [16]
0	0x3e1254d4	0.14290172
1	0xbd0d02d3	-0.03442652
2	0xbea384b6	-0.31937188
3	0xba988f07	-0.0011639305
4	0x3ebe0c31	0.37118676
5	0x3ed97167	0.42469332
6	0xbec3ce9f	-0.38243577
7	0xbed86dd9	-0.42271307
8	0x3ea61143	0.32435045
9	0x3e28d15c	0.16486114
10	0xbe5da9cd	-0.21646805
11	0x3eb0c43e	0.3452472
12	0xbebf1e75	-0.37327924
13	0x3ebc79a5	0.36811557
14	0xbdfbee93	-0.12301364
15	0x3ce5e636	0.028063875

resnet_embedding.bn_edge.weight f4 [16]
0	0x3f735ef9	0.9506679
1	0x3f96ea9b	1.1790346
2	0x3f846b8e	1.0345323
3	0x3f74851f	0.95515627
4	0x3f89e6d2	1.0773566
5	0x3f8ea73b	1.1144785
6	0x3f919e6d	1.1376473
7	0x3f6b52e7	0.91923374
8	0x3f94ddf3	1.1630234
9	0x3f933f17	1.1503628
10	0x3f974d65	1.1820494
11	0x3f87356f	1.0563182
12	0x3f74d202	0.95632946
13	0x3fb162aa	1.3858235
14	0x3f8c2c05	1.0950934
15	0x3f8f2124	1.1181989

resnet_embedding.bn_edge.bias f4 [16]
0	0xbe03ad8c	-0.12859172
1	0xbda61e8d	-0.08111296
2	0x3d3dd689	0.046347175
3	0x39cd2db4	0.00039134698
4	0xbe3a43f9	-0.18189992
5	0x3e54c483	0.20778088
6	0x3e6b8822	0.2300115
7	0x3d237805	0.03990938
8	0x3d4e2763	0.05033053
9	0xbdd143e8	-0.1021803
10	0x3e5b795d	0.21433015
11	0xbdb56c8b	-0.088585936
12	0xbd753239	-0.05986235
13	0x3d89f0ff	0.067354195
14	0x3aa3fcbd	0.0012511235
15	0xbc685a8a	-0.014181742

resnet_embedding.bn_edge.running_mean f4 [16]
0	0x3dd86ca0	0.105675936
1	0xbe041088	-0.12896931
2	0xbf108582	-0.56453717
3	0x3ef36c3d	0.47543517
4	0xbe357e75	-0.17724021
5	0x3edbbcb4	0.42917407
6	0xbf0ad945	-0.54237777
7	0xbeffdbbf	-0.4997234
8	0x3f3d8f49	0.7404676
9	0xbefee777	-0.4978597
10	0xbec8b390	-0.39199495
11	0x3f668276	0.9004282
12	0x3dd05e7d	0.10174272
13	0x3e8979a3	0.26850614
14	0x3e477d13	0.19481306
15	0x3ba571cf	0.0050489674

resnet_embedding.bn_edge.running_var f4 [16]
0	0x3b3f64aa	0.0029204288
1	0x3bf805df	0.0075690593
2	0x3ca72597	0.020403666
3	0x3d5f9304	0.054583564
4	0x3db5cf77	0.088774614
5	0x3c072407	0.008248336
6	0x3d6527a9	0.055946026
7	0x3d423623	0.04741491
8	0x3d411f9a	0.04714928
9	0x3e0cacee	0.13737842
10	0x3cef3714	0.029201068
11	0x3df41e7a	0.119198754
12	0x3d9d8259	0.076908775
13	0x3c8cdb06	0.017194282
14	0x3cee3188	0.029076353
15	0x3c698afe	0.01425433

graph_transformer_layer.0.attention.Q.weight f4 [16, 16]
0	0x3ebc9cdc	0.36838424
1	0x3d27dcd8	0.040982097
2	0xbe86d0ae	-0.26331085
3	0x3def76ec	0.116926044
4	0xbe9834bd	-0.29727736
5	0x3eaf3683	0.34221277
6	0x3e5dff55	0.21679433
7	0x3e37133e	0.17878434
8	0x3cb3d2cf	0.021951107
9	0xbe93870a	-0.28813964
10	0xbe599d09	-0.2125131
11	0x3ef559f2	0.47920185
12	0x3d73a3ab	0.059482258
13	0x3c04cc60	0.008105367
14	0x3df9a1b3	0.12189045
15	0x3ebd048f	0.3691754
16	0x3e0f0586	0.13966951
17	0x3cd3f8fb	0.02587556
18	0xbe3d663d	-0.18496032
19	0x3e78b0d3	0.24286203
20	0x3ebae585	0.36503235
21	0x3e01a6dc	0.12661308
22	0x3e13a1fc	0.14417261
23	0xbe16f798	-0.14742887
24	0x3f1a9fbd	0.6039999
25	0x3ec8bbf7	0.39205906
26	0x3e84420a	0.25831634
27	0x3e2618f9	0.16220464
28	0x3ea3fca8	0.320287
29	0x3e7403de	0.238296
30	0x3e721415	0.23640473
31	0x3dde41f0	0.1085242
32	0x3ebaba7b	0.36470398
33	0x3e875c23	0.26437482
34	0xbe97b4b6	-0.2963006
35	0x3eba584d	0.36395493
36	0x3d6db1ad	0.058030773
37	0x3e73a226	0.23792323
38	0x3e8ec129	0.27881745
39	0x3d789ae7	0.0606946
40	0x3b9f226d	0.004856399
41	0xbe5ddce7	-0.21666299
42	0xbf2a27bf	-0.664669
43	0x3ea88cbd	0.32919875
44	0x3da34044	0.07971242
45	0xbe80d9ba	-0.25166112
46	0xbcb8aed2	-0.022544298
47	0x3e6eecc5	0.23332508
48	0xbe85ed2c	-0.2615751
49	0xbe88a727	-0.26690027
50	0xbe0c3385	-0.13691528
51	0xbea191e3	-0.31556615
52	0xbe76a62f	-0.24086832
53	0xbe2076c9	-0.15670313
54	0xbee1573c	-0.44011867
55	0xbcf4756a	-0.029841144
56	0x3e1d7a2f	0.1537864
57	0xbe2fe875	-0.17178519
58	0xbe96dfdb	-0.29467663
59	0xbe83e26a	-0.25758678
60	0xbed005ee	-0.40629524
61	0xbf217024	-0.6306174
62	0x3db1decc	0.08685073
63	0xbe8dcb48	-0.27694154
64	0xbe5188fc	-0.20462412
65	0xbe1b6e7a	-0.15178862
66	0xbdd1a624	-0.10236767
67	0xbc714cfd	-0.014727828
68	0xbeee2062	-0.4650908
69	0x3d89baae	0.067250594
70	0xbd33c03e	-0.04388451
71	0x3ea233f1	0.31680253
72	0xbf527eb9	-0.82224613
73	0xbec45eb7	-0.38353512
74	0x3d288414	0.041141585
75	0xbdd8ffc3	-0.10595658
76	0xbe44dc35	-0.19224627
77	0xbf0633ef	-0.52422994
78	0xbe3e0f47	-0.18560515
79	0xbe84d0d5	-0.25940576
80	0xbeb6f952	-0.3573709
81	0xbe0c95ab	-0.13728969
82	0xbdd66823	-0.10469081
83	0x3d95ff8b	0.073241316
84	0x3f123bdc	0.5712259
85	0xbe0982d8	-0.13428819
86	0x3d7fe77d	0.062476624
87	0xbf30b6d2	-0.6902896
88	0xbdbfc34f	-0.09363424
89	0xbe9e3dc7	-0.30906507
90	0x3e092ded	0.13396426
91	0xbf256377	-0.64604896
92	0xbe481d4e	-0.19542429
93	0xbd419151	-0.047257725
94	0x3d011548	0.031514436
95	0xbdce8971	-0.100848086
96	0xbe0385b8	-0.12843978
97	0xbe9038df	-0.2816839
98	0xbe51a00b	-0.20471208
99	0xbe09f395	-0.13471825
100	0xbe927648	-0.28605866
101	0xbc983632	-0.01858053
102	0xbcc48fd1	-0.023994358
103	0xbd46a9f9	-0.048501942
104	0xbe9d4367	-0.30715486
105	0xbf092558	-0.5357261
106	0x3ecd29cd	0.40070954
107	0xbe42fb8c	-0.1904127
108	0xbe6f3153	-0.2335866
109	0xbe6db7d9	-0.23214664
110	0x3e1669af	0.14688753
111	0x3d01c778	0.03168437
112	0x3e4c3f30	0.19945979
113	0x3e307d46	0.17235288
114	0xbd1efdf7	-0.03881642
115	0x3e1fa681	0.1559086
116	0xbef818bd	-0.48456374
117	0x3e9825d3	0.29716358
118	0xbca5fc92	-0.020262036
119	0x3d782aaf	0.06058758
120	0xbdf815ce	-0.12113534
121	0x3ddc5478	0.10758299
122	0x3f2e3339	0.6804691
123	0x3e30cb25	0.17264993
124	0x3f11f945	0.5702098
125	0x3eeb900f	0.46008345
126	0x3ec1ad71	0.37827638
127	0xbcb82e27	-0.022482945
128	0x3ea5ad7a	0.32358915
129	0xbe0c8c12	-0.13725308
130	0x3e1e591f	0.15463684
131	0x3bf6a0b5	0.007526482
132	0xbcf273d5	-0.029596249
133	0x3e5ab61f	0.21358536
134	0x3cf86508	0.030321613
135	0x3e3ee710	0.18642831
136	0xbe39b8f5	-0.18136962
137	0x3e46c7d0	0.1941216
138	0x3e8792a0	0.26479053
139	0x3ec0b5c2	0.3763867
140	0x3e16fd56	0.14745077
141	0x3dfb0973	0.12257662
142	0x3ec27850	0.37982416
143	0x3e24fd9b	0.16112368
144	0xbe42775f	-0.18990849
145	0x3d8f8813	0.07008376
146	0x3e31caf3	0.17362575
147	0xbee2e108	-0.4431231
148	0xbdde2a73	-0.1084794
149	0xbe8c2f88	-0.27380013
150	0xbd8b075b	-0.06788512
151	0xbe4beba0	-0.19914103
152	0xbec5622f	-0.3855147
153	0xbe598e30	-0.21245646
154	0x3ebdb83d	0.37054625
155	0xbe862f40	-0.26207924
156	0xbd4c62f7	-0.049899068
157	0xbd478bf7	-0.048717465
158	0xbe9f8e13	-0.31163082
159	0xbe145b9f	-0.14488076
160	0xbec55347	-0.38540098
161	0xbd9fc0ab	-0.078004204
162	0x3c91b4f0	0.017786473
163	0xbe616a6f	-0.22013257
164	0xbddef9e3	-0.10887506
165	0xbe72609d	-0.23669668
166	0xbdad4322	-0.0846007
167	0xbd575528	-0.052571446
168	0x3dfbde12	0.12298216
169	0xbe684585	-0.2268277
170	0x3eae7bcb	0.34078822
171	0xbde3a066	-0.11114578
172	0xbe8cae0b	-0.27476534
173	0xbe9ec786	-0.310116
174	0xbd73d5e2	-0.059530146
175	0xbe85b2a0	-0.26112843
176	0x3e18397c	0.14865679
177	0x3db4e473	0.08832636
178	0x3d6ae336	0.05734559
179	0x3ed02073	0.40649757
180	0x3e69cdee	0.22832462
181	0x3cbdbdf2	0.023161862
182	0x3ee07155	0.43836465
183	0xbcb7712c	-0.022392832
184	0x3dfb1398	0.122595966
185	0xbf0131aa	-0.50466406
186	0xbf21e65c	-0.63242126
187	0xbcf53c6a	-0.029936034
188	0x3dca8dd9	0.098903365
189	0xbec50d73	-0.38486823
190	0x3e72b510	0.23701882
191	0x3e059990	0.1304686
192	0xbe8bfc19	-0.27340773
193	0xbe30cf94	-0.17266685
194	0xbe0d0f4b	-0.13775365
195	0xbd992b23	-0.07478931
196	0x3e9837c3	0.29730043
197	0xbf03cabe	-0.51481235
198	0x3e2840c2	0.16430953
199	0xbd10dacf	-0.035364922
200	0xbe25d962	-0.16196206
201	0x3d65a8a0	0.056069016
202	0xbe21c65b	-0.15798323
203	0xbe24a2a9	-0.16077675
204	0xbe0fe28a	-0.14051262
205	0xbdc454df	-0.095865004
206	0x3e324df8	0.17412555
207	0x3e585dcb	0.21129529
208	0xbe51e5f7	-0.20497881
209	0x3dd52a48	0.10408455
210	0x3dfda3b7	0.12384742
211	0xbe612b48	-0.21989167
212	0x3e47f469	0.19526829
213	0xbe899be3	-0.26876745
214	0xbd9b73b5	-0.07590429
215	0x3dafe9c1	0.08589507
216	0xbf0beb6e	-0.5465611
217	0x3dcb424b	0.09924754
218	0xbf2e5c4b	-0.6810958
219	0xbe0acf31	-0.135556
220	0xbd157283	-0.03648616
221	0x3deef2b0	0.11667383
222	0xbee0b466	-0.43887633
223	0xbee1f176	-0.44129533
224	0xbe51e64c	-0.20498008
225	0xbe86f628	-0.26359677
226	0xbc25bdc6	-0.010116046
227	0xbed5c388	-0.4175074
228	0x3ece8f19	0.4034355
229	0xbf014de0	-0.5050945
230	0xbe56964c	-0.20955771
231	0xbe44571a	-0.19173852
232	0x3d1b2df9	0.03788564
233	0x3ec4de8d	0.38451043
234	0x3e7acb38	0.24491584
235	0xbf378b4c	-0.71696925
236	0xbeef315e	-0.46717352
237	0xbd742998	-0.05960998
238	0xbe88beb9	-0.2670801
239	0xbec4c628	-0.3843243
240	0xbd67f004	-0.05662538
241	0x3ce76872	0.028248046
242	0xbf2db1a7	-0.678492
243	0xbe3250ef	-0.17413686
244	0xbe85f479	-0.2616308
245	0xbe9a828d	-0.30177727
246	0xbe340525	-0.17580087
247	0xbe8d8029	-0.2763684
248	0xbf1b3dbe	-0.60641086
249	0xbf8534d3	-1.0406746
250	0xbf153d0a	-0.58296263
251	0xbddba62e	-0.10725056
252	0xbe7701bc	-0.24121755
253	0xbf32b0b1	-0.6980086
254	0xbe1f58d0	-0.15561223
255	0x3e0ef3ee	0.1396024

graph_transformer_layer.0.attention.Q.bias f4 [16]
0	0x3ea3a26c	0.31959856
1	0x3ef4713a	0.47742635
2	0xbe1324b1	-0.14369465
3	0xbddad9ed	-0.10686097
4	0xbee0bb30	-0.43892813
5	0xbdce4319	-0.100713916
6	0xbe0e2dca	-0.13884655
7	0x3ee0d0a0	0.43909168
8	0x3e9161de	0.2839498
9	0xbeb2b7ed	-0.3490595
10	0xbeb60fe9	-0.35559013
11	0x3ceb6bb2	0.028737877
12	0xbee24afe	-0.4419784
13	0xbe95a38a	-0.29226333
14	0xbeceb030	-0.40368795
15	0xbdb78723	-0.08961322

graph_transformer_layer.0.attention.K.weight f4 [16, 16]
0	0x3e565808	0.20932019
1	0x3d346d83	0.04404975
2	0xbe42ee82	-0.19036296
3	0xbdb2f3c5	-0.087379016
4	0x3cb2d1af	0.0218285
5	0x3c5c0129	0.013428011
6	0x3ed21bb7	0.4103677
7	0x3e8e907e	0.27844614
8	0xbef4e7c7	-0.47833082
9	0xbd0b95e3	-0.03407849
10	0x3db66487	0.08905893
11	0x3e4c8000	0.19970703
12	0x3d065de7	0.032804396
13	0x3d670cf8	0.056408852
14	0x3e0ac445	0.13551433
15	0x3ea5d9a3	0.32392606
16	0xbe117e35	-0.142083
17	0xbe3bbd07	-0.18333827
18	0x3ea710be	0.3262996
19	0xbe9a8be2	-0.30184847
20	0xbd2aa75d	-0.041663516
21	0xbee1865e	-0.44047827
22	0xbea976fb	-0.33098587
23	0xbd612860	-0.054970145
24	0xbe9e7e8b	-0.3095592
25	0x3e22d1a1	0.1590028
26	0x3e8eb41f	0.27871796
27	0xbe668422	-0.22511342
28	0x3e1e8d05	0.15483482
29	0xbd752e10	-0.05985838
30	0xbe30a9e8	-0.17252314
31	0xbe03e024	-0.12878472
32	0x3e58e45d	0.21180864
33	0xbe876a9e	-0.2644853
34	0xbf1416cc	-0.57847285
35	0xbd8e1bb3	-0.06938877
36	0xbe1497db	-0.14511053
37	0x3dce3fae	0.1007074
38	0x3d60b2f4	0.054858163
39	0xbd4f4ec6	-0.050612234
40	0xbf07f906	-0.53114355
41	0xbe2ede70	-0.1707704
42	0xbd7df955	-0.06200536
43	0x3e82510a	0.25452453
44	0x3dbec438	0.093147695
45	0xbef1ae2f	-0.47203204
46	0x3b1aff29	0.0023650622
47	0xbdea3097	-0.11435049
48	0x3c5c2c53	0.013438302
49	0xbbb66f50	-0.0055674687
50	0xbef2578f	-0.47332427
51	0x3e801779	0.25017908
52	0xbe1a2ae1	-0.1505542
53	0xbcd5430c	-0.026032947
54	0xbed73a35	-0.42036596
55	0x3d0d38e1	0.034478072
56	0x3d3887aa	0.045051254
57	0xbd007507	-0.031361606
58	0xbd9e9905	-0.0774403
59	0xbe0606cc	-0.1308853
60	0x3ec3218b	0.3811153
61	0xbe12dfe7	-0.14343224
62	0x3d2928bd	0.041298617
63	0x3cf310a8	0.029671028
64	0xbe882694	-0.26591933
65	0x3cb79034	0.022407629
66	0x3dc69945	0.096972026
67	0x3f29e54c	0.66365504
68	0x3dd2d82a	0.10295136
69	0x3e8fde57	0.2809932
70	0x3edc0aa1	0.4297686
71	0xbdbbc030	-0.09167516
72	0xbe1e71f7	-0.15473162
73	0x3cdc961a	0.026927043
74	0x3e366114	0.1781047
75	0x3ee77cd0	0.45212412
76	0xbc98d3fc	-0.01865577
77	0xbd90731a	-0.07053204
78	0x3de136cc	0.1099678
79	0xbe6c466b	-0.23073737
80	0x3cf39976	0.029736262
81	0xbe9f7fc0	-0.31152153
82	0xbe1b3a54	-0.15158969
83	0x3ed523b8	0.41628814
84	0xbe831cfe	-0.25608057
85	0xbd948214	-0.07251373
86	0xbcec5ea6	-0.028853726
87	0xbd87f5aa	-0.066386536
88	0xbf22324b	-0.6335799
89	0xbe66fcb1	-0.22557332
90	0xbeb88838	-0.36041427
91	0x3dd1309e	0.10214351
92	0xbe8facd6	-0.2806155
93	0xbdd7505f	-0.105133764
94	0x3e7a5b9a	0.24449006
95	0x3e9aaea2	0.3021136
96	0x3e744cf1	0.23857476
97	0x3e14948d	0.14509793
98	0xbe9a79ab	-0.3017095
99	0x3d877bb8	0.06615394
100	0x3e1074ac	0.14107007
101	0x3dd7d986	0.10539536
102	0xbe916de3	-0.2840415
103	0xbe944abd	-0.2896327
104	0xbea200b2	-0.31641155
105	0x3e0e1aff	0.13877486
106	0xbbdade0e	-0.006679303
107	0x3e8a2830	0.26983786
108	0x3eae062b	0.3398908
109	0x3bc036cb	0.005865907
110	0x3e9f9839	0.31170824
111	0x3c40e2ba	0.011772806
112	0x3debb610	0.11509335
113	0xbe8f32ef	-0.27968547
114	0xbe0d6de9	-0.13811459
115	0xbeb496d1	-0.35271314
116	0xbdf65496	-0.12027852
117	0xbd0a1120	-0.033707738
118	0x3e741945	0.23837765
119	0xbe7c6ebd	-0.24651618
120	0x3ea2770e	0.31731457
121	0x3dcf348b	0.10117444
122	0x3d8a0c44	0.06740621
123	0xbe068af7	-0.13138948
124	0xbe91d993	-0.28486308
125	0x3f10676c	0.5640781
126	0xbda1067d	-0.07862566
127	0x3e81c028	0.25341916
128	0x3e86e601	0.26347354
129	0xbcbd565d	-0.02311247
130	0x3de4d666	0.11173706
131	0xbe9917d5	-0.29900995
132	0xbd15dddd	-0.03658854
133	0xbebc54ab	-0.36783347
134	0x3e4e7a0d	0.20163746
135	0xbe7c69be	-0.24649712
136	0x3e925747	0.28582212
137	0xbd97f90e	-0.0742055
138	0x3e8dc3a0	0.27688313
139	0xbe8ccd55	-0.27500406
140	0x3ea1304c	0.3148216
141	0x3e80bfcc	0.2514633
142	0xbe6d62d8	-0.23182237
143	0x3e977747	0.2958319
144	0x3d238818	0.03992471
145	0xbee33537	-0.44376537
146	0xbeed681d	-0.46368495
147	0xbeba4cab	-0.36386618
148	0x3dd876d8	0.10569543
149	0xbe1fea1a	-0.15616646
150	0x3e8ac6ae	0.27104706
151	0x3e0b8b10	0.13627267
152	0xbe66ab49	-0.22526278
153	0xbd34f408	-0.04417804
154	0xbebd33d0	-0.36953592
155	0x3cc405d9	0.02392857
156	0xbd38acb4	-0.045086578
157	0xbe395763	-0.18099742
158	0x3cb793c7	0.022409333
159	0x3f351831	0.7074004
160	0x3d2dfcef	0.042477544
161	0x3e0821c9	0.13294138
162	0xbd46556d	-0.048421312
163	0x3e56b992	0.20969227
164	0x3e79e243	0.24402718
165	0xbd9f5585	-0.077799834
166	0x3e4b0c7c	0.19828981
167	0xbe76e119	-0.24109305
168	0x3f124373	0.5713417
169	0xbe54e882	-0.2079182
170	0xbeec1fb6	-0.46117944
171	0x3da1d6cf	0.079022996
172	0xbde9991c	-0.114061564
173	0x3e2a828f	0.16651367
174	0xbdb909fd	-0.09035108
175	0xbe47897d	-0.19486041
176	0xbe41d4ec	-0.1892888
177	0xbe16e8a7	-0.14737187
178	0x3d52839d	0.051395047
179	0xbd72b1da	-0.059251644
180	0xbeb40df8	-0.35166907
181	0xbbb50c1d	-0.0055251257
182	0xbe0b12a3	-0.13581328
183	0x3c4d69d4	0.012537438
184	0x3f2a7368	0.66582346
185	0xbdffc10d	-0.124879934
186	0xbde3431f	-0.11096787
187	0xbcb875d8	-0.02251713
188	0xbe3b7bb8	-0.18308914
189	0x3e88750c	0.266518
190	0x3da2e324	0.0795348
191	0x3e267097	0.16253887
192	0x3e1a19a9	0.15048851
193	0xbe652444	-0.22377115
194	0xbe455458	-0.19270456
195	0x3e158710	0.14602304
196	0xbee28485	-0.4424173
197	0x3e1b1bc8	0.15147316
198	0x3e036c14	0.12834197
199	0x3ea7923b	0.32728752
200	0xbd428286	-0.047487758
201	0xbf16551f	-0.58723634
202	0xbe6926b5	-0.22768672
203	0x3dd6b111	0.104829915
204	0xbe4c599b	-0.19956057
205	0xbe78291b	-0.2423443
206	0x3e2fb184	0.1715756
207	0xbcde60db	-0.027145794
208	0x3e625b11	0.22105052
209	0xbec03ed8	-0.37547946
210	0x3d93757b	0.07200142
211	0xbe890c88	-0.26767373
212	0xbde07004	-0.10958865
213	0xbe818e8b	-0.25304064
214	0x3e5e34b4	0.21699792
215	0x3f3ba929	0.7330499
216	0xbd061b21	-0.032740716
217	0x3d8a5630	0.0675472
218	0x3ebf8b68	0.37411046
219	0xbe35bf92	-0.1774886
220	0xbe32fe94	-0.17479926
221	0x3ecdbac2	0.40181547
222	0xbdef7dab	-0.11693891
223	0xbe2267eb	-0.15859954
224	0x3f066c30	0.5250883
225	0xbf0b2700	-0.54356384
226	0x3dd22aad	0.10262046
227	0x3ddc4d93	0.107569836
228	0x3ef02572	0.46903569
229	0xbe0cb6ac	-0.13741559
230	0x3ea3a701	0.3196335
231	0x3ea52f2f	0.3226256
232	0x3eb653e8	0.3561089
233	0x3d67d318	0.0565978
234	0xbe6bfc57	-0.23045479
235	0xbd13c162	-0.036073096
236	0xbdb3cf86	-0.08779816
237	0x3b150d9d	0.002274371
238	0x3d5c2e58	0.053755134
239	0x3eb47c7c	0.35251224
240	0x3f02c8d2	0.5108768
241	0xbe4a819e	-0.19776008
242	0xbf12286b	-0.5709292
243	0x3e303311	0.1720698
244	0xbe2199b6	-0.15781292
245	0xbe9b0d1e	-0.30283445
246	0xbda9ef35	-0.08297578
247	0x3d48d79c	0.049033746
248	0xbe233165	-0.15936811
249	0x3e0552a9	0.13019814
250	0x3ef59c05	0.47970596
251	0x3e0bbf9d	0.13647313
252	0x3ca7d47d	0.020487064
253	0xbf1def8c	-0.61693645
254	0xbe41fca9	-0.18944038
255	0x3f0012c2	0.5002862

graph_transformer_layer.0.attention.K.bias f4 [16]
0	0xbd035b8f	-0.03206974
1	0xbbe17ec6	-0.0068815676
2	0xbeb9d5a7	-0.36295816
3	0xbe6adc09	-0.22935499
4	0x3e306900	0.17227554
5	0x3e741cbd	0.23839088
6	0x3e54e3e3	0.20790057
7	0xbdeef4d7	-0.11667793
8	0x3c91205f	0.017715631
9	0xbe407103	-0.1879311
10	0xbe52253b	-0.20522015
11	0xbdcca710	-0.09992802
12	0xbef3de12	-0.47630364
13	0xbe90bf6e	-0.2827105
14	0xbe4fc998	-0.20291746
15	0x3d1c4b3e	0.038157694

graph_transformer_layer.0.attention.V.weight f4 [16, 16]
0	0xbdbc60c0	-0.09198141
1	0xbd85f911	-0.06541646
2	0x3e9ac60f	0.30229232
3	0xbed159c7	-0.40888807
4	0x3bb4ea5e	0.005521103
5	0x3cf57024	0.0299607
6	0xbd715f3f	-0.058928724
7	0xbe970275	-0.29494062
8	0x3d7ebb65	0.062190432
9	0x3e52a9f8	0.2057265
10	0x3d28879d	0.041144956
11	0xbbdc7382	-0.006727637
12	0xbdd15320	-0.10220933
13	0x3da80696	0.08204381
14	0x3deb26e0	0.11482024
15	0xbe860f9b	-0.2618378
16	0x3ebe1b83	0.37130365
17	0xbe2fd176	-0.17169747
18	0x3d180cfd	0.03712176
19	0xbb78c346	-0.003795819
20	0x3e01b704	0.12667471
21	0xbe9af1f5	-0.30262724
22	0x3e611a05	0.21982582
23	0x3eacca26	0.33747977
24	0x3d8f987c	0.07011506
25	0xbd60823e	-0.05481171
26	0xbca0868f	-0.019595413
27	0xbdeeed2b	-0.1166633
28	0xbd931274	-0.07181254
29	0x3de1caed	0.11025033
30	0x3e33835b	0.17530577
31	0xbd41a764	-0.047278777
32	0xbd9b4df3	-0.07583227
33	0x3e622ca0	0.22087336
34	0x3d5eaac8	0.05436209
35	0xbe32ce44	-0.17461497
36	0x3d1d9ce6	0.038479708
37	0xbdfc92e6	-0.12332706
38	0x3e6dc4eb	0.2321965
39	0xbd4a987f	-0.049461838
40	0x3c72e323	0.014824661
41	0x3deadd2f	0.11467969
42	0xbc7b4a56	-0.015337547
43	0xbea1074e	-0.31450886
44	0x3c2919f1	0.010321126
45	0xbd1ae8fd	-0.03781985
46	0xbea4c2a1	-0.3217974
47	0xbe965a45	-0.29365745
48	0x3de9d5f5	0.11417762
49	0xbdd29db4	-0.10283986
50	0xbe9a410f	-0.3012776
51	0x3d2f3bd7	0.042781677
52	0xbd298f49	-0.041396413
53	0x3ec936c2	0.3929959
54	0xbea6e7c8	-0.3259871
55	0x3e6812a5	0.22663362
56	0x3d1e6025	0.03866591
57	0x3e85b935	0.26117864
58	0xbde43fea	-0.11145003
59	0x3cdd3ad9	0.0270056
60	0x3e7e06c7	0.24807273
61	0xbe73e197	-0.23816524
62	0xbe233201	-0.15937044
63	0xbce3994b	-0.027783057
64	0x3e854b2d	0.26033917
65	0xbd7424a1	-0.059605245
66	0x3e7f31e4	0.24921376
67	0xbe9aae5a	-0.30211145
68	0x3e167afb	0.14695351
69	0xbde8af0e	-0.11361514
70	0xbe68e8e2	-0.22745088
71	0xbd772e0b	-0.060346644
72	0x3d2e5ae4	0.04256715
73	0x3e335a4e	0.17514917
74	0x3ea34cc8	0.31894517
75	0xbe09a85b	-0.13443129
76	0x3e3895fd	0.18025966
77	0x3e7521a7	0.23938619
78	0xbe1f8302	-0.1557732
79	0x3e65ed84	0.22453886
80	0xbe3517d6	-0.17684874
81	0x3d8c5fee	0.06854235
82	0x3daae8af	0.08345162
83	0x3dbf503f	0.093414776
84	0xbeab3ff6	-0.33447236
85	0x3e652c99	0.22380294
86	0x3ea0881e	0.3135385
87	0x3dedd91f	0.11613678
88	0xbe84858a	-0.25883132
89	0x3e7b96f8	0.24569309
90	0xbf44015b	-0.7656457
91	0xbe628d35	-0.22124179
92	0x3ce62671	0.028094502
93	0xbeba69c7	-0.36408827
94	0x3d1d1b83	0.038356315
95	0xbd74f124	-0.059800282
96	0x3e8be813	0.27325496
97	0x3d9ad1f9	0.0755958
98	0x3e19ff74	0.15038854
99	0xbe801a58	-0.250201
100	0x3dc06e96	0.093960926
101	0xbd3dd984	-0.046350017
102	0xbe550aa0	-0.20804834
103	0x3e088dd8	0.13335359
104	0x3e5221de	0.20520732
105	0x3ed5d53a	0.4176424
106	0xbdcd8f31	-0.10037077
107	0xbdff1d0e	-0.124567136
108	0x3c975a68	0.018475726
109	0x3e906eed	0.2820963
110	0xbd960f29	-0.0732711
111	0xbdb478c4	-0.08812097
112	0xbc196188	-0.009361632
113	0xbe546a87	-0.20743762
114	0x3e5deef2	0.21673182
115	0xbe609c54	-0.21934634
116	0x3ea510bd	0.32239333
117	0xbdeadd97	-0.11468046
118	0xbbed8e13	-0.0072496026
119	0x3e1ea33b	0.15491955
120	0x3e80a594	0.25126326
121	0x3e68f63e	0.22750184
122	0xbe294f13	-0.1653407
123	0xbd48c534	-0.049016193
124	0x3ddc20bf	0.10748433
125	0x3e9cd777	0.30633137
126	0x3e750e38	0.23931205
127	0xbd61999d	-0.055078138
128	0x3e303802	0.17208865
129	0xbdc3948f	-0.0954982
130	0x3e1eb082	0.1549702
131	0xbe059eb1	-0.13048817
132	0x3e074e2c	0.13213414
133	0xbe82fc42	-0.25583082
134	0x3e924fbd	0.2857646
135	0x3e380c38	0.17973411
136	0x3e607a57	0.21921669
137	0xbe63278c	-0.22183055
138	0xbe804ee7	-0.25060198
139	0xbe19df0e	-0.15026495
140	0xbe774a1f	-0.24149369
141	0x3baaa402	0.0052075395
142	0x3e9adde1	0.30247405
143	0x3e563d6d	0.2092187
144	0x3d6b61f8	0.057466477
145	0x3ea9536f	0.33071467
146	0xbe1774f6	-0.14790711
147	0xbe8327ff	-0.25616452
148	0x3e8a2505	0.2698137
149	0xbdadd832	-0.084885016
150	0xbe880720	-0.26567936
151	0x3d5fa039	0.05459616
152	0x3d60b6b3	0.054861736
153	0xbe1fcf81	-0.156065
154	0xbe9da0ea	-0.3078683
155	0xbeadfc62	-0.33981615
156	0x3ec34ea2	0.3814593
157	0x3e34bb71	0.17649628
158	0xbbec220a	-0.007206206
159	0xbd8be87f	-0.068314545
160	0xbc1f10ef	-0.009708627
161	0xbe6d3ad0	-0.23166966
162	0xbdc50cf3	-0.096216105
163	0xbc807d94	-0.01568488
164	0xbe27d0b9	-0.16388215
165	0x3dbf6b91	0.093466885
166	0xbf017928	-0.50575495
167	0xbc6fe669	-0.014642336
168	0xbd6cb5b4	-0.057790473
169	0xbdf8c9d8	-0.12147874
170	0x3d7232fb	0.05913065
171	0x3cf01125	0.02930505
172	0x3d03caf8	0.032175988
173	0xbe0d636e	-0.1380746
174	0xbe72b4dc	-0.23701805
175	0x3ded5eb8	0.11590332
176	0xbdd53032	-0.10409583
177	0x3e5ff8b6	0.2187222
178	0xbdbc0d21	-0.09182192
179	0x3e870168	0.2636826
180	0xbe73890d	-0.2378275
181	0x3e66aef2	0.22527674
182	0xbe79233c	-0.24329847
183	0xbe3f8850	-0.18704343
184	0x3e558735	0.20852359
185	0xbe3e94e4	-0.18611485
186	0xbdc70ba4	-0.09719017
187	0x3de95c94	0.11394611
188	0xbd51883c	-0.051155314
189	0xbdbd1c39	-0.09233899
190	0x3e89329b	0.2679642
191	0xbe820031	-0.2539077
192	0xbd8d09eb	-0.06886657
193	0x3da72a22	0.08162333
194	0xbd42c09d	-0.04754697
195	0xbe67d139	-0.22638406
196	0x3d195449	0.037433896
197	0x3e70d784	0.23519713
198	0xbea3b17e	-0.31971353
199	0xbd74e192	-0.059785433
200	0xbe0c78a8	-0.13717902
201	0x3e0b563f	0.13607119
202	0x3dceda09	0.10100181
203	0x3dfff183	0.124972366
204	0x3d8427bf	0.064528935
205	0x3debb70b	0.11509522
206	0xbdeb2a96	-0.11482732
207	0xbe311ca3	-0.1729608
208	0xbe8e44e8	-0.27786946
209	0x3e7a48fc	0.24441904
210	0x3d113278	0.03544852
211	0xbe2b8d0e	-0.16753027
212	0xbd89395c	-0.067003936
213	0x3dcdf872	0.10057153
214	0x3d9345b0	0.07191026
215	0xbe68e1cf	-0.22742389
216	0xbd955245	-0.07291082
217	0x3cf9af86	0.030479204
218	0xbce37b13	-0.027768647
219	0x3ac8fb38	0.0015333658
220	0x3dfa19cc	0.122119516
221	0x3e39734a	0.18110386
222	0xbd023b12	-0.031794615
223	0xbe912c38	-0.2835405
224	0x3ea2eb7a	0.3182028
225	0xbe279c44	-0.16368204
226	0xbeab6679	-0.33476618
227	0x3e806250	0.25075006
228	0x3d8e585e	0.069504485
229	0xbe804929	-0.25055817
230	0x3ec013e7	0.37515184
231	0x3ed078fa	0.40717298
232	0xbd10ff34	-0.03539963
233	0xbe3cbcf8	-0.18431461
234	0xbd8df999	-0.069323726
235	0xbe7c1729	-0.2461821
236	0x3db02279	0.08600325
237	0xbea2a371	-0.3176532
238	0x3dbb4b06	0.09145169
239	0x3de5e267	0.112248234
240	0x3e20dd7e	0.15709493
241	0xbe81e532	-0.25370175
242	0xbdc98e4e	-0.098415956
243	0xbd920695	-0.07130162
244	0xbe269219	-0.1626667
245	0xbe5278d0	-0.20553899
246	0x3e558a53	0.20853548
247	0x3e6ade3f	0.22936343
248	0xbde8ba08	-0.11363608
249	0xbe3de2b8	-0.18543518
250	0x3c48dcd8	0.0122596845
251	0x3e2e85bb	0.17043202
252	0x3df26170	0.11834991
253	0x3c7cd4b5	0.015431573
254	0x3e59734c	0.21235389
255	0x3e981695	0.2970473

graph_transformer_layer.0.attention.V.bias f4 [16]
0	0x3e3d0f85	0.18462951
1	0x3e47a044	0.1949473
2	0x3e4d1224	0.20026451
3	0xbd8e7921	-0.06956697
4	0xbccf8dea	-0.025336225
5	0x3e1f01c4	0.15528017
6	0x3d0d8e67	0.034559634
7	0xbe0eb342	-0.13935569
8	0x3d04ea2f	0.032449897
9	0x3d6f6deb	0.058454435
10	0x3e2236b1	0.15841176
11	0xbc21f4bf	-0.009885012
12	0xbe133a13	-0.14377622
13	0x3d3f78c7	0.04674604
14	0x3e21ffc1	0.15820219
15	0x3d665eea	0.05624286

graph_transformer_layer.0.attention.proj_e.weight f4 [16, 16]
0	0xbe97dcfb	-0.29660782
1	0x3e9b4c07	0.30331442
2	0x3eb16f10	0.34655046
3	0xbe24a284	-0.1607762
4	0x3dff4c52	0.12465729
5	0xbe1fe2a0	-0.15613794
6	0x3e7af2b5	0.24506648
7	0x3cec7ae4	0.028867193
8	0xbdf222f2	-0.118230715
9	0x3d84def7	0.0648784
10	0xbe64bc98	-0.22337568
11	0x3d9047e4	0.07044962
12	0xbe8d0962	-0.2754622
13	0xbe06c0fd	-0.13159557
14	0xbe9f8e85	-0.3116342
15	0x3e49f6ab	0.19723003
16	0xbd4929a5	-0.04911198
17	0xbef605ee	-0.480514
18	0xbdba62c3	-0.091008686
19	0x3d8316e8	0.064008534
20	0x3bf16004	0.0073661823
21	0x3e6e847a	0.23292723
22	0xbedcc40c	-0.43118322
23	0x3dcb0520	0.09913087
24	0x3e6a0066	0.22851714
25	0x3e1ab609	0.15108503
26	0x3e88023b	0.26564202
27	0x3e98c057	0.29834244
28	0x3ea2c685	0.31792083
29	0x3c2df97d	0.010618565
30	0x3d8d4db7	0.068995886
31	0x3d976410	0.07392132
32	0x3e5ed6d1	0.21761633
33	0x3e972738	0.2952211
34	0x3c9071fc	0.017632477
35	0x3e263828	0.1623236
36	0x3e5cb633	0.21553878
37	0x3ebc42c0	0.36769676
38	0x3e1cc44c	0.15309256
39	0xbe8c1db5	-0.27366415
40	0xbd9e19b3	-0.077197455
41	0x3dfba47c	0.12287232
42	0x3ec11720	0.37712955
43	0xbe13bfac	-0.14428586
44	0x3e8c0ffc	0.27355945
45	0x3e7a56f8	0.24447238
46	0xbe8b0657	-0.27153274
47	0xbed351af	-0.41273257
48	0x3e42c50c	0.1902048
49	0xbe021546	-0.12703428
50	0x3e8b9046	0.2725851
51	0xbe01e411	-0.12684657
52	0x3de54071	0.11193932
53	0xbee7df2d	-0.45287457
54	0x3b348124	0.0027542794
55	0x3e0d143f	0.13777255
56	0x3e16ef7c	0.14739794
57	0x3e55b075	0.20868094
58	0xbd497985	-0.049188156
59	0xbe9fe7c5	-0.31231514
60	0xbdfcaecf	-0.123380296
61	0xbd3fadb0	-0.0467965
62	0x3ddf68f2	0.109086886
63	0x3ecb9d3d	0.397684
64	0x3dbb7923	0.09153964
65	0x3efe7062	0.49695116
66	0xbd975560	-0.07389331
67	0xbd5c71aa	-0.053819336
68	0x3e26cd25	0.16289194
69	0x3e438a16	0.19095644
70	0x3daacc80	0.083397865
71	0xbdc46324	-0.09589222
72	0xbec8bd0e	-0.39206737
73	0x3f081976	0.5316385
74	0x3e61394e	0.21994516
75	0x3d71e14c	0.05905275
76	0xbea6a6b9	-0.32549074
77	0x3ec99c82	0.39377218
78	0xbec2b574	-0.38029063
79	0x3e3c3b9a	0.18382111
80	0xbeaa20e3	-0.33228216
81	0xbf00aa97	-0.502603
82	0xbeff697b	-0.49885163
83	0xbd8e4773	-0.069472216
84	0xbe58957d	-0.21150775
85	0x3c1d0b64	0.009585235
86	0xbe832497	-0.25613853
87	0xbe9c7171	-0.305553
88	0xbe337dc8	-0.1752845
89	0xbf0893e9	-0.53350693
90	0xbeca4015	-0.39502016
91	0x3c06ec5b	0.0082350625
92	0x3dfd780f	0.12376415
93	0xbe307fc5	-0.1723624
94	0xbd10ed71	-0.03538269
95	0x3e7f7e2b	0.24950473
96	0xbe821c93	-0.25412425
97	0x3f104284	0.56351495
98	0xbdcc1c7d	-0.09966371
99	0x3c749ac9	0.014929482
100	0x3c1520a6	0.009102022
101	0xbdcc6e55	-0.09981982
102	0x3e7802a8	0.24219763
103	0xbe387446	-0.18013105
104	0xbda565f5	-0.080760874
105	0x3cb7a40c	0.02241709
106	0xbe4a4bfd	-0.1975555
107	0x3e9093fa	0.28237897
108	0xbe13b3d1	-0.14424063
109	0x3d1c5dca	0.03817538
110	0x3cee5e37	0.02909766
111	0x3ea5c951	0.32380155
112	0x3e0bc5e2	0.13649705
113	0x3ed74dd2	0.4205156
114	0x3cfdd175	0.030983666
115	0xbea90b5d	-0.33016482
116	0xb990a90f	-0.0002759178
117	0x3ca99c34	0.020704366
118	0xbee00914	-0.43756926
119	0xbe64aa62	-0.22330621
120	0xbe916d6b	-0.28403792
121	0xbe8d297f	-0.27570722
122	0xbe3796f9	-0.17928685
123	0xbd4cc681	-0.049993996
124	0x3c8d06fa	0.01721524
125	0x3e17e2df	0.14832638
126	0xbec7b844	-0.3900777
127	0xbe9bd5c4	-0.30436528
128	0x3d00bfbc	0.031432852
129	0xbe4810eb	-0.19537704
130	0x3db99cd1	0.090631135
131	0x3d27c059	0.04095492
132	0x3e50e21c	0.20398754
133	0x3eb0f63e	0.34562868
134	0x3eb74820	0.35797215
135	0x3e3aa202	0.18225864
136	0xbdface1f	-0.12246346
137	0x3e7afef7	0.24511324
138	0xbcf5da17	-0.03001122
139	0x3e64361e	0.22286269
140	0xbd065c1d	-0.03280269
141	0x3eabbe32	0.33543545
142	0xbea824ca	-0.32840568
143	0xbe105b91	-0.1409743
144	0xbe4db5c5	-0.20088871
145	0xbc9cb04c	-0.019127034
146	0xbe6aeedf	-0.22942685
147	0x3e65d533	0.2244461
148	0xbe018931	-0.1264999
149	0xbea6cc71	-0.3257785
150	0x3e6d3237	0.23163687
151	0xbe2c3d71	-0.16820313
152	0x3c521f5a	0.012824858
153	0xbbc68a87	-0.006058994
154	0xbe9b5b36	-0.30343026
155	0x3e7f48c8	0.24930108
156	0x3e25361c	0.16133922
157	0xbe549a6d	-0.20762034
158	0x3eab2788	0.33428597
159	0x3e4e60cc	0.20154113
160	0x3e5d7e98	0.21630323
161	0x3dbfcc93	0.09365191
162	0xbe571722	-0.21004918
163	0xbda99084	-0.08279517
164	0xbdd4d039	-0.10391278
165	0xbca5bc4e	-0.020231392
166	0x3e1eb631	0.15499188
167	0xbe06b70e	-0.13155767
168	0xbe96cddb	-0.2945393
169	0xbe493baf	-0.19651674
170	0xbee399c5	-0.44453254
171	0xbdea3c91	-0.114373334
172	0x3d197396	0.037463747
173	0x3e587786	0.21139345
174	0xbe803095	-0.25037065
175	0xbc97568e	-0.01847389
176	0x3e30493b	0.17215435
177	0x3d278b31	0.040904228
178	0xbd0ff6b9	-0.035147402
179	0x3e840c8a	0.25790817
180	0x3cc7a4a1	0.024370493
181	0xbd613831	-0.05498523
182	0xbe37ff6d	-0.17968531
183	0x3c0fa7cb	0.008768032
184	0x3eadb4d6	0.3392703
185	0xbd3f19e2	-0.046655543
186	0x3ec176c6	0.3778593
187	0x3f052bf8	0.52020216
188	0x3e6367bf	0.22207545
189	0xbe602a94	-0.21891242
190	0x3dcb0bc6	0.09914355
191	0xbdbd2788	-0.092360556
192	0x3c51cc4a	0.012805054
193	0xbe26f280	-0.16303444
194	0xbe007c64	-0.12547451
195	0xbdc67c0b	-0.09691628
196	0xbec04dc1	-0.37559322
197	0x3dbd7283	0.09250357
198	0xbf371ea3	-0.7153112
199	0xbd5160ce	-0.05111771
200	0x3dfb459b	0.122691356
201	0xbcaee071	-0.021347256
202	0xbeba33a1	-0.36367515
203	0xbe014a91	-0.12626101
204	0x3dac7b02	0.084218994
205	0xbf1fb2f0	-0.6238241
206	0xbe278831	-0.16360547
207	0xbe5f09ff	-0.21781157
208	0x3edc6c5f	0.4305143
209	0xbd290043	-0.041260015
210	0x3e55c96b	0.20877616
211	0xbe92ad00	-0.28647614
212	0x3e27a1e6	0.16370353
213	0x3d5e9e8f	0.054350432
214	0x3e31b32b	0.17353503
215	0x3ed328bc	0.41242015
216	0x3c672bcd	0.014109564
217	0x3eba2afc	0.3636092
218	0x3eeef6f6	0.4667279
219	0xbe8c6894	-0.27423537
220	0x3e2ab216	0.16669497
221	0xbe82313d	-0.2542819
222	0xbe162175	-0.146612
223	0x3e41cd67	0.18926011
224	0x3d981839	0.07426495
225	0xbe36d63f	-0.17855166
226	0xbeed2e42	-0.46324354
227	0x3cde8087	0.027160896
228	0x3d71bdc6	0.059018873
229	0x3ed30a04	0.4121858
230	0xbdea1d37	-0.114313535
231	0xbe2992e4	-0.1655994
232	0xbcfb5312	-0.03067926
233	0xbde14211	-0.10998929
234	0x3e782952	0.24234512
235	0x3e1dc38c	0.15406626
236	0x3d7ae811	0.061256472
237	0xbe864b50	-0.26229334
238	0xbeb0da3e	-0.34541506
239	0xbee70a99	-0.45125273
240	0xbd2ffa54	-0.04296334
241	0x3ec4880e	0.3838505
242	0xbe6688c7	-0.22513114
243	0x3dab2f61	0.08358646
244	0x3e47660f	0.19472526
245	0xbe795ebe	-0.24352548
246	0xbe4c35c6	-0.19942388
247	0xbea14474	-0.31497538
248	0xbe66615e	-0.2249808
249	0x3e9857f0	0.2975459
250	0xbe619298	-0.22028577
251	0x3c8ed274	0.017434336
252	0xbd7b2425	-0.061313767
253	0x3e5c136f	0.21491788
254	0xbeb8fc66	-0.36130065
255	0xbe938657	-0.2881343

graph_transformer_layer.0.attention.proj_e.bias f4 [16]
0	0xbe56b2de	-0.2096667
1	0x3ebac460	0.36477947
2	0x3e399d59	0.1812643
3	0xbd9dceee	-0.07705484
4	0xbe92c265	-0.28663936
5	0xbe8b3f4e	-0.27196735
6	0xbdd665b0	-0.10468614
7	0xbeb00183	-0.34376153
8	0x3c46c60a	0.012132177
9	0xbdc1f628	-0.09470779
10	0xbe626f4e	-0.22112772
11	0xbe72fb29	-0.23728622
12	0xbea1da9c	-0.31612098
13	0x3eac0075	0.335941
14	0xbc71f980	-0.014768958
15	0xbeb40d6c	-0.3516649

graph_transformer_layer.0.O_h.weight f4 [16, 16]
0	0xbe5186ee	-0.20461628
1	0x3e3ddfbb	0.18542378
2	0xbe86162c	-0.2618879
3	0x3eb6d8ba	0.35712224
4	0xbe0419f7	-0.1290053
5	0xbdb35368	-0.08756143
6	0xbeee9471	-0.46597627
7	0xbdb318ad	-0.08744941
8	0x3d80f3be	0.0629649
9	0xbddc64f1	-0.107614405
10	0x3d8285cf	0.06373178
11	0x3e1096ab	0.14119975
12	0x3e177091	0.14789034
13	0x3ef4ef87	0.47838995
14	0xbcb038e1	-0.021511497
15	0xbd23f815	-0.04003151
16	0xbdbed68c	-0.09318265
17	0x3e69b69c	0.22823566
18	0x3e15913a	0.14606181
19	0xbc716229	-0.014732876
20	0x3e208a9c	0.15677875
21	0xbd8edd98	-0.069758594
22	0x3eab23f5	0.3342587
23	0x3da90576	0.08252995
24	0x3e65c1b8	0.22437179
25	0x3e66ff27	0.2255827
26	0xbc8c8580	-0.017153502
27	0xbe20b863	-0.15695338
28	0xbe99aeec	-0.30016267
29	0xbdbac307	-0.0911923
30	0x3e0f4ec3	0.13994889
31	0x3de6ca61	0.112690695
32	0xbe7c4e71	-0.24639298
33	0x3dee24fb	0.11628147
34	0xbe9250c6	-0.2857725
35	0x3e6a27b1	0.22866704
36	0x3dd087aa	0.10182126
37	0x3da6dabf	0.08147191
38	0x3ec20f60	0.37902355
39	0x3e215c7d	0.15757938
40	0xbd54781b	-0.051872354
41	0x3ea0db66	0.31417388
42	0xbd3f87dc	-0.046760425
43	0xbe4a3a18	-0.19748724
44	0x3da6cbcd	0.08144341
45	0x3dbe3595	0.09287564
46	0xbb270c50	-0.0025489517
47	0xbe0f7e27	-0.14012967
48	0xbe9c3223	-0.30507
49	0xbd2522a3	-0.040316235
50	0xbe8237a3	-0.25433072
51	0xbd0cb1dd	-0.03434931
52	0xbea86ec8	-0.3289702
53	0x3f1da93c	0.61586356
54	0xbe8b51b7	-0.2721078
55	0xbf425727	-0.75914234
56	0xbdf868bb	-0.12129351
57	0xbebcd19f	-0.36878678
58	0xbe81c7be	-0.25347704
59	0x3e4b8b07	0.19877253
60	0xbd5ee231	-0.05441493
61	0x3ea4eecb	0.32213435
62	0x3e599cff	0.21251296
63	0x3dd83f56	0.10558955
64	0x3c1103b3	0.00885098
65	0x3e0e6c48	0.13908494
66	0x3c153c6a	0.009108642
67	0x3eb32532	0.34989315
68	0xbd96b443	-0.07358601
69	0x3dca41b3	0.098758124
70	0xbdd71a38	-0.10503048
71	0x3e1f7e4a	0.15575519
72	0x3e84df4b	0.2595161
73	0xbe3cccb4	-0.18437463
74	0xbd8b16f6	-0.06791489
75	0xbe6dd546	-0.23225889
76	0x3e5f61e3	0.21814685
77	0x3f142057	0.57861847
78	0xbe843830	-0.25824118
79	0xbd9b9b84	-0.075980216
80	0x3c3efa42	0.011656346
81	0x3bc98464	0.0061498154
82	0xbedaa1db	-0.4270161
83	0x3e40ecdc	0.18840355
84	0x3dac5be6	0.08415966
85	0x3b090da5	0.0020912674
86	0x3b519e04	0.0031985054
87	0x3e239118	0.15973318
88	0xbddde91a	-0.10835476
89	0xbdb89be6	-0.0901411
90	0x3d42f1a7	0.04759374
91	0xbebdea30	-0.37092733
92	0x3defb85d	0.117050864
93	0xbd9ae890	-0.07563889
94	0xbb7467b8	-0.0037293267
95	0xbd05f931	-0.03270835
96	0xbe3b9709	-0.18319334
97	0xbe11ffcb	-0.14257734
98	0xbdbc45be	-0.0919299
99	0x3e7949d2	0.24344566
100	0xbece86ec	-0.40337312
101	0x3e0342b7	0.12818418
102	0xbf06412a	-0.5244318
103	0xbe8b2a4a	-0.27180701
104	0x3dc63583	0.09678175
105	0xbea4ad54	-0.3216349
106	0xbe385539	-0.1800126
107	0x3cfbf3ab	0.030755838
108	0xbd977d82	-0.073969856
109	0x3e22b366	0.15888748
110	0x3c50eb5b	0.012751426
111	0xbd82aef2	-0.063810244
112	0x3dffe591	0.12494958
113	0x3e4d1b96	0.20030054
114	0x3ed320b3	0.41235885
115	0x3ea461cc	0.32105863
116	0x3e182156	0.14856467
117	0x3e3dc582	0.18532375
118	0x3ebd18ae	0.36932892
119	0xbd2260c0	-0.03964305
120	0xbe0bfc8d	-0.13670559
121	0x3f021f9f	0.508295
122	0xbc2e5205	-0.010639672
123	0xbf02b6cc	-0.51060176
124	0x3ddd0cac	0.107934326
125	0x3e9ccea7	0.30626413
126	0xbb39e34f	-0.0028364246
127	0xbd79984f	-0.06093627
128	0x3e8cfc73	0.27536353
129	0xbdb187c5	-0.08668474
130	0x3e73694a	0.23770633
131	0xbdd46d1a	-0.10372372
132	0xbd6753b2	-0.056476302
133	0x3de189cd	0.110126115
134	0xbdfd0dbf	-0.123561375
135	0x3e30a205	0.17249306
136	0xbe5f78e1	-0.21823455
137	0x3e30ee9e	0.17278525
138	0x3da62536	0.08112566
139	0x3f1549ac	0.5831554
140	0x3ca7a95a	0.020466495
141	0xbdc45275	-0.0958604
142	0x3d8f04d1	0.069833405
143	0x3e8d9235	0.2765061
144	0xbdec7991	-0.115466245
145	0xbecfa45a	-0.40555078
146	0xbd620fd0	-0.05519086
147	0x3e81be30	0.25340414
148	0x3c77cc21	0.015124352
149	0xbe4a512d	-0.19757529
150	0x3e4bf85b	0.19918959
151	0x3c7ac420	0.015305549
152	0xbd64d655	-0.055868465
153	0x3d8fe6dc	0.07026455
154	0x3ea6c822	0.32574564
155	0x3e03c8d7	0.12869583
156	0x3e92f780	0.28704453
157	0x3e808faa	0.25109607
158	0xbe9d0411	-0.30667165
159	0xbebc4f35	-0.3677918
160	0xbdf075a6	-0.1174119
161	0x3dc17083	0.09445288
162	0xbf1478d4	-0.5799687
163	0xbb19a94b	-0.0023446854
164	0x3e81eac6	0.2537443
165	0xbebb5757	-0.36590073
166	0xbd8466f5	-0.0646495
167	0xbcbd6801	-0.023120882
168	0x3d14eade	0.0363568
169	0xbe74c602	-0.23903659
170	0x3e99d2ee	0.3004374
171	0x3e5a5fd0	0.21325612
172	0x3c3d2407	0.011544234
173	0xbe119aaa	-0.14219156
174	0xbe274cfa	-0.16337958
175	0xbd4efbed	-0.050533224
176	0x3e497bc3	0.19676118
177	0xbd960f45	-0.07327131
178	0xbd4badf4	-0.04972644
179	0xbde90411	-0.11377729
180	0xbec39f61	-0.38207534
181	0xbca0f570	-0.019648284
182	0xbed30c56	-0.4122035
183	0x3df49daf	0.11944138
184	0x3e2f0b15	0.17094071
185	0xbe3a3592	-0.18184498
186	0x3d8604ab	0.06543859
187	0x3ddf20cf	0.108949296
188	0x3d59a6ff	0.053137776
189	0xbdbb2d54	-0.09139505
190	0xbe290d7e	-0.16509053
191	0xbd9e9292	-0.077428
192	0xba949f9c	-0.0011339071
193	0x3e04c314	0.12965041
194	0x3e713cd3	0.23558359
195	0xbd8c31bf	-0.06845426
196	0x3e99a24f	0.30006644
197	0xbe7ac751	-0.24490096
198	0x3e8ef56c	0.27921617
199	0xbbe2b600	-0.0069186687
200	0xbe1fb958	-0.15598047
201	0x3da51bff	0.080619805
202	0xbd321696	-0.04347857
203	0xbe96b55b	-0.29435238
204	0xbc2c544c	-0.010518145
205	0x3ea27a74	0.3173405
206	0x3c9802d7	0.018556042
207	0xbe09b947	-0.13449584
208	0xbe8bb1d1	-0.272841
209	0xbec83855	-0.39105478
210	0x3d87be83	0.06628134
211	0x3e2f40a0	0.17114496
212	0xbd7cc453	-0.061710667
213	0x3dc568fd	0.096391656
214	0xbd2d2cc6	-0.042279027
215	0xbd53b671	-0.05168766
216	0xbe7f3c18	-0.24925268
217	0xbde60ac6	-0.112325236
218	0x3dacf6ee	0.084455356
219	0x3e3131aa	0.17304102
220	0x3ebe2517	0.37137672
221	0x3e0e4d8b	0.13896768
222	0xbdad9886	-0.08476357
223	0xbe5d89ba	-0.2163457
224	0x3e041854	0.12899905
225	0x3a93296a	0.0011227552
226	0xbe7b0c9b	-0.24516527
227	0xbe3d1c42	-0.18467811
228	0xbd32f694	-0.043692186
229	0xbdf74db3	-0.12075367
230	0x3e312366	0.1729866
231	0x3d34ac8e	0.044109873
232	0x3e6e3b64	0.23264843
233	0x3e40db86	0.18833742
234	0xbe22eb6a	-0.15910116
235	0x3ea79085	0.32727447
236	0x3c88ab8b	0.01668336
237	0xbea3c6c8	-0.31987596
238	0x3def61af	0.116885535
239	0x3e36fec6	0.17870626
240	0x3d13deae	0.036101036
241	0x3e1f6377	0.15565287
242	0x3edb7495	0.42862383
243	0xbd27e013	-0.04098518
244	0xbde42006	-0.111389205
245	0x3d9dc85d	0.07704232
246	0x3dc7c025	0.097534455
247	0xbe86fa8b	-0.26363024
248	0xbe478386	-0.19483766
249	0x3e6c0395	0.23048241
250	0x3e655686	0.22396287
251	0x3d28a885	0.041176338
252	0xbc61da1c	-0.0137849115
253	0xbeb262f2	-0.34841114
254	0x3ae9db53	0.0017841853
255	0xbdf178a6	-0.1179059

graph_transformer_layer.0.O_h.bias f4 [16]
0	0xbe465d1f	-0.1937146
1	0x3edc8117	0.43067238
2	0x3e4b5e63	0.19860224
3	0xbd94ca88	-0.07265192
4	0x3eb42eac	0.35191858
5	0xbde3fbdf	-0.11132025
6	0xbd25ebff	-0.040508267
7	0x3e88ea9b	0.2674149
8	0x3da479d5	0.0803105
9	0x3d899f5d	0.06719849
10	0xbdd7be62	-0.105343595
11	0xbee50b89	-0.44735363
12	0xbcb12a9e	-0.021626767
13	0xbe0c131d	-0.13679166
14	0xbe772bc1	-0.24137785
15	0xbe06a213	-0.13147764
